code/conjugate_gradient/models/CNN_Static_Quantized.pt (torch, 142310 bytes, 5 tensors)

conv1.bias f4 [256]
0.19896618 0.25894633 -0.20176482 -0.27130315 -0.039188057 -0.32695204 -0.0084070265 -0.101189345
0.08307636 -0.21945426 0.13059154 -0.02676931 0.3285233 -0.0048862994 -0.073170036 -0.2777147
-0.03298366 -0.037258416 0.31006172 -0.064961046 0.18949392 0.2104896 -0.1584816 0.23259541
-0.19844112 -0.21741664 -0.03057912 -0.33316332 -0.2142191 0.18638411 0.041252613 -0.05295694
0.14267504 0.115280986 -0.1724112 0.20624557 -0.2856719 -0.021066397 0.2547286 -0.07604396
-0.024311215 0.081522256 0.15363249 0.305321 0.0501962 0.106977016 -0.2083492 0.10033527
-0.31980848 0.20608112 0.28432992 0.2124559 0.30911735 0.32898495 -0.29123408 -0.041464806
0.07785371 0.05912611 0.31972298 -0.29253614 0.11574161 -0.039820403 0.18144485 0.031125098
-0.26694354 0.12397885 -0.11263251 0.026917934 0.2631705 -0.17649174 -0.084169835 -0.12833874
-0.310355 -0.09203558 0.011748582 0.09153399 0.20839623 -0.2330409 -0.024465114 -0.22995234
0.27824143 0.003352791 -0.31049883 -0.22756267 -0.015394688 0.03545651 -0.06273249 -0.28917798
-0.2452414 0.03302303 0.058652014 -0.2543223 -0.0316478 -0.2811887 -0.13608691 0.31126443
-0.054412723 -0.15406148 -0.19021559 0.004106492 -0.2337986 -0.14555192 0.18167415 0.18217126
-0.055612087 0.29725936 -0.1259296 -0.13383338 -0.15007131 0.033343554 -0.29735708 0.1288468
-0.14089799 -0.1693629 -0.27671945 -0.11976397 0.2010431 0.10717261 0.12410471 -0.2387118
-0.12115431 0.24023625 -0.05728647 0.10785326 0.08030835 0.26719525 -0.2277937 0.143325
-0.09503655 0.002103418 -0.038271546 -0.29225802 0.17353752 0.316444 -0.269875 -0.2938889
-0.18177235 -0.25911123 -0.061907798 0.15355167 0.28133038 -0.15784466 -0.17422497 -0.21214947
0.1738644 -0.22906196 -0.31585062 0.2864327 -0.24260561 -0.31299627 0.12075445 0.03312841
-0.084368795 0.120928794 0.1349583 0.24579641 -0.32083747 0.25484344 -0.28851733 -0.0048292577
-0.07294202 0.03756866 -0.07939497 0.2913578 -0.27184948 0.1595957 0.13828313 -0.16094904
-0.31411844 0.1263049 0.32613972 -0.030043364 -0.17816477 0.10943851 -0.23898189 0.14904308
0.14615333 0.044251114 -0.18381402 -0.15356688 -0.07887396 0.034988433 0.26087603 -0.26896068
-0.30394942 -0.26760918 0.007870555 -0.31369123 0.109137505 0.23454103 -0.2419115 -0.3302151
-0.27482092 -0.04611671 -0.30973572 -0.1265777 -0.29427192 -0.31167024 -0.025797486 0.0415788
0.2661107 0.034610987 -0.11672053 -0.0957962 -0.11159107 -0.31691787 0.259316 0.32387123
-0.23062694 -0.30776668 -0.2565126 0.11256972 0.31602302 0.14683643 -0.022322685 -0.3282121
0.22524872 0.01581201 0.020721585 -0.028826922 0.03876224 0.0004350245 -0.28953236 0.001518637
-0.32797107 -0.20620506 0.22841671 -0.25344405 0.1778172 0.32331935 -0.2785648 0.04678777
-0.028660625 0.077002764 -0.040418893 0.2348499 0.14591834 0.28855422 0.1193324 0.25549707
0.24863204 0.18013212 -0.30074435 -0.07704058 -0.054406166 0.31055096 -0.2893018 0.14176917
0.013165921 0.23191026 0.012659162 -0.09948492 -0.17071235 0.08338383 0.027437419 0.06633809
00000000: cabd 4b3e 9d94 843e 709b 4ebe 3fe8 8abe
00000010: a883 20bd 4266 a7be a0bd 09bc 5c3c cfbd
00000020: f023 aa3d 9eb8 60be cab9 053e 504b dbbc
00000030: 3534 a83e 401d a0bb 2cda 95bd 9f30 8ebe
00000040: e019 07bd 489c 18bd 69c0 9e3e 4c0a 85bd
00000050: b20a 423e 968a 573e 0049 22be 7e2d 6e3e
00000060: 2634 4bbe 78a2 5ebe 1081 fabc 6294 aabe
00000070: 405c 5bbe 7adb 3e3e 80f8 283d 60e9 58bd
00000080: 6819 123e 7018 ec3d 908c 30be 0a32 533e
00000090: 9643 92be 7093 acbc c96b 823e f0bc 9bbd
000000a0: 5028 c7bc 24f5 a63d d651 1d3e 0953 9c3e
000000b0: 889a 4d3d c416 db3d 7e59 55be 947c cd3d
000000c0: f0bd a3be ee06 533e b193 913e 0a8e 593e
000000d0: a144 9e3e b770 a83e a21c 95be 00d7 29bd
000000e0: c471 9f3d 382e 723d bbb2 a33e 4cc7 95be
000000f0: f009 ed3d b81a 23bd aecc 393e 10fa fe3c
00000100: d3ac 88be a0e8 fd3d e0ab e6bd 0083 dc3c
00000110: 49be 863e 40ba 34be 3c61 acbd 3b6b 03be
00000120: dae6 9ebe 267d bcbd 207d 403c 2c76 bb3d
00000130: d265 553e 46a2 6ebe 106b c8bc a078 6bbe
00000140: a975 8e3e 80ba 5b3b b4f9 9ebe 3006 69be
00000150: 003a 7cbc d83a 113d e479 80bd 230f 94be
00000160: 9020 7bbe 2843 073d 183d 703d 8836 82be
00000170: 20a1 01bd f7f7 8fbe 5e5a 0bbe 0d5e 9f3e
00000180: e0df 5ebd 4bc2 1dbe e0c7 42be c08f 863b
00000190: e668 6fbe 900b 15be ca08 3a3e 1a8b 3a3e
000001a0: 80c9 63bd 6132 983e b0f3 00be 9e0b 09be
000001b0: 4bac 19be 4093 083d 303f 98be 6af0 033e
000001c0: 9047 10be 786d 2dbe 2cae 8dbe d046 f5bd
000001d0: 3ede 4d3e 507d db3d 9c2a fe3d de70 74be
000001e0: c01f f8bd 7e00 763e 38a5 6abd 2ce2 dc3d
000001f0: b478 a43d d1cd 883e c042 69be cac3 123e
00000200: 86a2 c2bd 80d9 093b a0c2 1cbd d8a2 95be
00000210: d2b3 313e f304 a23e 0e2d 8abe 9b78 96be
00000220: 8822 3abe 3aaa 84be 0893 7dbd a63c 1d3e
00000230: 890a 903e 08a2 21be 0868 32be b63d 59be
00000240: 8209 323e 388f 6abe 2cb7 a1be 4fa7 923e
00000250: 9b6d 78be 0c41 a0be 1c4e f73d a8b1 073d
00000260: 8cc9 acbd 84a9 f73d 8232 0a3e 0eb2 7b3e
00000270: cf44 a4be d77a 823e 8bb8 93be c03e 9ebb
00000280: a062 95bd 98e1 193d d499 a2bd d92c 953e
00000290: db2f 8bbe 0e6d 233e 189a 0d3e d3cf 24be
000002a0: 22d4 a0be 1256 013e c9fb a63e 801d f6bc
000002b0: d370 36be 4c21 e03d abb7 74be c09e 183e
000002c0: 38a9 153e a840 353d be39 3cbe a340 1dbe
000002d0: ac88 a1bd 0850 0f3d 8b91 853e 37b5 89be
000002e0: 429f 9bbe 1204 89be 80f3 003c 239c a0be
000002f0: 7c83 df3d 862b 703e a6b7 77be f411 a9be
00000300: 54b5 8cbe e0e4 3cbd ae95 9ebe 969d 01be
00000310: cfaa 96be 3e93 9fbe 4055 d3bc 884e 2a3d
00000320: a93f 883e 40c4 0d3d 2c0b efbd cc30 c4bd
00000330: dc89 e4bd 0f43 a2be 11c5 843e 73d2 a53e
00000340: 7829 6cbe 9893 9dbe 9f55 83be f48a e63d
00000350: c5cd a13e 4a5c 163e 10de b6bc 6b0b a8be
00000360: 9aa7 663e 3088 813c 50c0 a93c 7026 ecbc
00000370: 28c5 1e3d 0014 e439 963d 94be 000d c73a
00000380: d3eb a7be 6b27 53be 12e6 693e 6bc3 81be
00000390: b615 363e 1d8a a53e 0ca0 8ebe 88a4 3f3d
000003a0: b0c9 eabc a0b3 9d3d 488e 25bd 7e7c 703e
000003b0: 9e6b 153e 61bd 933e 8c64 f43d 83d0 823e
000003c0: 6699 7e3e 8e74 383e 2afb 99be 74c7 9dbd
000003d0: 00d9 5ebd 8900 9f3e 5e1f 94be f02b 113e
000003e0: e0b5 573c e279 6d3e 6068 4f3c c0be cbbd
000003f0: 38cf 2ebe 24c5 aa3d 70c4 e03c 44dc 873d

conv2.bias f4 [128]
0.009086605 0.015891429 0.027294926 -0.013988696 0.021255013 -0.03276346 0.017320126 -0.032643206
-0.018657105 0.02590346 0.005444452 -0.028514441 0.018615741 0.030815251 0.01326995 0.032511957
0.0112747885 -0.033286747 0.030059285 0.007325411 -0.021423636 -0.021691909 -0.0294623 0.0006928295
-0.02681581 -0.019786712 0.012408044 0.0089195 0.00033212453 0.010315739 -0.010981403 0.0013337918
0.005081687 0.032124504 0.016994614 0.010754202 -0.031959828 -0.003828138 0.019715704 -0.0214465
0.006076649 0.024196394 -0.016039705 -0.010355942 0.017468031 0.019536633 0.017513853 0.0068432316
-0.01879772 -0.013353948 -0.031025372 0.0033200085 0.025123507 0.017405104 0.004835073 -0.03259694
0.019127127 -0.0026441962 0.023799703 0.001852598 -0.007992672 0.034194484 0.020029433 0.0059506595
-0.024902388 -0.029402986 -0.0076016784 0.024724305 0.0013789423 -0.03125643 -0.013497027 -0.029893283
-0.011586603 0.013501797 -0.030480158 -0.015423909 -0.009596776 0.017172448 0.033911385 -0.016775217
-0.029479297 0.024337135 0.0012522414 -0.03420466 0.031859852 -0.029301047 -0.024695639 -0.018008217
0.034365326 -0.009816248 0.021272555 0.03395945 0.02805148 -0.020220064 -0.010245813 0.008286476
0.01766609 -0.027272068 -0.018330209 -0.03212045 0.026563674 -0.031046432 0.0019890368 -0.0026250444
0.03556396 -0.0020259805 0.017840073 -0.015489329 -0.012599181 -0.01018846 -0.014179407 0.008958913
0.0047561526 -0.016622493 -0.0037144572 0.016852152 0.008761458 -0.0052841213 0.0017496496 0.009810384
0.018436518 -0.013893841 -0.016755743 -0.012906883 -0.0300927 -0.022831948 0.01902039 0.00068352
00000000: fcdf 143c be2e 823c 9c99 df3c d830 65bc
00000010: fe1e ae3c fa32 06bd f0e2 8d3c e2b4 05bd
00000020: c9d6 98bc 7e33 d43c 6067 b23b 1e97 e9bc
00000030: 0a80 983c 4470 fc3c 346a 593c 422b 053d
00000040: e4b9 383c af57 08bd e43e f63c 000a f03b
00000050: 9f80 afbc 3bb3 b1bc ec5a f1bc 009f 353a
00000060: d4ac dbbc be17 a2bc 1c4b 4b3c 1823 123c
00000070: 0021 ae39 5803 293c 58eb 33bc a0d2 ae3a
00000080: 4884 a63b fc94 033d 4a38 8b3c 6432 303c
00000090: 4fe8 02bd 80e1 7abb d482 a13c 92b0 afbc
000000a0: a01e c73b 8437 c63c b365 83bc f8ab 29bc
000000b0: 1e19 8f3c 4a0b a03c 3679 8f3c 303d e03b
000000c0: adfd 99bc 84ca 5abc ec28 febc 8094 593b
000000d0: d0cf cd3c 2695 8e3c 886f 9e3b 5e84 05bd
000000e0: 7eb0 9c3c 404a 2dbb 98f7 c23c e0d2 f23a
000000f0: b2f3 02bc 840f 0c3d c414 a43c c0fd c23b
00000100: 1800 ccbc 88de f0bc 8017 f9bb a08a ca3c
00000110: a0bd b43a be06 00bd a222 5dbc c2e2 f4bc
00000120: bcd5 3dbc a436 5d3c 86b1 f9bc 90b4 7cbc
00000130: cc3b 1dbc 3cad 8c3c aae6 0a3d 2e6c 89bc
00000140: 917e f1bc ac5e c73c 4022 a43a 301a 0cbd
00000150: 7a7f 023d c008 f0bc 824e cabc f885 93bc
00000160: a8c2 0c3d 54d4 20bc c843 ae3c 1019 0b3d
00000170: 38cc e53c 8ca4 a5bc 0ede 27bc 00c4 073c
00000180: 7ab8 903c ac69 dfbc 3c29 96bc bc90 03bd
00000190: 109c d93c 1655 febc 805a 023b f008 2cbb
000001a0: 84ab 113d 50c6 04bb 5825 923c f4c6 7dbc
000001b0: cc6c 4ebc 80ed 26bc be50 68bc 68c8 123c
000001c0: 80d9 9b3b e52b 88bc 406e 73bb 860d 8a3c
000001d0: 388c 0f3c 6c26 adbb 8054 e53a bcbb 203c
000001e0: 2e08 973c fea2 63bc 5743 89bc 6477 53bc
000001f0: f784 f6bc 110a bbbc a6d0 9b3c 402e 333a

conv3.bias f4 [64]
0.004215017 -0.0028325282 0.014058642 0.030963548 -0.037164688 -0.031149684 -0.015829626 -0.0017110445
0.01952374 -0.0435607 0.049707823 -0.0145525485 0.009819206 0.019752637 0.003692504 -0.035760865
0.021364711 0.020773709 0.022910498 0.008407306 0.025503285 0.002812326 5.1036477e-06 -0.028761467
0.007468596 -0.03818053 -0.012073368 0.041932695 0.0049449876 0.012991324 0.0072340183 -0.037494168
-0.0017490909 -0.03706053 -0.017595258 0.041239195 0.003927391 0.027893513 0.021096818 0.013443336
-0.017163027 0.015672632 0.0026571676 0.032910436 0.047599263 -0.025940249 -0.037492946 0.005966544
0.0113153905 -0.019691218 -0.021451954 0.04512608 -0.03958644 -0.013008505 -0.03640206 0.027840555
-0.023727415 0.02747938 -0.045625802 0.027991682 -0.042438984 -0.034278013 0.03555125 0.029307067
00000000: 201e 8a3b f0a1 39bb 3856 663c 44a7 fd3c
00000010: 003a 18bd 9f2d ffbc 22ad 81bc 2045 e0ba
00000020: 40f0 9f3c b46c 32bd 6e9a 4b3d d06d 6ebc
00000030: bce0 203c 48d0 a13c f0fd 713b fc79 12bd
00000040: 0c05 af3c a02d aa3c ccae bb3c ccbe 093c
00000050: 44ec d03c 004f 383b 0040 ab36 2b9d ebbc
00000060: 20bb f43b 3063 1cbd 60cf 45bc 9ec1 2b3d
00000070: 9009 a23b 90d9 543c 580b ed3b 7c93 19bd
00000080: c041 e5ba c8cc 17bd ee23 90bc 6eea 283d
00000090: 58b1 803b f080 e43c 3cd3 ac3c 7041 5c3c
000000a0: 7a99 8cbc e463 803c e023 2e3b 18cd 063d
000000b0: 72f7 423d a580 d4bc 3492 19bd 0083 c33b
000000c0: 3064 393c 7a4f a1bc 02bc afbc 20d6 383d
000000d0: 6425 22bd a021 55bc 541a 15bd e011 e43c
000000e0: ff5f c2bc 701c e13c 1fe2 3abd d04e e53c
000000f0: 80d4 2dbd 1a67 0cbd 309e 113d 6015 f03c

conv4.bias f4 [32]
0.017009847 -0.003057018 -0.036021322 0.03829333 0.072081834 0.029287063 0.02998773 -0.05562011
0.0230036 -0.009663463 -0.061408687 -0.016546462 -0.014685404 0.06631176 -0.02100078 0.06615582
0.04034975 -0.07018895 -0.071471944 0.047621787 -0.0005962923 0.06562267 0.0069157705 -0.017319862
0.05615768 -0.0043596327 -0.01823914 -0.048666995 -0.018491935 0.060688227 -0.06399558 0.014801741
00000000: 3c58 8b3c 4058 48bb 188b 13bd 78d9 1c3d
00000010: a49f 933d 6ceb ef3c d4a8 f53c ead1 63bd
00000020: 0c72 bc3c 8053 1ebc ad87 7bbd 728c 87bc
00000030: 0c9b 70bc 76ce 873d d409 acbc b47c 873d
00000040: c845 253d 39bf 8fbd e25f 92bd 100f 433d
00000050: 8050 1cba 2e65 863d b09d e23b 62e2 8dbc
00000060: 9805 663d 40db 8ebb 406a 95bc 0b57 47bd
00000070: 667c 97bc 3894 783d 1d10 83bd 0083 723c

cpu f4 [6]
0.04940912 0.05540704 0.028742053 -0.036199704 0.039386302 0.06087108
00000000: 3861 4a3d 7ef2 623d 7474 eb3c 2446 14bd
00000010: 8853 213d f453 793d
