code/conjugate_gradient/models/CNN_CG_base.pt (torch, 537200 bytes, 10 tensors)

conv1.weight f4 [256, 3, 3]
000000 2d 9b 47 3e 57 ef 8d bd 2d 24 ab bd 26 ca 66 3d
       0.19492789 -0.06930416 -0.08356509 0.056345128
000010 fd de 86 be 06 3a 93 3d 1b bf f4 3d 78 aa 97 bd
       -0.26342002 0.071888015 0.11950513 -0.07405561
000020 69 a7 89 be 13 fd a4 3d 17 0d c9 bd 17 9b 2b 3e
       -0.26885536 0.080560826 -0.0981695 0.16758381
000030 9c ab b6 bd 51 b4 1a 3e 2c f0 10 3d 74 0a a6 3e
       -0.08919451 0.15107848 0.035385296 0.3242985
000040 44 a8 3e be 62 b0 db 3c f5 0e 60 3c a5 34 9e be
       -0.18618876 0.026817504 0.013675441 -0.3089954
000050 99 81 a4 3e a3 a4 c4 bd 99 b9 4c 3e 7f 52 84 be
       0.32130125 -0.096017145 0.19992675 -0.2584419
000060 dd 18 0a 3e b1 5e 9c 3e 46 e6 9b be e0 44 bf 3d
       0.13486047 0.30540994 -0.30449122 0.09339309
000070 98 d8 a5 be 7b 37 28 3d 08 38 20 be 50 10 44 be
       -0.3239181 0.041068535 -0.15646374 -0.19146848
000080 97 12 63 3e 6b 57 6c be 4b 7c 79 3e dc 1c 19 be
       0.2217506 -0.23080222 0.2436382 -0.14952415
000090 d7 98 46 be db 98 3a be 3a 73 ec bd 96 ef 6c be
       -0.19394241 -0.18222372 -0.11545415 -0.2313827
0000a0 12 36 eb bd ff cb 95 3e d0 4f 2c 3e 32 fd 9b be
       -0.114849225 0.292572 0.16827321 -0.3046661
0000b0 ca 19 a3 3e 0f 4a 8c be 2a 90 8e bc ef 8f 58 3c
       0.31855613 -0.27400252 -0.017402727 0.01321791
0000c0 b4 ac a2 3c 4a 66 87 3e b7 8f 81 be b4 80 97 be
       0.019857742 0.26445228 -0.25304958 -0.2959038
0000d0 d2 1f 94 3e 56 ef 01 bc bd 06 0e be 6d fb 46 be
       0.28930527 -0.007930597 -0.13869758 -0.19431849
0000e0 39 2a 32 bd a6 6d 8f be c6 7f 5f be d2 44 8c 3e
       -0.043497298 -0.28013343 -0.21826085 0.27396256
0000f0 de b0 43 be b1 1f 0e 3e 3d 8e 09 3e cc b9 6e be
       -0.19110438 0.13879277 0.13433166 -0.23313063
000100 7b 9c a1 be f1 76 6e be 86 98 44 3c 93 68 92 bd
       -0.31564698 -0.2328756 0.011999255 -0.07148852
000110 0e 94 4e bd 71 b8 bb 3d b6 b5 87 3e 24 aa 7b 3d
       -0.050434165 0.09166039 0.26505822 0.061441556
000120 c5 9a bf bd 0e d2 7e 3d 37 35 92 3e 44 14 bd 3d
       -0.09355692 0.062212043 0.28556225 0.09232381
000130 e1 7a 9a be 8a ee 42 be 0c 05 a3 3e 05 6c c9 3d
       -0.30171874 -0.19036308 0.31839788 0.09835056
000140 ec b7 61 3e 3d 4e a3 be 2f c2 f2 3d 16 31 a5 be
       0.22042817 -0.3189563 0.11853444 -0.32264012
000150 f6 00 27 3e 6e 0c 9b be 3e 1b e1 3d b0 88 02 3e
       0.1630896 -0.3028292 0.10991524 0.12747455
000160 2b 74 ce bc ca bc f5 3d 2d af 0d 3e 25 f9 1d be
       -0.025201878 0.11998899 0.13836356 -0.15427072
000170 36 14 12 3e 14 d8 25 3b 76 51 de 3d a1 b0 49 3b
       0.14265522 0.0025305795 0.10855381 0.0030775445
000180 d5 50 29 be 22 ff 36 be 30 aa 11 3d cd 32 22 be
       -0.16534741 -0.17870763 0.035562694 -0.15839691
000190 c9 d2 05 3e aa ad 9e be 8f 65 0c 3e 26 61 5b bd
       0.1306869 -0.3099187 0.13710617 -0.053559445
0001a0 83 91 9d bd 3d 88 ca bd 4b c1 09 3e 7d 56 8f be
       -0.0769377 -0.09889267 0.13452642 -0.27995673
0001b0 69 f0 37 3d 27 9f 26 3e d9 21 c0 3d ba 7c 7f 3e
       0.044907007 0.1627165 0.09381456 0.24949923
0001c0 b2 19 ed bb 30 37 58 3d 35 71 87 3e 4f 75 8e 3e
       -0.007235729 0.052787006 0.26453558 0.27823874
0001d0 1c 1f 5c be d8 07 3f be d2 92 a3 be 42 47 83 be
       -0.21496242 -0.18655336 -0.31947953 -0.25640303
0001e0 c2 4b d5 3d b9 64 8d be 79 bc ff 3b e1 19 c1 3c
       0.1041484 -0.27615908 0.00780445 0.02357191
0001f0 99 02 e0 3d bf d7 2b 3e 6c 67 4c bd d0 df 68 3e
       0.109379955 0.1678152 -0.04990332 0.22741628
000200 6c 1c 6c be 1e 7a 6a 3d 84 02 a2 3e f1 06 1c 3e
       -0.23057717 0.057245366 0.31642544 0.15237023
000210 fa 7a 65 be 17 26 0f 3e 29 a9 a1 be a8 e9 84 bd
       -0.22410193 0.13979374 -0.3157437 -0.06489879
000220 7b 6e e7 bd 80 6f 65 3e 64 13 8b be 4c da 79 3e
       -0.11300369 0.22405815 -0.2716323 0.2439968
000230 24 74 96 3c 48 0d 25 be 93 a5 96 3d 43 f2 6b be
       0.018365927 -0.16118348 0.073557995 -0.23041634
000240 6c e9 2f be 70 0d 47 3e 00 cb 9e be 83 46 e6 3d
       -0.17178887 0.1943872 -0.31014252 0.11243918
000250 6d 6c 88 3e ba 66 97 3e 8f 96 c6 bb 56 6a 8d 3d
       0.26645222 0.29570562 -0.0060604285 0.069050476
000260 30 f4 38 3d 8e 71 3d bd ad 92 22 be 92 a1 74 3e
       0.04515475 -0.046250872 -0.15876265 0.23889759
000270 ae db 7b 3d 42 f9 2f 3e ba 2a 20 be 5e 43 47 3e
       0.0614888 0.17184928 -0.15641299 0.19459292
000280 7c 1d 60 3e b5 5d 8a 3e ae 2c 9e bd df 85 2e 3e
       0.21886247 0.27024618 -0.07723366 0.17043255
000290 ad ba 95 bd 88 f7 27 3d 44 70 84 bd ad 7c d5 bd
       -0.07310996 0.04100755 -0.064667255 -0.10424171
0002a0 07 45 a9 3d 17 a1 2f 3d e5 52 3e be 12 85 10 be
       0.08265119 0.042878237 -0.18586309 -0.14113262
0002b0 d4 06 8d 3e 17 ab 31 3e 13 35 fb 3c 2f 6a 9f be
       0.27544272 0.17350422 0.030664956 -0.311357
0002c0 a2 39 15 be 31 96 03 bd 7d a4 90 3e cd 49 8d be
       -0.14572766 -0.032125656 0.28250495 -0.27595368
0002d0 83 8c a3 be e1 0a 3f be 81 1e 31 be 70 f5 62 be
       -0.3194314 -0.18656494 -0.17296793 -0.2216394
0002e0 91 79 6b 3e 60 31 9b 3e 3f c3 0c 3c be 50 a7 bb
       0.22995593 0.30311108 0.008591472 -0.0051060608
0002f0 11 6f 4b be 36 f6 8b 3d e8 ec a0 3e 1a 23 b5 3d
       -0.19866587 0.068340704 0.31430745 0.08844586
000300 1a d3 88 be 27 0d 56 3d a7 11 1b 3e de cd 14 be
       -0.26723558 0.052258637 0.15143453 -0.14531657
000310 21 9b 3a 3e c1 ec 44 3e 24 d4 0f 3d 66 2c e6 3c
       0.1822324 0.1923094 0.035114422 0.028097343
000320 ba c0 72 be 9c 3f 17 3d 81 6e 55 be ce b0 fc 3d
       -0.23706332 0.036925897 -0.20842935 0.1233841
000330 d6 31 f1 bd 67 fa 1d bc 95 67 26 be b8 cb 6a 3e
       -0.117770836 -0.00964222 -0.16250451 0.22929275
000340 84 c4 cd bd e8 9d 04 be b3 ab 97 3e 8a 38 29 3e
       -0.10047248 -0.12950861 0.29623184 0.16525474
000350 02 2f 8b be 22 8c 6f be 34 26 c2 bc bf ce 2d 3e
       -0.27184302 -0.233933 -0.023699857 0.16973399
000360 80 d5 bb bc df 23 dc bd a9 7c 84 bc 7e 54 07 3e
       -0.022928953 -0.10749029 -0.016172724 0.13215825
000370 4b 43 5f 3e 2d c1 b0 3c f5 26 28 3e f2 91 86 3e
       0.21803014 0.021576488 0.16421111 0.26283222
000380 3d 13 ee bb b5 19 9b be d7 8e 5e be c1 4c 88 be
       -0.007265477 -0.3029305 -0.21734177 -0.2662106
000390 14 7f 6f 3e 71 e1 91 be a0 e8 9d 3d d4 99 90 be
       0.2338832 -0.2849231 0.07710385 -0.28242362
0003a0 bb bd 9e 3e 10 c2 87 3e ab 91 81 3e c3 1a dc 3d
       0.31004128 0.26515245 0.25306448 0.10747292
0003b0 51 97 1f bc ad 36 01 be fd 46 d4 bd 08 4e 83 3e
       -0.0097406665 -0.12618513 -0.103651024 0.2564547
0003c0 d3 b3 74 3e a1 76 04 be 8f a8 ce bd 75 1e a2 3c
       0.23896722 -0.12935878 -0.10090744 0.019789914
0003d0 7e 01 2a bd c8 d6 0b 3e d3 b4 36 3e 67 22 9d bc
       -0.04150533 0.13656151 0.17842416 -0.019181443
0003e0 69 63 56 3e 8c ac 5c 3c 0b 8d 66 be be 0f 9f be
       0.2093636 0.013468873 -0.22514741 -0.31066698
0003f0 80 14 9b be 72 a1 76 bd e3 b4 75 3e cd 60 16 be
       -0.30289078 -0.06021256 0.23994784 -0.14685364

conv1.bias f4 [256]
000000 76 0e a4 3e fa 90 d8 bd a6 6b e8 3d ef 29 88 3e
       0.32042283 -0.10574527 0.11348657 0.26594493
000010 f2 bc 02 be a8 dd a6 be a6 b6 77 be a9 54 63 be
       -0.1276739 -0.32590985 -0.24190769 -0.22200264
000020 1b 29 b5 3c f5 a1 7d be 3c 39 60 3e 47 75 8a be
       0.022114327 -0.24768813 0.21896833 -0.270426
000030 56 84 83 be 35 39 7d 3e eb bd 77 3e 23 77 1c 3e
       -0.25686902 0.24728854 0.24193542 0.15279822
000040 9c 06 bc 3c 16 df 1f 3e 9b bd 86 be 07 97 51 be
       0.02295237 0.15612444 -0.26316532 -0.20467769
000050 34 de 8a 3e 85 44 90 3e 78 e7 a1 be 10 16 07 3d
       0.27122653 0.28177276 -0.3162191 0.032980025
000060 5e 39 2d 3e 55 f7 bd bc 22 2c 6b be b3 8e 92 bd
       0.16916415 -0.023189226 -0.22966054 -0.07156124
000070 ce 7f 29 3d 05 ac 2f 3e 26 e2 8f be f4 fc 05 3e
       0.04138165 0.17155464 -0.28102225 0.13084775
000080 47 aa 70 3d 36 b5 11 be dc a5 b6 3d f0 d3 04 3e
       0.05875614 -0.14229283 0.08918354 0.12971473
000090 14 5d 9a be e5 a9 88 3e 6a 3e 90 be 57 89 80 3e
       -0.30149138 0.2669212 -0.28172618 0.25104782
0000a0 c5 9a 43 3e 5b ae b7 3c 6e a6 4c 3e aa 95 83 be
       0.19102009 0.022422006 0.19985363 -0.25700122
0000b0 6b 7a c9 3d 45 47 ff bc a0 01 f8 ba ee aa 97 bd
       0.098378025 -0.031161914 -0.0018921383 -0.07405649
0000c0 40 27 19 3e a0 44 97 3e 4c e6 43 3c 2f 9c 5e be
       0.14956379 0.29544544 0.0119567625 -0.21739267
0000d0 52 53 26 be 66 69 49 3e d9 bb 36 bd bd 77 99 be
       -0.16242722 0.19669113 -0.04461274 -0.29974166
0000e0 74 6c 88 be 4e fe 25 be e2 34 9e 3e 6d 23 37 be
       -0.26645243 -0.16210291 0.3089972 -0.17884608
0000f0 43 4c 47 3e 73 8f 91 be 08 94 92 3e 33 d6 7a 3e
       0.19462685 -0.28429756 0.28628564 0.24495773
000100 09 45 4d 3e d1 c7 74 3e 29 5c 30 3e 62 d9 9c be
       0.20045866 0.23904349 0.17222656 -0.306346
000110 9a de fd 3d 65 95 83 be a0 26 2d be 83 0d df 3c
       0.123959735 -0.25699916 -0.16909266 0.027228123
000120 a5 ae 5b 3d 48 19 4a 3e 22 d7 52 bd c9 1f 37 be
       0.05363335 0.19736207 -0.051474698 -0.17883219
000130 bf 23 71 be 30 9b 6e 3e 53 1a 91 3d b0 fa 9c be
       -0.23548792 0.23301387 0.07085099 -0.3066001
000140 b4 68 96 bd ef 21 dd bd 31 ee 90 3e 82 50 49 3e
       -0.07344189 -0.10797488 0.28306726 0.19659618
000150 3e 64 a1 be ee a8 60 3e 20 3d aa b8 ea 2c 2a be
       -0.3152179 0.21939442 -8.117617e-05 -0.16618696
000160 aa a7 fc bc 8f 9c 53 3e 90 78 90 bd 51 8f 8b 3e
       -0.030841667 0.20665191 -0.070542455 0.2725778
000170 18 3c dc bc c1 a2 4e 3e c3 b8 74 3e cf 4d 87 be
       -0.026884124 0.20179273 0.23898606 -0.2642655
000180 59 8f 55 be 6b 32 ff 3d d5 05 22 be ba 5f 06 be
       -0.20855464 0.12460788 -0.15822537 -0.13122454
000190 45 2a 49 be 1f f7 90 be 55 5a 55 be b9 d4 af bd
       -0.19645031 -0.28313538 -0.2083524 -0.085854955
0001a0 bc 85 0b be 45 8b 42 3e 3f 58 d2 bd 35 72 dd 3d
       -0.13625234 0.1899844 -0.10270738 0.10812799
0001b0 90 60 b4 3d 7b e9 15 be 4d ee e8 3d 03 fc 3d bd
       0.0880748 -0.14639847 0.11373577 -0.046382915
0001c0 38 26 05 be 3c 92 89 3e d5 25 1e be 78 6d 10 be
       -0.1300286 0.2686938 -0.1544412 -0.14104259
0001d0 58 3c 0e be 9f aa c9 bc 32 f4 4a 3c 99 67 8a be
       -0.13890207 -0.024617491 0.012387322 -0.27032164
0001e0 81 47 6c be b4 18 90 be 7e 7b d9 bd 1a 73 93 3e
       -0.23074152 -0.28143847 -0.106192574 0.28798753
0001f0 0d 98 10 be 95 d7 91 3e 4e 42 0e 3e a3 38 f3 3c
       -0.14120503 0.2848479 0.1389248 0.029690092
000200 3c b9 28 3e 40 00 95 3e ae 36 a0 3e b2 e8 35 be
       0.16476911 0.29101753 0.31291717 -0.17764547
000210 ef 3b 87 be ed 43 e3 3d fd a7 9c be 1d 1a dd 3d
       -0.26412913 0.1109694 -0.30596915 0.10795996
000220 31 74 61 3e ac c2 ca bc 99 b9 11 3e 84 3e 85 3e
       0.2201698 -0.02475103 0.14230956 0.26024258
000230 e8 b8 bb 3d 25 33 45 bd 76 23 90 3d 74 d1 8a be
       0.091661274 -0.04814448 0.07038014 -0.27112925
000240 7c 78 2c be 7b 17 91 be 5c 40 6e bd 0e 53 3e be
       -0.16842836 -0.28338227 -0.058166847 -0.1858637
000250 57 7a 90 3e d3 54 15 3e e3 ad 33 3e 82 2d fc bd
       0.28218338 0.14583139 0.17546801 -0.123133674
000260 b3 0d 3b 3e 52 d5 01 3c 85 75 4a bd 4f 4b 07 be
       0.18266945 0.007924395 -0.04942848 -0.13212322
000270 c8 40 71 3e 99 54 78 be a7 6b f0 3d 4a 17 a5 be
       0.23559868 -0.24251021 0.11739283 -0.3224433
000280 7d e8 53 be 99 4d 55 be cf e5 56 3d 82 8d a9 3e
       -0.20694156 -0.20830382 0.052465256 0.33115774
000290 9d 25 90 bd 91 c8 e7 bd eb 8f 66 bd 81 77 79 be
       -0.07038424 -0.11317552 -0.056289595 -0.24361993
0002a0 ce 7a 17 3e f7 c8 6b 3e ea 62 02 be da 32 a5 3e
       0.1479294 0.23025881 -0.12733045 0.3226536
0002b0 3b ac 8b 3d c1 07 a4 3c e3 6b da 3d 3b 05 10 be
       0.0681996 0.020023229 0.10665109 -0.14064495
0002c0 5a 29 f3 bd 39 65 c6 3c 7c 2e 0a 3e 18 fd 70 3e
       -0.118731216 0.024218189 0.13494295 0.23534048
0002d0 4f e4 d1 bd 85 38 08 be d1 c4 d2 bc 3f 8b 0f be
       -0.102486245 -0.1330281 -0.025728615 -0.14017962
0002e0 aa 2a a8 be 3e a4 f6 3d d8 98 3d 3e aa d5 4d 3d
       -0.3284505 0.120430455 0.18515337 0.050252594
0002f0 de 13 74 3e 1a af 34 3e d9 51 96 be 8d f9 80 be
       0.23835704 0.17644921 -0.2935932 -0.25190392
000300 4c d5 07 3e 1a 13 a1 be b8 d6 56 be 82 e8 ff 3d
       0.1326496 -0.31459886 -0.20980346 0.12495519
000310 52 9b 6b 3d 96 b2 f4 bd c1 dd 0d 3e 6f df f3 bd
       0.057521172 -0.11948125 0.13854124 -0.11907851
000320 d2 24 8d 3e b1 81 0f bc dc fc 54 be a8 81 4f be
       0.27567154 -0.008758948 -0.20799583 -0.20264304
000330 b4 41 51 bd d0 d9 8e 3e 3f c5 97 be 64 1d d1 bd
       -0.05108805 0.27900553 -0.29642674 -0.10210684
000340 c1 13 02 be 1b 6b e0 3d c3 6d a4 be c8 5a c2 3d
       -0.12702848 0.10957929 -0.32114992 0.094899714
000350 4b 2d 8e 3e 8f ae 33 bd ee 6c 6f 3d a1 59 22 3e
       0.2776893 -0.043867644 0.058453493 0.15854503
000360 4f 34 99 bd f8 1a 38 be 0c 81 32 bd 2a 94 a5 3c
       -0.0748068 -0.17979038 -0.0435801 0.020212252
000370 e8 44 92 3e ca 2b 9b 3e 23 30 7f 3e 91 1e 8d 3e
       0.28568196 0.30306846 0.24920706 0.27562383
000380 ca c5 ba bd a1 37 a7 bb 76 83 ae 3b 84 35 c5 bc
       -0.091197565 -0.005103067 0.00532573 -0.02407337
000390 f3 1a 81 be 6f 97 82 be 45 df ed 3d 57 cb 40 be
       -0.25215873 -0.2550616 0.11614851 -0.18827568
0003a0 21 f5 9d be 32 c4 00 bd d2 2d 8d be 35 5d 7b 3e
       -0.3085108 -0.031437106 -0.2757402 0.24547274
0003b0 dd 35 d3 bd ff 2f 23 3e e6 18 a6 3e 58 08 a3 be
       -0.10313008 0.15936278 0.3244087 -0.31842303
0003c0 41 60 77 3e f8 16 8c 3b 1a 0a a9 be 5f 32 8b 3b
       0.24157812 0.004275199 -0.3301552 0.004247948
0003d0 97 93 d4 bd d5 23 27 3e 92 38 55 bc 65 6c 06 3d
       -0.10379713 0.16322263 -0.013013976 0.032818217
0003e0 39 fd d5 3b cc a2 8f bd 3d 31 6b be 09 91 be bc
       0.0065304306 -0.07013473 -0.22968002 -0.023262518
0003f0 5f af 83 3e 99 33 2f 3e c3 09 99 be 3b 38 07 3e
       0.25719735 0.17109527 -0.2989026 0.13205044

conv2.weight f4 [128, 256, 3]
000000 a8 64 94 bb 9f c0 97 3b ec 0f cf 3c 76 cc 2e bd
       -0.0045286007 0.0046311165 0.025276147 -0.042675458
000010 dc 86 f8 bb b2 4e 7b 3c f4 64 9c 3c 84 6a 5c 3c
       -0.007584436 0.015338587 0.019091107 0.01345313
000020 53 af ba bc 39 18 95 bc 11 1d 07 bd b9 3b 3d bd
       -0.02278868 -0.018200027 -0.032986704 -0.046199534
000030 4c e3 92 bb 2b ff 1a 3d f3 a2 b4 ba bc f5 36 bc
       -0.0044826623 0.037841003 -0.0013781473 -0.011166986
000040 e4 34 a2 3b a8 ba 5c 3d a0 dc cf bc 53 a7 93 bc
       0.0049501527 0.053888947 -0.025373757 -0.018024122
000050 2d 26 ee bc 79 fa b5 3b 00 0f cd 3b b1 a7 ef 3c
       -0.029070938 0.0055535403 0.0062578917 0.029254766
000060 bb ee c9 3c 71 02 09 3d af c3 91 bc 6d 71 95 3c
       0.024649968 0.033449594 -0.017793505 0.018242562
000070 7f c8 f5 bc 17 0b a9 3c b4 4a 91 3c ce 0d 26 3c
       -0.03000283 0.02063517 0.017735817 0.010135127
000080 2c 3a 2b 3d 3f 00 64 3c 29 5a fa 3c 5b 99 14 3d
       0.041803524 0.013916074 0.03056057 0.036279064
000090 9d 4a 1c 3d 3c c8 f5 3a fe 4e 8c 3c db 8d 21 3d
       0.038157094 0.0018751691 0.01712751 0.039441925
0000a0 ef 04 01 3c 8f 0a f7 3c 31 06 81 bb 6f 01 a4 3c
       0.007874711 0.030156402 -0.0039375057 0.020020215
0000b0 91 ec ac 3b ad aa 0d bd f5 ba a6 3c 2e 66 92 bc
       0.0052772244 -0.034586597 0.02035282 -0.017870989
0000c0 d9 3b 85 3c 45 65 32 bc b4 70 95 39 83 a1 09 bd
       0.01626389 -0.010888402 0.00028503465 -0.033601295
0000d0 12 f5 28 3d c9 04 88 bc 4c 20 a6 bc ce 7e c6 3c
       0.041249342 -0.016603844 -0.020279072 0.024230387
0000e0 28 36 2f bc 29 47 e2 bb da e2 46 3d 1a 3f 80 3c
       -0.010694064 -0.0069054556 0.048556186 0.01565509
0000f0 e3 0f be bc f3 69 04 3d 69 0e e2 bc 70 ae c7 3c
       -0.023200935 0.032327604 -0.027594762 0.02437517
000100 55 92 51 3c ac 39 b9 bb 49 72 74 bc f1 9d ba 3c
       0.012791236 -0.005652627 -0.014919826 0.02278039
000110 39 bd 2f bd bf dd e7 3c a3 40 09 3d 01 35 1d 3d
       -0.042905066 0.028303979 0.033508908 0.038380627
000120 4a 94 c2 3c 9f b8 f9 bc 8c 75 18 3c 6f de 03 3d
       0.02375235 -0.030483542 0.009305369 0.03219455
000130 54 ae 93 3c 11 23 0e 3d 5e 51 b7 3c 82 19 9d bb
       0.018027462 0.03470141 0.022377666 -0.0047943005
000140 73 4e 1b 3d 00 9c 0b bc f0 fc 11 3c 2b b1 f6 3b
       0.037916612 -0.00852108 0.008910403 0.0075284443
000150 de 62 e8 3c e8 84 6a bc 3e ff 94 bc eb ba d8 3b
       0.028367456 -0.014313914 -0.018188115 0.0066140792
000160 63 1a 8b bc 77 d4 ad bc b8 d6 66 bb 9b 97 ac 3b
       -0.016980356 -0.021219475 -0.0035223197 0.005267096
000170 e7 7e 02 bd 77 11 1a 39 ef ef bf bc ba e5 a4 bc
       -0.031859305 0.0001469309 -0.023429839 -0.020129073
000180 1c ab 1a 3d 22 cf c5 bb c8 fa 77 3c 02 50 87 b8
       0.03776084 -0.006036655 0.0151354745 -6.452204e-05
000190 aa 70 7e 3c 39 8e 9b bc d8 8c 3d 3d 22 89 bd bc
       0.015529791 -0.018988715 0.046276897 -0.02313668
0001a0 c5 bd 49 3c bb da 4b 3a 7e c3 84 bc 20 2a 89 3b
       0.012313311 0.0007776429 -0.0162065 0.00418593
0001b0 40 bb 0e 3d 2a 3e b1 3c 10 08 9e bc 48 93 29 3c
       0.034846544 0.021636087 -0.019290954 0.010350056
0001c0 96 2f 2f 3c 58 fa 28 3c eb 7b 04 3d f0 ca 12 3c
       0.010692498 0.010313593 0.03234474 0.008959517
0001d0 e9 3f 1b 3d dd bc aa bc ad 0a cf b9 af e9 dc 3c
       0.037902746 -0.02084201 -0.0003949007 0.026966898
0001e0 72 68 05 3d 34 40 5c bc 0c 98 1f bc df ab 16 3d
       0.03257031 -0.013443042 -0.009740841 0.036785003
0001f0 d7 c8 03 3d 59 a4 1a 3d 42 8f cf bb 85 cf 03 3d
       0.032173958 0.03775439 -0.0063342163 0.032180328
000200 bc ba 90 3c 06 83 95 bc cb 1a a7 3b ad 81 8d 3b
       0.017667167 -0.018250953 0.0050996295 0.004318437
000210 8d 5e 77 3b 93 54 b9 bb 60 78 dd bc ab db 9d bc
       0.0037745566 -0.005655834 -0.027034938 -0.019269785
000220 8d c3 76 bc 39 a5 97 bc 78 89 ae 3b 9c bc b7 bb
       -0.015061271 -0.018511401 0.005326446 -0.005607201
000230 86 ca ab bc 05 41 0b bd 29 5f 21 bd 11 f7 ee 3c
       -0.020970594 -0.033997554 -0.039397392 0.029170545
000240 26 b7 1b 3d bc 13 2e 3d 8c f3 25 bb 48 2a 94 bc
       0.03801646 0.04249929 -0.0025322167 -0.018086568
000250 39 dd 29 bc b9 89 4b 3c 80 26 a9 3c a4 c0 d3 bc
       -0.010367685 0.012422972 0.020648241 -0.025848694
000260 c2 52 69 3c 11 ec 59 bc 9b 46 22 3d 2d 33 ab bc
       0.014240922 -0.0133009115 0.039618116 -0.020898426
000270 69 c9 0f 3d 67 ac 2a 3c 67 24 94 3b 22 da 25 3d
       0.03510419 0.0104170805 0.004520941 0.04049123
000280 30 78 88 b9 6d 3d 31 3c be 9e 09 3d 91 52 a6 3c
       -0.00026029488 0.010817868 0.033598654 0.020303043
000290 42 f1 c4 3c da ef dc 3a de bd 01 bd 62 90 1b bc
       0.024040822 0.0016856149 -0.031675212 -0.009494873
0002a0 06 3b 74 3c fe af d3 3b 64 e8 69 3c 9f 78 b4 3a
       0.01490665 0.006460189 0.014276598 0.0013768858
0002b0 7b 95 37 3d d7 1b 2b 3c 54 c7 ed bc 07 1e 0a 3d
       0.04482029 0.010443649 -0.029025711 0.033720043
0002c0 d2 1c e3 bc 1f 2a f1 bc 5f 62 f2 3c c4 34 ec bc
       -0.027723704 -0.02943903 0.029587923 -0.028833754
0002d0 ad 86 fd 3b 3f 25 85 bc 15 a5 b2 3c 79 d3 f0 bc
       0.007737002 -0.016253112 0.021807233 -0.029397713
0002e0 ee 1a 2a bc 42 ee 06 bd bf c5 01 bd e6 88 d1 bc
       -0.010382397 -0.032942064 -0.031682726 -0.025577974
0002f0 21 02 a4 bc ac 5f fd bc 22 92 b6 3c 5d db 0a 3d
       -0.020020546 -0.030929409 0.022286478 0.033900607
000300 bd 34 76 bc 1a 7c 12 bb 9e 37 82 bc 10 bd 82 3c
       -0.015027222 -0.0022351802 -0.015895661 0.015959293
000310 28 8a ff 3b 6f b6 6c bb 76 25 18 ba ec d5 fc 3c
       0.007798452 -0.003611948 -0.0005803922 0.030863725
000320 59 68 06 3d ad 08 1e bd 46 65 ce bc 69 4b 54 bd
       0.032814357 -0.038582493 -0.025194775 -0.05182973
000330 bb 8f 87 3b 94 45 53 bc 19 37 ec 3c 9b 8b a5 39
       0.004137007 -0.012895007 0.028834866 0.00031575267
000340 92 06 07 3d ce e3 b9 3b 76 b0 c7 bb 0e d1 04 3c
       0.03296525 0.0056729084 -0.006094034 0.008106483
000350 21 8d ac bc 0f 83 6e 3b ab 06 99 b9 ec ef 22 bc
       -0.02106339 0.0036394035 -0.00029187402 -0.009944897
000360 f4 e3 d0 3c 8a b1 08 bd e5 cf 01 3c e3 cc 0b bd
       0.025499322 -0.03337244 0.007923101 -0.034130942
000370 92 76 6e 3c 90 05 7d bc 1a 5f ae bc 20 32 04 3d
       0.014554637 -0.015443221 -0.021285582 0.032274365
000380 a7 96 97 bc 7f 59 46 bb 0f e6 d3 3c 6d 37 86 3c
       -0.018504454 -0.0030265746 0.025866536 0.016383851
000390 41 08 cc bc 4a 04 51 3c f9 74 64 bb 6d a0 d9 3c
       -0.02490628 0.01275737 -0.003485976 0.026565755
0003a0 b2 a3 99 3c ca 0b a9 3c 3c 96 a1 bb dd 55 66 bc
       0.018754814 0.020635504 -0.0049312394 -0.014058557
0003b0 c8 ab 0a 3d 9f 94 f4 bb 57 5e 9c bc 66 07 8a bc
       0.03385523 -0.007464006 -0.019087953 -0.016849231
0003c0 9f 01 17 bd 8a 88 31 bc c7 c7 e2 3c 41 2d 1b 3c
       -0.03686678 -0.010835776 0.027683152 0.009471239
0003d0 ee df 27 bd a7 b6 8e bc 8b 82 db 3b 98 a0 81 bb
       -0.04098504 -0.01742108 0.0066989115 -0.003955912
0003e0 30 6a 23 3d 6e 59 ec bc b0 c4 47 3c a3 79 1d bc
       0.03989619 -0.028851237 0.01219289 -0.00961152
0003f0 8d 74 95 bc d2 3c 8c 3c c4 c3 00 bc 04 38 a4 bc
       -0.018244052 0.017118845 -0.007859174 -0.020046242

conv2.bias f4 [128]
000000 fe 4b 84 3c fe 51 bd 3c d4 de 9e 3c c7 ab df 3c
       0.016149517 0.023110386 0.019393362 0.02730359
000010 a2 81 05 3d 6e f9 ba bc e8 f1 c2 bc ef c0 49 3c
       0.03259433 -0.022824015 -0.02379699 0.012314065
000020 70 e7 01 3d 05 f3 f2 bc 52 55 24 3d e6 dc 46 bc
       0.031714857 -0.029656896 0.04012043 -0.012137627
000030 10 31 fd bc f6 50 d8 bc e7 21 9e bc 88 7c 23 bc
       -0.030907184 -0.026405793 -0.019303275 -0.009978421
000040 6c 88 45 3c 17 28 9c bc 20 cf c3 3c f7 55 0b bc
       0.012056451 -0.019062085 0.023902476 -0.008504382
000050 e4 61 85 3c bd 8c d9 bc 36 4e f3 bc c9 2f dc 3c
       0.01628203 -0.026556367 -0.02970038 0.026878254
000060 a4 c0 89 bc fc 3a af 3c b5 1d 86 bc ff 8a ff bc
       -0.016815491 0.02139043 -0.016371587 -0.031194208
000070 b7 bf 4c 3c c2 c6 99 3c 40 9d 08 3d 65 bf bb bc
       0.01249688 0.018771533 0.03335309 -0.022918412
000080 e9 92 07 bb 14 20 97 bc 24 65 98 bc 76 b3 48 3b
       -0.002068693 -0.018447913 -0.018602915 0.0030624545
000090 e1 6e 5d ba e2 8f f7 3b 80 5c 80 3c 37 e5 56 bc
       -0.0008447003 0.007554994 0.015669107 -0.0131161725
0000a0 fa 5b 76 bb 70 41 e2 bc 72 c0 05 3d f1 43 ec 3c
       -0.0037591443 -0.027619094 0.032654233 0.02884099
0000b0 a7 73 c8 bc 9d 3b 91 bc 2d 7a b5 3c db 1c d1 3c
       -0.02446921 -0.017728621 0.022152985 0.025526455
0000c0 7e 35 5b bc 7a 48 13 3a cc 1c cd 3c ce 39 0d 3d
       -0.013379453 0.0005618405 0.025038145 0.034478955
0000d0 dd 99 7f 3b 71 67 ca bc 73 5d 08 3c 4f 05 ea bc
       0.0039001622 -0.024707528 0.008323061 -0.028566984
0000e0 3b 80 bb bc 1f 41 11 bd 4e 66 5f bc 19 e6 d2 3c
       -0.022888293 -0.035462495 -0.013635231 0.025744485
0000f0 a4 60 52 bc 08 57 96 bc bc c7 8e bc 58 08 fc bb
       -0.012840424 -0.018352047 -0.017429225 -0.0076914243
000100 3b 9a 12 3d 5d fa 58 3c f5 56 8a bc 4f c9 8a bc
       0.035791617 0.013243285 -0.016887167 -0.016941695
000110 f6 e5 9f 3c 79 ab 97 bc 3f 05 78 3c fb c6 97 3c
       0.019518834 -0.018514382 0.0151379695 0.018527498
000120 b0 eb e4 3c 3c 93 ea b9 a0 ff 02 bd 23 f5 7d 3c
       0.027944416 -0.00044741656 -0.031982064 0.01550034
000130 b5 1e 88 3a 02 eb 0e bc 36 70 81 3c 96 26 81 3c
       0.0010385128 -0.008723022 0.015800577 0.01576547
000140 11 15 0d bd 67 39 72 3c 09 c6 c2 3c b8 87 bb 39
       -0.03444392 0.014784194 0.023776071 0.00035768538
000150 3f ae a3 3c 49 b7 d2 bc b3 23 9e bc 7a f6 b6 bb
       0.019980548 -0.025722163 -0.019304132 -0.0055835815
000160 85 81 79 3c 03 25 f2 bc 52 35 d4 3c a8 44 cf 3c
       0.015228634 -0.029558664 0.025904331 0.025301293
000170 2c e5 bc bc 62 ed 4e bc 13 34 9c 3c 40 fa ac bc
       -0.023058496 -0.012629839 0.0190678 -0.021115422
000180 42 a6 6b 3b 77 19 34 3c cc 2f 1f bb ff 6d ef 3c
       0.0035957252 0.010992399 -0.0024289964 0.029227255
000190 e2 84 0c bb e9 a1 a2 bc b9 da 89 bc 0a 44 d2 3c
       -0.002144151 -0.019852595 -0.016827928 0.02566721
0001a0 1f 5b 56 3b 15 96 10 bc 66 ac cc bc 2d 69 13 3d
       0.003270812 -0.008824845 -0.02498455 0.035988975
0001b0 83 68 ac 3b 54 95 19 3d 4a 51 52 bc b2 a0 98 bc
       0.005261482 0.037495926 -0.012836764 -0.018631313
0001c0 36 3c 9c 3c 1e 1a 2c 3c 69 2e 94 bc 38 d7 73 bb
       0.01907168 0.010504274 -0.018088536 -0.0037207138
0001d0 83 84 9b 3c 67 06 88 bc 62 e3 c5 bc cf 4d a1 3a
       0.018984085 -0.016604615 -0.024156276 0.0012306514
0001e0 2e 20 86 3c 19 e8 0b 3d ff 32 03 3d a7 21 c0 bc
       0.016372766 0.034156892 0.032031056 -0.023453547
0001f0 7b 75 0f bb 61 cc 39 bb f3 cb b2 3c 33 68 2d 3c
       -0.0021890092 -0.002835058 0.021825766 0.010583925

conv3.weight f4 [64, 128, 3]
000000 44 8b 29 3d bc 36 b9 bc 73 5b 59 bc dc b6 00 bd
       0.04139258 -0.022609107 -0.013266432 -0.03142439
000010 00 de f3 3c 22 0e 37 bd 68 b1 98 3a 5e e2 ad 3a
       0.029768944 -0.044691212 0.0011649551 0.0013266315
000020 ad 6e c7 3c 59 bd b6 ba ed 9a b1 3b 66 3d 01 bc
       0.024344767 -0.0013941928 0.00542008 -0.007888174
000030 7e 92 81 3c 51 cd dc 3c e1 dd 29 bd 91 37 b7 bc
       0.015816923 0.026953371 -0.041471366 -0.022365363
000040 bd 9d 11 bd 8c e0 28 3d 86 8b c0 3a d3 61 9f b9
       -0.03555082 0.04122977 0.0014690019 -0.00030399728
000050 11 84 a1 3c 93 99 4b 3c 3c 46 81 bb 84 75 01 3d
       0.019716294 0.012426752 -0.00394514 0.031606212
000060 21 ec e6 3c c4 6b c3 bc 64 8e 1f bc 63 5a 86 bc
       0.028188767 -0.023855098 -0.009738538 -0.016400522
000070 45 42 8f 3c c5 0d 89 3c 4c 56 22 3d 45 8b a2 bb
       0.017487654 0.016730199 0.03963308 -0.00496045
000080 d4 73 d2 3c 3f 72 25 3d 67 86 20 bb c8 22 92 bb
       0.025689997 0.040392157 -0.0024494173 -0.0044597127
000090 fb 1e b0 bc 04 fc 2c bd f1 6e 12 bd bf b4 17 bd
       -0.021499148 -0.04223253 -0.035750333 -0.037037607
0000a0 c1 24 03 3c 91 54 18 bd 03 55 08 3d 42 48 3e 3d
       0.008004368 -0.037190024 0.0332842 0.04645563
0000b0 c9 91 88 3c 98 81 ea 3a 4f f7 f8 39 47 1a 12 3d
       0.016671078 0.0017891405 0.00047486505 0.03566959
0000c0 c6 b8 53 3c aa 6a 15 bc 68 95 b9 bc 91 04 ac 3c
       0.012922471 -0.009119669 -0.02265425 0.020998271
0000d0 ee 0c 6d bc c8 41 b1 3c de 4d 5e bd cd 32 1f 3b
       -0.014468415 0.021637812 -0.05427348 0.0024291754
0000e0 b5 00 8a bc 1b 98 96 bb 5d cc ca bb 50 e8 b9 3c
       -0.01684604 -0.004595769 -0.006188913 0.022693783
0000f0 18 ae 5f bd e0 7d 34 bd b7 70 da 3c 9c 6b 42 3d
       -0.054609388 -0.044065356 0.026665075 0.047465906
000100 02 b4 02 bc fa 3c 47 3c 8a 1d 85 bc 06 d0 09 b8
       -0.0079774875 0.012160534 -0.016249437 -3.2857082e-05
000110 9a 05 e3 bc 0a 59 4b 3d b9 ac 31 bd c8 9c 22 bd
       -0.027712632 0.04964546 -0.04337761 -0.0397003
000120 df 63 19 bd df 5d 0c bd cc c8 3f bd aa bf 36 bc
       -0.03744876 -0.03426921 -0.046822354 -0.011154095
000130 0a ba 72 bc 9d a5 e4 3c ee d6 aa 3c 65 e4 cc 3c
       -0.014814863 0.027911002 0.02085444 0.02501125
000140 f6 f7 b7 3b 12 f3 1c 3d 4f d5 0a 3d 97 b1 ee bb
       0.005614276 0.038317747 0.033894833 -0.007284354
000150 74 b9 b1 3c 1b ef 61 bb 32 57 19 bd 6a 83 ea bb
       0.021694876 -0.0034474793 -0.03743667 -0.007156779
000160 d6 4b fa bc 54 a0 82 39 05 43 42 bd e5 2e 28 bb
       -0.03055374 0.00024914986 -0.047427196 -0.0025662717
000170 a7 61 f7 bc 89 7b df bb 3d 3d 08 3d d3 8a ad 3c
       -0.030197931 -0.0068201465 0.033261526 0.02118436
000180 c0 a3 07 3d e7 b2 b6 bc eb 3f 9f ba 80 67 01 3d
       0.03311515 -0.022302104 -0.0012149786 0.031592846
000190 65 c5 63 bb 4f 0b 0f bb f1 4a 60 bd 6d 16 3d bd
       -0.0034755107 -0.0021826809 -0.05475897 -0.046163965
0001a0 64 e6 ad ba ab eb f6 3c b9 74 56 bc 7b 4c 9f 3c
       -0.0013267514 0.030141672 -0.013089352 0.019445648
0001b0 35 ab da 3c 2d 5e 38 bd 9b b6 83 3c 82 b6 45 3c
       0.026692966 -0.045011688 0.016078284 0.012067439
0001c0 0d 01 67 bd 16 f3 92 3b af 78 2a bd a9 0b 66 3c
       -0.056397486 0.0044845445 -0.041619 0.014040866
0001d0 8d 12 d3 bb b1 4d 4a bb 19 88 33 bd 17 f3 3b bd
       -0.0064414204 -0.0030869062 -0.043830965 -0.045886125
0001e0 e4 08 50 bc 0e 65 d7 bc 6c 53 89 3c 17 20 cc bc
       -0.012697432 -0.026293304 0.016763411 -0.024917645
0001f0 ca ba 14 bd b8 31 3a 3b c1 0c cd bc a6 06 ed 3c
       -0.03631095 0.0028410982 -0.025030496 0.028933834
000200 8a ed e4 bc fe 49 db bc c7 8c 8c bb f3 3e 51 bd
       -0.027945299 -0.02676868 -0.004289243 -0.051085424
000210 27 1b f2 bb 64 fd 21 3d a1 15 fe 3c 0a 46 00 bd
       -0.0073884907 0.039548293 0.031016173 -0.031316794
000220 8c 84 4e bc 53 c2 bc 3c b7 cc d9 bc 29 99 6d bc
       -0.012604844 0.02304188 -0.026586873 -0.014501848
000230 47 8a 7c bc 55 02 67 bc dc a7 37 3c 65 2e b4 3c
       -0.015413827 -0.014099677 0.011209454 0.021994779
000240 92 a5 de 3c 25 f5 c6 bc 01 49 e7 3c 13 96 0b 3d
       0.02717856 -0.024286816 0.028233053 0.03407867
000250 a3 98 06 3d 18 85 3e bd f6 09 7a 3c cd c8 0c bd
       0.03286041 -0.046513647 0.015261164 -0.034371186
000260 2e fa 01 3d 3f 6c c2 3c c1 99 9e bb de 61 e6 bc
       0.03173273 0.023733256 -0.0048401062 -0.028122839
000270 b1 1e a9 3c 62 49 28 bd f8 25 71 bd 93 be a9 3c
       0.020644518 -0.04108561 -0.0588741 0.020720756
000280 bb 41 aa bc 0e c4 13 3d ca 38 b9 3c a1 76 fd 3c
       -0.020783296 0.036075644 0.022610087 0.030940356
000290 93 06 6d bd eb 17 9d bc 64 59 f1 3c 8a d8 25 3d
       -0.057867598 -0.019176444 0.02946157 0.04048971
0002a0 91 c9 4b bd a6 60 ec 3c 06 0f 10 3d 13 bd 9d 3c
       -0.049752776 0.02885468 0.035170577 0.019255197
0002b0 55 c3 a3 3c 09 52 04 3d ad 27 86 bc cd 50 c9 3c
       0.019990603 0.032304797 -0.01637634 0.024574662
0002c0 c6 0f cf bc 3e 52 08 bd 40 9c e7 bc c9 13 d4 3c
       -0.025276076 -0.033281557 -0.028272748 0.02588834
0002d0 f8 e7 1c 3d 7c 60 cd bc 7d 0c 86 bb f2 08 25 3c
       0.03830716 -0.025070421 -0.004090844 0.0100729335
0002e0 95 2a 36 bd d3 87 77 bb be 9d 09 bd 37 78 0a 3b
       -0.044474203 -0.0037770167 -0.0335977 0.0021128783
0002f0 c2 f6 3a ba 92 df 1a bc b3 d1 eb ba 56 7e 78 bc
       -0.00071321067 -0.009452717 -0.0017991572 -0.01516684
000300 53 40 f3 bc 4c 0d 60 bb da 09 2a bd 3e 5d aa 3c
       -0.029693758 -0.0034187613 -0.0415133 0.020796414
000310 f9 c4 ed 3c 8b db 30 bd e6 e3 4c bd 4a a1 10 3c
       0.029024588 -0.043178122 -0.05002203 0.008827517
000320 ea cd 14 bb 9f 87 ea 3c a9 ea 8a bb b1 a5 00 bc
       -0.0022705742 0.028629122 -0.0042393995 -0.007852004
000330 18 83 e2 3c be 79 26 bd 3e c4 43 bd fb d9 fe bc
       0.027650401 -0.040643446 -0.047794573 -0.0311098
000340 8c 19 24 bd aa 9e 20 bd da 6c 0e 3c 9e 86 85 3b
       -0.040063426 -0.039213814 0.008692944 0.0040748855
000350 b5 37 47 bd 61 3e 50 bd ce 16 44 3d 6e a3 bb 3c
       -0.04863711 -0.05084074 0.04787331 0.022905078
000360 35 f6 07 bc e1 1d d2 bc eb 07 56 3b 05 b9 a3 3c
       -0.008298446 -0.025649013 0.0032658528 0.019985685
000370 cd f2 14 3d 51 ff 9d 3c 2c 49 43 bd 09 b4 41 bd
       0.036364365 0.019286783 -0.047677204 -0.047290836
000380 79 03 1e 3d a2 bf 0e bd 05 52 cc 3b e3 98 39 bc
       0.03857753 -0.034850724 0.0062353634 -0.011327955
000390 6a 69 51 bd 15 b1 0b bd a2 fa 00 3d 13 47 03 bc
       -0.05112592 -0.034104425 0.031489022 -0.008012551
0003a0 cd 53 00 3d 03 79 24 bd 5b 1b 5f 3c c6 41 39 bc
       0.03132992 -0.04015447 0.013617362 -0.0113071855
0003b0 b6 3c 33 3d 27 82 d0 bc a6 d2 e5 3c 3a 63 c7 3c
       0.04375907 -0.025452686 0.028054547 0.024339307
0003c0 6b 78 43 3c b9 5e c8 bc ef 2d 9c 3c e7 cd 8a 3c
       0.011930565 -0.02445923 0.019064872 0.016943885
0003d0 23 67 21 3d 72 94 35 bd 36 e6 1f bd b4 4a a7 3c
       0.039405 -0.04433102 -0.039037906 0.020421363
0003e0 60 3f 00 3b 55 0f 59 bd a6 43 28 3d 25 51 06 3c
       0.0019569024 -0.052993137 0.04108014 0.008198057
0003f0 68 a3 8d bc 86 d5 82 3b 87 0a 5c bc ff 02 bf 3c
       -0.017289832 0.003992739 -0.013430244 0.023316858

conv3.bias f4 [64]
000000 ed b2 1a 3d ad 74 33 bd 4e 0d e4 bc a2 4b d3 3a
       0.037768293 -0.043812443 -0.027838375 0.0016120563
000010 c4 2b 3c bd 43 27 86 bb e9 c2 d0 3c d1 3e b0 bb
       -0.045940176 -0.004094036 0.025483565 -0.005378582
000020 75 d1 35 bd b4 bf 32 bd b0 09 ec 3c d2 58 48 bd
       -0.044389207 -0.043639854 0.028813213 -0.04891283
000030 eb c6 8e bc a4 51 0f 3c f7 07 3a 3d c6 77 41 3c
       -0.017428836 0.008747492 0.045417752 0.011808341
000040 73 e2 e9 3c 5f d5 27 bd c5 54 ec bc fd ae ce bc
       0.028550362 -0.04097497 -0.028849015 -0.025229925
000050 d4 d6 2e 3d a7 b5 83 bc 89 e2 e4 bc cd 31 0f 3d
       0.042685345 -0.01607783 -0.027940052 0.034959603
000060 d9 0e 0d bd 10 c4 4f 3d 8e 22 ca bc bb 61 18 bd
       -0.034437988 0.05072409 -0.02467468 -0.037202578
000070 c2 3b 15 bb b1 52 00 3d da 8a 69 bc 67 d5 61 3c
       -0.0022771214 0.03132886 -0.014254296 0.013783789
000080 45 05 87 3b 05 d0 8e 3c 00 6e fe 3c c2 1d 9d bb
       0.004120501 0.017433176 0.031058311 -0.004794807
000090 69 1f c8 bc d2 e8 ab 3c 93 48 0e bc 2e f2 a7 3a
       -0.02442904 0.02098504 -0.008684295 0.0012813264
0000a0 4d 2e 37 bd 6e 30 91 3c 01 79 9c bc 54 c8 9f 3a
       -0.04472189 0.017723288 -0.019100668 0.001219044
0000b0 79 2d fd 3c ca 37 94 bc cd 09 1e 3c 05 ff b0 bc
       0.030905472 -0.018093009 0.009645891 -0.021605978
0000c0 de 27 21 3d 72 94 c7 3c 4e ee 3c 3d 19 c3 14 3d
       0.03934466 0.024362776 0.046125703 0.036318872
0000d0 a1 e2 3e bd de 46 c3 bc c7 dd 7e 3c 80 f7 71 bb
       -0.04660285 -0.023837503 0.0155558055 -0.0036921203
0000e0 9e f9 0a bd 9c 4a 87 bc 67 87 0a bd c2 6b 15 bd
       -0.03392946 -0.016515069 -0.033820536 -0.03647972
0000f0 c2 47 0c bd 24 ea f3 3c bb 0f 19 3d 46 cb 5b 3c
       -0.03424812 0.029774733 0.037368517 0.013415163

conv4.weight f4 [32, 64, 3]
000000 6e 3b 8c bd 67 3d 1b 3d aa 99 10 bc e1 f4 81 3d
       -0.06847273 0.037900355 -0.008825699 0.06345535
000010 15 b5 d3 bc dc 78 42 bd 43 7b 8f bd 33 46 a0 3c
       -0.025843183 -0.04747854 -0.07005932 0.019564724
000020 84 27 35 bd 1e 2c 6c 3d c9 73 18 bd 0d 08 89 bd
       -0.04422714 0.05765926 -0.037219796 -0.06690989
000030 16 2a 52 3d 70 c9 6f bd 81 12 7e bd ba df 39 3d
       0.051309668 -0.058541715 -0.062029365 0.045379378
000040 78 8b dd bc 3d fc e4 bb df 21 0e bd 20 ba 7e 3b
       -0.027044043 -0.006988077 -0.03470027 0.0038868263
000050 06 4a 77 bd f5 c6 83 bd 22 c4 65 bd 73 2f 69 3c
       -0.06037333 -0.064344324 -0.05609525 0.014232504
000060 2a 68 69 bc b7 96 21 bd fa b1 a5 3d fd 1c c2 bc
       -0.014246026 -0.039450374 0.08090587 -0.023695463
000070 4a 53 5f bd 79 df 31 3d b2 94 f6 3c 7b d0 09 3c
       -0.05452279 0.04342601 0.0301002 0.008411522
000080 28 98 66 bc ff 6d dc bc c0 61 6d 3c a9 d6 07 3d
       -0.014074363 -0.026907919 0.014488637 0.0331637
000090 3e b4 76 bd 3d 61 75 3d ac e2 4c bc 53 9b a5 3d
       -0.060230486 0.059907187 -0.012505215 0.08086266
0000a0 9e 9e 8c 3d 6f 01 d4 bc 6d 5e 30 bd ac 57 83 bd
       0.06866191 -0.02587959 -0.0430588 -0.064132065
0000b0 7f b0 81 bb 17 af 6e bd cd 9b 26 3d 53 f7 50 bd
       -0.0039578076 -0.058272447 0.040675927 -0.051017117
0000c0 9b 00 35 bd c7 23 5b 3d 98 0b 1b bd ed e8 f1 3c
       -0.04419003 0.053500917 -0.037852854 0.029530013
0000d0 84 13 f9 3b 5a fb 92 bd e8 e9 57 3b d7 b6 79 3d
       0.0076012034 -0.07176848 0.0032945815 0.060965385
0000e0 cc 5b b3 3c 2c d3 8f bd 91 18 0b bd 7c 5f 34 3d
       0.021894358 -0.070227 -0.033958975 0.044036373
0000f0 59 12 b6 3c a9 85 b4 bb a9 9c 46 3b 09 27 df bb
       0.022225546 -0.0055090976 0.003030578 -0.0068100733
000100 b9 71 b4 bc 6a 1f 92 bd 53 43 85 3d b0 d6 a3 3b
       -0.022026883 -0.07134898 0.06506982 0.004999958
000110 c3 30 62 3d 14 9b c6 39 68 58 ae 3c 56 bc 38 bd
       0.055222284 0.00037881045 0.02128239 -0.045101486
000120 e8 d0 15 3c 4f 41 bb bb 0c f2 1d 3b 60 16 28 3c
       0.009144045 -0.0057145725 0.002410057 0.010259241
000130 be f7 29 3d f8 3d e5 bc 0a c4 f1 bc cd e9 8e 3d
       0.04149603 -0.02798365 -0.029512424 0.06978188
000140 58 fb a0 bc 4c 65 ed bc bd dc 85 bb e0 1c 5e 3d
       -0.0196511 -0.028978966 -0.004085152 0.054226756
000150 d0 17 fc bc f2 1d ea bc 7a 06 03 3d cc b3 75 3d
       -0.030773073 -0.028578732 0.0319886 0.05998592
000160 f6 c5 68 bd bb 77 68 3c 63 c1 9b bc a7 eb 05 3d
       -0.056829415 0.014188702 -0.019013112 0.03269544
000170 75 ad 51 3a e6 cb 5f bd 5d 2a 1e bd b8 01 51 bd
       0.00079985644 -0.054637812 -0.03861462 -0.05102703
000180 64 6e 82 bd da f8 5d 3d fe f3 31 3d 45 18 b9 3c
       -0.063687116 0.0541924 0.04344558 0.02259458
000190 a7 4f 19 bd 5c 96 07 bd ca 7a 51 3d 41 f4 17 3d
       -0.037429478 -0.03310238 0.05114249 0.037098173
0001a0 ba c2 fe bc 84 9e a1 3c d7 03 58 bd bb 58 fd bc
       -0.031098712 0.019728906 -0.052738037 -0.030926099
0001b0 36 95 1a bb 30 c3 8b 3d 2e b8 86 3d a9 6b 24 bd
       -0.0023587472 0.068243384 0.06578098 -0.040141735
0001c0 2c 28 75 3d c3 44 68 bd f0 98 94 3d ba b9 82 bd
       0.059852764 -0.0567062 0.07255733 -0.06383081
0001d0 18 b5 be 3c 1f fc 44 3d 11 ec 85 bd 44 e8 3c bc
       0.023279712 0.048092004 -0.06539167 -0.011529986
0001e0 ac 77 8a 3d e9 a8 13 3d 83 c4 63 3d 45 49 d1 3a
       0.06761107 0.036049757 0.05560733 0.0015967271
0001f0 02 10 a4 3c d7 fb 4f bd c7 7a 22 bd ed ee 89 3d
       0.020027164 -0.050777283 -0.03966787 0.067350246
000200 2a 19 66 bc 2a 56 6b bc fb 61 d3 bc 85 5d 61 bb
       -0.0140440855 -0.014363805 -0.025803557 -0.0034388017
000210 b9 f6 43 3d 63 89 45 3d 55 c6 85 bd 39 e9 1f 3c
       0.047842715 0.048226725 -0.065319695 0.009760194
000220 e4 7f f7 3c df ce 14 3d 3f 24 a1 3c a5 c8 86 bc
       0.03021235 0.0363301 0.019670604 -0.016453097
000230 ef 32 93 bd bf e9 60 3b 0d f2 20 3d 39 4c 53 bd
       -0.07187449 0.003431901 0.039293338 -0.051586363
000240 ea 0d c6 bc a3 ee 58 bd 22 d6 0e bc 8b 37 2f 3d
       -0.024176557 -0.052961957 -0.008718045 0.04277758
000250 65 ff 75 3d 7f c9 90 3d 58 35 4e bd d8 89 39 3d
       0.060058016 0.07069682 -0.05034384 0.045297474
000260 0d b2 fe bc 4a 91 53 bd ee a5 a4 3c 8b 57 5e 3d
       -0.03109076 -0.05165223 0.020098653 0.054282706
000270 a9 8b c9 bc f7 ed 56 bd d4 08 3c bd d3 a7 14 bd
       -0.024602728 -0.052473035 -0.045906857 -0.036292862
000280 18 b5 b6 3c 28 46 d6 3c 1e df 84 ba 54 b5 83 3c
       0.02230315 0.0261565 -0.0010137295 0.016077675
000290 78 91 0f 3d d9 85 bf bc d0 d1 91 3d db 76 2c 3d
       0.03505084 -0.023379253 0.07120097 0.042105537
0002a0 f4 b7 3c bc ef 1d 22 bd 47 b6 70 3d 1e 48 3d bc
       -0.011518467 -0.03957933 0.058767583 -0.011552839
0002b0 39 95 1f bd 65 2f 51 bd 5a 41 00 3d 55 5b 8a bd
       -0.03896067 -0.05107059 0.031312324 -0.067557015
0002c0 82 04 a8 bb e8 74 5c 3d 74 50 c5 3c 77 e4 88 bb
       -0.0051274905 0.053822428 0.024086215 -0.0041776258
0002d0 05 43 8f 3d 85 a8 8f bd 75 f5 38 3d 55 ac 6b bd
       0.06995205 -0.070145644 0.04515596 -0.057537396
0002e0 52 21 08 bd 89 68 62 bd 2e a2 ab bc 36 61 f3 bc
       -0.0332349 -0.055275474 -0.020951357 -0.02970944
0002f0 c4 1e 39 bc 99 db ca bc 1c 18 3c bc a6 35 8d 3d
       -0.011298839 -0.024762915 -0.0114803575 0.06894998
000300 5b 4d 0f bb a1 94 45 bc 93 a0 81 3d 5d a4 32 3d
       -0.0021866176 -0.012059362 0.06329455 0.04361378
000310 16 c1 ae 3b 3c 95 90 3d 74 c8 9c 3d 78 55 e5 3c
       0.005333076 0.07059714 0.07655421 0.027994856
000320 82 58 7d bd 3c a2 dd bc 1d a3 53 bd de 4c 5c 3c
       -0.061851986 -0.027054898 -0.05166923 0.013446061
000330 16 62 f0 bc b1 fa 3c 3c 29 0d 9f bc 83 3f 54 3d
       -0.029343646 0.011534379 -0.019415455 0.051818382
000340 d8 31 b8 3b e2 6d 53 bd f3 79 5c bb ca 9f 7f bd
       0.005621176 -0.051618464 -0.0033642023 -0.062408246
000350 45 f8 b6 3c 9b 7c 87 3c 98 f0 c9 3b 41 2b dd 3c
       0.022335181 0.016538909 0.006162714 0.026998164
000360 98 cb b5 3b 40 6d 28 3d 90 9a be 3c d6 e3 89 bd
       0.005547952 0.041119814 0.02326706 -0.067329094
000370 dc f3 44 bd 51 c0 32 3c 77 c5 65 bd 20 5a cc b7
       -0.048084125 0.01091011 -0.05609652 -2.4360663e-05
000380 c2 90 b3 3d 42 2a d5 bc 53 65 7b bd c1 19 2c bd
       0.08767845 -0.026021127 -0.061375927 -0.04201675
000390 2e b1 3f 3c d8 d9 5c bd a4 4a 28 bd 56 c1 20 3d
       0.011699958 -0.05391869 -0.041086808 0.03924688
0003a0 8d 6c b3 3c 4e 04 a8 3d 89 25 b1 3c 35 02 5b 3c
       0.021902347 0.08203946 0.021624343 0.013367225
0003b0 91 0b 54 bd e4 b9 61 bc c3 20 f9 bc 10 18 07 bd
       -0.051768843 -0.01377723 -0.03041113 -0.032981932
0003c0 4c 94 44 3d 1a c7 9d 3d 2f 80 19 3d 1b 3f 83 bd
       0.04799299 0.07703991 0.03747576 -0.06408521
0003d0 a8 86 d7 3c 9f 84 77 bc 1b e3 01 bd 30 75 56 3c
       0.026309326 -0.015107303 -0.031710725 0.013089463
0003e0 27 db 2b 3d 52 c3 15 bd 55 41 72 bd d4 20 3d 3d
       0.041957047 -0.036563225 -0.059144337 0.046173885
0003f0 65 a3 b4 bb 1f 16 6e 3d f1 c4 2a bb 3d e4 79 3d
       -0.005512642 0.058126565 -0.0026057328 0.06100868

conv4.bias f4 [32]
000000 de 3e d3 bc fd 18 5a bd 33 25 c9 bc 90 25 71 3b
       -0.025786813 -0.053246487 -0.02455387 0.003679607
000010 ff 66 7f bd 65 0d bc bd 39 63 c3 bc ae ac 48 3d
       -0.062354084 -0.09182242 -0.023851024 0.048992805
000020 ad b9 be 3c 08 b5 60 bd 89 44 cd 3c 05 ee c8 3c
       0.023281896 -0.054860145 0.025057094 0.024527559
000030 f9 cf 07 3d 17 84 42 3d aa a1 16 3d 5c d1 2c bd
       0.033157323 0.047489252 0.03677527 -0.04219185
000040 9e a9 50 bd bd 40 db bd 5a 11 7d 3d 9a a7 d3 3d
       -0.05094301 -0.10705707 0.061784126 0.10334702
000050 84 d9 47 bb 67 20 ca bc fc a9 6b 3c 57 91 8a bd
       -0.003049464 -0.024673654 0.014383789 -0.067660026
000060 fe 12 32 bd 61 60 a4 bc aa 8d 3f 3c 19 e3 9a bd
       -0.043475144 -0.020065488 0.01169149 -0.07562847
000070 65 8c af 3d 90 78 03 3d 88 16 94 3d 4b ae 88 bd
       0.085717 0.0320974 0.0723086 -0.06673869

fc.weight f4 [6, 256]
000000 ab 3a 38 bd 3f 76 0e 3d 2f 07 83 bd 77 7d 0f 3c
       -0.044977825 0.034780737 -0.063978545 0.0087579405
000010 f2 a4 80 3c ab e1 06 bc 3c 06 06 bc f8 4f 17 bb
       0.015703652 -0.008232514 -0.008180197 -0.0023088437
000020 70 72 3f bd f0 18 ba 3b b8 b5 1a 3a e8 f2 fa 3c
       -0.046739995 0.0056792423 0.0005901712 0.030633405
000030 e2 65 56 bd ba 76 2c bd 03 f1 4d bd 48 d5 63 bd
       -0.052343257 -0.042105414 -0.050278675 -0.055623323
000040 24 1b 5c bc 3c 89 75 bd 7b 66 8d bc 0a c2 d4 bc
       -0.013434205 -0.05994533 -0.01726078 -0.025971431
000050 1a d9 d7 bb 63 b9 82 bd 4f 93 84 3c 1f 81 ed 3c
       -0.00658716 -0.06383016 0.016183523 0.028992234
000060 a7 c3 e3 3c 1d 97 22 3d 61 39 d7 3c a2 c6 1e 3c
       0.027803255 0.039694894 0.026272478 0.009690912
000070 f9 12 d6 bc a1 b0 51 bd dc ac 2f bd 3a e5 0c 3d
       -0.026132094 -0.051193837 -0.04288946 0.034398295
000080 9e 45 4b bd 9d 74 d3 3b 49 15 4d 3d fe ae ab 3a
       -0.04962694 0.0064531104 0.050069127 0.0013098416
000090 0b 00 da 3c 13 22 83 bc 71 27 31 3d d5 f6 34 bd
       0.026611349 -0.016007459 0.043250505 -0.04418071
0000a0 38 29 0e bc 66 3e e4 3b c6 7a bb bd c5 23 b4 bd
       -0.0086768195 0.0069654463 -0.091542765 -0.08795885
0000b0 5b b1 06 bb b9 5d b4 bd e5 ee 63 bd a1 42 95 bb
       -0.002055249 -0.08806939 -0.05564775 -0.004555062
0000c0 8b eb 59 bd f8 07 61 bd 59 d1 30 bd 20 a3 15 3c
       -0.053203147 -0.05493924 -0.0431684 0.00913313
0000d0 1f 14 90 3b 8d 59 3b bd 2f c1 11 bd 69 1f c3 bc
       0.00439693 -0.0457397 -0.035584625 -0.023818688
0000e0 34 c8 2d bd ac 06 6a bd a1 93 5b 3c c2 6f 36 bd
       -0.042427257 -0.05713527 0.013401897 -0.044540174
0000f0 3a 27 58 3b 51 88 99 bd c5 e2 e0 3c d5 c9 80 bd
       0.0032982365 -0.074967034 0.027451882 -0.062884964
000100 08 6a 0a bb 6f 7e 39 3d 7a e3 8b bd b7 01 f6 3b
       -0.0021120328 0.045286592 -0.06830497 0.0075075286
000110 0b cf 5c bd cd 8b 32 bc fd c8 59 bb 05 18 ab bc
       -0.05390839 -0.010897589 -0.003323137 -0.020885477
000120 85 85 22 3d bb cf 1e bd 97 b2 c9 3c be bb 71 3c
       0.039678115 -0.038772326 0.024621291 0.014754234
000130 21 c1 21 3d ce 84 07 bd bc 77 fa bc 5b 1a 06 bd
       0.039490823 -0.033085637 -0.030574672 -0.03273998
000140 9c 0b 89 bd 39 bc 18 bd 09 af ba bc 4f 11 69 bc
       -0.066916674 -0.037288878 -0.022788541 -0.014225318
000150 31 b7 52 bd f7 53 68 bc 9d 70 b1 3c bd 27 7e 3c
       -0.051444236 -0.014180175 0.021660144 0.015512404
000160 b1 a7 63 bb 0e 64 6c bc 44 42 72 bd 46 cb 12 bd
       -0.0034737403 -0.014428152 -0.059145227 -0.035838388
000170 07 5b a7 bd 25 a0 33 bd db 3d 83 bd 7a 2a fd bc
       -0.08171659 -0.043853898 -0.06408282 -0.030904043
000180 f9 64 42 3d 9a f8 c3 3b 17 f0 05 bd 69 6a 6b 3b
       0.047459576 0.0059805634 -0.03269967 0.003592158
000190 38 0b 26 bd 65 01 11 3c ce 23 b2 3c 2f 0d c0 3c
       -0.040538043 0.00885043 0.021745589 0.023443786
0001a0 9d aa 52 bd 69 31 49 bd 9d 6f e5 ba f4 64 9a bd
       -0.05143224 -0.049119387 -0.0017504577 -0.075387865
0001b0 a7 c0 c5 bc 48 10 21 bd b3 11 86 bb 33 db 49 bd
       -0.024139715 -0.039322168 -0.0040914654 -0.04928131
0001c0 40 55 ea 3c 86 04 78 bd 29 24 e7 bc c1 e3 56 bd
       0.028605103 -0.06055119 -0.028215485 -0.052463297
0001d0 6f d5 e1 bc 15 42 1e bd b6 2a 5a 3b 7d 24 7e 3c
       -0.027567593 -0.03863724 0.0033289618 0.015511629
0001e0 7c 25 2f 3d b4 07 c5 3c 14 7e 00 3c 59 97 03 3c
       0.042760357 0.024051525 0.007842559 0.00803169
0001f0 43 4e 10 bc 41 b2 f9 bc bd 64 e3 bc 6b 55 f5 3c
       -0.008807722 -0.030480506 -0.027757997 0.029947957
000200 19 86 64 bd 52 fc c8 3c b9 02 3f bc eb e9 89 3b
       -0.055791948 0.024534378 -0.011658364 0.0042087934
000210 bd bd dd 3b 1d 13 91 bd 1d af 6b bd 0f 3f 2a bc
       0.0067670033 -0.07083724 -0.057540048 -0.010391011
000220 26 48 83 bc 1f 14 e6 3c 3d c9 c9 3c 4a e6 95 bd
       -0.016025614 0.028085766 0.02463209 -0.07319315
000230 b1 69 8c 3c 31 a5 9c bd a6 e1 e8 3c b7 28 ba bb
       0.017140241 -0.07648695 0.02842791 -0.005681123
000240 26 99 54 bd 8e 11 02 3d 96 55 a9 3c 35 cf 5b bd
       -0.051903866 0.031755023 0.020670693 -0.053664405
000250 73 6c 4f 3d 6a c9 79 bd 48 be f6 bb 80 3a a2 3c
       0.050640535 -0.0609831 -0.0075300075 0.019803286
000260 32 c0 4e bb e1 04 92 bc 62 55 46 3c 08 62 63 bd
       -0.0031547663 -0.017824592 0.012105318 -0.05551341
000270 fc e2 86 bd dc 68 3f bd 4a cb 1b bc 7c 81 4c bd
       -0.065862626 -0.04673086 -0.009508917 -0.049928173
000280 8f ef 89 3c f7 b3 f5 bb 4e 79 e1 bc 3c 1d d4 3c
       0.016837863 -0.00749826 -0.027523663 0.025892846
000290 4f 29 f7 3c 68 a7 af bb 65 7d 06 bd dd 08 11 3d
       0.030171065 -0.0053605326 -0.03283443 0.035408843
0002a0 ac 9a 72 bd c8 13 55 bd ad 36 3f bd 3c c6 ed bb
       -0.059229538 -0.052020818 -0.046683002 -0.0072562974
0002b0 59 c5 5d bd 77 3e e1 3c 87 2d 40 bc 53 07 34 bd
       -0.054143284 0.027495606 -0.011729605 -0.043952297
0002c0 04 50 87 bd 96 13 89 bd a8 11 04 3d f6 a2 48 3b
       -0.06607059 -0.06693189 0.0322434 0.003061471
0002d0 a1 13 22 3c 7a 0a ba 3c 76 5f 59 3c bd 7f 9d bd
       0.009892375 0.022710074 0.013267389 -0.0769038
0002e0 aa 2f 0a bd fa a6 47 bd 72 9b 67 bc 34 e8 05 bb
       -0.033736862 -0.048743226 -0.014136182 -0.0020432593
0002f0 05 86 4e bd ea 79 44 3d 38 4c 04 bd d5 4a 12 bd
       -0.05042078 0.04796783 -0.03229925 -0.035715897
000300 bb 18 e3 3c d2 de 49 3d 96 ae 45 bd c7 71 27 3c
       0.027721753 0.049284764 -0.0482622 0.010219998
000310 b7 37 30 bd 83 04 05 3d cb a2 5a 3d 18 0d 40 bc
       -0.043021884 0.032475006 0.053377908 -0.011721872
000320 96 21 9e bc 23 56 7a bd 50 76 59 bd 36 14 83 bd
       -0.019303124 -0.061117303 -0.053091347 -0.06400339
000330 85 30 0b 3b 52 40 0c bd e3 81 23 3d 2a c2 64 3b
       0.0021238637 -0.034241028 0.03991879 0.003490577
000340 33 7b 8a bd 51 ba 44 bc d2 98 c7 3b 2a 1d 0e bc
       -0.0676178 -0.012007312 0.0060912156 -0.008673945
000350 ef 85 04 bb d8 5f 54 3b 39 97 62 bc d0 e5 de 3c
       -0.0020221432 0.003240576 -0.01383 0.027209193
000360 6a 24 5d bd d1 61 30 bc 32 44 fe 3a 66 bf 20 bd
       -0.053989805 -0.010765509 0.0019398986 -0.03924503
000370 e4 61 40 bd 27 12 25 bc cc 36 df bc 7d 73 46 3d
       -0.046968356 -0.010075129 -0.027247809 0.048449982
000380 8e 35 e1 3c 33 a0 1b bd 36 dd 6a bd 8f 46 ea 3c
       0.027491357 -0.037994575 -0.05733987 0.028598098
000390 1c f9 13 3d a1 47 05 bd a6 7a 1a bd 3a 96 98 3c
       0.03612624 -0.032539014 -0.037714623 0.018626321
0003a0 d8 1d 0b bc d5 73 00 3d fd b2 4d bd 89 81 6f bc
       -0.008491002 0.031360466 -0.050219525 -0.014618286
0003b0 0f cc 93 bd 4f f2 0f bd bc 77 71 bd 4c 7f 7d bd
       -0.072166555 -0.035143193 -0.05895208 -0.061888978
0003c0 fa cc 67 bd bb 43 14 bd 4a 5c d0 bc cd 48 d1 3a
       -0.056591965 -0.036197405 -0.025434632 0.0015967131
0003d0 17 dc e0 3c 7f d1 c3 ba 9e 5e 51 3b 39 c1 00 bd
       0.027448697 -0.0014939754 0.0031947265 -0.03143427
0003e0 cb 31 0b 3d 9c c0 5c 3d 42 63 7a bd 37 b2 d6 bc
       0.033983033 0.053894624 -0.061129816 -0.026208026
0003f0 02 d1 62 bd 91 00 01 3d a4 86 a4 3c 7a d6 d7 3c
       -0.055375107 0.03149468 0.020083733 0.026347388

fc.bias f4 [6]
000000 8f 61 a6 bd 9b 7b 4c 3e 5a 10 ca bd f5 6a 23 be
       -0.081240766 0.19969027 -0.098664 -0.1595877
000010 f9 53 0b bd 21 cd ad 3e
       -0.03401563 0.33945563
