code/conjugate_gradient/models/GRU_CG_pruned.pt (torch, 60236 bytes, 10 tensors)

gru1.bias_ih_l0 f4 [150]
000000 62 eb df 3d e8 9c f6 bc f0 49 97 bd c3 a3 bc bd
       0.109335676 -0.030104116 -0.07387149 -0.092109226
000010 18 ae e2 3c a0 b5 2f 3d 6c 40 eb bd d6 4b 8e bd
       0.027670905 0.04289782 -0.11486897 -0.06948058
000020 98 d5 9b 3c b4 de d7 bc 90 49 b4 3d 40 75 72 3b
       0.019022748 -0.02635131 0.088030934 0.0036996156
000030 83 47 9d bd 9d af 0d 3e 64 65 cc 3d 1e 97 cf bd
       -0.076796554 0.13836522 0.09980276 -0.10136245
000040 32 1d e1 3d c0 16 2c 3b 10 62 7a bd 64 7a ed bd
       0.10991897 0.0026258677 -0.061128676 -0.1159561
000050 40 c8 8f bd 6e 98 dc 3d a0 ac c0 bd 0a 53 c8 bd
       -0.070206165 0.10771261 -0.094079256 -0.097814634
000060 62 c5 7f bd d2 e4 fa 3d 46 d4 0f bd 50 13 c6 3d
       -0.0624441 0.12250675 -0.03511455 0.09671652
000070 f8 0b 0a be 70 c7 9b 3d eb 82 05 3e e5 47 d9 bd
       -0.13481128 0.07606399 0.13038222 -0.10609416
000080 96 fb d9 bd d6 e9 03 be e4 52 58 3d 40 77 72 3c
       -0.10643689 -0.1288217 0.052813426 0.014798939
000090 17 32 0a 3e 38 bb 30 bd c4 f7 2b bd 80 65 eb bb
       0.1349567 -0.043147296 -0.041984335 -0.0071837306
0000a0 50 70 17 3c 16 00 90 bd 50 65 df 3c 3e 7d f3 bd
       0.009243086 -0.070312664 0.02726999 -0.118891224
0000b0 86 9e b5 3d 20 af 07 3d 18 0a b4 3c fa b4 48 bd
       0.088681266 0.033125997 0.02197747 -0.049000718
0000c0 a6 71 c3 3d 4c 1b 1f bd c2 6b dc 3d 96 da cf bd
       0.09543161 -0.03884439 0.10762741 -0.10149114
0000d0 30 30 35 3c 3e f2 5b bd 68 ff f2 bc ac 7f be 3d
       0.011058852 -0.053697817 -0.029662803 0.09301695
0000e0 d7 fc 90 bd a3 95 be bd 94 86 5d 3d 6c bf f0 bd
       -0.070794754 -0.09305885 0.05408342 -0.11755261
0000f0 f8 fe bb bc 6c 63 a1 bd a2 17 ad 3d 00 b8 66 39
       -0.022948727 -0.07880291 0.08451773 0.00022003055
000100 70 bb 7f bc 2d 48 91 bd 2a 58 49 bd 9a 8f ba 3d
       -0.015608653 -0.070938446 -0.049156345 0.09109421
000110 3c 9a 9c bc 08 ae f7 3c 20 ee cf bb de 29 d4 bd
       -0.019116513 0.030234352 -0.0063455254 -0.10359548
000120 35 25 a8 bd 04 57 9a 3d d8 c6 86 3c be d9 ca 3d
       -0.08210222 0.07536128 0.016452238 0.09904812
000130 00 87 67 3d 00 9a b9 39 34 4c b5 bd aa 70 50 bd
       0.05652523 0.0003540069 -0.08852425 -0.050888695
000140 02 97 fb bd ac 72 0d be fa c9 b4 3d d8 23 2e 3d
       -0.12284662 -0.13813275 0.088275865 0.042514652
000150 10 35 13 3c f9 e5 01 be 8c 1b 15 3d 69 55 ec bd
       0.008984819 -0.12685384 0.036403224 -0.11539728
000160 c6 0d 3c bd c4 40 ab bc b0 f7 a2 3c 00 3a 8b 3d
       -0.045911573 -0.020904906 0.019893497 0.06798172
000170 96 8e 27 bd 40 02 0a 3c fa c6 5a bd b2 99 ec 3d
       -0.040907465 0.008423388 -0.053412415 0.115527526
000180 34 30 60 bd 0e 64 cd bd 15 b4 03 be 80 9c 2e bd
       -0.05473347 -0.100288495 -0.12861665 -0.04262972
000190 72 e3 ab 3d 7e 6e ae 3d f8 d9 8d bc 3e b6 eb 3d
       0.08392991 0.085171685 -0.01731585 0.11509369
0001a0 00 45 a7 3b e9 44 a1 bd 71 64 b1 bd 00 cc df 3a
       0.005104661 -0.07874472 -0.08661736 0.0017074347
0001b0 10 42 04 3d e0 02 bc 3b a0 8a 2e bc cb 08 ba bd
       0.032289565 0.0057376474 -0.010653168 -0.090837084
0001c0 ca 1e ff bd a0 31 50 bc 06 d2 df bd b0 79 4a 3c
       -0.124570444 -0.012707144 -0.10928731 0.012358114
0001d0 e2 ef 06 be ac a8 6f bd b0 ab 06 3d 14 34 ff bc
       -0.13177446 -0.058510467 0.032878578 -0.031152762
0001e0 73 fe b0 bd fb 1e 0b 3e 10 6c 1a 3d ba 0d fd 3d
       -0.08642282 0.13586037 0.037700713 0.12356134
0001f0 98 60 30 3d 8c e1 1a bd a8 42 2b bd c8 f1 cd 3d
       0.04306087 -0.037812755 -0.041811615 0.10055882
000200 c2 b6 10 be 91 c1 0e 3e fa aa ef 3d b8 d7 8d bd
       -0.14132217 0.13941027 0.11702533 -0.06925911
000210 a0 ba 92 3d 50 15 77 3c a2 bf a2 bd 16 eb ff 3d
       0.07164502 0.015080765 -0.07946707 0.12496011
000220 56 2b ee 3d 60 5c 0e be ba 22 e1 3d d4 09 72 3d
       0.116293594 -0.13902426 0.10992952 0.059091404
000230 9a 0f e7 3d 93 7e ec bd 00 9f 06 3a 47 ee 08 3e
       0.11282273 -0.115475796 0.0005135387 0.13372146
000240 f6 29 a1 3d 06 3d c7 3d b8 86 b2 bd 17 f6 a3 bd
       0.078693315 0.09728436 -0.08717102 -0.08005922
000250 6a 37 cc bd 21 c7 00 3e
       -0.09971507 0.12575962

gru1.bias_hh_l0 f4 [150]
000000 38 9f db bd 24 f1 0d bd 82 cb 6c bd 9b 7c 02 be
       -0.10723728 -0.034653798 -0.057811268 -0.12742846
000010 b0 26 2a 3d ef 46 09 be 58 b1 a1 bd c6 8d 9b 3d
       0.0415408 -0.13405965 -0.07895154 0.075954005
000020 80 46 76 3b 9c 8a 27 bd bc d0 08 be 76 bb 90 3d
       0.0037578642 -0.040903673 -0.13360876 0.07067005
000030 aa 1c 6f bd e8 20 1b bd 24 e7 0d be 8d 4c bb bd
       -0.058376946 -0.03787318 -0.13857704 -0.0914546
000040 3c 05 49 bd aa 2d 98 3d 08 37 e1 bd bf 8c b2 bd
       -0.049077258 0.07430585 -0.109968245 -0.087182514
000050 8d 6f e9 bd 7c 2c 96 bc 2e a3 02 bd 18 f4 35 bd
       -0.1139823 -0.018331759 -0.0318939 -0.04442224
000060 73 d7 02 be 00 07 c8 3c b4 6b c3 bd 4e 29 50 bd
       -0.127775 0.0244174 -0.09542027 -0.05082064
000070 3c bd 03 be 1e 48 9a 3d 4e 78 b0 3d 9e 92 c3 3d
       -0.12865156 0.075332865 0.08616696 0.095494494
000080 b0 7a cc 3c 9e 91 f5 3d a0 33 8f 3c f2 45 00 be
       0.024960846 0.11990665 0.017480671 -0.12526682
000090 1c 63 94 3d 3a 37 f6 bd a8 db 3f 3d e0 7b 82 bb
       0.07245466 -0.120222524 0.04684034 -0.003982052
0000a0 14 ee 42 3d a8 83 3c 3d 28 51 8f 3c 4e 56 52 bd
       0.04759033 0.046023995 0.017494753 -0.051351838
0000b0 2e 21 a2 3d 32 31 90 bd 98 80 d0 3d 44 b8 9f bd
       0.07916485 -0.07040633 0.10180777 -0.07798818
0000c0 a6 02 bc bd 36 b9 ee bd f6 89 71 bd 80 2b 40 3d
       -0.09180193 -0.1165642 -0.05896946 0.046916485
0000d0 90 b3 03 3d fe 08 c1 bd 04 36 63 3d 2a 4a a4 bd
       0.032153666 -0.09425543 0.055471435 -0.08021958
0000e0 66 29 44 bd 5a 85 f8 bd a0 96 4d 3d 58 ac 09 be
       -0.047891043 -0.1213481 0.050192475 -0.1344465
0000f0 1a 21 e3 bd 9c 75 8d bd f2 e7 cf bd 5f fd 99 bd
       -0.11090298 -0.06907198 -0.10151662 -0.0751903
000100 48 8a 07 3d 60 bb b0 3c 00 65 8b 3a 0e a0 f5 3d
       0.03309086 0.021573722 0.0010634959 0.11993419
000110 e0 dc 40 3c b4 70 94 3d bb 38 a9 bd 9a 3b 94 3d
       0.011771411 0.07248059 -0.082627736 0.072379306
000120 f0 6b 87 3d 50 41 11 3c e3 ab 05 3e cc dc 94 bd
       0.06612384 0.008865669 0.13053851 -0.07268676
000130 6a 28 e9 3d fe 78 bf 3d f0 1d 62 bd c4 a8 88 bd
       0.113846615 0.09349249 -0.055204332 -0.066728145
000140 a0 b4 0a bd de 59 fe bd d8 5d 83 3d 5e 93 fd 3d
       -0.033863664 -0.124194846 0.06414384 0.12381624
000150 3c 2e 31 3d a3 ca 0c be 42 fb 38 bd 34 0f d5 3d
       0.043256983 -0.13749175 -0.045161493 0.104032904
000160 c8 2a 2a 3d a7 f0 05 3e 22 80 b6 3d 5a dc c8 3d
       0.041544706 0.13080083 0.08911158 0.09807654
000170 34 8c de bc 4c 34 64 bd ba 93 0a bd 73 14 09 3e
       -0.027166463 -0.055713937 -0.03383229 0.13386707
000180 80 b7 64 bb f4 22 87 3d 20 7d 7d 3d 2f ef 01 3e
       -0.0034899414 0.06598464 0.061886907 0.12688898
000190 52 7e af bd 6a 31 e0 bd 73 72 0e 3e 4a a3 fd 3d
       -0.085690156 -0.10946925 0.13910846 0.123846605
0001a0 7d 52 03 3e e0 07 2f bd 74 f9 ab bc 40 ae 7c 3c
       0.12824436 -0.04273212 -0.020992972 0.015422404
0001b0 f6 18 e4 3d fc 48 34 3d b4 83 04 be 54 5a 86 3d
       0.111375734 0.044014916 -0.12940866 0.065601975
0001c0 9b d7 82 bd 2c 8e dd bc c7 df 02 be ec 89 84 3d
       -0.0638878 -0.027045332 -0.12780677 0.06471619
0001d0 8f 84 81 bd 00 9f 99 ba b4 3e 0d be 2c a1 c4 bc
       -0.06324112 -0.0011720359 -0.1379345 -0.024002634
0001e0 3a f9 75 bd 12 2a 53 bd 48 a2 37 3d cb fd f3 bd
       -0.060052134 -0.051553793 0.044832498 -0.119136415
0001f0 84 f4 9e bc 38 b3 26 3d 30 2c 95 3d 16 c4 af bd
       -0.019403704 0.04069826 0.07283819 -0.08582322
000200 6a e9 70 bd aa e8 a5 bd c0 6b ff bd f8 b6 8f 3d
       -0.05881635 -0.08101018 -0.124717236 0.070173204
000210 e2 d7 47 bd a2 6d f1 3d 42 8c f2 3d 86 1a eb 3d
       -0.048789866 0.11788489 0.11843158 0.11479668
000220 66 4b 9d bd 80 1b 14 bc 84 11 c9 3d d0 22 04 3d
       -0.07680397 -0.00903976 0.09817794 0.032259762
000230 fe 07 0b bd a2 49 fb bd 40 9c fa bb 00 07 7b 3a
       -0.03394317 -0.12269904 -0.007648021 0.0009575933
000240 f4 c8 d5 3d 12 64 a9 bd 18 72 a3 bc 28 94 c9 bc
       0.104387194 -0.0827104 -0.019951865 -0.02460678
000250 48 7b dd 3d c8 e3 97 3c
       0.1081453 0.018541232

gru1.weight_ih_l0 f4 [150, 3]
000000 2c 92 c8 bd ab 9a 0a 3e 19 3b 09 be 64 9c bc 3d
       -0.09793505 0.13535564 -0.1340145 0.09209517
000010 00 00 00 00 92 dc e0 3d 68 ff b1 3d 25 5b e6 bd
       0.0 0.109795704 0.08691293 -0.11247853
000020 64 8f 0f be a8 24 55 bd 20 14 dc 3d 2b 09 0b 3e
       -0.14019543 -0.05203691 0.10746026 0.13577716
000030 00 00 00 80 c0 a1 6d 3d 00 00 00 80 9a 21 10 be
       -0.0 0.058015585 -0.0 -0.14075318
000040 98 ca 42 3d 00 00 00 80 64 e1 72 bd ee be f2 3d
       0.04755649 -0.0 -0.05929698 0.11852823
000050 ba ad 0a be a4 ee 7a bd 00 00 00 00 4e 7d 7e bd
       -0.13542834 -0.06126274 0.0 -0.06213122
000060 00 00 00 00 28 d0 8b 3d 04 dd ce 3d a2 18 fc 3d
       0.0 0.06826812 0.10100749 0.12309386
000070 ea 94 e5 3d 00 00 00 80 5b 93 08 3e cc 93 5c bd
       0.11210044 -0.0 0.13337462 -0.053851888
000080 16 e8 27 bd b3 d5 0d be d3 af b6 bd b8 1a c1 3d
       -0.04099282 -0.13851051 -0.089202546 0.09428924
000090 b0 bc f3 3c fa 88 ab bd 00 00 00 80 a8 be 4e 3d
       0.02975306 -0.083757356 -0.0 0.050474793
0000a0 26 be e3 3d 9d cc 0c 3e 48 49 5b 3d d0 78 0b be
       0.11120252 0.13749929 0.053536683 -0.13620305
0000b0 d5 aa 8a bd dc 02 5c 3d 84 91 04 be 00 00 00 80
       -0.06770865 0.053713664 -0.12946135 -0.0
0000c0 14 6e 70 bd 30 24 b5 3d 64 16 b5 bd ac f5 20 3d
       -0.05869873 0.08844793 -0.08842161 0.03929679
0000d0 00 00 00 00 00 77 ff 3c c2 48 af bd 5c 5e 23 3d
       0.0 0.031184673 -0.08558799 0.03988491
0000e0 00 00 00 80 7e 25 e4 bd e8 43 f3 bd 22 f1 a5 3d
       -0.0 -0.111399636 -0.118781865 0.08102633
0000f0 00 00 00 00 94 34 95 3d 00 00 00 00 5a 78 f4 3d
       0.0 0.07285419 0.0 0.11937018
000100 0e 10 aa bd 00 00 00 00 86 04 e7 bd 0e c2 d4 3d
       -0.083038434 0.0 -0.1128016 0.103885755
000110 ef 97 95 bd 46 84 fd 3d 4a 61 cc bd 5c c1 6c bd
       -0.0730437 0.12378745 -0.09979494 -0.05780159
000120 d1 a1 de bd 00 00 00 80 0e b6 9e 3d b8 57 81 bd
       -0.10870708 -0.0 0.07749568 -0.06315559
000130 38 ad d1 bd a2 dc fc bd b7 29 d2 bd 62 ef e2 3d
       -0.10238117 -0.1234677 -0.10261863 0.11080815
000140 b4 01 6f bd 00 00 00 80 ca fb f8 3d 00 00 00 00
       -0.058351234 -0.0 0.121574 0.0
000150 20 d8 47 3d 00 00 00 00 5c cc e6 bc 1d 2c 83 bd
       0.048790097 0.0 -0.028173618 -0.06404898
000160 25 04 06 3e f0 7c 6f 3d d6 00 75 bd 34 7c 13 3d
       0.13087519 0.05846876 -0.05981525 0.03600712
000170 8b 6d 0a 3e 54 33 ab 3d 6e 35 dd 3d b0 8a fd bd
       0.1351835 0.083593994 0.108012065 -0.12379968
000180 00 00 00 00 94 30 8c bd 00 00 00 80 00 00 00 00
       0.0 -0.06845203 -0.0 0.0
000190 00 00 00 00 c8 f4 1f 3d 22 30 ba bd 70 43 a6 3d
       0.0 0.0390518 -0.09091212 0.081183314
0001a0 2c 61 77 bd 4e 6b 84 3d 42 98 e7 3d ca dc 9c bd
       -0.060395405 0.06465779 0.11308338 -0.076593
0001b0 5e b9 e0 3d ec af 0d be 38 25 35 3d c9 6d 8e bd
       0.10972856 -0.1383664 0.044224948 -0.069545336
0001c0 2a 31 80 3d 08 31 aa 3d 88 be 94 3d 22 62 c1 bd
       0.06259377 0.08310133 0.072629035 -0.094425455
0001d0 10 47 cf 3d b0 4e 50 3d 00 00 00 00 56 58 e4 bd
       0.10120976 0.050856292 0.0 -0.11149661
0001e0 ae fd ad 3d 30 87 83 3d 00 00 00 00 00 00 00 00
       0.08495651 0.06422269 0.0 0.0
0001f0 fc 8f 6e bd 64 1d ce 3d 00 00 00 00 1c e4 20 3d
       -0.058242783 0.100641996 0.0 0.039280042
000200 48 7b 8a 3d 50 64 9e 3d d4 99 43 3d 89 2b a9 bd
       0.06761795 0.07733977 0.047754124 -0.08260257
000210 88 41 58 3d 00 00 00 00 60 72 c4 bd 00 00 00 80
       0.05279687 0.0 -0.09592128 -0.0
000220 52 94 eb 3d 9c e3 05 be 00 00 00 00 f6 05 e0 3d
       0.11502899 -0.13075107 0.0 0.10938637
000230 1f c7 09 be 00 00 00 00 4e ba e9 3d 5e 71 a2 bd
       -0.13454865 0.0 0.11412488 -0.07931779
000240 aa c4 f7 3d b0 f3 98 3d 00 00 00 80 e1 26 01 be
       0.120980576 0.07468355 -0.0 -0.12612487
000250 e1 aa 0b be b5 cc 82 bd 92 e5 cf 3d 44 51 7e bd
       -0.13639404 -0.06386701 0.10151209 -0.06208922
000260 a2 86 c0 3d 44 b9 52 bd 6b d0 84 bd b0 71 81 3d
       0.09400679 -0.051446214 -0.06485065 0.06320512
000270 c7 e4 cc bd 27 83 0e 3e e5 4c 04 3e 18 06 c0 3d
       -0.10004573 0.13917218 0.12919958 0.09376162
000280 40 b7 48 3d 1e f1 07 be 66 e9 98 3d 00 82 08 3d
       0.049002886 -0.13275573 0.07466392 0.033327103
000290 00 9d f6 3c 56 39 97 3d 00 00 00 80 ac 98 00 3d
       0.03010416 0.07383983 -0.0 0.0313956
0002a0 00 00 00 00 70 a3 66 bd 00 00 00 00 29 a2 09 be
       0.0 -0.05630821 0.0 -0.13440765
0002b0 00 00 00 00 08 8b 74 3d b0 f5 3b 3d 00 00 00 80
       0.0 0.059702903 0.045888603 -0.0
0002c0 f1 14 0c 3e da c3 e2 3d 00 00 00 00 46 66 b8 bd
       0.13679864 0.11072512 0.0 -0.09003882
0002d0 8c cd bf 3d 41 15 04 3e d6 bd e6 3d 5c 93 99 3d
       0.09365377 0.12898733 0.11266677 0.0749881
0002e0 00 23 a3 3d b8 95 34 3d ea 4b fe bd 00 00 00 00
       0.0796566 0.044088095 -0.12416823 0.0
0002f0 f2 5c a9 bd 79 4a 90 bd 06 10 4c bd 82 d7 04 be
       -0.08269681 -0.070454545 -0.04981997 -0.12972835
000300 ee a8 06 be d4 e0 00 3d 1a 07 a5 3d d0 0b 50 bd
       -0.13150379 0.031464413 0.08057995 -0.050792515
000310 00 00 00 80 ee bd 94 3d 60 ed 83 3d 1a e1 ee 3d
       -0.0 0.07262789 0.0644176 0.116640285
000320 4c aa 84 bd ee 15 f0 3d 00 00 00 00 d8 09 0d 3d
       -0.06477794 0.11722933 0.0 0.034433216
000330 6a 8e e6 3d 7c ec f5 bd d3 8e 0c 3e 00 00 00 00
       0.11257632 -0.120079964 0.13726358 0.0
000340 38 a5 f2 bc 14 e5 a1 3d e4 69 07 bd 4d 0a 9d bd
       -0.029619798 0.07905021 -0.03305997 -0.0766798
000350 00 00 00 80 c8 ce 9d 3d 0d 0c c9 bd 4e ff e8 bd
       -0.0 0.07705456 -0.09816752 -0.113768205
000360 98 24 8a bd 10 b8 3d 3d 00 00 00 00 28 81 58 3d
       -0.06745261 0.046318114 0.0 0.052857548
000370 2c 17 d5 3d 0e 96 c5 3d 00 00 00 80 72 cc 4b bd
       0.1040481 0.09647761 -0.0 -0.04975552
000380 48 09 99 3d 00 00 00 80 2a 26 0b bd ac 70 95 bd
       0.074724734 -0.0 -0.033971943 -0.07296881
000390 00 00 00 00 15 1a e4 bd 30 0f ce bd ca 53 d1 bd
       0.0 -0.11137787 -0.100614905 -0.102210596
0003a0 00 00 00 80 a0 46 fe bd 32 63 ad 3d 00 00 00 00
       -0.0 -0.124158144 0.08466186 0.0
0003b0 e5 72 03 3e f2 be 95 3d 58 4a a9 3d 54 47 44 3d
       0.12836798 0.073118106 0.08266133 0.047919586
0003c0 14 5b 9b 3d d4 ca 03 be 48 c9 27 3d 08 00 65 bd
       0.07585731 -0.12870342 0.04096344 -0.055908233
0003d0 1c 2f 3c 3d cc e0 c2 3d 3a 86 e9 3d 00 00 00 80
       0.045943365 0.09515533 0.11402555 -0.0
0003e0 00 00 00 80 00 00 00 00 42 80 24 bd 12 ca 4a bd
       -0.0 0.0 -0.04016138 -0.049509116
0003f0 4a e9 a8 bd fa 36 a7 bd 46 bc ba 3d d4 69 03 bd
       -0.08247621 -0.08164783 0.091179416 -0.032083347

gru1.weight_hh_l0 f4 [150, 50]
000000 12 7e 45 bd 3c 03 84 3d 00 00 00 00 b4 a3 9d 3d
       -0.048215933 0.064459294 0.0 0.076972395
000010 b4 1a 03 3d e8 6b 3e bd 64 3a c9 bd b4 e2 9e 3d
       0.032007888 -0.046489626 -0.0982559 0.07758084
000020 1d f9 0c be 94 02 c3 bd 00 00 00 00 e8 6b 19 3d
       -0.13766904 -0.09521976 0.0 0.037456423
000030 33 0a 07 3e 81 f3 05 3e 4f f5 0c 3e 90 11 b7 3d
       0.13187484 0.1308117 0.13765453 0.08938897
000040 f0 0d 28 3d c7 b8 8b bd d8 31 f6 bd 3a 47 aa bd
       0.041028917 -0.06822353 -0.12021226 -0.08314367
000050 00 00 00 00 00 00 00 80 09 e5 08 3e 00 00 00 80
       0.0 -0.0 0.1336862 -0.0
000060 68 ad 24 3d 56 d2 dc 3d 00 00 00 80 75 a9 08 be
       0.040204436 0.10782306 -0.0 -0.13345893
000070 c6 22 01 be fe 99 2c bd 1a 2b e9 3d d0 c5 12 3d
       -0.12610921 -0.042139046 0.11385174 0.03583318
000080 9c 6a 60 3d 16 98 09 bd a8 92 d8 3d 00 00 00 80
       0.05478917 -0.033592306 0.105748475 -0.0
000090 00 00 00 00 60 90 73 3d 00 00 00 00 45 70 a5 bd
       0.0 0.05946386 0.0 -0.08078054
0000a0 77 76 07 3e 4c a4 d1 3d c9 83 00 3e 37 c0 90 bd
       0.13228785 0.10236415 0.12550272 -0.07067912
0000b0 60 81 0a be 94 76 cf 3d b8 14 67 3d 40 5d ab bd
       -0.13525915 0.10130039 0.056416243 -0.083673954
0000c0 42 e0 df 3d 9a 89 0d bd a4 33 43 3d 45 91 10 be
       0.10931446 -0.034555055 0.04765667 -0.14117916
0000d0 c0 9d 52 3d b9 5f 02 be bc a8 e4 bd e6 89 f6 bd
       0.051419973 -0.12731828 -0.11164996 -0.12038021
0000e0 18 2d 4f 3d 00 00 00 80 50 70 68 bd e2 76 c5 bd
       0.050580114 -0.0 -0.056747735 -0.09641816
0000f0 20 d9 19 bd a4 6f 5f 3d 8a f1 ad bd 00 00 00 00
       -0.037560582 0.05454983 -0.084933355 0.0
000100 14 f4 ad bd 20 44 91 bd 00 00 00 80 fd fe c7 bd
       -0.0849382 -0.07093072 -0.0 -0.09765432
000110 00 00 00 80 7c 51 a5 3d b4 21 4f 3d 06 00 ad 3d
       -0.0 0.080721825 0.05056925 0.0844727
000120 bc f9 aa bd 9a 06 4e bd 92 a5 3b bd 52 1c cd bd
       -0.08348414 -0.050299264 -0.045812197 -0.10015167
000130 00 00 00 00 6b 4e c2 bd 22 fe e7 3d b9 22 88 bd
       0.0 -0.09487613 0.11327769 -0.06647248
000140 3a 14 1b bd 60 17 3b 3d ec 24 d6 3d 37 9a 92 bd
       -0.037861086 0.04567659 0.10456261 -0.071583204
000150 0d 8b b0 bd 24 12 58 bd 06 a4 e7 3d 00 00 00 00
       -0.08620272 -0.052751675 0.11310582 0.0
000160 c6 99 76 bd 5d 2d ec bd cb aa f7 bd 00 00 00 00
       -0.060205244 -0.1153209 -0.12093123 0.0
000170 4e 2f c3 3d dd a6 0a 3e b2 c7 ec 3d 00 fd 69 3d
       0.09530507 0.13540216 0.11561526 0.057126045
000180 14 ae f2 bd 59 9f c2 bd ea b3 8a 3d 8e 63 f0 3d
       -0.11849609 -0.095030494 0.06772597 0.117377385
000190 dd 62 09 3e 00 00 00 80 8d 8f 04 be 9d 1d f5 bd
       0.1341662 -0.0 -0.12945385 -0.11968539
0001a0 30 eb f6 bd 3c e4 0b be b8 79 b0 bd 00 00 00 00
       -0.12056577 -0.13661283 -0.08616966 0.0
0001b0 9e 82 a8 3d 00 00 00 80 b4 a7 69 bd 00 00 00 80
       0.08228038 -0.0 -0.0570447 -0.0
0001c0 28 b3 50 3d 24 93 4c 3d 1c fa c8 3d b2 55 f0 3d
       0.050952107 0.04994501 0.098133296 0.11735095
0001d0 2e e0 bf 3d 00 00 00 80 58 95 40 bd 9a e7 e9 3d
       0.09368931 -0.0 -0.047017425 0.114211276
0001e0 96 4a e5 3d 80 69 b4 3d 48 ef 4a bd 97 e8 00 3e
       0.11195867 0.08809185 -0.049544603 0.12588726
0001f0 80 25 f8 3c 00 00 00 80 b2 90 66 bd 80 b7 64 3d
       0.030291319 -0.0 -0.056290336 0.05583906
000200 80 91 d6 bd 00 00 00 00 72 ac e3 3d d0 f7 d0 bd
       -0.10476971 0.0 0.11116876 -0.102035165
000210 b2 a4 36 bd 30 27 30 bd d7 82 cf bd 8b 3b 07 be
       -0.04459066 -0.043006122 -0.101323776 -0.13206308
000220 14 ee d3 bd 56 6a f6 3d 84 7e 8f 3d 1a dd d7 3d
       -0.10348144 0.12032001 0.07006553 0.10540219
000230 4c c6 19 bd 67 6f 0c be 00 00 00 80 b6 3c fa 3d
       -0.037542626 -0.13714372 -0.0 0.12218611
000240 00 00 00 80 64 8c 00 be 20 fc 33 bd 2c 1f 00 3d
       -0.0 -0.12553555 -0.043941617 0.031279728
000250 0c 45 6b 3d 6b a2 0f be 00 00 00 00 00 00 00 80
       0.057438895 -0.14026801 0.0 -0.0
000260 0a 0d 9e 3d 0e bd 0c bd 00 00 00 00 59 ce a7 bd
       0.07717331 -0.034359984 0.0 -0.081936546
000270 00 00 00 00 c9 a0 06 3e a8 84 aa bd 8e a3 35 bd
       0.0 0.13147272 -0.083260834 -0.04434543
000280 cc 8b d5 3d 9e c4 a3 3d c3 2f 9d bd cc 5c a3 3d
       0.10427055 0.07996486 -0.076751254 0.07976684
000290 e8 ae 53 3d 00 00 00 00 84 b2 bc bd f4 31 e6 bd
       0.051680475 0.0 -0.09213737 -0.112399966
0002a0 cf 85 9a bd e2 6f f6 3d fa ed 09 be d0 53 4f bd
       -0.07545053 0.12033059 -0.13469687 -0.05061704
0002b0 6c 2c 8e bd 87 0e 93 bd 33 69 0d 3e 70 94 d0 bd
       -0.069420666 -0.07180505 0.13809662 -0.10184562
0002c0 00 00 00 00 9c 4b d4 3d a0 8d d9 3d dc 38 cf 3d
       0.0 0.10365984 0.10622716 0.10118267
0002d0 44 f0 6d 3d e8 65 c7 3d ce 9b 6b bd 11 b5 87 bd
       0.058090463 0.09736234 -0.057521634 -0.066263326
0002e0 43 f6 cb bd c4 b7 49 3d 00 00 00 80 4c f7 35 bd
       -0.0995908 0.04924752 -0.0 -0.044425294
0002f0 18 c0 76 3d e8 7b 12 3d 92 b5 66 bd 34 2c d5 3d
       0.06024179 0.035762697 -0.056325503 0.10408822
000300 e0 da 3f 3d 00 00 00 00 00 00 00 00 be 39 3e bd
       0.046839595 0.0 0.0 -0.046441786
000310 d4 87 fb bc f6 ca 9c bd b0 21 19 3d 80 4c 82 3d
       -0.030704416 -0.07655899 0.037385643 0.063622475
000320 00 00 00 00 10 3d a8 bd 00 00 00 80 07 ec b3 bd
       0.0 -0.08214772 -0.0 -0.08785253
000330 51 2a f3 bd 88 d2 f9 3c db 1e 03 be 6e e5 43 bd
       -0.118733056 0.030495897 -0.12804739 -0.047826223
000340 92 61 8c 3d 47 52 e6 bd 00 00 00 00 29 fe 0f 3e
       0.068545476 -0.11246162 0.0 0.14061798
000350 00 00 00 00 00 00 00 80 c2 e0 12 bd f4 9e 5e 3d
       0.0 -0.0 -0.035858877 0.05435081
000360 3a 39 d4 bd e2 f3 e7 3d 38 81 7f 3d 90 1d 4b 3d
       -0.103624776 0.11325814 0.062379092 0.04958874
000370 02 97 b2 3d a0 84 ad bd 00 00 00 00 60 16 d5 3d
       0.08720209 -0.08472562 0.0 0.10404658
000380 7d 6d ab bd 2c 90 45 3d 9d b8 0a 3e 36 63 b5 bd
       -0.083704926 0.048233196 0.13546987 -0.088568136
000390 00 00 00 00 df 55 e2 bd 28 fd 12 3d df 64 0b 3e
       0.0 -0.11051535 0.03588596 0.13612698
0003a0 00 00 00 00 8e b4 fd 3d 2b b3 b3 bd b6 4c d9 3d
       0.0 0.12387954 -0.08774408 0.106103346
0003b0 82 28 2d bd 38 63 b8 3d 7c f9 db 3d 7f 5a 0e 3e
       -0.04227496 0.090032995 0.10740945 0.13901709
0003c0 0d b1 07 be e0 91 d3 3d 70 f1 d9 3d 24 dd 9d 3d
       -0.13251133 0.10330558 0.10641754 0.07708195
0003d0 8b 8a b4 bd 00 00 00 00 86 2a 52 bd 00 00 00 00
       -0.088154875 0.0 -0.051310085 0.0
0003e0 19 ce 08 3e d2 2c e6 3d d4 5b 3f 3d 7a 66 e8 3d
       0.1335987 0.112390175 0.046718433 0.11347671
0003f0 92 55 c4 3d 9a be 9f 3d 00 00 00 80 96 c1 ea 3d
       0.09586634 0.07800026 -0.0 0.11462705

gru2.bias_ih_l0 f4 [75]
000000 4d 52 1b be c7 0a aa bd 14 37 0d bd 7d 3b e7 bd
       -0.15168114 -0.08302837 -0.034476355 -0.11290643
000010 8c 5e 57 bd a8 85 4a bd aa 3a bf bd f1 4b 2b 3e
       -0.0525804 -0.04944387 -0.09337361 0.16728188
000020 81 8a 38 3e 88 c5 55 bd 95 f4 1e 3e 2d 1e 15 3e
       0.18021585 -0.052190334 0.15522988 0.14562292
000030 00 0e 1e 3a f7 ad 25 3e 6a 42 dd bd c0 e1 2f bd
       0.0006029308 0.16179644 -0.10803683 -0.0429399
000040 7a 28 e9 3d 90 57 20 be aa e4 a3 3d 50 a3 7c bc
       0.113846734 -0.15658402 0.080025986 -0.015419796
000050 ee 87 ed 3d 7b 8f 24 3e 30 51 29 3c 00 ca a5 b9
       0.11598192 0.16070358 0.010334298 -0.00031621754
000060 34 6b 14 bd d3 82 06 3e 4e ba cd 3d 73 41 d5 bd
       -0.03623505 0.13135843 0.100453004 -0.10412874
000070 d5 60 22 3e bd b0 09 be f0 11 e0 3c 45 4d 26 3e
       0.15857251 -0.13446327 0.027352303 0.16240413
000080 94 c5 67 bd f7 c0 3e 3e f9 79 24 3e ee dc 10 be
       -0.05658491 0.18628298 0.16062154 -0.14146778
000090 3e d8 e7 3d a0 42 db bd 6e e0 07 be fd a2 c0 bd
       0.11320542 -0.10706067 -0.13269207 -0.094060875
0000a0 1a 6d 3b be e0 4b 52 bd 3d 44 30 be c6 ac 84 bd
       -0.18303338 -0.05134189 -0.17213531 -0.064782664
0000b0 48 a2 35 3d 0e ad 13 be 53 ee 2b 3e 6c 91 0e 3d
       0.044344217 -0.14421484 0.16790132 0.034806654
0000c0 4d 62 17 3e 71 8e 38 3e d4 ab 41 bd 80 48 f4 3c
       0.14783593 0.18023087 -0.04728301 0.029819727
0000d0 0d ac 49 3e 98 52 09 3d c1 84 2d 3e 50 b4 6b 3c
       0.19694538 0.033526033 0.16945173 0.014386252
0000e0 7a 79 a7 3d d8 84 97 3c 50 b6 8e bc a5 f0 27 be
       0.08177467 0.018495962 -0.017420918 -0.16400392
0000f0 a0 3e e2 bd e0 23 19 3c 93 66 0b 3e 56 83 82 3d
       -0.11047101 0.009346932 0.13613348 0.063727066
000100 de c5 ca 3d c6 26 fa 3d 31 fc 2a 3e c7 61 1b 3e
       0.099010214 0.12214427 0.16697766 0.15174018
000110 cb 29 3e be 1a 89 f3 3d ba 7d bf 3d 6c a1 14 bd
       -0.1857063 0.118913844 0.09350152 -0.036286756
000120 f2 d0 c7 3d c4 f1 79 3d bc 13 66 3d
       0.0975665 0.06102158 0.056171164

gru2.bias_hh_l0 f4 [75]
000000 37 78 30 3e 6f d3 02 3e a8 f2 45 3d ac 24 16 bd
       0.17233358 0.12775968 0.04832712 -0.036656067
000010 ea 7e d1 bd 48 4b 74 bd 00 9a a1 3c 7d d0 ef bd
       -0.10229285 -0.059642106 0.019726753 -0.11709688
000020 fa 13 ad bd d9 33 07 3e 98 33 12 3d 10 5b b1 bd
       -0.08451076 0.13203372 0.035693735 -0.08659947
000030 e5 b7 0d 3e 8d 3d f8 bd 12 35 41 be d7 ee 35 be
       0.13839681 -0.12121115 -0.18867901 -0.17766891
000040 40 32 06 be 75 1c 04 3e 38 0d 79 bd 60 2e 32 bd
       -0.13105106 0.1290148 -0.060803622 -0.043501258
000050 60 1d 2a bd 29 6d 16 3e 41 68 40 3e a5 01 3a 3e
       -0.04153192 0.14690079 0.1878977 0.1816469
000060 21 04 17 3e 02 54 f1 3d 05 3d 04 3e b0 b8 f9 3c
       0.14747669 0.11783601 0.12913902 0.030483574
000070 d8 06 b0 bc fd 01 43 3e 4c fc 37 3d ac 00 2b 3d
       -0.021487638 0.19043727 0.044918343 0.041748688
000080 c3 c9 e3 bd 67 43 a9 bd 74 dd 35 3d f0 b9 f1 bc
       -0.11122467 -0.08264809 0.044400647 -0.029507607
000090 b5 7e 43 be 9b 61 46 3e 76 a5 a3 3d 58 0b fc bc
       -0.19091304 0.19373171 0.079905435 -0.030767128
0000a0 c1 b3 22 3e 16 0e eb 3d 00 23 b4 bc aa 78 cb 3d
       0.15888883 0.11477296 -0.021989346 0.09935124
0000b0 33 fc 00 3e 3e 96 96 3d 0a a9 bc bd 91 45 4c 3e
       0.12596206 0.07352875 -0.09211929 0.19948412
0000c0 91 86 0f 3e c2 68 de 3d 60 8d 17 bd b5 3a 4c 3e
       0.14016177 0.10859825 -0.03700006 0.1994427
0000d0 6a 3e 0d be cd 00 00 be 4c 19 3c 3d 87 4d 2c 3e
       -0.1379334 -0.12500305 0.045922562 0.1682645
0000e0 da 5d aa 3d 27 23 1e 3e 56 77 07 be ec bb 6a 3d
       0.08318682 0.15443097 -0.13229117 0.057308123
0000f0 a0 54 18 3d 5c 7e 4e 3d 00 40 b8 b9 a7 8a 1b 3e
       0.03719008 0.050413474 -0.000351429 0.1518961
000100 40 17 2a 3b 4d 39 e5 bd 63 82 15 3e a0 fb 58 bc
       0.00259538 -0.1119257 0.1460052 -0.013243586
000110 25 fe 41 be 53 1b 0f be 74 f1 61 bd 52 5d 28 be
       -0.18944605 -0.13975267 -0.05516191 -0.16441849
000120 e8 49 03 3d 43 71 15 3e dd e2 fc bd
       0.032052904 0.14593987 -0.12347958

gru2.weight_ih_l0 f4 [75, 50]
000000 00 00 00 80 e1 96 0c 3e fb 26 03 3e 58 e1 35 be
       -0.0 0.1372943 0.12807839 -0.17761743
000010 ce c7 29 be 00 00 00 80 2f d9 4b be 60 36 12 be
       -0.16580126 -0.0 -0.19907068 -0.14278555
000020 93 48 0c 3e 58 8f 24 be 57 45 d2 bd d0 72 fa bd
       0.1369956 -0.16070306 -0.10267132 -0.1222893
000030 88 00 4d bd 37 cc 26 3e 88 41 30 bd 00 00 00 80
       -0.050049335 0.1628884 -0.043031245 -0.0
000040 c1 50 49 3e 33 48 e4 bd 00 00 00 00 15 13 05 3e
       0.19659711 -0.111465834 0.0 0.1299556
000050 56 2a 22 be 1c 6a 96 bd aa 08 92 3d 92 9b 20 be
       -0.15836462 -0.073444575 0.07130559 -0.15684345
000060 00 00 00 80 0a 2b f7 3d 10 2f fb bd 9d ac 3b 3e
       -0.0 0.12068756 -0.12264836 0.18327565
000070 e2 25 44 be 84 20 59 3d c2 47 f0 3d 10 27 c1 bd
       -0.19155076 0.053009525 0.11732437 -0.09431279
000080 75 1c 34 3e 4d c1 be bd e8 30 2b 3d cd 41 c7 bd
       0.1758898 -0.09314213 0.041794688 -0.097293474
000090 b4 59 37 bd 00 00 00 80 5d 18 cf bd fd 93 19 be
       -0.044763282 -0.0 -0.10112069 -0.1499786
0000a0 00 00 00 80 82 76 92 3d 00 00 00 80 cf 44 48 be
       -0.0 0.0715151 -0.0 -0.19557498
0000b0 42 1e 96 3d eb 9d 26 3e a0 f0 bb bd f7 0b b6 bd
       0.0732999 0.16271178 -0.09176755 -0.08889001
0000c0 0d ac 2c be c5 8d 01 3e 63 e1 9d bd 1a 43 3b be
       -0.16862507 0.12651737 -0.07709005 -0.18287316
0000d0 8c f0 2e 3d 23 81 32 3e 0f a4 37 3e fb 25 03 3e
       0.042709872 0.17432074 0.17933677 0.12807457
0000e0 7d f6 04 3e 12 66 98 3d a7 28 b5 bd 93 51 43 3e
       0.12984653 0.07441343 -0.088456444 0.19074087
0000f0 c4 21 95 bd 00 00 00 80 00 00 00 00 52 c2 a3 3d
       -0.07281831 -0.0 0.0 0.07996048
000100 21 08 24 3e c3 fd 41 3e 04 b6 6c 3d 00 00 00 00
       0.16018726 0.18944459 0.05779077 0.0
000110 b3 0f 16 be f7 c5 dc bd 9a f5 0f be 1e 02 1a be
       -0.14654426 -0.10779946 -0.14058533 -0.1503987
000120 e4 f2 05 be 00 00 00 80 00 00 00 80 e7 59 12 3e
       -0.13080937 -0.0 -0.0 0.14292108
000130 b7 28 48 3e 00 00 00 80 a3 47 f5 bd d2 c6 36 be
       0.19546781 -0.0 -0.11976554 -0.17849281
000140 c9 52 09 3e e4 02 52 3d 86 a1 14 be 00 00 00 00
       0.13410486 0.051272288 -0.14514741 0.0
000150 5d 58 01 3e fa 73 ed 3d a7 62 a8 bd 23 d8 27 3e
       0.12631364 0.115943864 -0.082219414 0.16391043
000160 5a d3 d5 3d 5d ea fd bd c8 4d 1f be 7d a5 ae bd
       0.10440703 -0.12398217 -0.15557015 -0.08527658
000170 9b 72 3f 3e 0b cb 41 be 00 00 00 80 10 7f a1 bd
       0.18696062 -0.18925111 -0.0 -0.078855634
000180 ec 99 40 3d d8 31 3b 3d 62 4a 1c be fe c6 bb 3d
       0.04702179 0.04570183 -0.1526275 0.09168814
000190 dd c9 e6 bd 13 df ef bd 3e cb d6 3d 99 6b 1d 3e
       -0.11268971 -0.1171247 0.10487984 0.15373076
0001a0 93 d3 cf bd 00 00 00 00 74 4c 32 bd e3 60 d6 bd
       -0.101477765 0.0 -0.043529943 -0.104676984
0001b0 9a be 21 be 51 6f 3c 3e 00 00 00 00 fd be c1 bd
       -0.15795365 0.18401839 0.0 -0.09460256
0001c0 00 00 00 00 6b ac 3f be cf 15 08 3e b8 61 3b 3d
       0.0 -0.18718116 0.1328957 0.04574749
0001d0 3a cb e2 3d 00 00 00 00 00 00 00 00 d9 60 00 3e
       0.11073919 0.0 0.0 0.12536944
0001e0 d6 ab c0 3d c8 b6 31 3d 78 5a 78 bd 52 c5 29 be
       0.09407775 0.043387204 -0.060633153 -0.16579178
0001f0 00 00 00 00 be 03 23 be 44 7f 76 3d 00 00 00 00
       0.0 -0.15919396 0.060179964 0.0
000200 00 00 00 80 00 00 00 80 00 00 00 00 00 00 00 00
       -0.0 -0.0 0.0 0.0
000210 93 53 1a be 62 0c d6 3d 22 e5 c3 3d b2 91 09 be
       -0.15070944 0.104515806 0.09565188 -0.13434485
000220 38 c8 0c be 2b d0 31 3e c4 70 7d 3d dd 08 af bd
       -0.13748252 0.17364566 0.06187512 -0.085466124
000230 21 02 3a 3e cd 7e 47 be c0 8a 5a bd 4d 70 e3 bd
       0.18164875 -0.19481964 -0.05335498 -0.11105404
000240 00 00 00 80 62 8e 43 be 00 00 00 80 6d 8b d4 bd
       -0.0 -0.19097283 -0.0 -0.10378156
000250 1d f3 3c 3e 00 00 00 00 bb af 2a be 00 00 00 00
       0.18452115 0.0 -0.16668598 0.0
000260 73 79 ad bd 00 00 00 00 b5 18 23 be 00 00 00 80
       -0.0847043 0.0 -0.15927394 -0.0
000270 00 00 00 00 27 54 a2 bd 2b eb 49 be 00 00 00 00
       0.0 -0.07926207 -0.19718616 0.0
000280 df a0 4c 3e 24 3b 8b bd 60 79 85 bd 35 60 18 be
       0.19983242 -0.067983896 -0.06517291 -0.1488045
000290 84 8b 71 3d 9d 77 26 be 1a 37 0b be 04 41 8d bd
       0.058970943 -0.16256566 -0.13595238 -0.06897166
0002a0 59 58 24 3e 92 5f a6 3d 4a 89 d1 bd 86 f7 d3 3d
       0.16049327 0.08123697 -0.10231264 0.10349946
0002b0 50 f0 c3 bd 64 96 83 bd 0e 53 bb 3d b3 d7 9a bd
       -0.0956732 -0.06425169 0.09146701 -0.075606726
0002c0 6a 69 ce 3d 4c 9f 00 be 0c 09 35 3d 53 26 a5 bd
       0.100787 -0.12560767 0.04419808 -0.080639504
0002d0 d2 4a 0b be 80 8d ab bd 97 37 bd bd 00 00 00 80
       -0.1360276 -0.08376598 -0.092391185 -0.0
0002e0 20 8d 35 be 2c f8 7a bd 72 ea d3 3d dc 87 8c bd
       -0.17729616 -0.06127183 0.10347451 -0.068618506
0002f0 9a 0b 9b 3d 00 00 00 80 50 f6 b3 bd e2 eb b6 3d
       0.07570572 -0.0 -0.08787215 0.0893171
000300 e4 73 95 bd 00 00 00 00 2a f7 c4 3d 9c 38 0c be
       -0.07297495 0.0 0.09617455 -0.1369347
000310 7a f7 bb bd 74 72 51 3d b3 b9 cd bd 00 00 00 00
       -0.09178062 0.05113454 -0.10045185 0.0
000320 63 71 32 be db 00 24 3e 00 00 00 80 86 ce 89 3d
       -0.17426066 0.16015951 -0.0 0.06728844
000330 4e 58 00 be 7e 33 91 3d 8a a4 38 be d9 6d 08 3e
       -0.12533686 0.070898995 -0.18031517 0.13323154
000340 00 00 00 00 04 82 5a 3d 04 fc 7c 3d 00 00 00 80
       0.0 0.05334665 0.06176378 -0.0
000350 c0 83 c2 bd 34 c6 44 3d 2b 90 16 be 00 00 00 00
       -0.094977856 0.048040584 -0.14703433 0.0
000360 3f 04 38 3e 00 00 00 00 50 51 d5 bd 0a e7 d6 bd
       0.1797037 0.0 -0.104159 -0.10493286
000370 04 95 6c 3d af 4a 12 3e ce 70 c2 3d a6 58 80 bd
       0.0577593 0.14286302 0.09494172 -0.06266908
000380 7a 07 9d 3d 0d c7 2d be 82 a0 92 3d 82 ee e3 3d
       0.07667442 -0.16970463 0.07159521 0.11129476
000390 20 7b 8c bd 06 40 15 be bd bb 1b 3e 00 00 00 80
       -0.06859422 -0.14575204 0.15208335 -0.0
0003a0 00 00 00 80 00 00 00 80 c6 b8 81 bd 00 00 00 80
       -0.0 -0.0 -0.06334071 -0.0
0003b0 73 f4 23 3e de 29 2a be 77 14 28 3e 00 00 00 00
       0.16011219 -0.16617534 0.16414057 0.0
0003c0 d9 d3 29 3e 00 00 00 00 d4 92 6d 3d 73 75 2b be
       0.1658472 0.0 0.058001354 -0.16744022
0003d0 48 02 3a 3d a0 95 57 bd f6 d3 0d be 6f 12 0d 3e
       0.04541233 -0.052632928 -0.13850388 0.13776563
0003e0 c6 aa 89 3d 00 00 00 80 00 00 00 00 c0 4d 3d bd
       0.067220256 -0.0 0.0 -0.046216726
0003f0 5b 5d 1e be e0 0c 0c be fc 0d 78 3d 32 bb b6 3d
       -0.154653 -0.13676786 0.06056021 0.089224234

gru2.weight_hh_l0 f4 [75, 25]
000000 3a 83 b7 3d 25 9d 48 3e a7 6d ed bd 15 d0 36 3e
       0.08960576 0.19591196 -0.1159318 0.17852814
000010 c6 7c e6 3d 00 00 00 00 00 00 00 00 db 89 47 3e
       0.112542674 0.0 0.0 0.19486181
000020 02 0d b1 3d a2 f5 d4 3d 3e 27 d0 3d 93 94 de bd
       0.08645059 0.10398413 0.10163735 -0.10868182
000030 76 e8 8b 3d 0a c2 f5 bd 07 96 22 3e e6 10 c2 3d
       0.06831448 -0.11999901 0.15877543 0.09475879
000040 d0 86 88 bd 00 00 00 80 84 55 89 bd 97 b6 99 bd
       -0.066663384 -0.0 -0.06705764 -0.075055294
000050 00 00 00 00 e3 fd 45 3e 7a 75 c4 3d 2c f9 6f 3d
       0.0 0.19335131 0.095927194 0.05858724
000060 53 b3 a3 bd 00 00 00 80 3a 16 36 be e1 30 47 3e
       -0.07993188 -0.0 -0.17781916 0.1945224
000070 a5 3a 2f be de 67 11 be 8a 94 9f bd 00 00 00 00
       -0.17112215 -0.14199778 -0.077920035 0.0
000080 f2 c5 37 be ca 92 3c be 6d 3c 2b be 3a ad ea bd
       -0.17946604 -0.1841537 -0.1672227 -0.114588216
000090 30 3c fe bd 37 26 12 3e 42 91 d9 3d 24 04 61 3d
       -0.124138236 0.1427239 0.10623409 0.05493559
0000a0 83 36 10 3e f7 6e 1e 3e 2c 53 5e 3d 48 39 41 bd
       0.14083295 0.15472017 0.054278538 -0.04717377
0000b0 00 00 00 00 00 00 00 80 f4 16 45 bd 21 92 3a 3e
       0.0 -0.0 -0.048117593 0.18219806
0000c0 00 00 00 00 00 00 00 00 e1 5c 11 3e 51 b2 30 3e
       0.0 0.0 0.14195587 0.17255522
0000d0 ea c5 8d bd 9e ab b8 3d cb 30 2a be 72 2e be 3d
       -0.06922515 0.090171084 -0.16620176 0.092862025
0000e0 e1 7f 4b 3e c6 63 dd 3d 00 00 00 00 04 11 5d 3d
       0.19873 0.10810046 0.0 0.053971305
0000f0 7f 13 39 be 00 00 00 80 00 00 00 00 00 00 00 00
       -0.18073843 -0.0 0.0 0.0
000100 61 97 38 3e 0a 81 4a be 3a 82 fb 3d 00 00 00 80
       0.18026496 -0.19775787 0.12280698 -0.0
000110 36 c6 92 bd aa 8f ad bd 00 00 00 00 13 63 4b be
       -0.07166712 -0.08474667 0.0 -0.19862013
000120 00 00 00 80 00 00 00 80 75 f0 35 3e 33 60 d4 bd
       -0.0 -0.0 0.17767508 -0.10369911
000130 60 36 58 bd 34 f5 92 bd 4e 1c df 3d 8a b2 d1 bd
       -0.05278623 -0.07175675 0.108940706 -0.10239132
000140 53 35 43 be 22 da be 3d e0 a2 37 3d a9 a2 01 3e
       -0.1906331 0.09318949 0.044833064 0.12659706
000150 e6 b2 dd 3d 7c 40 6e 3d 96 c9 a8 3d 00 00 00 00
       0.10825138 0.058166966 0.082415745 0.0
000160 ba 91 89 bd 8a a7 de bd 95 e1 2c be 2b 5d 48 be
       -0.06717248 -0.10871799 -0.16882928 -0.19566791
000170 00 00 00 80 5d 7f 00 be 5a e1 98 bd f1 41 10 3e
       -0.0 -0.12548585 -0.074648574 0.14087655
000180 08 9e 33 be 22 d1 b7 3d 38 a8 57 bd ed 37 a9 bd
       -0.17540753 0.08975436 -0.05265066 -0.0826262
000190 cb da 1c 3e 00 00 00 00 20 25 a7 bd 5d 43 48 3e
       0.15317838 0.0 -0.08161378 0.19556947
0001a0 ed 5c 1b 3e 00 00 00 00 00 00 00 80 3a b9 e8 3d
       0.15172167 0.0 -0.0 0.11363454
0001b0 a3 76 dc bd b4 d7 7c 3d 2b 57 37 be 2d 50 27 be
       -0.10764816 0.061729148 -0.17904346 -0.16339178
0001c0 68 37 1c be 00 00 00 80 8d e6 b7 bd 65 cd 22 be
       -0.15255511 -0.0 -0.08979521 -0.15898664
0001d0 64 7a 71 3d c2 4f a2 3d 00 00 00 80 00 00 00 80
       0.05895461 0.07925369 -0.0 -0.0
0001e0 f9 af 22 3e a0 7a 22 be 8c aa 02 be a7 33 d2 bd
       0.1588744 -0.1586709 -0.12760371 -0.10263758
0001f0 0f 19 19 3e 9a 98 86 3d 00 00 00 00 d8 10 49 be
       0.14950965 0.06572075 0.0 -0.19635332
000200 00 00 00 00 da ca 20 be 5b 5d 3f be 03 b5 b0 bd
       0.0 -0.15702382 -0.18687956 -0.08628275
000210 a5 58 49 3e db 49 17 3e 10 e8 f6 bd 00 00 00 00
       0.19662721 0.14774267 -0.12055981 0.0
000220 00 00 00 80 8d 98 03 be ab cd 30 be da 0b 40 be
       -0.0 -0.12851162 -0.17265956 -0.18754521
000230 ca c7 8a bd 9a ba 82 bd e4 98 05 be e3 bc 42 be
       -0.06776388 -0.06383248 -0.13046604 -0.19017367
000240 2f 8c 1a 3e 9b 17 0b 3e 31 9c 37 3e 00 00 00 00
       0.15092538 0.13583224 0.17930676 0.0
000250 00 00 00 00 f8 4f 08 be ea 14 95 3d 39 9a 3a 3e
       0.0 -0.13311756 0.0727938 0.18222894
000260 c4 f2 09 be 42 3c aa 3d 39 47 0f 3e 4b 03 47 be
       -0.13471514 0.083122745 0.13992013 -0.1943485
000270 00 00 00 00 00 00 00 00 00 00 00 00 0e f2 86 3d
       0.0 0.0 0.0 0.06589137
000280 4e c2 d3 3d f6 e0 90 bd 00 00 00 00 a3 5a 1e 3e
       0.10339795 -0.07074158 0.0 0.15464263
000290 00 aa 17 be 00 00 00 80 7d db 9b bd 00 00 00 00
       -0.14810944 -0.0 -0.076102234 0.0
0002a0 19 02 3b 3e e3 52 38 3e f2 9f d6 3d 99 3f 45 3e
       0.18262519 0.18000369 0.10479726 0.19262542
0002b0 00 00 00 80 e8 f9 50 bd 5d 09 0d 3e fd c3 f0 bd
       -0.0 -0.05101958 0.13773103 -0.11756132
0002c0 93 79 2e 3e fc 67 76 3d 3c 73 08 be 62 a9 a4 3d
       0.17038564 0.06015776 -0.13325208 0.0804012
0002d0 00 00 00 80 c0 16 6f bd 73 5b 42 3e 00 00 00 00
       -0.0 -0.058371305 0.18980198 0.0
0002e0 40 17 4c be 9a 16 05 be 00 00 00 00 db 25 2d 3e
       -0.19930744 -0.12996903 0.0 0.16908972
0002f0 30 84 01 be 00 42 ea bd de 66 e8 3d 16 51 fd 3d
       -0.12648082 -0.1143837 0.11347745 0.123689815
000300 00 00 00 00 7b 53 28 3e b7 13 4a 3e 00 00 00 80
       0.0 0.16438095 0.19734083 -0.0
000310 00 00 00 00 97 ac a3 bd cb ee 18 3e 00 00 00 80
       0.0 -0.07991903 0.14934842 -0.0
000320 00 00 00 80 31 9a 0b 3e 9d 1b d6 bd 00 00 00 00
       -0.0 0.13633038 -0.104544856 0.0
000330 97 dc 40 3e 18 b0 0f be 3e 1d 02 be be 9e d9 3d
       0.18834148 -0.14032018 -0.12706468 0.10625981
000340 00 89 7d bd 00 00 00 00 a2 1f d5 3d 32 2a 22 be
       -0.06189823 0.0 0.10406424 -0.15836409
000350 24 a3 73 3d 00 00 00 80 b0 38 93 bd 00 00 00 00
       0.059481755 -0.0 -0.07188547 0.0
000360 47 47 27 3e 0a a7 b1 bd 52 98 2f be ab fd 46 3e
       0.16335784 -0.08674438 -0.1714795 0.19432704
000370 00 00 00 80 00 00 00 00 01 15 19 3e f3 92 d6 bd
       -0.0 0.0 0.14949419 -0.10477247
000380 a1 e8 11 3e d0 49 aa bd ad 28 a5 bd b3 b8 03 3e
       0.14248897 -0.0831486 -0.08064399 0.12863426
000390 18 ef 41 3d b4 54 73 bd a4 c1 64 3d 9b 55 11 be
       0.04734716 -0.05940695 0.055848733 -0.14192812
0003a0 40 a1 8d bd 4d 26 fb bd 9d 5d c0 bd 00 00 00 00
       -0.069155216 -0.12263165 -0.09392855 0.0
0003b0 d5 2e 17 3e 33 ac 11 be 67 62 eb bd 94 08 5f 3d
       0.14763959 -0.14225845 -0.11493378 0.05445154
0003c0 bb b1 3b be ab f2 27 3e 33 24 26 be a4 bc 08 be
       -0.18329518 0.16401164 -0.16224746 -0.1335321
0003d0 a2 7b 91 3d ba 64 41 be 00 00 00 00 00 00 00 80
       0.07103659 -0.1888608 0.0 -0.0
0003e0 8b 02 16 be 0a ef 3a be c3 c3 00 3e 67 32 ed bd
       -0.14649408 -0.18255249 0.12574677 -0.11581879
0003f0 00 00 00 00 0e dc 19 be 29 71 34 3e fb a8 2b be
       0.0 -0.1502535 0.17621292 -0.1676368

fc.bias f4 [6]
000000 c2 0b ef 3d 16 a6 ac 3d 88 ea 4d bd 20 35 f5 bd
       0.116721645 0.08430116 -0.050272495 -0.119730234
000010 e1 0d 2b 3e 4d 59 d4 bd
       0.16704513 -0.10368595

fc.weight f4 [6, 25]
000000 30 03 d8 bd e5 24 30 3e f4 4b 49 3d 29 7f 28 3e
       -0.10547483 0.17201574 0.0491447 0.16454758
000010 be dc 80 3d 00 00 00 00 00 00 00 80 eb 71 00 3e
       0.06292103 0.0 -0.0 0.12543456
000020 34 02 5b 3d 20 4b 30 be 32 fd da 3d 28 62 37 3d
       0.053468898 -0.17216158 0.106928244 0.044771343
000030 35 3e 2b 3e 56 3c c7 3d 00 00 00 00 f0 50 b1 bd
       0.16722949 0.09728305 0.0 -0.08658016
000040 48 22 54 bd d3 6b 4c be bb 30 2d 3e b7 e6 40 be
       -0.051790506 -0.19963007 0.1691312 -0.1883801
000050 00 00 00 00 d3 92 40 3e 8e 25 b1 3d 42 53 b4 3d
       0.0 0.18806009 0.08649741 0.08804943
000060 2d ef 10 be 00 00 00 80 0d 9a 33 3e 94 65 18 3d
       -0.14153738 -0.0 0.17539234 0.037206247
000070 68 f4 1c 3d 80 82 94 bd 00 00 00 00 2f dc 0b 3e
       0.03831902 -0.072514534 0.0 0.13658212
000080 00 00 00 80 12 fa 81 3d 7e 5b 8e 3d 7a 5d d6 3d
       -0.0 0.06346525 0.069510445 0.10467048
000090 c8 a1 0f be 5a 60 38 be 00 00 00 00 dd 27 ba bd
       -0.14026558 -0.18005505 0.0 -0.090896346
0000a0 8c f2 12 bd 79 7b 0e 3e 58 47 2c be 35 47 21 be
       -0.035875842 0.13914289 -0.1682409 -0.1574982
0000b0 cd ad 2b 3e 51 cf 0e 3e 2a 2a bf bd db 37 42 be
       0.16765518 0.13946272 -0.09334214 -0.1896662
0000c0 dd ca 27 be 56 99 86 3d 00 00 00 00 2f 37 13 3e
       -0.1638598 0.06572215 0.0 0.1437652
0000d0 39 ea 29 3e 40 30 2f 3d 82 1c a3 3d 00 00 00 00
       0.16593255 0.042770624 0.07964422 0.0
0000e0 5e 5f 0b be a2 9d fb 3d 00 00 00 80 db dd 42 be
       -0.13610598 0.122859254 -0.0 -0.19029944
0000f0 03 09 c9 bd f9 14 03 3e b6 4e c9 3d 8d 18 d7 bd
       -0.09816172 0.12800969 0.09829466 -0.105027296
000100 34 c8 2f 3d 07 68 bc bd 00 00 00 80 52 ff e7 3d
       0.042915538 -0.09199529 -0.0 0.11327995
000110 64 30 66 3d 64 fd 85 bd f8 09 56 bd c2 7d c6 3d
       0.056198493 -0.06542471 -0.0522556 0.09691955
000120 6d df e8 bd 38 ac 56 bd 00 00 00 00 2f b5 37 3e
       -0.1137074 -0.052410334 0.0 0.1794021
000130 c1 a1 30 3e 80 be cc bd a9 a6 44 3e e2 ce f0 3d
       0.17249204 -0.099972725 0.19204201 0.1175821
000140 6a 42 30 be b7 69 46 be a6 2c 85 3d 10 ec 0a be
       -0.17212835 -0.19376265 0.06502657 -0.13566613
000150 00 00 00 80 c4 14 7d 3d d6 0f f7 3d 00 00 00 80
       -0.0 0.06178738 0.12063567 -0.0
000160 7f 79 45 3e 9a 23 10 be ed eb e8 bd 00 00 00 00
       0.19284628 -0.14076081 -0.11373124 0.0
000170 00 00 00 80 cd 47 1b be 06 30 94 3d 00 00 00 80
       -0.0 -0.15164109 0.07235722 -0.0
000180 00 01 60 bd 80 af 17 be 0a ed af 3d 6b ec 31 3e
       -0.054688454 -0.14813042 0.085901335 0.17375343
000190 bd d9 17 be 0e 59 80 3d 6d d3 f4 bd 11 c3 00 3e
       -0.14829154 0.06266986 -0.11954389 0.12574412
0001a0 6f 80 0f 3e 00 00 00 80 1d 36 12 3e ee d4 c3 3d
       0.14013837 -0.0 0.14278455 0.095620975
0001b0 c0 86 05 be 00 00 00 80 57 2f 42 3e 00 00 00 80
       -0.13039684 -0.0 0.18963371 -0.0
0001c0 43 e9 f7 bd 00 00 00 80 c2 e3 c0 3d b4 3f 11 bd
       -0.12105038 -0.0 0.09418441 -0.035461143
0001d0 5a d9 97 bd 37 26 16 3e 0a 86 96 bd 00 00 00 80
       -0.074145034 0.14663015 -0.07349785 -0.0
0001e0 11 e8 25 3e 00 00 00 80 c7 f3 9b bd 00 00 00 00
       0.16201808 -0.0 -0.07614856 0.0
0001f0 00 00 00 80 ea 24 cc 3d ea 0b 02 be 03 00 16 3e
       -0.0 0.09967978 -0.12699857 0.14648442
000200 b3 5f b7 bd 16 a1 86 3d f0 2e a2 bd 00 00 00 80
       -0.089538 0.065736935 -0.07919109 -0.0
000210 a9 17 14 3e 47 a1 f0 bd c1 01 27 3e 00 00 00 00
       0.1446215 -0.11749511 0.16309263 0.0
000220 da f4 44 be 00 00 00 00 20 2f e9 bd 00 00 00 80
       -0.19234028 0.0 -0.113859415 -0.0
000230 b6 c6 19 be 1b 78 23 3e e2 61 f9 3d 4c 73 09 be
       -0.15017208 0.15963785 0.12176873 -0.13422889
000240 2e 3e ed 3d f2 a4 29 be c4 37 62 3d 37 dd 05 3e
       0.115841255 -0.16566828 0.055228963 0.13072668
000250 a3 31 16 be a7 ac bf bd
       -0.14667372 -0.09359103
