code/conjugate_gradient/models/gru_base.pt (torch, 59224 bytes, 10 tensors)

gru1.weight_ih_l0 f4 [150, 3]
00000000: 4869 453e 78dd 0abe 2dba f0bc 82c2 c63d
00000010: 2cf7 10be 9f63 013e 2827 06be 463a 593d
00000020: 9655 e13d e6d2 933d 65fc a9bd bd4c 98bd
00000030: b132 d5bc b604 a93d 83a6 073e 8f5c c7bd
00000040: 358f 12be 6b96 90bc eb82 d9bd 9644 2cbc
00000050: 332a 0a3e abbf 9fbc 093d 743c 8772 ff3c
00000060: 0b13 4dbd 7756 093c 4056 e03d ec8e 843d
00000070: c831 763d 7eb2 123e fa6a 12be ed68 0abe
00000080: 410a 87bd b856 b53d 0f5b 18bd 57c6 7ebd
00000090: 5e7c 113e ce36 efbc 5773 6fbd eab6 023e
000000a0: 1d30 29bd 0454 c7bc 17c7 56bd daf3 13be
000000b0: 1bbb b73d f0f2 633e 5ed5 b13a d5e8 9abd
000000c0: 5a96 153d dfcf 29be c122 0c3e 1b37 2b3e
000000d0: d23b d13d 91a4 b53d e357 34bd 73fe 023e
000000e0: f8dd a6bd da8f cfbd 1ab8 98bd a537 06bd
000000f0: c867 083d 7545 2e3e e35e 71bd 1682 3cbd
00000100: a3e4 aabd 462e b93d 8b57 9a3c 8610 08be
00000110: 0ca7 1d3d fe51 2abe e3ff 813e 1b32 4bbd
00000120: 5353 97bd 629e a43e 7a4f 80bd aceb 133d
00000130: bede 0f3d 7a73 093b 1552 d63d 575a 273e
00000140: 4df8 14bd 4277 8d3d 7295 17bc 83ab ac3d
00000150: 4dbc 973d 0083 4abd a5d7 c63d 5685 3d3e
00000160: 0ceb 8fbd 9b6e 9fbd 9432 f0bd 1bfc ca3c
00000170: 9606 543d 2479 bb3c 7f0d 113c f663 ec3b
00000180: e43a 9dbd de0f b13d ab23 e7bc f2b8 84bc
00000190: 1253 933c e37b c6bd f790 13be 0816 153d
000001a0: e7ac 6dbd 457b 94bd 6d9a a1bd c88d fcbd
000001b0: 618b 58bd 6310 91bd 990d a0bd 3584 db3d
000001c0: 5b50 413e fc52 1dbd 7f82 f9bd f275 1b3e
000001d0: 2070 abbd 88ae 48be ee7a 03be c5c3 6fbd
000001e0: adfb f33d 0c4d 6cbd c243 8d3d bffd c4bd
000001f0: 48ff 4a3d 2ca9 99bd bca7 083e 75ce c13d
00000200: ee9e e43d e8a1 7f3d a477 fabd 8d12 833e
00000210: 4e2d afbd 8e67 973e 99da 413c f934 f8bd
00000220: 19e5 fabd 0ec7 0ebc 0828 923d babd b63d
00000230: 9f05 0cbe 4ee9 cbbd 4cf6 1fbd 16c9 1c3d
00000240: 4550 2cbd dd4b f23c e405 f23b 09a5 bbbd
00000250: eec1 133e 7077 073e b058 b2bc cf5f f23e
00000260: ca5a c93d ba77 db3d 495c 9439 e199 c63d
00000270: a7de 783b 4985 be3d 6f85 49be 603a f9bb
00000280: 1718 df3d a4d8 013d 3dd3 8e3d 0669 6a3e
00000290: 24e5 4f3e 8cdb 2ebd e933 c53d c712 c83c
000002a0: 0a53 0c3e da5f 1e3e 2ec2 593d e3ac 623d
000002b0: c02d 643e 007b 04be 3d3d 30be 302f a2bd
000002c0: c0ec 033f 394b 24be 797d 94bd 108c 3b3d
000002d0: 3f14 8f3b 358d 083e f592 60be 283f 96bc
000002e0: a509 453e 1977 a63c ffc5 dcbd 03e2 4abe
000002f0: 458a 493d 133c a83d 1b5c c3bc 7b9d e53d
00000300: c9ef 8bbe 6aee bc3d 3198 193e d021 1bbc
00000310: a172 3abe 3c2e 6bbd dcd0 033e 2856 a1bd
00000320: 7ffb 2dbe 2769 2c3d 8b2d 0bbe 8fe3 30be
00000330: 56ae 173e 94c1 883c cda6 acbc 73c0 98bd
00000340: 2abc 1e3e 558e 6cbe fc2c 36bd 3b47 a03c
00000350: 2807 1cbe 495e 823d 1461 43be 80d1 113e
00000360: dfa5 14bd ef28 c8ba f2e1 093e 0667 223e
00000370: 7cea 5a3c 0f51 1a3e 68cf 1a3e 50c2 a3bd
00000380: 19b5 adbd 09b2 d0bd 2a24 463d b1b2 983e
00000390: 5f3a 1f3e 6b0c f63b 61d6 633e 0f23 28be
000003a0: 298a 9d3b d984 2dbe 9354 603e f313 7b3e
000003b0: a20f 1f3e 92cf e63e 1a4b 563e 2a4c 463b
000003c0: 6f35 283e 669b 59bd 8110 cabd 3865 663c
000003d0: fd46 983e 6752 84be 3cc6 0c3e 0c1d bf3d
000003e0: 0085 0c3d 87b8 43bd 02e3 96be c260 1a3e
000003f0: cca4 943d eddb 1b3d a312 673e c2c2 8bbd
0.19278443 -0.13561046 -0.02938565 0.09705068 -0.14156789 0.12635659 -0.13100874 0.05303409
0.11002652 0.0721796 -0.083000936 -0.07436512 -0.026025148 0.08252852 0.13247113 -0.09734451
-0.14312442 -0.01764985 -0.10620674 -0.010514399 0.1349266 -0.019500574 0.01490713 0.03118254
-0.05006699 0.008382431 0.10953951 0.06472573 0.06010607 0.14325902 -0.14298621 -0.13516589
-0.06593753 0.08854431 -0.037196215 -0.06220087 0.14207599 -0.029200938 -0.058459606 0.12765089
-0.04130565 -0.024332054 -0.05243596 -0.1444849 0.089712344 0.22260642 0.0013567617 -0.075639404
0.03652034 -0.16583203 0.13685133 0.1672024 0.10216488 0.08869279 -0.044029128 0.12792377
-0.08147806 -0.101348594 -0.074569896 -0.03276791 0.0333021 0.17018683 -0.05892838 -0.046022497
-0.0834439 0.09042029 0.018840572 -0.13287553 0.038489386 -0.1663284 0.2539054 -0.04960833
-0.0738894 0.32152086 -0.06265159 0.036113426 0.035124533 0.002097337 0.10464875 0.16343056
-0.03636961 0.06907512 -0.009251939 0.08431151 0.074089624 -0.049441338 0.097091 0.18507895
-0.070272535 -0.07784768 -0.11728397 0.024778416 0.051764093 0.022884913 0.008853315 0.0072140647
-0.07677248 0.086456046 -0.02821525 -0.01620147 0.017983947 -0.09691598 -0.14410768 0.036397964
-0.05802622 -0.07250074 -0.078907825 -0.1233173 -0.052867297 -0.07083204 -0.078150935 0.10718576
0.1887831 -0.03840922 -0.12183093 0.15181711 -0.083709955 -0.19597828 -0.12839863 -0.05853631
0.11913238 -0.057690665 0.068976894 -0.09618711 0.04955986 -0.0750297 0.13345236 0.09463207
0.11163126 0.062410265 -0.12229851 0.2560009 -0.08553563 0.29571193 0.011831903 -0.12119479
-0.12250728 -0.0087144505 0.071365416 0.08922906 -0.1367402 -0.09956609 -0.039053246 0.038277708
-0.04206874 0.02957719 0.007385956 -0.09162337 0.14429447 0.13229156 -0.021770805 0.4733872
0.0983177 0.107161954 0.00028297518 0.09697319 0.0037974508 0.09302766 -0.19679807 -0.007605836
0.10893267 0.031700745 0.06973884 0.22891626 0.20302254 -0.042689845 0.09629042 0.024423016
0.13703552 0.15466252 0.0531637 0.05534066 0.22283077 -0.12937546 -0.1721086 -0.079191566
0.51533127 -0.1604432 -0.072504945 0.04578787 0.004366427 0.13335116 -0.2193106 -0.018340662
0.1924196 0.020320462 -0.10779952 -0.19812779 0.04920413 0.08214583 -0.02384763 0.11211678
-0.2733138 0.092251614 0.14999463 -0.009468511 -0.1820779 -0.05741714 0.12872642 -0.07877761
-0.1699047 0.04209247 -0.13591592 -0.17274307 0.14812598 0.016693868 -0.02107563 -0.07458582
0.15501466 -0.2310117 -0.044476494 0.019565215 -0.15237105 0.0636564 -0.19080001 0.14240074
-0.036291 -0.0015270988 0.13465098 0.15859613 0.0133615695 0.15069984 0.15118182 -0.079960465
-0.08481807 -0.101902075 0.048374332 0.2982383 0.1554961 0.0075088046 0.22249748 -0.16419624
0.0048077297 -0.16945209 0.21907263 0.24519329 0.15533307 0.4508024 0.20927086 0.00302578
0.16426633 -0.053126715 -0.09866429 0.014062218 0.2974166 -0.25844118 0.13747495 0.09331712
0.034306526 -0.0477834 -0.29470068 0.15075973 0.07257995 0.038051534 0.22565703 -0.068242565

gru1.weight_hh_l0 f4 [150, 50]
00000000: b373 d23d 0f2e 66bc 2c1e fc3d 0019 043e
00000010: 1b82 f9bc 727c 6a3c fac6 85bd 3d3e ab3d
00000020: 30fb 0b3e d85c 223d ae5e bc3d 7a22 7b3d
00000030: eae2 ff3c b557 de3d 5cd1 0bbe c9c0 2fbd
00000040: 88fc a9bd 7196 e1bd ccc8 7e3d 93b5 b23d
00000050: 8c6f 843d 132b d73d 3d90 8dbd e38d e2bd
00000060: 36fc 253d a43a 3a3b e906 2c3d 0c3e f3bb
00000070: fb66 6ebc a1f5 6f3d 14c3 2f39 ad1e 0d3e
00000080: 4307 16be 2fce 063e 4b60 19bd 3935 68bc
00000090: 0ee6 a2bc bc74 8f3d f956 ec3d 8e85 973d
000000a0: dd67 ac3d e0f5 c43c 3bd2 283d eb24 06be
000000b0: 00a8 7b3d e3b3 d83d a1a4 9dbd 8663 bcbd
000000c0: 3d47 b3bd ef47 dcbd 1395 b5bd 8bfc 943c
000000d0: df53 21bd 5e0a 1bbc 7494 5f3d cd39 eabd
000000e0: ce81 8ebb 70ce dcbc bd81 cb3d 8fda 26bd
000000f0: 0cb7 b23d 3a00 633d b030 8ebd bc16 e43d
00000100: 84f4 ec3d eb41 013e 523f 11bd 78a7 60bd
00000110: 5aed 50bc 994d cbbc 2dad b9bd ce9f f0bd
00000120: 5522 0dbe 6932 e4bd aafb 2cbd 7a50 01be
00000130: 96f5 463d 5f51 ba3d c231 253c 71c6 a83d
00000140: b94e bfbd 0b25 cdbd 5293 ba3c 9bc6 a4bc
00000150: 78d0 943d c7d8 8dbd 95c0 093c 80b6 a03c
00000160: 7036 0dbe 3546 ce3d 9a1c 83bc 8b51 0fbe
00000170: c81c f7bd 93c9 243d 3955 d33d 72fd a6bd
00000180: 7902 fd3c 127a f1bd 908f b03d 8ad8 1ebd
00000190: 486c 87bd 024e b1bd daf1 493c c6d3 02be
000001a0: 8eb4 aa3d 78d5 9a3c 3622 8c3d a43d 443d
000001b0: ca1d ee3c 1f04 b2bd 8a00 b43d 7872 c13c
000001c0: b098 b2bc 40f2 2ebd 4a08 0a3e a2a4 003d
000001d0: 3ec0 eb3d f4b5 5ebd dc70 b9bd 13b3 0b3e
000001e0: e9b8 8dbd 4b25 b8bd 815e bdbd cd44 ff3d
000001f0: 55bd af3d 0479 0bbe 03db b0bd 9613 f83d
00000200: ac1d f23b fe4b 00be 2265 893d 972d 93bc
00000210: 40e0 9ebd bc6b a9bd e376 b5bd dd52 f13c
00000220: d224 34bd 3129 b93d 0ffd 9f3d fa7e b23d
00000230: bc0f fdbd 5aab f03d 99ad 93bd 2a66 c43d
00000240: 2200 a0bd 1775 83bd 3427 a6bc 75a2 f9bd
00000250: 2611 d0bd adbb e7bc 9594 94bd 653c b1bd
00000260: bd53 8bbd 4041 c53d 0885 fd3c 8984 d6bd
00000270: 6e53 b63a 4be5 8d3d c85c 073e 7450 00be
00000280: 955a 12bb 834e fcbd 8ed1 35bd d1d5 763d
00000290: 3c93 bcbd 8624 3cbd aa07 ee3c 0fcd a93c
000002a0: 551d 1b3d 04c8 7dbd 47f2 a2bd 95d8 74bb
000002b0: 094b 0d3d f198 d8bd 8e15 8abc 6921 543d
000002c0: 4bc7 083e 0763 fe3b cd76 0a3e 1776 8fbd
000002d0: 12be 083c bf08 4cbc 0dfe c3bc 375e fd3c
000002e0: 2b09 8d3d c5c8 61bd 1416 b03d d1e0 e23d
000002f0: 04ea ef3d 3db9 1a3c bc85 b3bd 5cfb a4bc
00000300: df31 1f3b 9fb6 a3bd 6955 a03d 494a 83bd
00000310: b239 4a3c c8ff a93d 49c6 fbbb 74e1 42bd
00000320: ea03 ca3c e711 303d c889 8b3d e9a4 a1bc
00000330: 7d03 633d 5865 08be 2635 a8bd 9407 f4bd
00000340: db7c 2a3d a405 a73d 0474 25bd d86b c4bc
00000350: 72e2 92bd 48c9 45bd 64ac ef3c 3cb4 e2bd
00000360: eb74 81bd ac96 063e f986 e7bd 9f17 d7bd
00000370: 18c5 ab3d 0347 983c 0e37 983d 4e52 0c3e
00000380: 52c4 72bc 6213 af3c 9cee 06bd 0a54 8abd
00000390: d46b 533d 3538 e33b 362f c2bb 5949 533d
000003a0: 5323 ad3a 875d e5bd e86b f1bd b969 013e
000003b0: 7db0 cbbd 65f9 ee3d 831a d83d 3d56 893d
000003c0: ac37 bd3d ddf0 d23c b0c4 f7bd f5e1 aebd
000003d0: 90d8 bebd a24e 643c 626e 40bd c5fe 463d
000003e0: 560a 03be 7705 a0bd 30f9 c0bd 940c d8bd
000003f0: c445 99bd 832f 3c3d eab4 823d 1624 acbd
0.10275974 -0.014049067 0.12310442 0.12900162 -0.030457547 0.014311897 -0.065320924 0.083614804
0.13670039 0.039639324 0.09197746 0.061312176 0.03123613 0.108565725 -0.13654083 -0.042908464
-0.0830012 -0.110150225 0.062203214 0.08726039 0.064665884 0.10506263 -0.06912277 -0.11062219
0.04052373 0.00284163 0.041998778 -0.007423168 -0.01455092 0.05858386 0.00016761973 0.13781233
-0.14651208 0.1316459 -0.037445348 -0.0141728455 -0.01988509 0.07004687 0.11540026 0.073985204
0.08418248 0.024043024 0.041216116 -0.1310002 0.061439514 0.10581186 -0.07697416 -0.0919867
-0.08753822 -0.10755908 -0.08866324 0.018186828 -0.039386626 -0.009462921 0.054584935 -0.11436806
-0.00434897 -0.026953906 0.09936855 -0.040735777 0.0872632 0.055420138 -0.0694288 0.11137149
0.11570075 0.12622802 -0.035460778 -0.05484721 -0.0127519015 -0.024817275 -0.09066234 -0.1174923
-0.13782628 -0.111424275 -0.042232193 -0.12628356 0.048574053 0.090975516 0.010082664 0.08240975
-0.09341187 -0.10016831 0.022775326 -0.020114234 0.07266325 -0.069261126 0.008407732 0.019618273
-0.13790298 0.10071985 -0.01600485 -0.1399595 -0.120660365 0.0402313 0.10318989 -0.081538096
0.030884968 -0.11790861 0.086211324 -0.038780726 -0.0661245 -0.08657457 0.012325728 -0.12776098
0.08335219 0.018900618 0.06842463 0.047910348 0.029066939 -0.08692192 0.08789165 0.023614153
-0.021801323 -0.042711496 0.13479725 0.031407006 0.11511277 -0.054372743 -0.09054729 0.1364253
-0.069200344 -0.08991488 -0.09246541 0.124642946 0.08581034 -0.13620383 -0.08635523 0.12113111
0.007388791 -0.12528989 0.06708743 -0.017966075 -0.07757616 -0.08272502 -0.088605665 0.029458458
-0.043980427 0.0904106 0.07811939 0.08715625 -0.12356517 0.11751433 -0.072108455 0.09589799
-0.07812525 -0.064188175 -0.020282365 -0.12189189 -0.10159521 -0.028287733 -0.07254902 -0.086540975
-0.06803081 0.09631586 0.030947223 -0.10474498 0.0013910362 0.069285 0.13218987 -0.1253069
-0.0022331823 -0.123196624 -0.0443893 0.060262505 -0.0920777 -0.04593327 0.029056389 0.020727662
0.03786977 -0.061958328 -0.07956367 -0.0037360538 0.034495387 -0.10576046 -0.016855981 0.051789675
0.13357274 0.00776327 0.13521881 -0.07004946 0.008346098 -0.012453257 -0.023924852 0.030928714
0.06886514 -0.05512311 0.08597961 0.110780366 0.11714557 0.009443578 -0.08765742 -0.020139389
0.00242912 -0.079938166 0.07828791 -0.06410653 0.012342857 0.083007395 -0.0076835495 -0.04757829
0.02466007 0.042985823 0.06813389 -0.019731956 0.05542325 -0.1331991 -0.08213262 -0.11915508
0.041622978 0.08155373 -0.040393844 -0.023977205 -0.07172097 -0.04828766 0.029257007 -0.11069533
-0.063211285 0.13143414 -0.11305041 -0.10502552 0.08387202 0.018588549 0.07432376 0.13703272
-0.014817314 0.021371547 -0.0329424 -0.067543104 0.051616505 0.0069341906 -0.005926038 0.05158362
0.001320938 -0.111994796 -0.117881596 0.12637986 -0.09945772 0.11668662 0.10551932 0.06705902
0.09239134 0.025749618 -0.12098062 -0.08539192 -0.0931865 0.013934763 -0.04698027 0.04858281
-0.12796912 -0.07813542 -0.09422529 -0.10549274 -0.0748401 0.04594375 0.06382163 -0.0840532

gru1.bias_ih_l0 f4 [150]
00000000: 413d 0d3e e909 ce3d 3970 80bd 0ad1 973d
00000010: 8d51 8ebd deab 333d f825 b23b d4ee 9e3c
00000020: 1083 ffbd b38a 9d3d 7293 d93d 111b 873c
00000030: edc6 69bd 22f3 d4bd 19fc f4bd 834d 9e3d
00000040: e96e bfbd 9557 85bd b795 583b bc75 d93d
00000050: cb6c 143e 55d5 213c fc9d a53c dca3 103e
00000060: bb41 73bd b50e d7bd 110c c0bd f3d9 97bd
00000070: 991a 8bbc f098 94bd 95a6 9ebd da2c 103c
00000080: 86f8 51bd efec 1a3d 344b 56bc a0f2 91bd
00000090: f5e2 96bd bd0f 2a3c 82c0 fcbd 4524 1fbd
000000a0: 4a6d 643d 7081 443d d849 363d b0cc 99bd
000000b0: 8403 fe3d c231 9e3c e890 8d3d 30c5 04bd
000000c0: eedf c93d 6147 713d 312c 2d3e edd6 ff3d
000000d0: 879e 9dbc 1734 0abd d804 bd3d 2cb8 043e
000000e0: 099c 5f3d 0fda 95bd 7332 a43d f6c8 d4bc
000000f0: 29c4 00bd c26c 153e bb5e a03d 24ff 0b3e
00000100: d634 463d 797c 27bd 8bd9 82bd ed1f 11bd
00000110: be04 c63d 763e 9bbd e781 90bd 8ab7 a03d
00000120: 90ad d3bc 77ab 923a 4404 9dbd 7aa7 fa3d
00000130: b9c9 9ebb 0be0 41bd 0801 b83c 38ed ba3d
00000140: a76d 4d3d 9634 3e3e a47a 6b3d 1c51 7ebd
00000150: 4e12 053e fdec d33d e90f e73d 7a5c 02bc
00000160: 3804 b63d 3758 0c3e 26f5 70bd df51 033e
00000170: 65a9 57bc 2ead b03d 75a6 c53d 92bc 80bd
00000180: 386c 983d 01a2 eabd ce89 f13d af56 44bd
00000190: 8052 abbc 0f00 2abe 3278 4abe 6fa7 e33d
000001a0: 1abd 44bd e210 1b3b c46b 0c3d 658a 663e
000001b0: 7f69 0d3e eec6 8b3c 2c90 c2bd 7b2a acbd
000001c0: 8434 383c b7e4 973d d15b 0cbd ebea 34bd
000001d0: 8ae6 7cbd ad3c 94bd eaaa 123e 9699 6c3d
000001e0: 91e1 3b3e 035c 26be 72c9 25ba 9101 ff3d
000001f0: 1be6 01be 7453 26be 594b febd ba0e 01be
00000200: 0f14 a93c 5d3b 8bbd d324 ab3d f7f1 973e
00000210: 1bf5 19be 352d 81bc decd 623e c99c 223e
00000220: 82a3 e9bd 973a 37bd 4643 a6bd 3010 44b9
00000230: 8c21 82bc 0d65 8abd 19cf cb3d 072b bbbd
00000240: 2dd5 753e fa1f b93d 8c8c b0bd 5a93 0dbe
00000250: ece0 5c3d 9439 ec3d
0.13792898 0.10060484 -0.06271405 0.07412918 -0.06949148 0.043865077 0.005436655 0.019400991
-0.1247617 0.076924704 0.10623826 0.016492398 -0.057074476 -0.103979364 -0.11962146 0.07729628
-0.09347326 -0.065108456 0.0033048221 0.10618159 0.14494626 0.0098775225 0.020216934 0.14125007
-0.059388857 -0.10500852 -0.093773015 -0.074146174 -0.016980456 -0.07255733 -0.07746617 0.008799756
-0.0512624 0.037823614 -0.013079453 -0.07126355 -0.07367507 0.010379729 -0.123414055 -0.03885295
0.05576829 0.047975004 0.044504017 -0.07509744 0.12403014 0.019310836 0.06912404 -0.032414615
0.09857164 0.058905963 0.16911389 0.12492166 -0.01924063 -0.033741083 0.092294395 0.12960881
0.054592166 -0.07316982 0.08017435 -0.025974732 -0.031437073 0.14592269 0.078305684 0.13671547
0.048390232 -0.04089019 -0.06389149 -0.035430837 0.09668873 -0.07580273 -0.07056027 0.07847507
-0.025839597 0.0011190017 -0.07666829 0.12238975 -0.0048458246 -0.047332805 0.02246143 0.09127277
0.0501534 0.18574747 0.057490006 -0.06208907 0.12995264 0.10347936 0.112823315 -0.007956618
0.088875234 0.13705526 -0.05882754 0.128242 -0.013162945 0.086267814 0.0965089 -0.06285967
0.07442516 -0.11456681 0.11793862 -0.04793423 -0.020913363 -0.16601585 -0.19772413 0.1111592
-0.048031904 0.0023661186 0.03428246 0.22513731 0.13809775 0.01706263 -0.09500155 -0.0840654
0.011242989 0.07416671 -0.03426725 -0.044169348 -0.061743297 -0.072381355 0.14323011 0.05776366
0.18347766 -0.16246037 -0.0006324268 0.12451471 -0.12685435 -0.16242772 -0.12416715 -0.12603274
0.020639447 -0.06798432 0.08356633 0.29676792 -0.15034907 -0.015768627 0.22148845 0.15880121
-0.1140814 -0.04473361 -0.081183 -0.00018698047 -0.015885137 -0.06757555 0.0995161 -0.09139066
0.24007101 0.09039302 -0.08620557 -0.13825741 0.05392544 0.1153442

gru1.bias_hh_l0 f4 [150]
00000000: a071 a7bd 556b d43d 20ec ee3d bf97 adbd
00000010: 381a 183b a003 943d 417e f9bd 9451 8ebd
00000020: d88c f13c a97e b43d 1ace c43d f068 a83d
00000030: db83 ffbd 4fc0 863c 825b 4f3d 0088 60bd
00000040: c468 0a3e 5353 c73d 078b 4bbd e766 ecbc
00000050: 5ef1 a93d 553e da3d 54a5 ce3c 28aa 15bc
00000060: 72ba 02bd 7e46 2639 1fd5 dabd dc00 b7bb
00000070: ff11 3f3d 0a57 62bd 8bbd 43bc 6d0b b1bd
00000080: 97d6 da3c d376 143d 40e9 e03d 0a25 033d
00000090: e645 8e3d bd2c 26bd 33e3 523b cd5e 8fbd
000000a0: 1151 133e b497 383d 3c09 843c f52e c3bd
000000b0: e91b b23c 32fe acbd b885 1a3e 9e3e e0bd
000000c0: 75c2 043e 518b 97bc aa43 6abd e2f0 853d
000000d0: be81 6a3d 073e febd 5ca0 d33d e6f8 2c3d
000000e0: 7d38 c03d 703d 54bd 7400 48bc 83b0 2a3e
000000f0: 4982 023e da43 ac3d cb70 6b3d 0fed 133e
00000100: c1eb ddbd a829 963d 0123 d23d 3028 073d
00000110: f61c 063e d500 073d f90a 793d 4883 6abd
00000120: 83d0 c5bd 0043 edbd 9054 b9bc de51 15bd
00000130: a77a f63d 8dd1 e73d f76a e6bd 880a 7d3d
00000140: 518f e5bb b48c 183e 27fa ca3d 8db1 093e
00000150: cc46 6f3d 0bd6 d2bc e8cc 01bc 1fb7 bb3d
00000160: 8dcc 79bc 4b67 bebc 560d 453d 887b 3dbd
00000170: 1c0b 5cbb d0a9 cc3d 737b 303e 2ea9 4d3d
00000180: 076c 48bd 380c e3ba 1425 97bd ac88 c03c
00000190: 358a 5cbe f2c8 16be 0960 1dbe 5cd7 3e3d
000001a0: f96c 07be 5d7b 4abd f599 c73d 1e9d e3bc
000001b0: 05ec 363d cedd 8cbd a889 5ebe cc9a debc
000001c0: a93b 383e 5db0 3dbc c0b3 00be 248a 0cbe
000001d0: f429 20be 677c 023d 2c6c a4bd 1ae5 813d
000001e0: c08e 023e 1675 19be e75e 25be 135d 963d
000001f0: dcce b6bd bcb1 a53d 2023 1e3c d3d0 a8bd
00000200: 6913 3b3e 4cd3 ecbd f3c2 a6bc e0e9 ee3d
00000210: 4c36 2cbe 082b e63d 3423 2e3d f768 f83c
00000220: aa49 fabd 971f f73d 3e19 65bb 2377 fb3c
00000230: 03fc 0ebe 6aa1 0bbd f04b c73c e030 2f3d
00000240: 9257 453e d980 9cbd b225 9b3c 6578 9e3c
00000250: 1dda ea3d 81d4 f53d
-0.08175969 0.103720345 0.11666131 -0.08476209 0.0023208987 0.07227254 -0.12182284 -0.069491535
0.029486105 0.08813221 0.09609623 0.0822314 -0.12476321 0.016449122 0.050624378 -0.0548172
0.13516527 0.0973269 -0.049693134 -0.028857661 0.0829799 0.1065642 0.025225319 -0.009134807
-0.03191609 0.00015857254 -0.10685181 -0.0055848192 0.04664802 -0.05525879 -0.011947046 -0.086447574
0.026713653 0.036246132 0.10981989 0.032017745 0.06946926 -0.04057001 0.0032178878 -0.07000504
0.14386393 0.04506655 0.016117685 -0.09530441 0.021741824 -0.084469214 0.15090072 -0.10949443
0.12964804 -0.018499048 -0.057193436 0.065400854 0.057252638 -0.124141745 0.103333205 0.042229556
0.09385774 -0.051816404 -0.012207139 0.16668896 0.12745012 0.08411379 0.057480615 0.144459
-0.10835982 0.07332164 0.10260583 0.03299731 0.13096985 0.032959778 0.06080148 -0.057254106
-0.09658911 -0.11585045 -0.02262333 -0.036455028 0.12035113 0.113192655 -0.11250871 0.06177762
-0.00700561 0.14897424 0.09910994 0.13446636 0.058417127 -0.02573683 -0.007922389 0.09165787
-0.015246523 -0.023242613 0.04810842 -0.046260387 -0.0033575958 0.09993327 0.17234592 0.05021017
-0.048931148 -0.0017322367 -0.07380119 0.02350267 -0.21537097 -0.14725092 -0.15368666 0.0465921
-0.13225164 -0.049434055 0.09746162 -0.02778488 0.04465868 -0.068782434 -0.21732199 -0.027173422
0.17991509 -0.011577693 -0.12568569 -0.13724571 -0.15641004 0.03185692 -0.08028445 0.06342526
0.12749767 -0.14986071 -0.16149484 0.07341971 -0.08926174 0.08090541 0.009651929 -0.08242955
0.18269123 -0.11563739 -0.02035663 0.11665702 -0.16817588 0.11238676 0.04251404 0.030323489
-0.122210816 0.12066572 -0.0034957672 0.030696457 -0.13963322 -0.034089483 0.024328202 0.04277122
0.19271687 -0.07641763 0.018938873 0.019344518 0.11467383 0.120034225

gru2.weight_ih_l0 f4 [75, 50]
00000000: 7ef0 c6bd 72f3 04bd a22b 383d cbb7 463e
00000010: 3d5d 013d 6714 673d 9afb 963c 7a10 a5bb
00000020: ea23 f7bc a434 cbbd 4e28 413c a5ed bc3d
00000030: 1158 0ebd aad3 cdbd b151 87bd cc1c 113d
00000040: eee1 003e 5584 2c3d b46e 22be 00bd 2a3c
00000050: 3251 243e e5ac 013c 3dd2 983d 462d 1c3e
00000060: cf3d 453e 5f24 7bbd 8136 f9bd b3fc 44be
00000070: 3c1e 8b3d ca5d a7bd b205 0cbe 519b ed3d
00000080: b10c 22be 7fe0 babd 068b 1abe 4f01 ddbc
00000090: 955a 423b a5f6 dfbd 149c 42be 8262 263e
000000a0: 77e9 4d3e d601 3abd 61a2 11bd 3a8d c4bd
000000b0: 163c 33be dc5d 913d 4371 abbd be10 0d3d
000000c0: cbee 7ebd cdc4 19be 7a27 efbd 1a35 a73d
000000d0: d8a7 99bd 97ad 90bd 1b94 46be 4e6d 243d
000000e0: 84e9 e6bd e4a9 4ebd 1b96 063e 2934 02be
000000f0: 8884 b03c 6bac a93d c185 c23d 626d 753d
00000100: 181b f23d 0983 fb3d d2c8 393e dd91 4f3d
00000110: ad61 46be 61c9 bb3d 87c5 33bd bd7f c13b
00000120: 6a8f a2bd aec3 febd 2057 873d 603f 353e
00000130: 4373 4cbe 00c0 05be e7ee 4fbe e425 17be
00000140: 1d3b 1a3e 4a16 2abe 011f 34bd 40ea a7bd
00000150: 2a27 a4bd b5da b13d 740c 7f3d 6269 cc3c
00000160: c83b 82ba 2fbb fc3d 981c 443e 980f 603e
00000170: dcfb 1aba 93fb 8dbd 0b22 ffbd 1d8e 1cbe
00000180: 1364 a13d 94c2 d63d 0d52 05be 7160 9abd
00000190: 9034 453e 3f5e 7abc b190 debd b9d6 373e
000001a0: 5b0a 01be 097f b73c 1b4c 72bd 41b3 e03d
000001b0: 1717 283e 3ebe 183e af51 9ebd c0fa 103e
000001c0: dc4e 443e bd31 163e fc84 393e b287 01bd
000001d0: 502d c6bd 0060 fc3d b31d f6bd 6937 4f3d
000001e0: 9613 45be b1c8 3dbe c8c0 5abb 8b7c 753d
000001f0: 5df3 f13d 485e 18be 7010 8fbc d751 803c
00000200: efde 0a3e 753f 5a3e 543d 853c 1249 a6bd
00000210: 1f91 3c3d 23f6 d5bd ab31 213e 19a5 9d3c
00000220: 2e62 d73d f475 28bd 2f8f a5bd e36d fb3c
00000230: f254 243e b8b4 153e b0a1 373b 5fc4 e43d
00000240: 9930 053c e716 04be 7f37 b73d 3c2f c13d
00000250: c458 293e 8101 bebd fa11 b23d 92b4 243e
00000260: 5631 163d 198b 5c3e 5499 a1bd f0ef ebbc
00000270: 1aae ed3d 8638 5a3e 90c3 0a3e 2163 793d
00000280: ceec 8b3d f899 66be 1a94 13be a418 18be
00000290: 5fc9 e23d 4738 06bd dd06 393e 160e 47be
000002a0: 17e8 fabd b85a 6abd 0977 fbbc b811 9b3d
000002b0: 01ed 1f3e e01e f53c 24d2 283e 001c 7b3d
000002c0: e223 063d 7f9b 47be 1aa5 4b3c d555 273e
000002d0: 44c0 c2bd 2f05 8abd 112d 8a3d 404f 433b
000002e0: 9170 30bd 171a 3c3e 5b4e d7bd 7f94 81bd
000002f0: 723d 063b f5c3 cb3d 32e7 d43d d577 cbbd
00000300: 4513 2fbd 7c7c 4d3d 9b0c 0cbc e581 19be
00000310: dac6 573e e1c4 7a3d 1aee d6bd 181d e13d
00000320: 49fe b9bd 8cbd 853d d5c2 5ebd 9b9f 50bd
00000330: 4ba4 c43d 4dbb f3bd f72a 84bd 29d9 15bd
00000340: 418b e63b 6c85 a33c 1b5a 30bd 8c83 bd3d
00000350: 8cf3 0a3d a7b8 dbbd 0c47 96bc d3cc eb3c
00000360: b13c ca3d 565d d1bd 502b 1d3e ec82 07be
00000370: d0a5 7fbc c754 2b3d 4e81 01be fdef 3c3e
00000380: 463c d8bd 2400 9f3c f358 12bd 0e89 39be
00000390: 28ad 12be 446c 93bc b500 17be 8e5f 963d
000003a0: 3a02 6c3d 1d90 493e 8bd6 09be ddc3 8cbd
000003b0: e058 2c3e 63fd 0dbe 67ad 43be 4f6d d6bd
000003c0: 407f 39be 0cc0 a4bb b646 eebd c5d4 3a3e
000003d0: 7f0c 47be 07da 0cbe 4bf4 3d3d afa7 43be
000003e0: c662 1f3e a7de 33be f110 4d3e ba51 bb3c
000003f0: 2d22 3dbe 0ad1 9fbd 0360 1abe 7f48 c13d
-0.09713839 -0.03245873 0.044963486 0.19406049 0.03158306 0.05641594 0.01843052 -0.0050373645
-0.030168492 -0.0992215 0.011789395 0.092250146 -0.034751955 -0.10050137 -0.06607378 0.035427853
0.12586185 0.04211839 -0.15862542 0.010421038 0.16046599 0.007914756 0.07461975 0.15251645
0.1926186 -0.061313983 -0.12168599 -0.19237022 0.06792876 -0.08172186 -0.13674048 0.1160189
-0.15825154 -0.091248505 -0.15092096 -0.026978163 0.0029656042 -0.109357156 -0.19004852 0.16248515
0.20108591 -0.045411907 -0.035555247 -0.09597249 -0.1750339 0.070979804 -0.08371212 0.034439795
-0.06223945 -0.1501648 -0.116774514 0.08164425 -0.07502717 -0.0706436 -0.19392435 0.040143304
-0.11275008 -0.05045499 0.13143198 -0.1271521 0.02154757 0.08284839 0.09498168 0.05991877
0.11821574 0.12280852 0.18143013 0.050676215 -0.19373198 0.09169269 -0.04388955 0.00590512
-0.0793751 -0.12439667 0.06608415 0.17699957 -0.19965844 -0.13061523 -0.20305978 -0.14760548
0.15061612 -0.16610065 -0.04397488 -0.081989765 -0.080152825 0.08684293 0.062267736 0.024952594
-0.0009936029 0.1234039 0.19151533 0.21880949 -0.0005912164 -0.069327496 -0.12457665 -0.15288587
0.07880416 0.104863316 -0.13019581 -0.07537926 0.19258332 -0.015281259 -0.108674414 0.17953004
-0.12601607 0.022399442 -0.05915461 0.1097169 0.16415058 0.14916322 -0.07730424 0.14158154
0.19170707 0.14667411 0.18117136 -0.03162355 -0.096766114 0.12322998 -0.120173834 0.050589953
-0.19245753 -0.18533589 -0.0033379067 0.059933227 0.11813996 -0.14879715 -0.017463893 0.015664024
0.13561605 0.2131327 0.016264595 -0.08119406 0.046036836 -0.104473375 0.15741603 0.019243764
0.10516773 -0.041128114 -0.08083951 0.030692047 0.16048029 0.1461972 0.0028019957 0.11170267
0.008129262 -0.12899362 0.08946132 0.09432837 0.16537768 -0.092776306 0.08694835 0.16084507
0.036668144 0.21537437 -0.07890573 -0.028800935 0.11605473 0.21310624 0.13551164 0.060885552
0.06832276 -0.22519672 -0.14411965 -0.1485315 0.11073565 -0.032768514 0.18069024 -0.19438967
-0.12251299 -0.057215422 -0.030696409 0.07571739 0.15617754 0.029921949 0.16486412 0.061306
0.032749064 -0.19492911 0.0124295 0.16341336 -0.09509328 -0.0673927 0.06746877 0.0029801875
-0.0430761 0.18369327 -0.10512992 -0.063271515 0.0020483402 0.09949485 0.103956595 -0.099349655
-0.042742986 0.050167546 -0.008547927 -0.14990957 0.2107195 0.061222915 -0.10494633 0.10991877
-0.09081704 0.06530294 -0.054385025 -0.05093346 0.09601649 -0.11900959 -0.064535074 -0.036584053
0.0070356433 0.019961081 -0.04305468 0.09253606 0.03392367 -0.10728579 -0.018344425 0.028784191
0.09874857 -0.102228805 0.15348554 -0.13233536 -0.015603498 0.041828897 -0.12646982 0.18450923
-0.10558371 0.019409247 -0.03572936 -0.18118688 -0.14323866 -0.017995961 -0.14746363 0.07342444
0.05761931 0.19683881 -0.13460748 -0.068732955 0.16830778 -0.1386619 -0.19109116 -0.10470068
-0.18114948 -0.0050277766 -0.11634581 0.18245228 -0.1943836 -0.13755046 0.046375554 -0.19106935
0.15565023 -0.17565404 0.20025994 0.022866119 -0.18470068 -0.07803543 -0.15075688 0.09437656

gru2.weight_hh_l0 f4 [75, 25]
00000000: 066d 213e 671d 343e fe7e 8abd 8b6c 8abd
00000010: 8986 ef3d 839f 263e 0056 a33d 38b8 07bc
00000020: dfaf bebc 26b6 0a3e 99f5 0cbe eb46 3cbd
00000030: e063 d9bc ed1d fdbd 9d4c 75bd bd58 f93c
00000040: 9110 3abd 4ac5 923d 9ef7 303e a685 1fbc
00000050: a992 b63d a97e 35be e173 3f3e f7e2 c4bd
00000060: 8084 b0bd 2b7a 603d e83e ee3d c57d 34bc
00000070: 4354 27be 61a1 ad3d 5447 433e 9455 d33d
00000080: b3fb 60bd 5965 c6bc 9a54 413e a5d5 83bd
00000090: 9da3 9d3d 0fc2 403e fba6 7f3c 2e3a 153e
000000a0: 2832 6c3d c139 183e 069b 32be f19e b03c
000000b0: e1bb 16be 5089 2a3a 39d6 24be fcaf 953d
000000c0: ddb1 0bbe 9785 abbd 72b4 32be 002c 2e3e
000000d0: f41e cf3d cc96 1d3e 1398 123d 1edc 263c
000000e0: 911f 973d 3b66 23bc 134d 843c 39bc 403e
000000f0: 1ba0 433d ee41 1b3c 4f53 ba3c e06a 213d
00000100: 49d5 a43d c99e 3b3e 0a9c 053e cde9 b3bd
00000110: 04aa 07be 5fec 4abe 10a1 2cbe 12fc 35be
00000120: 654d d1bd ae35 eebd ecb4 c0bd 3258 033e
00000130: 6a97 f33d f324 953d a6d0 893c 9b6c 233d
00000140: cc99 2ebd 3e1e 983d d547 1ebe 745e 49be
00000150: 9e39 813d 3e08 beba 9fea 653d 6938 413e
00000160: df65 a83d 5710 123e 4861 41bd 58de f43d
00000170: 23fa 0c3e 4c3c c7bd bb44 43be 498d 07be
00000180: 33d8 93bd 49b8 1e3d 5bb3 0bbe 73ec 043d
00000190: a9b0 55bd 4263 34be 85f6 1bbe 2cf3 8f3c
000001a0: b91c fe3c 9a1d f6bd 3a15 8c3d 89b7 95bd
000001b0: 4ddb 48be 6f52 8a3d 0c46 f2bd 7c61 453d
000001c0: 953e a83c 9166 543d 9d18 90bd 7949 ef3d
000001d0: 8852 11be 7430 aa3d 5388 b0bd 3d86 523d
000001e0: 0ab6 0e3e 4919 bfbd 3e91 033d 17a7 823d
000001f0: 81bf 063e cae0 ef3d 1a10 53bd fdec 053e
00000200: 5a89 0f3e 538d 45be ffbb c6bd 6466 88bd
00000210: a7f3 1a3e 12f0 0d3e 9a9d c3bc c567 c8bd
00000220: b5c9 1cbe 8f28 bf3d ed4c 243e b14a f23d
00000230: f994 4dbe 122d 5fbd 083f c4bd f2b6 9c3c
00000240: bb4e debd b1fd e6bd 3657 813b 499e 63bd
00000250: b00b dd3a 2c0f 983d 22b8 3a3d 8b68 2f3d
00000260: 8cac 2bbe a232 a6bc 0b0b 99bd fb68 e13d
00000270: 6c71 2b3e 38f2 323e 6191 103e 08b8 20be
00000280: 1063 39be c088 a1bc 3c85 863d a8f6 513e
00000290: ebf2 47be 7b86 063e 4a27 5abd ed5a 2e3e
000002a0: 8803 2cbe 6f3d aebd b21f 043e 4df6 12be
000002b0: 2c08 003d a1ec ea3d af6d a3bd 2c44 133e
000002c0: 764c 1dbd b605 61be 5e45 0c3e 2c9c 47bd
000002d0: 3491 143e 143c 0c3e 8f67 55bd 2dad 2c3e
000002e0: 98f3 473e f12b 9bbd 63b9 2cbe f552 d9bd
000002f0: 8a86 623d bbf2 843d 52b7 0dbe 2fe0 2d3d
00000300: 00b8 0d3e 6108 43be 5f07 28be 2330 573d
00000310: 12d1 0b3e a3a1 103e 77a1 23be bfc6 033e
00000320: 7c43 843c 7049 d1bd f538 92bd 99bb 1ebe
00000330: 436e 04be 922c 43bc 4d2b dabd a8b9 403e
00000340: fde6 b93d a7e1 b43c 1562 84bd 7194 0d3e
00000350: 8d02 abbd e236 eb3d eb9d 31be 69a9 9b3d
00000360: a53b ee3d 166e 343d 2b4b 42bd 6890 163e
00000370: 92ca 8f3c b4ff 02bd aba8 ea3c 80c1 90bb
00000380: 759f e63d 131c 13bc 8073 313e c27d 7fbd
00000390: 2acd c13d ab2f 1cbd 1408 50be e3a8 35bc
000003a0: 6e1d 47bd af91 353d e8ea cdbd 8d4c dfbd
000003b0: 4a21 093e 3cc3 1d3e e1e1 be3d 3e4c 053e
000003c0: dd0e ecbd 94c8 28bd 7d00 4dbd faa5 26be
000003d0: 9c65 babd e42f ea3d 20e8 1f3e f20c 8b3d
000003e0: 153b bf3d aa75 c23d 2039 20be 866d 313e
000003f0: 17ea a23c 3c18 1abe 4820 4b3e 8193 243e
0.15764245 0.17589341 -0.06762503 -0.06758984 0.116955824 0.16271786 0.079753876 -0.008283667
-0.023277221 0.13546047 -0.13765563 -0.04596607 -0.026536882 -0.123592235 -0.059887517 0.030437822
-0.045425955 0.07166536 0.17281958 -0.009736454 0.08914692 -0.17724098 0.18696548 -0.096136026
-0.08619022 0.05480401 0.11633092 -0.011016314 -0.16340737 0.08478046 0.19070178 0.10319057
-0.05492754 -0.024218248 0.18879929 -0.06437234 0.076972224 0.18824027 0.015603776 0.14572975
0.05766502 0.14865781 -0.17441949 0.021560164 -0.14720108 0.00065054465 -0.16097344 0.07308957
-0.13642068 -0.083750896 -0.17451647 0.17008972 0.10113326 0.15389556 0.03578956 0.010184316
0.07379068 -0.009973104 0.016150033 0.18821801 0.04776011 0.009476168 0.022744803 0.039408565
0.080484934 0.1832229 0.13047805 -0.08784828 -0.1324845 -0.19816731 -0.16858315 -0.17771938
-0.1021984 -0.11631332 -0.09409508 0.12826613 0.11894114 0.07282438 0.016823124 0.039898496
-0.04262714 0.07427643 -0.15457089 -0.19664937 0.06309818 -0.0014498306 0.056131955 0.18869175
0.08222555 0.14264046 -0.047211915 0.11956471 0.13767295 -0.097282976 -0.19069187 -0.1323749
-0.07218971 0.038749967 -0.13642637 0.032452058 -0.05217043 -0.17615989 -0.15230758 0.017572008
0.031019555 -0.12017365 0.06839986 -0.07310397 -0.19614907 0.06754004 -0.11829767 0.04818867
0.020537654 0.051855627 -0.070359446 0.11683936 -0.1419164 0.08310023 -0.08619752 0.05139755
0.1393663 -0.09330995 0.032120936 0.06379526 0.1315899 0.11712797 -0.051529028 0.13078685
0.14017239 -0.19292192 -0.09703826 -0.066601545 0.15132008 0.13861111 -0.023878861 -0.097854175
-0.1531132 0.09333908 0.1604497 0.118306525 -0.2007636 -0.05448634 -0.09582335 0.019130204
-0.108548604 -0.112788565 0.003947164 -0.055570874 0.0016864445 0.07424769 0.04558576 0.04282431
-0.1676504 -0.020287815 -0.074728094 0.110063516 0.16742486 0.17475212 0.14117958 -0.15695202
-0.18104196 -0.019718528 0.06568381 0.20504248 -0.1952626 0.13137238 -0.053260125 0.17026873
-0.16798222 -0.08507811 0.12902716 -0.14351769 0.031257793 0.11470915 -0.07979905 0.14381474
-0.038402997 -0.21974835 0.13698336 -0.04873292 0.14508516 0.13694793 -0.052100714 0.16862936
0.19526517 -0.075767405 -0.16867594 -0.10611526 0.055304088 0.0649161 -0.13839462 0.042450126
0.13839722 -0.19046165 -0.16409062 0.05253614 0.13653973 0.1412416 -0.15979563 0.12868784
0.01614546 -0.10219085 -0.0713977 -0.1550125 -0.12932687 -0.011912482 -0.1065279 0.18820822
0.09077261 0.022080256 -0.0646402 0.13826157 -0.08350096 0.114850774 -0.17345397 0.07600672
0.1163247 0.0440503 -0.047434967 0.14703524 0.017552648 -0.03198214 0.02864488 -0.0044175982
0.11260883 -0.008978861 0.17329216 -0.06237579 0.0946296 -0.038131397 -0.20315582 -0.011087629
-0.04861205 0.044328388 -0.100545704 -0.10903273 0.13391605 0.15406507 0.09320427 0.13017365
-0.115262724 -0.04120691 -0.050049294 -0.16274253 -0.09101412 0.11434916 0.15615892 0.067895785
0.09337441 0.09495099 -0.15646791 0.17326936 0.019887013 -0.15048307 0.19836533 0.16071893

gru2.bias_ih_l0 f4 [75]
00000000: 4808 d93d 131a 153e 47cc 65bd 7ee6 09bd
00000010: 1ad8 edbc 54d8 1cbe ee76 3ebc abe1 dabc
00000020: b5ff 253e f9bf 793d 90db f2bd 915a 16be
00000030: 9570 b8bc cf7a 12be 49d2 78bd 3a1d 3bbd
00000040: aea1 b03d f17f 513e c85f 173e 2a0d 29be
00000050: aec2 d93d 238c 673e 8675 b3bd a75e 533e
00000060: 399f 98bd 5586 5b3d 6484 c63c c453 473e
00000070: c00c 3bbe 19a8 0bbc 6f4e fabd c74a 19be
00000080: ce5c 0dbe 008c 953c 3ccb 17bb eda1 173e
00000090: 4bc3 0d3d b214 a5bd 233d 393e 09a0 b1bc
000000a0: 5b5b 27be 1033 433d c22f b53d 5856 4b3d
000000b0: f36a 033e 94ed 4f3e 4416 fd3c d391 3ebe
000000c0: e71d 853e ac2e 37bd 0eeb 153e 7fd7 413e
000000d0: 3699 0ebe 3ce9 d73d 3cfd d23d 2563 653d
000000e0: 56de 76be 8440 5b3e fc83 30be 8ea9 ac3c
000000f0: ed46 d4be 7040 e6bd e2c1 a5bc bcdb 69be
00000100: 459a 86be ee5c a5bd 5132 9e3d 2d0f ad3d
00000110: ceb1 193d 7eb0 bebd a4ca e5bd 7245 f7bd
00000120: 5016 c83c c210 b3bd 838c 113e
0.10597283 0.14560728 -0.056103017 -0.03366708 -0.02903371 -0.15316898 -0.011625035 -0.026718935
0.16210826 0.060974095 -0.118582845 -0.14682986 -0.02251462 -0.1430466 -0.06074742 -0.04568217
0.08624588 0.20458962 0.14782631 -0.16508928 0.10632835 0.22612052 -0.0876265 0.20641576
-0.07452244 0.053594906 0.02423305 0.19465548 -0.18266582 -0.008523964 -0.12221991 -0.14969932
-0.13804933 0.018255234 -0.0023161909 0.14807864 0.034610074 -0.08060588 0.18089728 -0.021682756
-0.16343443 0.04765612 0.08847 0.04964289 0.12833767 0.20305473 0.030894406 -0.18610315
0.25999376 -0.044722244 0.14640447 0.18929861 -0.13925633 0.10542533 0.10302207 0.056002755
-0.24108252 0.2141133 -0.17237848 0.021076944 -0.41460362 -0.11242759 -0.020234052 -0.22837728
-0.26289573 -0.080743656 0.07724441 0.0845016 0.037523083 -0.09311007 -0.11220291 -0.120737925
0.024424702 -0.08743431 0.14213757

gru2.bias_hh_l0 f4 [75]
00000000: 55da 24be b1d4 463e 9f86 0b3e 022a 5fbb
00000010: 13ff 81bd 2637 863c 2e83 293e 1953 963d
00000020: af15 263e c115 483d 31df 323e 2b2d 0fbd
00000030: 6a26 21bd 9f4d 8abd 7efd 303e af4c 1a3e
00000040: ff01 363d fb77 e43d 5327 f5bd 98b9 c73d
00000050: fbaa 24be 2b10 21be 701a 76bd 6067 0f3e
00000060: 3956 dd3d 1827 c9bd b42c 733d 868c df3d
00000070: 8720 a33c b3e3 17be 1527 11be 6c72 26bd
00000080: 354b 5b3e 37e0 dd3c 4539 42bc 869d b8bd
00000090: 1bff 823e 2b04 88bd 7436 a13c 72d4 3cbe
000000a0: 5958 bdbc b7d8 cd3b d267 a93d ac2c 85bd
000000b0: 5a3a 0d3e 7726 03be 8c42 2c3e be43 20be
000000c0: 4f94 0f3e 340c 8dbd 679c 133e e5c4 2f3e
000000d0: b209 483e 10bf 8c3a bc63 f23d 1227 763d
000000e0: 4fe5 92be 85bc 003e aada 2ebe c95b 90bd
000000f0: c6e7 d0be 905a e9bd e09e 0a3e 8f4d 42be
00000100: d036 aabc dbfa 4e3d 3385 583e cd47 1c3e
00000110: a5c3 0e3d 86c4 1f3c b9f2 d2bd e236 3ebc
00000120: d0b5 ba3d d2e9 5b3e 4793 18bd
-0.16098912 0.19417073 0.13625573 -0.0034052138 -0.0634748 0.016383719 0.16553947 0.07340068
0.16219209 0.04884887 0.17467953 -0.034955185 -0.039343275 -0.06753086 0.172842 0.15068315
0.044435497 0.11155697 -0.11970391 0.09752196 -0.16080849 -0.15728824 -0.060083807 0.14004278
0.10807461 -0.0982191 0.059368804 0.109154746 0.019912971 -0.14832954 -0.14175065 -0.040636465
0.21415408 0.027084453 -0.011854474 -0.0901442 0.25585255 -0.0664142 0.019679286 -0.18440416
-0.023113417 0.006281938 0.08271755 -0.06502661 0.1379179 -0.12807642 0.1682226 -0.15650842
0.14021419 -0.06887093 0.14415132 0.17164953 0.19534948 0.0010738093 0.11835429 0.060095854
-0.28690574 0.12571914 -0.17075601 -0.07048757 -0.4080183 -0.113942266 0.13537169 -0.18974899
-0.02077809 0.050532203 0.21144561 0.15261765 0.03485455 0.009751445 -0.10300202 -0.011609765
0.09116709 0.21475914 -0.03724983

fc.weight f4 [6, 25]
00000000: fc6c fabd b695 b93e 6d50 7c3e 0061 bbbe
00000010: e256 cb3e 20cd a43d 903b 543e e8b2 063e
00000020: e498 17be 9421 ca3d 3b74 19be 6f24 9f3d
00000030: c8ae 83bc 9099 05be 5338 fbbd 4270 de3c
00000040: 096d 073d c428 62be c13a 77be 530e 0ebe
00000050: 1486 72be f9a2 ebbd 6bc3 3abc 62fc 1bbe
00000060: e883 3d3e b7cb 7abe e998 18bf 3855 c3be
00000070: 2061 bbbe 8730 953d 5c73 8c3e 0c91 1abe
00000080: 16a0 37bf fd43 c2be 7a21 4a3e 797a 483f
00000090: 5480 04bf 0874 1dbe c0f0 2fbe 8dfe d73e
000000a0: 2d3a 5c3e b8fb 833e 3382 70bd 8d0a 9abe
000000b0: 1dfa cf3c 686e c13e 4494 95bd 226c 3e3e
000000c0: 2871 293f 3a09 6e3e 0a60 003f eadf bc3e
000000d0: 648f 823e 3072 1c3f 6427 84be 3883 8cbe
000000e0: c086 dabe 12a8 e33d 47df 20bd 71ef 17bf
000000f0: 8272 d5be 92ce 55be bf50 bb3d 63cd 263f
00000100: 11d9 6c3c c1f0 97be a7c1 e4be 7c71 883e
00000110: 8340 f53d f4a0 913e aadb 273e 69fd 473c
00000120: 53b1 8e3e 00dc 933e 6bfe a4be cb88 3d3e
00000130: 8f4e ab3e d47d 323e e10b 223f 2e66 13be
00000140: ca77 f3be 1e33 a43e 55e9 893e 2828 423f
00000150: 6645 ffbd 2adf 50be 336c b93e 2d0d 183e
00000160: c894 893e afe2 b3bd 5c28 22bf bfe2 9f3d
00000170: acd4 0b3f 833e 503f 9ec4 763e 44d1 dc3d
00000180: 7857 b0bb 5210 d3be beaa b1be ac0a 1e3e
00000190: 8a84 56bd 663b 633e 5e3b 013d 1e3c bfbd
000001a0: 886e 1e3d 2299 473e fd21 8a3d d55b 433e
000001b0: 3912 47be 8c5f 183e 3478 7fbe b851 993d
000001c0: 6c1f a43c 71f4 59be d1fe 11be 8538 86bb
000001d0: 075f 2e3d e2bc a53e 1794 3abe 06e8 0dbe
000001e0: e0a0 07be 8765 1dbe 6249 13bd 53bd aabc
000001f0: 8d9b 923e 4b2f b7be fe52 0dbe 6e1e e0be
00000200: 7740 ffbe 66d9 7e3e 876f 563d 3fba 333e
00000210: 0641 823e bebd 0bbe 30bf bd3c f474 f5bd
00000220: 2c2e 3e3e a3ac c83e d605 0abe 718e 16be
00000230: 6eec 9c3e e7c4 713e 3268 7dbf fa6e b3be
00000240: 02d8 d9bd 93ca e8be 39ee 313f 913f 70bd
00000250: 0b25 a2be 42e4 aabe
-0.12227818 0.36247033 0.24640055 -0.36597443 0.39714724 0.08046937 0.20725846 0.13154185
-0.14804417 0.09869686 -0.14985745 0.07770621 -0.016074553 -0.1304686 -0.12266602 0.027153138
0.03306297 -0.22085863 -0.24143507 -0.13872652 -0.23683959 -0.11505694 -0.01139913 -0.15232995
0.1850735 -0.24491774 -0.5960832 -0.38150954 -0.36597538 0.072846465 0.27431762 -0.15094393
-0.71728647 -0.37942496 0.19739333 0.7831188 -0.51758313 -0.15376294 -0.17181683 0.42186394
0.21506567 0.25777984 -0.058717918 -0.30086175 0.025387818 0.37779546 -0.0730367 0.18595937
0.6618829 0.23245707 0.50146544 0.36889583 0.25500023 0.61111736 -0.25811303 -0.27443862
-0.4268093 0.11116041 -0.039275434 -0.59349734 -0.41688925 -0.20879582 0.091462605 0.65157145
0.01445605 -0.29675868 -0.44678995 0.26649082 0.11975195 0.2844311 0.16392389 0.012206414
0.27869663 0.28878784 -0.32225356 0.18509214 0.33458373 0.17430812 0.63299376 -0.14394447
-0.4755233 0.3207025 0.2693583 0.75842524 -0.124644086 -0.2039763 0.36215362 0.14848776
0.26871324 -0.08783471 -0.63342834 0.0780692 0.54621387 0.81345385 0.24098441 0.10782102
-0.005381521 -0.4122339 -0.34700578 0.15433758 -0.052372493 0.22190627 0.031550758 -0.09337638
0.03867963 0.1949201 0.06744764 0.19078 -0.19440545 0.14880198 -0.24948198 0.0748629
0.020034514 -0.21284653 -0.14257361 -0.004096093 0.042571094 0.3237067 -0.18220554 -0.13858041
-0.13244963 -0.15370761 -0.035958655 -0.02084223 0.286343 -0.3577827 -0.1380119 -0.43773216
-0.4985387 0.24887618 0.052352455 0.17551516 0.25440234 -0.136466 0.023162454 -0.11985198
0.185723 0.3919421 -0.13478789 -0.14702775 0.30649132 0.23610269 -0.98987114 -0.35045606
-0.10636903 -0.45467052 0.69504124 -0.05865437 -0.31668887 -0.33377272

fc.bias f4 [6]
00000000: daf0 dbbb 9bae 3b3e 0798 ddbd 2fb3 45bf
00000010: 39bf a63e 3815 b13e
-0.0067120614 0.18328325 -0.108200125 -0.7722654 0.32567766 0.345865
