code/conjugate_gradient/models/LSTM_CG_base.pt (torch, 78974 bytes, 10 tensors)

lstm1.weight_ih_l0 f4 [200, 3]
0	0xbe150420	-0.14552355
1	0x3d8732f0	0.066015124
2	0xbe481f1e	-0.1954312
3	0xbe652e07	-0.2238084
4	0xbe3dd939	-0.18539895
5	0xbe332aee	-0.17496845
6	0xbc1ba3cf	-0.009499504
7	0xbdad1e14	-0.084530026
8	0x3db089c9	0.086200304
9	0xbdc2f09b	-0.09518548
10	0xbe916ec9	-0.28404835
11	0x3e0c85b5	0.1372288
12	0xbddef5a8	-0.10886699
13	0xbdb24137	-0.08703845
14	0x3d563f35	0.052306373
15	0xbcdd7a58	-0.027035877
16	0xbe5ac673	-0.21364765
17	0xbe3f61b0	-0.18689609
18	0xbe254f70	-0.16143584
19	0xbedad9a8	-0.42744184
20	0x3e2ed2f5	0.17072661
21	0x3def647a	0.11689086
22	0xbdbb286f	-0.091385715
23	0x3dbba528	0.091623604
24	0x3c80b2be	0.01571023
25	0x3c76e969	0.015070298
26	0xbd33e566	-0.043919943
27	0x3ea93443	0.33047685
28	0x3d10d444	0.035358682
29	0xbc1f5035	-0.009723713
30	0xbd9542cc	-0.07288131
31	0x3b9018d8	0.004397493
32	0xbee2e386	-0.44314212
33	0x3ab8492f	0.0014059896
34	0xbe061817	-0.13095127
35	0xbd1c90ea	-0.03822414
36	0xbe4dcdc9	-0.20098032
37	0x3d35c405	0.044376392
38	0xbd83a54d	-0.06428013
39	0xbf28ca42	-0.6593362
40	0xbdca5386	-0.09879212
41	0xbe9160cb	-0.2839416
42	0xbd83b0e8	-0.064302266
43	0xbe0af3d8	-0.13569582
44	0x3d90a8e3	0.070634626
45	0x3e383c5c	0.17991775
46	0xbdb9f454	-0.09079805
47	0x3d1b8bf7	0.037975278
48	0x3ba4fba5	0.005034881
49	0xbdb47d65	-0.088129796
50	0xbc9ff7d3	-0.019527351
51	0xbd8a025a	-0.0673873
52	0xbe0c3cb6	-0.13695034
53	0xbde3ff4f	-0.111326806
54	0xbc800215	-0.015625993
55	0x3e58b828	0.21164
56	0xbe073fcb	-0.13207929
57	0xbd1cf65c	-0.038320884
58	0xbdcf3d6b	-0.101191364
59	0x3dc53de2	0.09630944
60	0xbdad72e4	-0.08469179
61	0xbe32c914	-0.17459518
62	0xbdc73808	-0.09727484
63	0xbe071686	-0.13192186
64	0x3d1f12d0	0.0388363
65	0xbc964ca9	-0.018347101
66	0xbe338e62	-0.17534783
67	0xbc86e821	-0.01646811
68	0xbe133c36	-0.14378437
69	0xbcdce0f0	-0.026962727
70	0x3dcbdf56	0.09954707
71	0xbe14a322	-0.14515355
72	0x3d8f68b0	0.070023894
73	0x3e13bb70	0.1442697
74	0xbe120363	-0.14259104
75	0xbe0478d7	-0.12936722
76	0x3e11f5a2	0.14253858
77	0x3e1e244d	0.15443535
78	0xbdad6a3c	-0.08467528
79	0xbd402681	-0.04691172
80	0x3d0f40ff	0.034974094
81	0xbdb3a9d5	-0.08772627
82	0xbdfaa976	-0.12239353
83	0xbec16077	-0.3776891
84	0x3e188d91	0.14897753
85	0xbe3723c2	-0.17884734
86	0x3edfaf4a	0.43688422
87	0xbe1b7436	-0.1518105
88	0x3dc4df65	0.096129216
89	0x3e1742d7	0.14771591
90	0x3e57573d	0.21029373
91	0xbd943fe8	-0.07238752
92	0xbe31d90d	-0.17367955
93	0x3e6c9b38	0.23106086
94	0xbe7f62df	-0.2494006
95	0xbf87f7c8	-1.0622492
96	0x3cfd50cb	0.030922314
97	0xbe0fb686	-0.14034471
98	0xbe0947fb	-0.13406365
99	0xbe233e66	-0.15941772
100	0xbd9ac2d7	-0.07556694
101	0xbdb25e9c	-0.087094516
102	0x3dd79734	0.105268866
103	0xbaa0f39c	-0.0012279633
104	0x3e08b0d5	0.13348706
105	0xbe0b108e	-0.13580534
106	0xbe221b17	-0.15830646
107	0xbdb78691	-0.089612134
108	0xbde7d1a1	-0.113192804
109	0x3d7a2fd3	0.061080765
110	0x3a351bb1	0.00069087284
111	0xbe53aa58	-0.2067045
112	0xbe0c95a0	-0.13728952
113	0x3df7dccc	0.121026605
114	0xbd3630bf	-0.04448008
115	0xbdd2fef1	-0.103025325
116	0xbc4ab2e5	-0.012371753
117	0xbd57a74e	-0.05264979
118	0xbe099bf3	-0.13438396
119	0xbdef2a2c	-0.116779655
120	0xbdd0e4d5	-0.10199896
121	0xbf163a4a	-0.5868269
122	0x3dbffd7f	0.093745224
123	0xbd88afcb	-0.06674155
124	0xbe335d41	-0.17516042
125	0xbe1a0c07	-0.1504365
126	0x3d544872	0.0518269
127	0xbd51fe17	-0.05126771
128	0x3dc3da26	0.09563093
129	0xbd8fe801	-0.07026673
130	0xbe2aed83	-0.16692166
131	0xbd317e58	-0.04333338
132	0x3d444c46	0.047924303
133	0xbe2b092f	-0.16702722
134	0x3e0af409	0.13569655
135	0xbd000aed	-0.03126042
136	0xbe77aa74	-0.24186116
137	0x3dc3b0b7	0.0955519
138	0xbb7622d5	-0.0037557383
139	0x3d9e8824	0.077408105
140	0x3cf5b033	0.029991245
141	0xbcf4b74c	-0.029872559
142	0x3df38383	0.11890318
143	0xbe527544	-0.20552546
144	0xbd8411cc	-0.06448707
145	0xbd023281	-0.031786446
146	0xbe1743cb	-0.14771955
147	0xbc0f7050	-0.008754805
148	0xbe3b6312	-0.18299511
149	0xbd1efd7a	-0.038815953
150	0x3e878b07	0.26473257
151	0x3e3a28b2	0.18179587
152	0x3d855dfc	0.06512067
153	0x3c9b267f	0.018939255
154	0x3edaa265	0.42702022
155	0x3c975e7c	0.01847767
156	0xbe259ac4	-0.1617232
157	0x3d049afb	0.032374363
158	0xbd9991e5	-0.0749853
159	0xbd9a749f	-0.07541775
160	0xbdecaa05	-0.11555866
161	0x3e7e52b7	0.2483624
162	0xbeac9e75	-0.33714643
163	0x3e5feebd	0.21868415
164	0xbd6f5bc0	-0.05843711
165	0xbe144360	-0.14478827
166	0x3d6b29ff	0.057413097
167	0xbe2d4ab1	-0.16923024
168	0x3ebce48b	0.36893114
169	0x3e52e785	0.2059613
170	0xbe4c474c	-0.19949073
171	0xbe3d6484	-0.18495375
172	0xbdf6a8b0	-0.12043893
173	0xbd84616b	-0.064638935
174	0x3e44d890	0.19223237
175	0xbdaf0a2f	-0.08546864
176	0x3da21730	0.07914579
177	0xbc6e69d7	-0.014551601
178	0x3e860875	0.26178327
179	0xbd8cb522	-0.06870486
180	0x3dfb4c65	0.122704305
181	0x3ece7509	0.40323666
182	0x3e3a418b	0.18189065
183	0xbe2c8d26	-0.16850719
184	0x3f085350	0.53252125
185	0x3e7e203a	0.24816981
186	0x3e1f2357	0.15540825
187	0xbdf6d24b	-0.12051829
188	0x3e55d733	0.20882873
189	0x3e01e1f0	0.12683845
190	0x3efb3b13	0.49068508
191	0x3db8b47b	0.09018799
192	0x3e3b6c80	0.18303108
193	0xbe07ef63	-0.13274913
194	0x3db7e959	0.089800544
195	0xbea2f66e	-0.31828636
196	0x3e9f5490	0.31119204
197	0xbe09c42d	-0.13453741
198	0xbe2295a6	-0.15877399
199	0x3e830343	0.25588426
200	0x3d254b97	0.04035529
201	0x3d8c0536	0.068369314
202	0xbc8e7e56	-0.017394226
203	0xbd0460a0	-0.03231871
204	0x3ced1efe	0.028945442
205	0x3ed91057	0.4239528
206	0x3e8206b3	0.25395736
207	0xbe01b23b	-0.12665646
208	0xbe29b798	-0.16573942
209	0xbdfe0d3a	-0.124048665
210	0x3def9a87	0.116993956
211	0xbdabb1e2	-0.08383538
212	0xbde31769	-0.110884495
213	0xbd238204	-0.039918914
214	0x3cb927f2	0.022602055
215	0xbc2c8fd9	-0.010532343
216	0x3e1e49f7	0.15457903
217	0x3e534c38	0.20634544
218	0xbdf5d034	-0.12002602
219	0xbdbff01a	-0.093719676
220	0xbe2eb999	-0.17062987
221	0x3da89d8f	0.08233177
222	0xbbf606f0	-0.0075081512
223	0xbdab19ed	-0.08354554
224	0xbe33a24c	-0.1754238
225	0x3aa7d61d	0.00128049
226	0x3d24fa4b	0.04027776
227	0x3d58b861	0.052910212
228	0xbd95fa9d	-0.07323191
229	0xbe0d8cd0	-0.13823247
230	0x3dc3b036	0.09555094
231	0x3cb7b5c5	0.022425542
232	0x3f1722c6	0.59037435
233	0x3d8076ee	0.06272684
234	0xbdca6112	-0.09881796
235	0x3e92a062	0.28637987
236	0xbe5b373a	-0.21407786
237	0xbd81d6f2	-0.06339826
238	0x3e159755	0.1460851
239	0x3d9cbda1	0.07653356
240	0xbebfdb20	-0.37471867
241	0x3deb646b	0.114937626
242	0x3c8b69d6	0.01701824
243	0x3c4cbe8a	0.0124966
244	0x3ef76e26	0.48326224
245	0xbd966dde	-0.07345174
246	0xbe010d52	-0.12602738
247	0xbe0cdd2e	-0.13756248
248	0xbd19e8f6	-0.037575684
249	0x3deb39fa	0.114856675
250	0xbdcc9d38	-0.099909246
251	0x3db32d19	0.08748836
252	0x3e4cff0c	0.20019168
253	0x3e5a8467	0.2133957
254	0xbe2ad21c	-0.16681713
255	0x3c4d135f	0.012516825

lstm1.weight_hh_l0 f4 [200, 50]
0	0xbd009ee3	-0.031401526
1	0xbd753ec2	-0.059874304
2	0xbe106915	-0.14102586
3	0x3dc6591b	0.09684964
4	0xbde78cd2	-0.11306156
5	0x3da76469	0.081734486
6	0xbc9b852e	-0.018984403
7	0xbd5b628c	-0.05356078
8	0x3d24df7e	0.0402522
9	0x3d9b0aa4	0.07570389
10	0xbdc76f62	-0.097380415
11	0x3da48c13	0.080345295
12	0x3d5b2357	0.0535005
13	0x3df64ceb	0.1202639
14	0xbd7a8798	-0.06116447
15	0x3d0f875a	0.03504119
16	0xbd885e14	-0.06658569
17	0x3e02661a	0.12734261
18	0xbcc5851e	-0.024111327
19	0xbd1cee1a	-0.03831301
20	0x3de0d9d0	0.109790444
21	0x3d6fada7	0.058515217
22	0x3d4bb9bd	0.04973768
23	0x3d4c1062	0.04982031
24	0x3daa0e7a	0.083035424
25	0x3cf5e262	0.030015174
26	0x3db8a75a	0.09016295
27	0x3d45aea4	0.048262253
28	0x3bf9cbd5	0.0076231756
29	0x3cba8002	0.022766117
30	0xbdfef75f	-0.12449526
31	0xbc3c4d00	-0.011492968
32	0xbd388525	-0.04504885
33	0x3db260b6	0.087098524
34	0xbd6eb1e1	-0.058275107
35	0x3dcb246a	0.09919055
36	0x3c98b5ce	0.018641379
37	0x3d4709f8	0.04859349
38	0xbe0bf62d	-0.13668127
39	0xbbd30dc6	-0.006440851
40	0xbdff6c95	-0.12471882
41	0xbbb79a17	-0.0056030857
42	0x3dd25e4c	0.10271892
43	0x3c82a8f7	0.01594971
44	0x3da81451	0.08207
45	0x3c8b6b8a	0.017019052
46	0x3e04722f	0.12934183
47	0x3dcf8794	0.10133281
48	0xbdaa8b1f	-0.083273165
49	0xbcc29783	-0.023753887
50	0x3c33e7e2	0.010980578
51	0xbcb3f163	-0.021965688
52	0xbd298679	-0.04138801
53	0xbd7cb564	-0.061696425
54	0xbbd1f856	-0.006407778
55	0xbe13bfc7	-0.14428626
56	0xbe1e2c96	-0.15446696
57	0xbbbc5b1d	-0.0057481662
58	0xbd860121	-0.06543184
59	0xbd4a22b3	-0.049349498
60	0xbde12f48	-0.10995346
61	0xbe1e1323	-0.15436988
62	0xbdb39a1b	-0.08769628
63	0xbdc1274a	-0.09431322
64	0x3de7200c	0.11285409
65	0x3d8160f0	0.063173175
66	0x3d82b2b3	0.063817404
67	0xbd9324af	-0.07184731
68	0xbdda58f9	-0.106615014
69	0x3de3dab0	0.11125696
70	0x3c561682	0.01306689
71	0xbc89b26b	-0.01680871
72	0x3d766d10	0.060162604
73	0x3d8e5769	0.06950266
74	0xbe0ffaa6	-0.14060459
75	0x3e02d6b9	0.12777223
76	0xba56a6eb	-0.0008188325
77	0xbd83a6dc	-0.0642831
78	0xbdfbc3b1	-0.122931845
79	0xbd555a0a	-0.05208782
80	0x3d314c41	0.043285612
81	0x3d5525a3	0.052037846
82	0x3df3fc9c	0.11913416
83	0xbd235512	-0.03987605
84	0x3c9ed28a	0.019387502
85	0xbe08a668	-0.13344729
86	0x3d433553	0.047658276
87	0x3cce2cb2	0.025167797
88	0xbd30ebe0	-0.043193698
89	0x3e03e0d2	0.12878731
90	0xbdf213cb	-0.118201815
91	0xbe229dab	-0.15880458
92	0x3c58fc35	0.013243725
93	0x3cb0e73e	0.02159464
94	0xbdc25558	-0.09488934
95	0x3e0e0091	0.13867404
96	0x3cd50f79	0.026008354
97	0x3c2f18d3	0.010687071
98	0xbd8478ab	-0.06468328
99	0xbdcccd5c	-0.10000107
100	0xbde254ff	-0.11051368
101	0x3a05b6d9	0.0005100794
102	0xbd637caa	-0.05553881
103	0xbd9af340	-0.075659275
104	0x3da2ae8b	0.07943448
105	0xbe103339	-0.1408204
106	0xbd71b7dd	-0.059013236
107	0x3ce41227	0.027840687
108	0x3db72605	0.089427985
109	0xbd250cd5	-0.04029544
110	0xbdbe2eaa	-0.09286244
111	0x3dcee07d	0.101014115
112	0x3dc66d59	0.09688825
113	0xbd0cb967	-0.0343565
114	0xbda7a64f	-0.08186018
115	0xbd95b80d	-0.073104955
116	0x3d7c7ef7	0.06164452
117	0x3d46673b	0.048438292
118	0xbd4e7e9a	-0.050413705
119	0x3c8a37cd	0.016872311
120	0x3dd095b2	0.10184802
121	0xbd98e005	-0.07464603
122	0xbdc172d4	-0.0944573
123	0xbe114c48	-0.14189255
124	0x3e0f4da2	0.13994458
125	0xbbe187b9	-0.0068826345
126	0xbd9d9c7c	-0.07695863
127	0xbdce17f1	-0.1006316
128	0xbd89790e	-0.067125425
129	0xbd0ac003	-0.033874523
130	0xbddc2970	-0.10750091
131	0x3d8d637f	0.06903743
132	0x3d3337dc	0.043754444
133	0x3e0e4983	0.1389523
134	0x3dd9ea3a	0.10640378
135	0x3e0e66a4	0.13906342
136	0x3cbcf188	0.02306439
137	0xbcc2532b	-0.023721298
138	0xbc5c6d56	-0.013453802
139	0x3db5ff48	0.08886582
140	0x3d3aefa8	0.04563871
141	0x3de9e6c5	0.11420969
142	0x3d995354	0.07486597
143	0xbdec6fb8	-0.11544746
144	0xb9ec0b92	-0.00045022048
145	0xbdc4f759	-0.0961749
146	0xbdadb772	-0.08482255
147	0x3dfbf206	0.12302022
148	0x3df91bdc	0.12163517
149	0x3dd03dc1	0.101680286
150	0x3cec3ea2	0.02883846
151	0x3c557184	0.0130275525
152	0xbdaa9c63	-0.0833061
153	0x3e063f72	0.1311014
154	0x3da38460	0.07984233
155	0xbdc7ced5	-0.09756247
156	0xbc962186	-0.018326532
157	0xbc0673a7	-0.008206285
158	0x3db2c9f3	0.08729925
159	0xbde9f0bb	-0.11422869
160	0xbdb173cb	-0.08664664
161	0xbe0a26ee	-0.13491413
162	0x3df1e9cd	0.11812172
163	0x3d7f8499	0.062382314
164	0xbce9e7b5	-0.02855287
165	0x3c8f75b6	0.017512184
166	0xbdc733dc	-0.09726688
167	0x3d889cce	0.06670533
168	0x3d8d9797	0.06913679
169	0x3dfb3828	0.1226657
170	0xbd6a2f0b	-0.05717377
171	0xbe0b2942	-0.13589957
172	0x3cbb2226	0.022843432
173	0x3df0942f	0.11747014
174	0xbcd9ef35	-0.02660332
175	0xbda32c2f	-0.07967412
176	0x3d879e27	0.06621962
177	0xbdbbec9a	-0.091759875
178	0xbde38cf4	-0.11110869
179	0x3dc7cfc4	0.09756425
180	0x3e0cc643	0.13747506
181	0xbddd0276	-0.10791485
182	0x3d7e4a0b	0.06208233
183	0x3dcbc82f	0.09950291
184	0x3da93024	0.08261135
185	0xbe074b55	-0.1321233
186	0x3d53bee7	0.05169573
187	0x3dd56943	0.10420468
188	0x3c1d8802	0.009614946
189	0xbce4fb22	-0.02795178
190	0xbd9b53b4	-0.075843245
191	0x3df9f65b	0.12205192
192	0x3cc81e68	0.024428561
193	0xbe06b503	-0.13154988
194	0xbd4d25b6	-0.050084792
195	0x3c27e8e9	0.010248401
196	0xbdfaa4df	-0.12238478
197	0x3bad8d35	0.005296374
198	0xbdac5904	-0.08415416
199	0xbddaf631	-0.106914885
200	0x3e02446f	0.12721418
201	0x3d8d1f48	0.06890732
202	0xbd2821eb	-0.04104797
203	0xbd4cecad	-0.0500304
204	0x3c327c3b	0.010893877
205	0xbdb6b38f	-0.08920967
206	0x3c36746b	0.011136155
207	0x3d567d49	0.052365575
208	0x3d00223f	0.03128266
209	0x3c8bb29b	0.01705294
210	0x3c0563db	0.008141483
211	0x3c6714ed	0.01410411
212	0x3dc39871	0.0955056
213	0x3e0d478e	0.13796827
214	0x3e0c59db	0.13706152
215	0xbb018b23	-0.001976677
216	0x3d4ac678	0.04950568
217	0x3d57992b	0.052636307
218	0x3d579ac6	0.052637838
219	0xbc83e17f	-0.016098736
220	0xbdd377ff	-0.10325622
221	0x3cec4252	0.028840218
222	0x3da62db6	0.081141874
223	0xbd031cf2	-0.032010026
224	0xbd3bdfb1	-0.045867626
225	0xbd3a5fdb	-0.04550157
226	0x3d6988c5	0.0570152
227	0x3d53a90f	0.0516749
228	0x3d2b26c7	0.041785028
229	0x3d8d97de	0.06913732
230	0x3d260187	0.0405288
231	0x3df0f804	0.11766055
232	0x3e091402	0.13386539
233	0xbca6945d	-0.020334417
234	0xbd4acc89	-0.049511466
235	0xbd955901	-0.07292367
236	0xbc0e2ce2	-0.008677693
237	0xbdd34931	-0.103166945
238	0xbc5a73f2	-0.013333308
239	0x3cbef50c	0.023310207
240	0x3c7b5ed1	0.01534243
241	0x3d9aabe3	0.07552316
242	0x3de844ef	0.11341273
243	0x3d218295	0.039431173
244	0xbe0bcd32	-0.13652495
245	0xbde6a371	-0.11261643
246	0xbd9ce61e	-0.07661079
247	0x3dec9d8a	0.11553486
248	0xbda222c8	-0.0791679
249	0xbde86558	-0.11347455
250	0xbdec4ffa	-0.11538692
251	0xbd27e823	-0.040992867
252	0xbde588ef	-0.11207759
253	0x3e0d2bb8	0.13786209
254	0xbd037e2a	-0.03210274
255	0x3d54e8e6	0.05197992

lstm1.bias_ih_l0 f4 [200]
0	0x3cff93cd	0.031198407
1	0xbd05e918	-0.032693
2	0x3c1b7cef	0.009490236
3	0x3d0c88b5	0.03431006
4	0x3d61b2a9	0.055102024
5	0x3c167d2a	0.009185115
6	0xbd635f49	-0.055510793
7	0x3b82a86e	0.0039873635
8	0xbd02e16c	-0.03195326
9	0x3de8f66c	0.11375126
10	0x3d25c21b	0.040468317
11	0x3dbb359e	0.09141086
12	0x3d5c3377	0.05376002
13	0xbd62629b	-0.05526982
14	0xbc09c40d	-0.008408559
15	0x3dc93836	0.098251745
16	0xbd420c27	-0.04737487
17	0x3e188dd4	0.14897853
18	0x3d9c3ef9	0.076291986
19	0x3dce7b6e	0.10082136
20	0x3d935b7f	0.07195186
21	0xbd92a0ea	-0.07159598
22	0x3d09913d	0.033585776
23	0x3d894910	0.06703389
24	0x3d8e29ff	0.06941604
25	0xbdee2e9e	-0.11629985
26	0x3dc1a56a	0.09455378
27	0xbd0a2ec0	-0.03373599
28	0x3d824bc5	0.06362108
29	0xbd8c0914	-0.06837669
30	0x3d39513b	0.045243483
31	0xbdf2c51b	-0.11854001
32	0xbdf11e35	-0.1177334
33	0xbd00e7b6	-0.031470977
34	0x3dae1fe2	0.08502175
35	0xbaf77d04	-0.0018881862
36	0x3d445614	0.047933653
37	0x3d010c5a	0.03150592
38	0x3ddbd247	0.107334666
39	0x3e06aa49	0.13150896
40	0xbdf376d5	-0.118879
41	0x3ca83926	0.020535063
42	0xbd4b8ac0	-0.04969287
43	0x3d62332d	0.055224586
44	0x3ddea2bf	0.10870885
45	0x3d9823f7	0.07428735
46	0xbe083ae6	-0.13303718
47	0x3e1cd3d4	0.15315181
48	0x3da11298	0.078648746
49	0xbd3eb7e1	-0.04656208
50	0x3e104cca	0.14091793
51	0xbd31d6d0	-0.04341775
52	0xbd5e2b8d	-0.054240752
53	0x3da00967	0.07814293
54	0x3e24fd35	0.16112216
55	0x3da393ea	0.07987197
56	0xbbd07f37	-0.0063628214
57	0xbd92c5cf	-0.07166635
58	0xbdefeca4	-0.117150575
59	0x3e2f4236	0.17115101
60	0x3db9c988	0.09071642
61	0xbb9d333c	-0.0047973674
62	0x3dce2e45	0.10067419
63	0xb9a84c7b	-0.0003210044
64	0x3d1577a0	0.036491036
65	0x3b4e3de0	0.0031469986
66	0x3dd67c6b	0.104729496
67	0xbdf878b4	-0.12132397
68	0x3e4c37d7	0.19943176
69	0xbd5ee67c	-0.054419026
70	0x3e05180b	0.12997453
71	0xbd8f6337	-0.070013456
72	0x3d5cfba3	0.053950917
73	0x3e024272	0.1272066
74	0xbde64ed7	-0.11245506
75	0x3d04d87c	0.032433018
76	0xbe092bee	-0.13395664
77	0x3e1e9662	0.15487054
78	0x3dbe740a	0.092994764
79	0x3de0fa85	0.10985283
80	0xbd4a2831	-0.049354736
81	0x3de87e91	0.113522656
82	0x3d7ad6e1	0.06124008
83	0x3dfc6c6e	0.12325369
84	0x3b403b0d	0.0029332072
85	0xbcecff06	-0.028930198
86	0xbb155df7	-0.0022791603
87	0x3e0228e4	0.12710911
88	0xbce6fe90	-0.028197557
89	0xbd94380d	-0.07237253
90	0x3d89e88c	0.06733808
91	0xbd097ce4	-0.03356637
92	0xbd0f85bc	-0.03503965
93	0xbd96fec8	-0.073728144
94	0x3d552605	0.05203821
95	0x3e1133e2	0.14179948
96	0xbdd57035	-0.104217924
97	0xbcfc74c9	-0.030817406
98	0x3deaa2a5	0.11456803
99	0xbc89798a	-0.016781587
100	0x3df0ecc2	0.11763908
101	0x3e3954ad	0.18098707
102	0xbddd185a	-0.1079566
103	0xbdf92646	-0.12165503
104	0xbc1048f3	-0.008806455
105	0x3e366eb8	0.17815673
106	0x3ca9b668	0.02071686
107	0xbcf02d7d	-0.029318566
108	0x3daad837	0.08342021
109	0x3e0d3857	0.13791023
110	0xbc9b14ca	-0.018930811
111	0x3e32a91c	0.17447323
112	0x3dc69e56	0.09698169
113	0xbcd43602	-0.02590466
114	0xba31d232	-0.00067833357
115	0xbe145434	-0.14485246
116	0x3d1ce000	0.03829956
117	0xbd840e04	-0.06447986
118	0x3e16990d	0.14706822
119	0xbd797721	-0.060904626
120	0x3a7a1073	0.0009539194
121	0xbbbd6c71	-0.0057807495
122	0xbad9e97f	-0.0016625373
123	0x3b0ca5a6	0.002146104
124	0x3dcf158d	0.10111532
125	0xbc1b50b8	-0.009479694
126	0xbdd21d86	-0.102595374
127	0x3e6fc585	0.23415191
128	0x3e868be1	0.26278594
129	0x3c18882c	0.00930981
130	0xbd3972fa	-0.045275666
131	0x3cacb0f1	0.021080466
132	0xbdc86e41	-0.09786654
133	0x3e1ea67e	0.15493199
134	0x3ca0b5cd	0.01961794
135	0xbc7c8aa1	-0.015413911
136	0xbdf02454	-0.11725679
137	0xbc60cc05	-0.013720517
138	0xbdf13df2	-0.11779393
139	0xbd49dcb6	-0.049282752
140	0xbe4e653c	-0.20155805
141	0xbd90e9b9	-0.07075829
142	0x3dee087a	0.116227105
143	0xbd3bceb0	-0.04585141
144	0xba8b25cd	-0.0010616124
145	0x3d59d8b8	0.053185195
146	0xbe05d991	-0.13071276
147	0x3d7d037b	0.061770897
148	0xbd9c9617	-0.07645815
149	0xbd876abd	-0.066121556
150	0xbdf5aa2d	-0.11995349
151	0x3e2507fb	0.16116326
152	0x3d8e279e	0.0694115
153	0x3e0f43b7	0.13990675
154	0x3e183a48	0.14865983
155	0xbd5b9092	-0.05360467
156	0xbd7eb964	-0.06218852
157	0x3d532813	0.05155189
158	0xbc851284	-0.01624418
159	0x3e13f5a5	0.14449175
160	0xbdaa6ae2	-0.083211675
161	0xbd52c99f	-0.051461812
162	0x3e34ea34	0.17667466
163	0x3e1e6752	0.15469101
164	0x3d987146	0.0744348
165	0xbcfd1251	-0.030892523
166	0xbdfd6ca8	-0.1237424
167	0xbd05438e	-0.03253513
168	0x3c556098	0.013023518
169	0x3dd9d19b	0.10635682
170	0xbd8aba7d	-0.06773851
171	0xbd079f3a	-0.033110835
172	0xbb3b1e58	-0.0028552022
173	0xbd127daa	-0.035764374
174	0x3d9c3ddd	0.07628987
175	0x3d0f6099	0.035004232
176	0xbdd26f71	-0.10275162
177	0xbd2a8eb9	-0.041640017
178	0xbd1809e4	-0.037118807
179	0xbdac8573	-0.08423891
180	0xbb815165	-0.0039464706
181	0xbd26399d	-0.040582288
182	0xbdde1c74	-0.10845271
183	0x3dc4ace4	0.09603289
184	0xbce58489	-0.0280173
185	0x3d20d8e2	0.039269336
186	0x3e0b6ac9	0.13614954
187	0xbd9fc29a	-0.07800789
188	0x3dfab3cf	0.12241327
189	0x3d25c52c	0.04047124
190	0x3df6aae8	0.120443165
191	0x3c3235c2	0.010877075
192	0x3c938a64	0.018010326
193	0xbd86e915	-0.065874256
194	0xbe06d446	-0.13166913
195	0x3ccd14d1	0.02503434
196	0x3df42755	0.119215645
197	0x3b62b9c7	0.0034595595
198	0xbd45a16c	-0.048249647
199	0xbde1a160	-0.11017108

lstm1.bias_hh_l0 f4 [200]
0	0xbd920256	-0.07129352
1	0xbbc951d5	-0.0061437883
2	0xbdc1606d	-0.0944222
3	0xbde773a8	-0.113013566
4	0x3e051088	0.12994587
5	0xbd49cb12	-0.04926593
6	0xbe14438e	-0.14478895
7	0x3b9cfb6e	0.004790715
8	0x3c5424c0	0.012948215
9	0xbd481e8c	-0.048857257
10	0xbbe68cd1	-0.0070358296
11	0x3d5cfca4	0.053951874
12	0x3e0e1323	0.13874488
13	0xbdeba932	-0.11506881
14	0x3d7a94ef	0.06117719
15	0x3c7f9343	0.015599075
16	0x3d90c86d	0.07069478
17	0xbdc6d7bd	-0.097091176
18	0xbda38b4b	-0.079855524
19	0x3ce2762b	0.027644238
20	0x3a5865c4	0.00082549104
21	0xbcc14ef0	-0.02359721
22	0xbced8002	-0.028991703
23	0x3d10d038	0.035354823
24	0x3dd00bf3	0.10158529
25	0xbd4d3fe9	-0.050109778
26	0x3e16bfe7	0.14721642
27	0x3d1bde46	0.038053773
28	0xbd674df1	-0.056470815
29	0x3d157b93	0.036494803
30	0x3da76f86	0.08175568
31	0xbdbad9d2	-0.09123577
32	0xbd577401	-0.052600864
33	0x3bed7584	0.007246675
34	0x3debbec6	0.115109965
35	0x3daf6035	0.08563272
36	0x3dd9ada9	0.10628826
37	0xbde208eb	-0.11036857
38	0xbdb44d79	-0.08803839
39	0x3e07dfc4	0.13268954
40	0x3d881839	0.06645245
41	0xbd1b8128	-0.03796497
42	0xbe166d04	-0.14690024
43	0xbdef8ce3	-0.11696794
44	0x3d0678ae	0.032829933
45	0x3de1177b	0.10990807
46	0xbd07c601	-0.033147816
47	0xbdc6434d	-0.09680805
48	0xbddfa566	-0.10920219
49	0xbdd5f2c0	-0.104466915
50	0x3d297987	0.041375663
51	0xbce112d4	-0.027474798
52	0xbe008c41	-0.12553503
53	0x3b88c34e	0.0041736728
54	0x3d1116fb	0.035422307
55	0xbc632d51	-0.013865785
56	0x3d7d801b	0.06188975
57	0xbd149181	-0.036271576
58	0xbd17d732	-0.03707046
59	0x3e076ce5	0.13225134
60	0x3e5b7af6	0.21433625
61	0x3d143ca9	0.036190663
62	0x3dfa28e9	0.12214834
63	0x3d5fcb1d	0.054637063
64	0x3dc1f67b	0.094708405
65	0xbdaa4763	-0.08314397
66	0xbc864e1e	-0.016394671
67	0xbd123bab	-0.035701435
68	0x3e60a4ad	0.21937819
69	0x3e05291d	0.13003965
70	0xbd559869	-0.052147303
71	0x3e0233e0	0.12715101
72	0x3bf808ab	0.0075693927
73	0x3d8ebbd3	0.069694184
74	0xbdc84571	-0.0977887
75	0xbdc7060b	-0.097179495
76	0xbc4d4605	-0.012528901
77	0xbddcf678	-0.10789198
78	0xbd8a9189	-0.0676604
79	0x3c2ae6a3	0.010430965
80	0x3cb02016	0.021499675
81	0x3e335226	0.17511806
82	0xbd96914d	-0.07351933
83	0x3d22065b	0.039556842
84	0x3d4fed9a	0.050763704
85	0xbdab15a8	-0.0835374
86	0x3daceb2f	0.08443295
87	0xbbfe4070	-0.0077591464
88	0x3dc82e12	0.09774412
89	0xbc99234d	-0.01869359
90	0x3c48fc19	0.012267136
91	0xbdae4772	-0.08509721
92	0xbde72ef7	-0.11288255
93	0x3e064aec	0.13114518
94	0xbdb20705	-0.08692745
95	0xbdea31d9	-0.11435289
96	0x3ddefe95	0.108884014
97	0x3e1eb254	0.15497714
98	0xbdb63b8f	-0.08898079
99	0xbcf35c19	-0.029707002
100	0xbc63db8f	-0.013907327
101	0x3e3f3c79	0.18675412
102	0x3dc406e1	0.095716245
103	0x3d8d75d3	0.06907239
104	0xbd4bd681	-0.049765114
105	0xbd82be66	-0.06383972
106	0x3e574530	0.21022487
107	0x3d767828	0.060173184
108	0xbd235e51	-0.03988487
109	0x3e1a54b3	0.15071373
110	0xbe21b12b	-0.1579024
111	0x3e8967ab	0.26836905
112	0xbb16440c	-0.0022928743
113	0xbdd265dc	-0.102733344
114	0xbd161999	-0.036645506
115	0xbe26cdaa	-0.16289392
116	0x3e3c271c	0.18374294
117	0x3da85110	0.082185864
118	0x3d8a0db1	0.06740893
119	0x3bfdb736	0.0077427877
120	0x3ca4b527	0.020105911
121	0xbcb4b04c	-0.022056721
122	0xbdcbd6f9	-0.09953112
123	0xbca8a3ed	-0.020585978
124	0x3d5e63d4	0.054294422
125	0x3dea0995	0.11427609
126	0x3d3316e0	0.043722987
127	0x3e16a649	0.1471187
128	0x3e530c4d	0.20610161
129	0x3dc22c4f	0.094811074
130	0xbe0539e9	-0.13010372
131	0x3dd33c4a	0.103142336
132	0x3e33000a	0.17480484
133	0x3e306b22	0.17228368
134	0x3e21c245	0.15796764
135	0xbc83eef3	-0.01610515
136	0xbd89b806	-0.06724553
137	0xbca4636d	-0.020066941
138	0x3d1f02a5	0.03882088
139	0x3d9dfc31	0.07714117
140	0xbe04785d	-0.1293654
141	0xbda03039	-0.07821698
142	0xbda4db34	-0.08049622
143	0x3c21ef60	0.009883732
144	0x3d13122a	0.035905994
145	0x3da6a5f4	0.08137122
146	0xbd8dffd4	-0.06933561
147	0xbdc23882	-0.09483434
148	0x3ce9247a	0.028459776
149	0x3e25a638	0.16176689
150	0x3d8f7b40	0.0700593
151	0xbd4c9507	-0.04994681
152	0x3cc9b3b5	0.024621824
153	0xbdb13f2d	-0.08654628
154	0x3e16257a	0.14662734
155	0x3dad4446	0.08460288
156	0x3e15a65d	0.14614244
157	0xbde44e9b	-0.11147805
158	0x3dc7daa5	0.097585
159	0x3ddeae76	0.108731195
160	0x3e18d4fd	0.14924999
161	0x3dac0ec1	0.084012516
162	0x3de0dc47	0.109795146
163	0x3e2a4196	0.16626582
164	0x3dcfd52b	0.101480804
165	0x3df69bf2	0.12041463
166	0x3c166c01	0.009181024
167	0x3d457cdc	0.04821478
168	0x3d9da9bf	0.07698392
169	0x3d7f69db	0.06235681
170	0x3dd7ae5d	0.10531304
171	0x3d74c53c	0.05975841
172	0x3e16dff0	0.14733863
173	0x3d9484da	0.07251902
174	0xbd14646d	-0.036228586
175	0x3dea48be	0.11439656
176	0x3dc5fe06	0.09667592
177	0x3d27150d	0.04079156
178	0x3d8083da	0.06275149
179	0x3e102b50	0.14079022
180	0x3d7570ad	0.05992191
181	0x3dfcc16b	0.12341579
182	0xbd4404a5	-0.047855992
183	0x3e65c596	0.22438654
184	0xbd3667e3	-0.044532668
185	0x3e05456a	0.1301476
186	0x3e06ee7d	0.13176914
187	0xbda9cca8	-0.08290988
188	0xbdde407f	-0.108521454
189	0xbd8a551d	-0.06754515
190	0x3c85832d	0.016297901
191	0x3df9d4d8	0.121988
192	0xbd3610e1	-0.04444969
193	0xbd88730f	-0.06662571
194	0x3d943679	0.07236952
195	0xbda5cb3d	-0.08095405
196	0x3d38465f	0.044988986
197	0x3d1bbeca	0.038023748
198	0xbccadc8b	-0.024763366
199	0xbce5f286	-0.028069746

lstm2.weight_ih_l0 f4 [100, 50]
0	0x3e3fc59d	0.18727727
1	0x3da3490b	0.07972916
2	0xbd983450	-0.07431853
3	0xbc0570ee	-0.0081446
4	0x3e4417a9	0.1914965
5	0x3e2b5916	0.16733202
6	0x3dec0f38	0.1152634
7	0x3c8a3130	0.016869158
8	0xbb8c9625	-0.0042903596
9	0x3db9c798	0.090712726
10	0xbdc86ba8	-0.09786159
11	0x3e183a1c	0.14865917
12	0x3ba81bbd	0.00513026
13	0x3ddd0527	0.10791998
14	0xbdcbc371	-0.09949387
15	0x3e2f262e	0.17104408
16	0x3e08487f	0.13308905
17	0x3ddc2a91	0.107503064
18	0x3d831b4e	0.06401692
19	0xbe389111	-0.18024088
20	0x3e2f7f7a	0.17138472
21	0x3e4b1583	0.19832425
22	0xbd403317	-0.046923723
23	0x3e12b1e0	0.14325666
24	0x3df86a2c	0.12129626
25	0x3e1077f1	0.14108254
26	0x3e0e83eb	0.1391751
27	0xbde94bb6	-0.11391394
28	0xbd490046	-0.049072526
29	0x3deb6f82	0.11495878
30	0xbe021f5f	-0.1270728
31	0xbdee0a8d	-0.11623106
32	0x3dc8d5ae	0.09806381
33	0xbe0f2398	-0.13978422
34	0x3dda99ab	0.10673841
35	0x3dfa01a1	0.12207342
36	0x3d61e144	0.05514647
37	0x3d6f6f3f	0.058455702
38	0x3c204aa6	0.009783423
39	0xbe0d587d	-0.13803287
40	0xbe1d527a	-0.15363494
41	0xbde261ca	-0.11053808
42	0x3db58b0a	0.0886441
43	0x3dc01a98	0.09380072
44	0x3e357d36	0.17723545
45	0xbda10991	-0.07863153
46	0xbd819fcc	-0.06329307
47	0xbd55db5f	-0.05221116
48	0xbd824309	-0.06360442
49	0xbe062b8f	-0.13102554
50	0x3d810133	0.06299057
51	0x3da52c76	0.08065121
52	0x3dccebe0	0.10005927
53	0xbe10721d	-0.14106031
54	0xbe08d5f8	-0.13362873
55	0x3dc1eb08	0.09468657
56	0x3e41b902	0.18918231
57	0xbce89fd7	-0.02839653
58	0xbcf871ee	-0.030327763
59	0x3dc3424d	0.0953413
60	0x3db64983	0.0890074
61	0x3e22df89	0.15905584
62	0xbd978f13	-0.07400336
63	0xbe4d64fc	-0.20058054
64	0xbe378340	-0.17921162
65	0x3c91b331	0.01778564
66	0xbdc79158	-0.09744519
67	0x3d8ce110	0.06878865
68	0xbdb286ed	-0.08717141
69	0x3e3e9569	0.18611683
70	0x3e3a8beb	0.18217437
71	0x3c690385	0.0142220305
72	0xbe3b0238	-0.18262565
73	0xbe0a943b	-0.13533108
74	0xbcecb23e	-0.028893586
75	0xbcc8089b	-0.024418166
76	0xbe117577	-0.14204966
77	0x3df6cd52	0.120508805
78	0xbe3de29a	-0.18543473
79	0x3e09d8d2	0.13461617
80	0x3dfba93a	0.12288137
81	0x3d8f0d1b	0.069849215
82	0xbd6bd9b5	-0.05758067
83	0xbccdd2ba	-0.025124896
84	0xbe26bee4	-0.16283756
85	0xbc946713	-0.018115556
86	0x3d9c7d97	0.07641142
87	0xbe35336d	-0.17695399
88	0x3d9d8343	0.07691052
89	0x3e2db4dc	0.16963524
90	0x3e0c4a94	0.13700324
91	0xbe04ee54	-0.1298154
92	0xbe388e5b	-0.18023054
93	0xbbf4eef0	-0.0074747726
94	0xbdf80002	-0.121093765
95	0xbd3c0570	-0.045903623
96	0xbe132dc2	-0.14372924
97	0x3d808acd	0.06276474
98	0xbe149df6	-0.14513382
99	0x3e2818c9	0.16415705
100	0x3ccda416	0.025102656
101	0x3dfd96c2	0.123822704
102	0xbca4c35c	-0.020112686
103	0x3e672b56	0.22575125
104	0x3dd9a6f0	0.10627544
105	0xbd9cfa34	-0.0766491
106	0xbd6e7572	-0.058217473
107	0x3c24fa1d	0.010069397
108	0xbe0bbdf9	-0.13646688
109	0xbbba5ced	-0.005687347
110	0x3e54f9c2	0.207984
111	0x3a992f91	0.001168715
112	0x3dc9fa00	0.09862137
113	0xbe10b331	-0.14130856
114	0xbd983d96	-0.074336216
115	0xbe5ef56f	-0.21773313
116	0x3c6fdd9c	0.014640238
117	0x3d2ebf6e	0.04266303
118	0xbb9ed73a	-0.0048474343
119	0x3dad336a	0.08457072
120	0x3e3ef153	0.18646745
121	0xbe1bfc25	-0.15232904
122	0xbdabf84a	-0.08396967
123	0x3e3c251d	0.18373533
124	0xbe2aad27	-0.16667615
125	0xbd0123d4	-0.03152831
126	0xbd0e6ea7	-0.034773495
127	0x3e006d74	0.12541753
128	0x3e2cac6b	0.16862647
129	0xbe19223f	-0.1495447
130	0x3d2e1c8c	0.042507693
131	0xbe393eb9	-0.18090333
132	0xbe186005	-0.14880379
133	0xbd84e692	-0.0648929
134	0xbe270d7a	-0.16313735
135	0x3dfc1370	0.12308395
136	0xbd712420	-0.058872342
137	0xbe181ea7	-0.14855443
138	0xbe0e6f1c	-0.13909572
139	0x3decdab1	0.115651496
140	0x3d6186cb	0.05506019
141	0x3ce4e51b	0.027941277
142	0xbe7d74c2	-0.24751571
143	0xbce2ba30	-0.027676672
144	0xbdda80e8	-0.10669118
145	0xbe15a430	-0.14613414
146	0x3d4af050	0.049545586
147	0x3e277862	0.16354516
148	0x3d9aff46	0.07568221
149	0x3e15d82f	0.14633249
150	0x3dd7e697	0.105420284
151	0xbc8e7a1e	-0.017392214
152	0x3d0dffff	0.034667965
153	0x3d919631	0.07108725
154	0xbe5a0619	-0.21291389
155	0xbd9a75de	-0.07542013
156	0x3c4a5a4c	0.01235063
157	0x3d8262fd	0.06366537
158	0xbcae631d	-0.021287495
159	0x3df5a10e	0.11993609
160	0x3de1738e	0.110083684
161	0xbe64baf0	-0.22336936
162	0x3d0cb5e4	0.034353152
163	0xbd9ca222	-0.07648112
164	0x3e363412	0.17793301
165	0x3e18ed76	0.14934334
166	0x3dee8e6b	0.11648258
167	0xbe45fb74	-0.19334203
168	0xbd788a7e	-0.06067895
169	0xbd40a21c	-0.0470296
170	0xbde1ee59	-0.11031789
171	0xbe2ce731	-0.16885068
172	0xbe1ee07c	-0.15515321
173	0xbe063727	-0.13106976
174	0xbd7df70c	-0.06200318
175	0xbde455f4	-0.11149207
176	0x3e0361a1	0.12830211
177	0x3e2a52f9	0.16633214
178	0x3d3e028f	0.04638916
179	0x3a1d0143	0.0005989263
180	0x3c1d337e	0.009594796
181	0xbda81b13	-0.08208289
182	0xbd41b530	-0.047291934
183	0x3e0b1d19	0.13585319
184	0xbe48ac5e	-0.19597003
185	0xbe070ab8	-0.13187683
186	0xbdb4250e	-0.0879613
187	0xbdca9d28	-0.098932564
188	0xbdb68c72	-0.089135066
189	0x3dc37707	0.09544187
190	0xbd723fb5	-0.059142787
191	0x3c0711ac	0.008243959
192	0xbe10cb96	-0.14140162
193	0xbe167257	-0.14692055
194	0x3d8b1aa2	0.06792189
195	0xbd5f6c84	-0.054546848
196	0xbd016c11	-0.0315972
197	0x3db22cab	0.08699926
198	0x3d26a13a	0.0406811
199	0x3e315083	0.17315869
200	0xbdbca9de	-0.09212087
201	0x3e1889af	0.14896272
202	0x3d99b01d	0.07504294
203	0xbde0a7e6	-0.10969524
204	0x3e22287e	0.15835759
205	0xbda61340	-0.081091404
206	0x3d6f1692	0.058371134
207	0x3e021162	0.12701944
208	0xbe3dc008	-0.18530285
209	0xbe0305a8	-0.12795126
210	0x3dca0da9	0.09865887
211	0xbdfc6847	-0.12324577
212	0x3decb7a4	0.11558464
213	0xbdcad6bf	-0.09904241
214	0x3dad1ec1	0.084531315
215	0xbdac0199	-0.08398742
216	0x3d6f9100	0.058487892
217	0x3da03a87	0.07823663
218	0xbba5d100	-0.005060315
219	0xbdccb5bb	-0.099956
220	0x3cc52bbc	0.024068706
221	0xbd9aaeec	-0.07552895
222	0x3d88fbc3	0.06688645
223	0x3e19ae41	0.15007879
224	0x3d916da5	0.07100991
225	0xbce168bf	-0.027515767
226	0x3e2f021c	0.17090648
227	0x3e265b1d	0.16245694
228	0xbbefb05f	-0.0073147262
229	0xbb2edc98	-0.0026681777
230	0x3d899623	0.067180894
231	0x3dc34452	0.095345154
232	0x3cb49d60	0.022047698
233	0xbdf294a5	-0.11844758
234	0xbb3bc33a	-0.00286503
235	0x3e309593	0.17244558
236	0x3e4120c3	0.18860154
237	0xbe04c9fe	-0.12967679
238	0x3e2f351d	0.17110105
239	0xbc32bf81	-0.010909916
240	0xbcbf2a58	-0.02333562
241	0x3e29ff9c	0.16601413
242	0x3e04259d	0.12904973
243	0xbe547840	-0.20748997
244	0xbdeb83e6	-0.11499767
245	0x3de006f9	0.1093883
246	0xbd6c525a	-0.057695724
247	0xbdaec1ec	-0.085330814
248	0x3c8d5d76	0.01725648
249	0x3e08825e	0.13330981
250	0x3d7901f9	0.060792897
251	0x3bdf739a	0.0068192007
252	0x3dcf38cd	0.10118256
253	0x3c6799fe	0.014135836
254	0xbdd06957	-0.10176342
255	0xbe424eb9	-0.18975343

lstm2.weight_hh_l0 f4 [100, 25]
0	0xba9db4b5	-0.0012032004
1	0x3de221bd	0.11041591
2	0xbdd79464	-0.1052635
3	0x3e22fea8	0.15917456
4	0xbdfed845	-0.12443594
5	0xbe28c50e	-0.1648142
6	0x3daa6fcc	0.08322105
7	0x3d9f4810	0.07777417
8	0x3dc7a14d	0.097475626
9	0xbcb93f87	-0.0226133
10	0xbe30c572	-0.1726282
11	0x3e41e2d1	0.1893418
12	0xbd853442	-0.06504108
13	0xbd52e5bc	-0.051488623
14	0x3db57a5e	0.0886123
15	0x3e4742af	0.19459032
16	0xbe4a941f	-0.19783066
17	0x3e1f8de3	0.15581469
18	0xbde23e70	-0.11047065
19	0xbdf97733	-0.121809386
20	0x3d3d8969	0.046273623
21	0xbe3da871	-0.18521287
22	0x3e464995	0.19364007
23	0x3cdf5c25	0.027265618
24	0xbdb39cf0	-0.08770168
25	0x3dd2ae68	0.102871716
26	0xbe69fbcf	-0.22849964
27	0x3c71507f	0.014728664
28	0xbdb7b32c	-0.08969721
29	0x3d353db3	0.044248294
30	0xbe1bdd1c	-0.15221065
31	0xbdc505c6	-0.09620242
32	0x3e1c1a8b	0.152445
33	0xbdcc4e17	-0.09975832
34	0xbd868dd1	-0.06570018
35	0xbe395ccd	-0.18101807
36	0x3ded5094	0.11587635
37	0x3df47277	0.11935895
38	0x3c402b97	0.011729143
39	0x3d9c573e	0.076338276
40	0x3d2400bb	0.04003976
41	0x3ce17cb5	0.027525285
42	0xbe6e1345	-0.23249538
43	0xbcc38dbe	-0.023871299
44	0x3e1cf974	0.15329534
45	0x3dde2b38	0.10848087
46	0x3e32b58e	0.1745207
47	0x3e2f37e0	0.17111158
48	0xbb2a0c7e	-0.0025947387
49	0xbe3bf992	-0.18356922
50	0x3def1da5	0.11675576
51	0xbd35efbf	-0.044418093
52	0x3d0b56d1	0.03401834
53	0x3e076c79	0.13224973
54	0xbe285682	-0.1643925
55	0xbe29930e	-0.16560003
56	0x3d8582ff	0.06519126
57	0xbe17c101	-0.14819719
58	0xbcdfec89	-0.027334468
59	0x3e13c0cc	0.14429015
60	0x3e0f1e80	0.13976479
61	0x3dd93211	0.106052525
62	0x3d4f80a7	0.0506598
63	0xbdfe3dd3	-0.12414136
64	0xbe728b9f	-0.23686074
65	0xbd96f3e0	-0.07370734
66	0x3cd5c5c7	0.026095284
67	0x3e436bcf	0.19084094
68	0xbe19737f	-0.14985465
69	0xbdc7faec	-0.097646564
70	0x3dbbfac6	0.091786906
71	0xbd19c3f6	-0.0375404
72	0x3deb09b2	0.114764586
73	0x3e18ec82	0.1493397
74	0x3db0b40b	0.086280905
75	0x3deac113	0.11462607
76	0x3cd18996	0.025578301
77	0xbdd4c303	-0.10388758
78	0xbb856ad6	-0.0040715737
79	0xbdfc617d	-0.12323282
80	0x3dbd123b	0.09231993
81	0xbb52aaca	-0.0032145255
82	0xbdac6363	-0.08417394
83	0x3e151039	0.1455697
84	0xbb571ab5	-0.0032822315
85	0xbdb725b8	-0.08942741
86	0x3d931724	0.07182148
87	0xbd5010f0	-0.050797403
88	0xbdaad26e	-0.083409175
89	0xbddef892	-0.10887255
90	0xbdba68f9	-0.09102053
91	0x3dc252cc	0.094884485
92	0x3dfe3589	0.12412555
93	0xbcc20168	-0.023682311
94	0x3e3c6bb9	0.18400468
95	0xbda0ebed	-0.07857499
96	0xbe02c870	-0.12771773
97	0x3e41d9b5	0.18930705
98	0x3db1b84e	0.086777315
99	0x3e0bb7b6	0.13644299
100	0x3da7b6ba	0.08189149
101	0x3e23301d	0.15936323
102	0xbd769d36	-0.06020852
103	0xbe058e90	-0.13042665
104	0xbbace376	-0.005276139
105	0x3d5b9254	0.053606346
106	0xbd8df1a2	-0.069308534
107	0x3e215e3b	0.15758602
108	0xbe199c8d	-0.15001126
109	0xbdf8a5ac	-0.121409744
110	0x3ce213a9	0.027597265
111	0xbd005800	-0.031333923
112	0x3d5af5c7	0.053457048
113	0x3e402bc1	0.18766691
114	0x3e15e7b9	0.14639176
115	0x3e2157db	0.1575617
116	0x3e2c08b9	0.16800202
117	0x3e296854	0.16543704
118	0xbdffb505	-0.124856986
119	0x3d016b50	0.03159648
120	0xbe2af584	-0.1669522
121	0x3db647e8	0.08900434
122	0xbc46aabc	-0.012125667
123	0x3e1051b1	0.14093663
124	0x3e0aa931	0.13541104
125	0x3e134165	0.14380415
126	0xbe0260ba	-0.12732211
127	0xbde1ef4e	-0.11031972
128	0xbe1a489c	-0.15066761
129	0x3d3d0417	0.04614648
130	0x3e39c541	0.18141653
131	0xbd6ea0d4	-0.058258846
132	0xbde7a81e	-0.11311363
133	0x3c885a1a	0.016644526
134	0x3e3c4362	0.1838508
135	0x3d48fd5a	0.04906974
136	0x3e180fe5	0.14849813
137	0xbd8ffec8	-0.070310175
138	0x3e364af4	0.1780203
139	0x3e300ff1	0.17193581
140	0xbdc9462a	-0.09827836
141	0xbe1da090	-0.15393281
142	0xbd82705b	-0.06369086
143	0x3dd23340	0.102636814
144	0x3e4bbd6d	0.19896479
145	0xbd9c3d7d	-0.076289155
146	0x3da68d30	0.08132398
147	0x3dacaf67	0.08431893
148	0x3e4f67d8	0.20254457
149	0xbd6567d1	-0.05600721
150	0x3d73bf0a	0.05950836
151	0x3ccac7a4	0.0247534
152	0xbe280163	-0.16406779
153	0xbcfeb2ce	-0.03109112
154	0xbdeccf24	-0.115629464
155	0xbe3fe721	-0.18740512
156	0x3d9899cb	0.07451209
157	0xb9d0b897	-0.00039810382
158	0x3d97bff6	0.074096605
159	0xbca2d715	-0.01987795
160	0xbdb76a2e	-0.08955799
161	0xbcc4b8b7	-0.02401386
162	0xbdffc6d1	-0.12489093
163	0x3db90cd8	0.09035653
164	0xbe0db2a6	-0.1383768
165	0xbe165fbc	-0.14684957
166	0xbdf28238	-0.118412435
167	0xbd4c82d7	-0.049929466
168	0xbd9688ed	-0.07350335
169	0xbe07939d	-0.13239904
170	0xbd429e68	-0.04751435
171	0x3e34e823	0.17666678
172	0x3e1ad34e	0.15119669
173	0xbd136a37	-0.035989966
174	0x3e1c148c	0.15242213
175	0x3da5d41c	0.08097097
176	0x3da31456	0.07962863
177	0x3def7529	0.116922684
178	0xbe4074b2	-0.18794516
179	0xbd9eb8ed	-0.077501155
180	0x3e36c32f	0.17847894
181	0x3e0b4700	0.13601303
182	0x3e50729b	0.20356219
183	0xbe228f68	-0.15875018
184	0xbd9e5b63	-0.077322744
185	0xbc81faa5	-0.015866587
186	0xbccbb22a	-0.024865229
187	0x3d986b0f	0.07442295
188	0xbdcdf18c	-0.10055837
189	0x3dad066b	0.0844849
190	0xbe2aee85	-0.1669255
191	0x3de18acd	0.11012802
192	0x3df35632	0.11881675
193	0xbbc92155	-0.0061380067
194	0x3e35a19a	0.17737427
195	0xbdac39f7	-0.084094934
196	0x3e599d62	0.21251443
197	0xbd70bbfd	-0.05877303
198	0x3d23c81d	0.039985765
199	0xbdf52bde	-0.119712576
200	0x3d15da76	0.036585294
201	0xbe225099	-0.15851058
202	0xbce58d3f	-0.028021453
203	0xbcd22d24	-0.02565629
204	0x3d99a420	0.075020075
205	0xbe3f712b	-0.18695514
206	0xbd05c96f	-0.032662805
207	0xbe07ec09	-0.13273634
208	0x3c9cd2b8	0.019143447
209	0x3e422a64	0.18961483
210	0xbcc5c351	-0.024140986
211	0xbd71f5d7	-0.05907234
212	0x3e5108fe	0.20413586
213	0x3ca8e2d3	0.02061597
214	0x3de04e0c	0.10952386
215	0xbe4c01cd	-0.19922562
216	0xbd94f695	-0.07273594
217	0xbcff19cd	-0.031140232
218	0x3cce48fb	0.025181284
219	0x3e306561	0.17226173
220	0xbe3cead4	-0.18448955
221	0xbd0dcbca	-0.034618177
222	0x3e49f5f5	0.19722731
223	0xbda0d723	-0.07853534
224	0xbda4decc	-0.08050308
225	0x3bea01f1	0.0071413447
226	0x3e71128c	0.23542231
227	0x3d2018de	0.039086215
228	0x3bec3593	0.007208535
229	0xbcf61a3e	-0.03004181
230	0xbcaa9831	-0.020824524
231	0xbd8cf5f6	-0.06882851
232	0xbe62180d	-0.22079487
233	0xbd4701e1	-0.048585776
234	0xbe7c1b22	-0.24619725
235	0xbdd99b89	-0.10625369
236	0xbd5f4efc	-0.054518685
237	0x3e20988b	0.1568319
238	0x3e2d89d9	0.16947116
239	0xbdbc07df	-0.09181189
240	0xbc9c1e2d	-0.019057358
241	0xbe2780d6	-0.16357741
242	0xbd29ca36	-0.04145261
243	0x3d953594	0.0728561
244	0xbd894187	-0.067019515
245	0x3dd8d1ce	0.10586892
246	0xbc389bea	-0.011267642
247	0xbe2967f1	-0.16543557
248	0x3e0c0720	0.13674593
249	0xbde4947e	-0.11161135
250	0xbd5d32e4	-0.05400361
251	0xbd42e78a	-0.047584094
252	0x3c140a84	0.00903571
253	0xbd41e14b	-0.047333997
254	0xbe2f67f6	-0.17129502
255	0xbe3e87cc	-0.1860649

lstm2.bias_ih_l0 f4 [100]
0	0xbe3838bd	-0.17990394
1	0x3e3f1c20	0.18663073
2	0x3dc86041	0.09783984
3	0x3d312b05	0.043253917
4	0xbd94bbc4	-0.07262376
5	0x3e644b8f	0.22294448
6	0x3e1bb594	0.15205985
7	0x3e42d520	0.19026613
8	0x3dda7eb7	0.106687
9	0x3e5a4a5a	0.21317425
10	0x3e66afb0	0.22527957
11	0xbd8bf0d2	-0.06833042
12	0xbd3fc680	-0.046820164
13	0xbca5fa51	-0.020260962
14	0x3e85cb0f	0.26131484
15	0x3e129954	0.14316303
16	0xbe0a6071	-0.13513352
17	0xbc56f744	-0.013120476
18	0x3db9e17c	0.09076211
19	0x3d61978a	0.05507616
20	0x3e158662	0.14602044
21	0xbd8f493c	-0.0699639
22	0x3dc5582a	0.096359566
23	0xbe185d6c	-0.14879388
24	0x3e20af58	0.15691888
25	0x3b7138b7	0.0036807486
26	0xbb90684e	-0.0044069653
27	0x3e9b28ae	0.30304474
28	0x3e94d634	0.29069674
29	0x3e73cdd4	0.23808986
30	0x3e0f1b67	0.13975297
31	0x3ec22726	0.37920493
32	0x3e749c6f	0.238878
33	0xbe024de8	-0.12725031
34	0x3ec021b4	0.37525713
35	0x3e000d47	0.12505065
36	0x3e8bc17e	0.2729606
37	0x3e3059c5	0.17221744
38	0x3c8edd76	0.017439585
39	0x3e2b287f	0.16714667
40	0x3cc3fe91	0.023925098
41	0xbc5e0fbb	-0.013553555
42	0xbce21514	-0.027597941
43	0xbd82d40b	-0.063881
44	0xbd440811	-0.047859255
45	0xbde4b04e	-0.1116644
46	0x3de1f5ec	0.11033234
47	0xbd9cb8b1	-0.076524146
48	0xbb7910a5	-0.0038004306
49	0x3e9547ba	0.29156286
50	0x3c586165	0.013206814
51	0x3d64adf9	0.055829976
52	0x3dd7c1e8	0.105350316
53	0x3dd29895	0.10283009
54	0x3ddfc97d	0.10927103
55	0x3e104c6e	0.14091656
56	0x3e9b8b6b	0.30379805
57	0xbe0d8f43	-0.13824181
58	0xbcfc18b4	-0.030773498
59	0x3f173d78	0.5907817
60	0x3e81e46b	0.25369582
61	0x3de124cf	0.10993349
62	0x3dec0955	0.115252174
63	0xbde62259	-0.1123702
64	0xbe8a6071	-0.27026704
65	0x3d406a20	0.04697621
66	0xbc860761	-0.01636094
67	0xbc7ff822	-0.015623124
68	0x3d240b5b	0.040049892
69	0x3ea457ce	0.3209824
70	0x3e6e5ff1	0.23278786
71	0xbdc3af10	-0.09554875
72	0xbd4e0239	-0.05029509
73	0x3e2261bd	0.15857597
74	0xbc4418fd	-0.011968848
75	0xbdc87adc	-0.097890586
76	0x3e1b5980	0.1517086
77	0xbd6f1545	-0.058369894
78	0x3ea76e19	0.32701185
79	0x3d225a7e	0.03963708
80	0xbce4045d	-0.027834112
81	0x3d75fb01	0.06005383
82	0x3ea4018f	0.3203244
83	0x3d298e87	0.04139569
84	0x3e5ece6d	0.21758433
85	0x3e36bd7c	0.1784572
86	0x3e27204b	0.16320913
87	0x3e80899f	0.25104997
88	0xbe4ca7a8	-0.19985831
89	0xbd47e893	-0.048805784
90	0xbc35f07f	-0.011104702
91	0xbd833ef5	-0.064084925
92	0x3e77616d	0.24158259
93	0xbe272980	-0.16324425
94	0x3e475784	0.19466978
95	0xbdc08f1d	-0.09402297
96	0xbd8b3e8b	-0.067990385
97	0x3ddff089	0.1093455
98	0x3e6f97c3	0.23397736
99	0x3e732ede	0.23748347

lstm2.bias_hh_l0 f4 [100]
0	0xbd8281a9	-0.06372387
1	0x3e63cd7f	0.2224636
2	0x3d37cbd8	0.044872135
3	0x3da2d143	0.0795007
4	0x3e26f244	0.16303355
5	0xbdaa2f15	-0.083097614
6	0x3e98bc02	0.2983094
7	0x3dd58f40	0.104277134
8	0xbd80e93e	-0.062944874
9	0x3e462ed8	0.19353807
10	0x3e5934f4	0.21211606
11	0x3e0030bf	0.12518595
12	0x3e600381	0.21876337
13	0x3e354c3d	0.17704864
14	0xba0366d9	-0.0005012579
15	0x3dfa287d	0.12214754
16	0xbdee5857	-0.11637943
17	0x3bb7e0ea	0.0056115286
18	0x3e2de0f0	0.16980338
19	0xbe184576	-0.14870247
20	0x3e1a5951	0.15073134
21	0xbd52955d	-0.051411975
22	0xbde737df	-0.112899534
23	0xbd3b0315	-0.045657236
24	0x3d5ba79c	0.05362664
25	0x3d09b5ca	0.033620633
26	0x3e808776	0.25103348
27	0xbdad781f	-0.08470177
28	0x3dfbf8d3	0.12303319
29	0xbd995a33	-0.07487907
30	0x3da4b37f	0.08042049
31	0x3da74526	0.08167486
32	0x3e244da3	0.16045241
33	0x3dec65d7	0.11542862
34	0x3e55b197	0.20868526
35	0xbc85ba2e	-0.016324129
36	0x3e321ee3	0.17394595
37	0x3cf264db	0.029589107
38	0x3e1b8eed	0.1519124
39	0x3efa8ca0	0.48935413
40	0xbd2b5a1e	-0.04183399
41	0xba172132	-0.00057651394
42	0xbd348998	-0.044076532
43	0xbda2fbbe	-0.07958172
44	0x3d6c5f4c	0.05770807
45	0xbdc31ddd	-0.0952718
46	0xbdedc5e9	-0.11610014
47	0xbdda2a4f	-0.10652601
48	0x3e7e2785	0.24819763
49	0x3ec77f89	0.3896449
50	0x3d8210c9	0.06350858
51	0x3e850758	0.25982165
52	0x3e200dbc	0.15630239
53	0x3e2c231d	0.1681027
54	0x3e090f0a	0.13384643
55	0x3dc139a6	0.09434824
56	0x3e966975	0.29377332
57	0xbe014633	-0.12624435
58	0xbd618a72	-0.055063672
59	0x3e5b5742	0.21420005
60	0x3ec5bdb5	0.38621297
61	0x3e05f360	0.13081121
62	0x3ec0aa6c	0.37630022
63	0xbe98bc1e	-0.29831022
64	0xbe9dfff3	-0.30859336
65	0x3db13890	0.086533666
66	0x3ddc1238	0.107456625
67	0x3c3801fe	0.011230944
68	0xbcdf0437	-0.02722369
69	0x3e1fe2ec	0.15613908
70	0x3da99d6e	0.082819805
71	0x3d097109	0.033555064
72	0xbd8c8507	-0.068613105
73	0x3dd3519f	0.10318302
74	0x3e82a537	0.25516674
75	0x3d9fcd7c	0.07802865
76	0x3e078797	0.13235317
77	0x3cff6e9e	0.031180676
78	0x3e9efb95	0.31051317
79	0x3e701007	0.23443614
80	0xbcbf555b	-0.02335613
81	0x3e84e77e	0.25957865
82	0x3e3986bd	0.18117805
83	0xbc64d382	-0.013966443
84	0x3d13fb03	0.036128055
85	0x3df0761e	0.11741279
86	0x3e567322	0.20942357
87	0x3ea2865e	0.3174314
88	0xbcf76d21	-0.030203404
89	0x3e694de5	0.2278362
90	0xbe2b742c	-0.16743535
91	0x3d1b0ae6	0.03785219
92	0x3e3e064c	0.1855709
93	0xbd66eae5	-0.056376357
94	0xbc8f1827	-0.017467571
95	0x3c7b3402	0.015332224
96	0xbde7acc7	-0.113122515
97	0x3e11fc97	0.14256512
98	0x3e1716ea	0.14754835
99	0xbcd73427	-0.026269985

fc.weight f4 [6, 25]
0	0x3d99f3d2	0.07517208
1	0x3e100624	0.14064842
2	0x3b2d199a	0.0026412965
3	0x3e7ded64	0.24797589
4	0xbe9488f0	-0.29010725
5	0xbe7bc062	-0.24585107
6	0x3ed68288	0.41896462
7	0x3d08ecf1	0.03342909
8	0xbd817de7	-0.06322842
9	0xbc1db201	-0.009624959
10	0x3ef735dc	0.4828328
11	0x3e02f170	0.12787414
12	0xbdc24a22	-0.09486796
13	0xbe3775a8	-0.17915976
14	0x3ec85820	0.39129734
15	0xbe698f04	-0.22808462
16	0x3d6f4ba9	0.058421765
17	0xbe69d7f6	-0.22836289
18	0x3d806952	0.06270088
19	0x3e8a4dbe	0.27012438
20	0x3e3d8a5e	0.18509814
21	0x3e13e412	0.1444247
22	0x3e26340f	0.16230796
23	0xbc7d3de0	-0.015456647
24	0xbe8efaaf	-0.2792563
25	0x3e56b437	0.20967184
26	0x3e684fec	0.22686738
27	0x3f41165b	0.75424737
28	0x3f3c1d4a	0.7348219
29	0x3c8607f2	0.01636121
30	0x3ec6655d	0.3874921
31	0x3cc6b21a	0.024254847
32	0xbf2d7a64	-0.6776488
33	0x3e2d20bf	0.16907023
34	0x3f16eee6	0.5895828
35	0x3cdd23f4	0.026994683
36	0xbf275c8d	-0.65375596
37	0xbf1de007	-0.61669964
38	0xbdb35d0e	-0.08757983
39	0xbf8ca58d	-1.0988022
40	0x3f2000ec	0.62501407
41	0x3e7af059	0.24505748
42	0x3f6eb98e	0.93251884
43	0xbe127230	-0.14301372
44	0xbef68c3d	-0.48153868
45	0x3e83679d	0.25664988
46	0xbe7687cf	-0.24075244
47	0xbf2d3711	-0.6766215
48	0x3cc4e494	0.024034776
49	0x3f2b118a	0.6682364
50	0xbdd6c49a	-0.104867175
51	0xbeec7e0a	-0.4618991
52	0xbf36b199	-0.7136474
53	0xbf4a8100	-0.7910309
54	0x3f2868f3	0.6578514
55	0x3d8b61a1	0.068057306
56	0xbf934dc6	-1.150811
57	0x3f2138d5	0.62977344
58	0xbe8e1a56	-0.27754468
59	0x3f32d0f5	0.69850093
60	0xbf15e5e2	-0.585539
61	0xbe457607	-0.19283305
62	0x3f189257	0.59598297
63	0xbd28f64b	-0.04125051
64	0xbea43ee4	-0.32079232
65	0x3e4d95d1	0.20076682
66	0x3dc41bca	0.09575613
67	0x3cd9ca04	0.026585586
68	0xbee8e949	-0.45490482
69	0x3e7c0fba	0.24615374
70	0xbf0ddc07	-0.5541386
71	0xbf20177b	-0.6253583
72	0x3e94c9a0	0.29060078
73	0x3e68434b	0.2268192
74	0x3f270e34	0.6525605
75	0x3e28e319	0.16492881
76	0xbf49050c	-0.78523326
77	0xbe72e750	-0.23721051
78	0xbf2f16e5	-0.6839431
79	0xbe656253	-0.22400789
80	0x3df5ee9e	0.12008403
81	0x3ec49073	0.38391456
82	0x3f3a5357	0.72783417
83	0x3d1fd2d1	0.03901941
84	0xbec6b086	-0.38806552
85	0xbf4b9b2c	-0.7953365
86	0xbe72b265	-0.23700865
87	0x3e8e29b6	0.27766198
88	0xbe06e86d	-0.13174601
89	0x3f1c0293	0.6094143
90	0x3b09ad15	0.0021007706
91	0xbeb51d2f	-0.35373828
92	0xbe6bb5ed	-0.23018618
93	0xbde4cb37	-0.11171573
94	0x3e0adc0d	0.13560505
95	0xbdb5e6ec	-0.088819355
96	0x3d97264d	0.07380352
97	0x3d86d342	0.06583263
98	0xbec169d7	-0.37776062
99	0xbe6e0182	-0.23242763
100	0x3c25092f	0.01007299
101	0x3e48d97c	0.19614214
102	0x3e0cd418	0.13752782
103	0xbd784d9f	-0.0606209
104	0xbd50a717	-0.0509406
105	0x3e632413	0.2218173
106	0x3edfef96	0.43737477
107	0xbd36fabd	-0.044672716
108	0xbcd7c801	-0.026340486
109	0xbe4d3a36	-0.20041737
110	0x3e10a776	0.14126381
111	0x3e417197	0.18890987
112	0x3e05606c	0.13025063
113	0xbe1f8fad	-0.15582152
114	0x3ea16e25	0.31529346
115	0xbe32bd45	-0.17455013
116	0xbd92bbc6	-0.07164721
117	0xbc00e9da	-0.007868255
118	0x3d9212b8	0.071324766
119	0x3e87d26f	0.26527736
120	0x3e32c905	0.17459495
121	0x3e971f4b	0.29516062
122	0x3e631d31	0.22179104
123	0x3dff8ce5	0.124780454
124	0xbd044d1b	-0.032300096
125	0xbe92c7b6	-0.28667992
126	0x3eee245a	0.4651211
127	0x3eafc8b1	0.34332803
128	0x3ef68d4e	0.48154682
129	0xbe9a1022	-0.30090433
130	0xbf2d5073	-0.6770088
131	0x3e3e1112	0.185612
132	0xbefbe5a6	-0.49198645
133	0x3f159ef7	0.58445686
134	0xbf114a39	-0.5675388
135	0x3eb446fd	0.3521041
136	0x3f29580b	0.6614997
137	0xbf4bb14f	-0.79567426
138	0x3d177592	0.03697736
139	0x3eacf317	0.33779213
140	0xbed64c25	-0.4185497
141	0x3e6a3d06	0.22874841
142	0xbe8e7ffd	-0.27832022
143	0x3e9e0ed0	0.30870676
144	0xbe6f48e9	-0.23367657
145	0x3ec51c2d	0.3849806
146	0x3f0be2f1	0.5464316
147	0x3e36cf94	0.17852622
148	0x3e9c33ef	0.30508372
149	0xbf13df57	-0.57762665

fc.bias f4 [6]
0	0xbe212cb0	-0.15739703
1	0x3f8de728	1.1086168
2	0xbf307640	-0.68930435
3	0xbf9bf1b5	-1.2183138
4	0x3ede39ef	0.43403575
5	0xbb7bf56f	-0.003844585
