code/conjugate_gradient/models/LSTM_CG_pruned.pt (torch, 79002 bytes, 10 tensors)

lstm1.bias_ih_l0 f4 [200]
0.0070331395 0.12685503 -0.008715749 0.13615043 -0.06343603 0.13325162 -0.110928975 0.093694806
-0.046685748 0.08297962 0.13718484 -0.10734552 0.08681047 0.00097097456 0.11118953 0.071406916
0.11186345 -0.13405752 0.037588656 0.11921151 0.0046131015 0.048361644 0.082740545 -0.016914934
-0.074408054 0.10852182 0.121026084 0.03085053 -0.113234594 -0.041596264 -0.025574826 -0.09015424
-0.006693706 0.042106003 0.053134233 0.06049192 -0.106529474 -0.13131025 0.08889894 0.11773114
0.11860286 -0.046786495 -0.08231722 0.12316154 0.13631825 0.1385793 -0.07230988 -0.0861046
-0.052403912 0.09340915 0.09625134 0.08247243 -0.09864477 0.07633807 -0.10699102 0.007979393
-0.053549245 -0.11473028 -0.0702953 0.018360108 0.03431779 0.105607 0.13848765 0.1183535
-0.012941495 0.07638188 0.0052423924 0.019135207 -0.08463785 0.06989007 0.057717234 -0.0061282814
0.051657766 0.101230934 -0.09751901 -0.13898826 0.037762865 -0.08781946 0.079720244 0.04836127
-0.08346732 0.06283569 -0.07992391 -0.08894156 0.057547823 -0.124518305 0.037117302 0.04744181
-0.09638585 0.039916188 -0.12703311 0.08203553 0.06660563 0.003828749 0.1264381 0.088417515
-0.04149899 -0.112896375 -0.06050659 -0.04649403 0.11237465 -0.04579763 -0.009717748 0.13459466
-0.046153277 -0.001386717 0.04828979 -0.04296443 0.050039873 0.018447936 0.1114717 0.026494622
0.09061512 -0.02499 0.016484797 0.028412849 0.13254486 0.028355405 -0.038061604 -0.08454574
-0.0801654 0.062149554 0.031279042 0.12909104 0.13366197 0.08642362 0.1181414 0.017321214
0.10426849 -0.007794261 0.0008511245 0.030041233 0.073886275 0.122201845 0.011808336 -0.037054874
-0.07958978 -0.034656897 0.13421838 -0.048797235 0.04558751 -0.0040317774 0.0331174 -0.014913961
-0.0070277005 0.023340896 0.030049562 -0.005143285 -0.12171766 -0.052266426 -0.036233343 -0.06940541
-0.106223226 -0.08790739 0.095551476 0.066462174 0.08643818 -0.023803174 -0.128047 -0.06674171
0.07538864 0.004642576 0.020122081 0.00293082 0.033894747 0.04227905 0.023455307 -0.1300647
-0.016213223 -0.020426266 0.016113535 -0.13290499 0.014305145 0.064649895 0.10177009 0.055137053
0.044956952 -0.09184392 0.073770806 0.10958873 -0.078899205 0.019343108 0.08882968 0.05560939
-0.12067516 -0.009916142 0.08529882 0.05340661 -0.12381285 -0.05474609 0.034211785 -0.09234634
0.09597184 -0.079570994 0.1248209 -0.12661906 0.049121052 0.051373318 -0.08189445 -0.094819136
00000000: 4076 e63b 49e6 013e 80cc 0ebc 056b 0b3e
00000010: c0ea 81bd 1d73 083e bb2e e3bd 10e3 bf3d
00000020: 8e39 3fbd 38f1 a93d 2f7a 0c3e f8d7 dbbd
00000030: b0c9 b13d 0089 7e3a 56b7 e33d ca3d 923d
00000040: aa18 e53d 6046 09be 90f6 193d 2a25 f43d
00000050: 8029 973b dc16 463d e073 a93d 3091 8abc
00000060: 4063 98bd b040 de3d 86dc f73d 40ba fc3c
00000070: 8ae7 e7bd d860 2abd 4c82 d1bc c9a2 b8bd
00000080: e056 dbbb 5877 2c3d 48a3 593d 60c6 773d
00000090: 202c dabd 3276 06be a610 b63d 061d f13d
000000a0: 0ee6 f23d 32a3 3fbd ee95 a8bd 1e3c fc3d
000000b0: 0397 0b3e bbe7 0d3e 3417 94bd 9c57 b0bd
000000c0: 7ca5 56bd 4c4d bf3d 6c1f c53d 4ee7 a83d
000000d0: 4506 cabd 2257 9c3d 1c1e dbbd 00bc 023c
000000e0: 7456 5bbd b6f7 eabd fbf6 8fbd f067 963c
000000f0: d090 0c3d 7c48 d83d b5cf 0d3e 5263 f23d
00000100: 9008 54bc 1a6e 9c3d 60c8 ab3b 70c1 9c3c
00000110: 9c56 adbd 8622 8f3d e868 6c3d c0cf c8bb
00000120: 1897 533d 2a52 cf3d 0cb8 c7bd f052 0ebe
00000130: 3cad 1a3d b0da b3bd 5e44 a33d 7816 463d
00000140: eaf0 aabd 00b0 803d 26af a3bd fe26 b6bd
00000150: 44b7 6b3d 7403 ffbd 5008 183d 5852 423d
00000160: f265 c5bd 287f 233d f814 02be 3e02 a83d
00000170: 8868 883d c0eb 7a3b fd78 013e 3e14 b53d
00000180: d8fa 29bd 3736 e7bd c2d5 77bd 8670 3ebd
00000190: ae24 e63d 4c96 3bbd 3037 1fbc 2fd3 093e
000001a0: 380b 3dbd 80c2 b5ba 84cb 453d 78fb 2fbd
000001b0: 9cf6 4c3d 2020 973c 464b e43d 400b d93c
000001c0: 6c94 b93d d4b7 ccbc 200b 873c 10c2 e83c
000001d0: d7b9 073e 9849 e83c 7ce6 1bbd 5126 adbd
000001e0: c22d a4bd 8890 7e3d 741e 003d 7130 043e
000001f0: afde 083e defe b03d 1ef4 f13d 38e5 8d3c
00000200: b88a d53d 0067 ffbb 001e 5f3a 0819 f63c
00000210: b051 973d f644 fa3d c077 413c dac6 17bd
00000220: f7ff a2bd 64f4 0dbd 8b70 093e 9cdf 47bd
00000230: f8b9 3a3d 001d 84bb 1ca6 073d b059 74bc
00000240: a048 e6bb 6835 bf3c 802a f63c 0089 a8bb
00000250: 1c47 f9bd 5215 56bd 6a69 14bd 6c24 8ebd
00000260: 908b d9bd ca08 b4bd 7eb0 c33d 521d 883d
00000270: 8006 b13d e0fe c2bc c11e 03be e1af 88bd
00000280: 5c65 9a3d c020 983b 10d7 a43c 0013 403b
00000290: 38d5 0a3d cc2c 2d3d 5825 c03c ae2f 05be
000002a0: 98d1 84bc fc54 a7bc 8800 843c 3f18 08be
000002b0: 2060 6a3c 2a67 843d d66c d03d 64d7 613d
000002c0: c824 383d aa18 bcbd 2615 973d 0e70 e03d
000002d0: e895 a1bd 7075 9e3c 56ec b53d acc6 633d
000002e0: 8a24 f7bd 5077 22bc 26b1 ae3d e4c0 5a3d
000002f0: 9791 fdbd 703d 60bd a821 0c3d 1420 bdbd
00000300: e28c c43d 1ef6 a2bd 1aa2 ff3d 6da8 01be
00000310: 2833 493d d46c 523d 47b8 a7bd 8930 c2bd

lstm1.bias_hh_l0 f4 [200]
0.049634725 -0.051045723 -0.019290633 0.0677385 0.024677202 0.08100468 -0.030413657 0.084426075
-0.124501556 0.07309079 0.008944243 0.071670786 -0.08337038 -0.1368256 0.12077163 0.06673312
-0.1088522 0.13714989 0.024434894 -0.04486283 0.09415576 -0.0069099218 -0.041585118 0.10271892
0.049301296 -0.13068363 0.110080466 0.121491864 0.112076774 0.010732546 -0.035076648 0.099147215
-0.09848966 0.061138764 0.056575358 -0.021169215 -0.14060633 0.0070225447 -0.118189365 -0.1380398
0.11985649 -0.08112374 0.074354485 -0.06390582 -0.06694673 -0.13529179 -0.019563794 0.08282891
-0.13904187 -0.1222841 -0.11335151 0.07278921 -0.016366735 0.0376146 0.04209934 0.11185138
0.025804862 -0.08446733 0.038199812 -0.019967258 0.10745524 0.057191208 -0.03153178 -0.082799
-0.115135044 -0.061167896 0.13853069 0.05946061 -0.064770624 -0.13086207 0.01984419 -0.039987348
-0.047140695 0.13406332 -0.026542015 0.0594759 -0.04851091 0.009168446 -0.12120016 0.08604336
-0.01967948 -0.06586035 0.02639173 0.1258003 0.09861703 -0.009421885 0.044583827 -0.12221003
0.12190725 -0.07891335 0.06387243 -0.0997373 0.107727826 -0.09313034 -0.013918579 0.09936744
-0.03904938 -0.118376054 -0.04124646 -0.019922815 -0.07003132 -0.123031646 -0.07149156 0.08700527
0.07528214 -0.02924376 0.12884767 0.03301017 0.022249147 0.11758293 0.0381826 -0.12934613
0.122869596 0.018459916 -0.0111694485 0.09139602 -0.08858536 -0.086386055 -0.10400995 -0.056857586
0.033909366 0.076786935 -0.11779542 0.040923193 0.0130326 0.0064471513 -0.012722358 -0.13995108
-0.03141188 0.104209915 0.09588601 0.12068795 0.044529244 0.07163668 0.038093254 0.0967204
0.075828165 -0.08599681 0.1332017 0.10560925 -0.021653198 0.061505526 -0.06821127 0.13875757
-0.0977492 -0.065556884 -0.12407236 -0.06693095 0.10979326 0.123120114 0.055873364 0.05358465
0.1031072 -0.007068783 0.11607112 0.09486334 -0.08138187 0.053390384 0.032605752 0.0786598
-0.13083711 0.091559395 -0.08549568 -0.002179876 0.106907606 -0.13279967 -0.01201947 0.014754683
-0.043831207 0.050240323 -0.11542374 -0.0015018433 -0.0026406348 -0.04649263 -0.06209162 0.03306432
-0.05156617 -0.004074618 0.0755413 -0.13398638 -0.00014960766 0.011264592 -0.05453983 0.12716357
0.048423767 0.14011951 0.123343006 0.0029170364 0.090232685 -0.009470493 -0.024496697 0.05382304
-0.12336705 -0.045309685 -0.13324913 -0.010196447 -0.01688683 -0.014422402 -0.06814063 -0.056734852
00000000: c84d 4b3d 5215 51bd 6407 9ebc 7cba 8a3d
00000010: d827 ca3c c8e5 a53d 1026 f9bc 94e7 ac3d
00000020: acfa febd a0b0 953d e08a 123c 22c8 923d
00000030: 17be aabd 031c 0cbe 1e57 f73d 60ab 883d
00000040: e7ed debd 0571 0c3e b02b c83c 16c2 37bd
00000050: bcd4 c03d a06c e2bb 2855 2abd 4c5e d23d
00000060: 28f0 493d eed1 05be de71 e13d bad0 f83d
00000070: 8288 e53d 90d7 2f3c 88ac 0fbd b20d cb3d
00000080: f2b4 c9bd a46c 7a3d 90bb 673d 106b adbc
00000090: 1bfb 0fbe 601d e63b 440d f2bd 4e5a 0dbe
000000a0: 5277 f53d 3424 a6bd 2a47 983d 0ee1 82bd
000000b0: 5e1b 89bd ee89 0abe 4044 a0bc 34a2 a93d
000000c0: fe60 0ebe 1670 fabd d624 e8bd 8212 953d
000000d0: 8813 86bc c411 1a3d 5c70 2c3d 5612 e53d
000000e0: b864 d33c 35fd acbd 6877 1c3d 6092 a3bc
000000f0: 7e11 dc3d 5441 6a3d 7827 01bd 8692 a9bd
00000100: eccb ebbd 308b 7abd fdda 0d3e f88c 733d
00000110: 76a6 84bd b500 06be 4890 a23c c6c9 23bd
00000120: 9a16 41bd e547 093e a46e d9bc 009d 733d
00000130: 60b3 46bd 4037 163c ca37 f8bd 8037 b03d
00000140: dc36 a1bc cbe1 86bd 7833 d83c cbd1 003e
00000150: baf7 c93d 405e 1abc 889d 363d 4149 fabd
00000160: 82aa f93d 539d a1bd 8ccf 823d 1243 ccbd
00000170: 68a0 dc3d 1fbb bebd c00a 64bc 2881 cb3d
00000180: 3ef2 1fbd 256f f2bd 0cf2 28bd 2c35 a3bc
00000190: 956c 8fbd 04f8 fbbd 2b6a 92bd d22f b23d
000001a0: 862d 9a3d 9c90 efbc a5f0 033e ac35 073d
000001b0: d843 b63c 52cf f03d 5c65 1c3d 5073 04be
000001c0: 0ea3 fb3d 4039 973c 1000 37bc d62d bb3d
000001d0: 3e6c b5bd 2ceb b0bd 2b03 d5bd 80e3 68bd
000001e0: 8ce4 0a3d 7842 9d3d ba3e f1bd 149f 273d
000001f0: b086 553c a042 d33b 7071 50bc 564f 0fbe
00000200: bea9 00bd 026c d53d e25f c43d 3e2b f73d
00000210: 4c64 363d 40b6 923d ac07 1c3d 5815 c63d
00000220: cc4b 9b3d 181f b0bd 0766 083e aa49 d83d
00000230: 0c62 b1bc 38ed 7b3d 5ab2 8bbd 7716 0e3e
00000240: bc30 c8bd b042 86bd a619 febd 1813 89bd
00000250: 4adb e03d 6626 fc3d 78db 643d 947b 5b3d
00000260: de29 d33d 40a1 e7bb b2b6 ed3d b647 c23d
00000270: 8aab a6bd e0af 5a3d 9c8d 053d 6418 a13d
00000280: 2afa 05be 7e83 bb3d 5c18 afbd 40dc 0ebb
00000290: 60f2 da3d a3fc 07be 50ed 44bc a0bd 713c
000002a0: 5a88 33bd ccc8 4d3d 4863 ecbd 80d9 c4ba
000002b0: 800e 2dbb 0e6f 3ebd c853 7ebd 746e 073d
000002c0: 0c37 53bd 6084 85bb 66b5 9a3d ba33 09be
000002d0: 00e0 1cb9 208f 383c 2865 5fbd 2b37 023e
000002e0: 0058 463d 7d7b 0f3e 429b fc3d c02b 3f3b
000002f0: eacb b83d 202a 1bbc 4cad c8bc 8c75 5c3d
00000300: dda7 fcbd a696 39bd 7672 08be 000f 27bc
00000310: 4056 8abc f04b 6cbc 518d 8bbd ce62 68bd

lstm1.weight_ih_l0 f4 [200, 3]
-0.03409601 -0.058213063 0.0 0.0 -0.10573534 0.017990127 0.09843491 0.12931533
0.09291965 -0.057896942 0.0 0.014096126 0.06934208 0.1071406 -0.11489263 0.117654964
0.09908496 -0.0 0.13703807 -0.019215949 -0.030068487 -0.10746391 -0.051449202 0.0
-0.030085318 0.033227086 -0.038378127 -0.119551815 0.107653975 -0.056918107 -0.0 -0.14030312
-0.0 0.06681381 -0.079457015 -0.08660215 0.036866188 0.12724315 0.09288238 0.12216522
0.12752958 0.0652248 0.03966555 0.060828388 0.056960285 0.080417395 0.13409375 0.023025408
0.12358679 -0.09698601 0.086560935 -0.048028864 -0.119329296 0.0 -0.08805303 -0.038000003
0.13111101 -0.09911213 -0.041356057 -0.02654314 -0.01964736 0.0 -0.01624006 0.068567485
0.023241997 0.010453224 0.116055444 0.068109035 -0.0 0.107012674 0.049492672 -0.050044887
-0.10290733 -0.019854777 -0.03389468 0.065313846 -0.010791123 -0.07979675 0.06306043 -0.1119055
-0.12102044 0.106747 -0.0 -0.065784134 -0.03139121 -0.017075509 0.099038586 -0.08030476
-0.09426598 -0.014068857 0.08946547 -0.062268734 -0.026229113 -0.08355397 -0.13378048 0.06459111
-0.0 -0.09290845 0.038544595 -0.029754259 -0.070044205 -0.105740614 0.10933344 0.09454383
-0.0 0.13124476 0.12427069 -0.11649379 -0.08963674 0.08847436 0.114628956 -0.033988096
0.041857034 0.06346987 -0.010096729 -0.053104207 -0.08759857 -0.06920705 -0.013796657 0.07466647
0.113321945 0.098958835 -0.0 0.12348221 0.12179552 -0.14042002 -0.013796046 0.11410533
0.037871376 0.061495543 -0.053992204 -0.12457031 -0.018475205 -0.1201973 -0.07157218 0.07312754
0.013119668 0.12715755 -0.042557545 0.122670576 0.025352523 -0.0125902295 0.11702828 0.04289393
-0.048387334 -0.06877767 0.087386355 -0.0 -0.06838478 -0.014346704 -0.040427156 -0.0
0.04861419 -0.013674781 -0.03862676 0.122485146 -0.12104766 0.02500254 -0.058624804 0.015927732
-0.087360606 0.06850369 -0.06693439 -0.0 0.094330326 -0.09710118 0.081944585 0.08180186
0.11968453 -0.055937618 -0.11835618 0.08045061 0.10699956 -0.027507156 0.0 -0.0
-0.1133886 -0.07729567 -0.08579025 0.051933005 0.10564867 -0.072287224 -0.08938922 -0.026421793
-0.07063441 0.04892838 -0.1324519 0.04759127 0.07452685 0.13972382 -0.08186132 -0.0
0.032659546 0.032824412 0.03071855 0.042348936 -0.121607155 0.0 0.0 -0.05067811
-0.13969435 -0.070063844 -0.0 0.032728568 0.112552956 -0.09525232 -0.05263658 0.08307773
-0.074053295 -0.12863705 0.111027256 0.07579115 -0.016074806 -0.07895665 -0.10371773 0.119333014
-0.035663113 -0.0 0.10980071 -0.052366517 -0.1343123 -0.084747955 0.0 -0.020007327
-0.016283587 -0.060869813 -0.017474167 -0.11070807 -0.1219214 -0.09505905 -0.06616356 -0.12280918
-0.0 -0.018441439 0.07284452 -0.11567427 0.13456197 -0.07547872 0.082541734 0.09247875
-0.07323352 0.04001625 0.059240296 -0.10430641 0.1309105 0.08085799 -0.0 0.049004555
-0.042967953 0.04569371 -0.14066496 0.05991827 0.05882746 0.020211384 -0.087197416 -0.020561695
00000000: 42a8 0bbd d270 6ebd 0000 0000 0000 0000
00000010: c58b d8bd 0860 933c 3e98 c93d 3d6b 043e
00000020: a84c be3d 5825 6dbd 0000 0000 70f3 663c
00000030: 3803 8e3d 886c db3d d44c ebbd 16f5 f03d
00000040: 0eed ca3d 0000 0080 b553 0c3e c46a 9dbc
00000050: 3052 f6bc 0a16 dcbd 66bc 52bd 0000 0000
00000060: 7c75 f6bc 2019 083d 6232 1dbd 95d7 f4bd
00000070: b079 dc3d f622 69bd 0000 0080 9fab 0fbe
00000080: 0000 0080 aed5 883d 5cba a2bd 785c b1bd
00000090: 0001 173d 074c 023e 1e39 be3d c231 fa3d
000000a0: 1d97 023e 9494 853d 5878 223d 3027 793d
000000b0: 304f 693d e0b1 a43d df4f 093e c89f bc3c
000000c0: 121b fd3d 9aa0 c6bd dc46 b13d eab9 44bd
000000d0: eb62 f4bd 0000 0000 2655 b4bd e4a5 1bbd
000000e0: f741 063e 4dfb cabd f864 29bd 0071 d9bc
000000f0: 80f3 a0bc 0000 0000 e009 85bc 1c6d 8c3d
00000100: 0066 be3c 0044 2b3c 7aae ed3d c07c 8b3d
00000110: 0000 0080 7629 db3d d4b8 4a3d defb 4cbd
00000120: 14c1 d2bd 7ca6 a2bc 26d5 0abd 44c3 853d
00000130: 40cd 30bc 7a6c a3bd d425 813d b62e e5bd
00000140: 90d9 f7bd 2c9e da3d 0000 0080 d5b9 86bd
00000150: 1294 00bd f0e1 8bbc bed4 ca3d d276 a4bd
00000160: 860e c1bd 1081 66bc ac39 b73d 800d 7fbd
00000170: 70de d6bc 581e abbd c0fd 08be 5848 843d
00000180: 0000 0080 c946 bebd f0e0 1d3d 34bf f3bc
00000190: 5673 8fbd 898e d8bd 36ea df3d 32a0 c13d
000001a0: 0000 0080 0765 063e a281 fe3d 4c94 eebd
000001b0: 7893 b7bd 0c32 b53d 96c2 ea3d 1a37 0bbd
000001c0: 4872 2b3d 7efc 813d c06c 25bc cc83 59bd
000001d0: e166 b3bd 6dbc 8dbd 600b 62bc bcea 983d
000001e0: 5615 e83d eeaa ca3d 0000 0080 3ee4 fc3d
000001f0: ee6f f93d 44ca 0fbe d008 62bc 0eb0 e93d
00000200: 041f 1b3d c0e2 7b3d ee26 5dbd b81e ffbd
00000210: 5059 97bc 012a f6bd 6f94 92bd e4c3 953d
00000220: e0f3 563c 9735 023e d250 2ebd b63a fb3d
00000230: 18b0 cf3c 4047 4ebc 86ac ef3d 8cb1 2f3d
00000240: cc31 46bd 4fdb 8cbd 9ef7 b23d 0000 0080
00000250: 520d 8cbd 700e 6bbc f296 25bd 0000 0080
00000260: ac1f 473d 300c 60bc 1837 1ebd 7ed9 fa3d
00000270: d6e7 f7bd 20d2 cc3c 9020 70bd e07a 823c
00000280: 1eea b2bd aa4b 8c3d e614 89bd 0000 0080
00000290: 4230 c13d fcdc c6bd 90d2 a73d bc87 a73d
000002a0: 2a1d f53d d81e 65bd ba64 f2bd 4ac3 a43d
000002b0: 9622 db3d b056 e1bc 0000 0000 0000 0080
000002c0: 4838 e8bd 314d 9ebd ccb2 afbd b4b7 543d
000002d0: 545e d83d 530b 94bd b211 b7bd 8472 d8bc
000002e0: c6a8 90bd 2069 483d 79a1 07be 10ef 423d
000002f0: 88a1 983d c313 0f3e e8a6 a7bd 0000 0080
00000300: 04c6 053d e472 063d 78a5 fb3c 1476 2d3d
00000310: 2c0d f9bd 0000 0000 0000 0000 da93 4fbd
00000320: 090c 0fbe a27d 8fbd 0000 0080 640e 063d
00000330: 2a82 e63d a613 c3bd 7499 57bd a824 aa3d
00000340: 41a9 97bd 6eb9 03be 4262 e33d 6438 9b3d
00000350: 50af 83bc 06b4 a1bd f669 d4bd de64 f43d
00000360: 7c13 12bd 0000 0080 32df e03d 467e 56bd
00000370: 2a89 09be 5690 adbd 0000 0000 68e6 a3bc
00000380: 2865 85bc a052 79bd fc25 8fbc eaba e2bd
00000390: edb1 f9bd 52ae c2bd c380 87bd 6183 fbbd
000003a0: 0000 0080 8012 97bc 822f 953d a2e6 ecbd
000003b0: 9dca 093e 9694 9abd a40b a93d 8065 bd3d
000003c0: 75fb 95bd 14e8 233d f4a5 723d 999e d5bd
000003d0: 670d 063e e098 a53d 0000 0080 00b9 483d
000003e0: 2aff 2fbd 5429 3b3d 7a0a 10be dc6c 753d
000003f0: 10f5 703d 5892 a53c 8f94 b2bd 0071 a8bc

lstm1.weight_hh_l0 f4 [200, 50]
0.038392052 0.016368553 -0.0797603 -0.1333176 0.10030694 -0.0795403 -0.08551599 0.029920593
0.1325566 0.10184075 -0.09930757 0.044010073 0.058787793 -0.07580318 0.10726164 -0.046594493
-0.030112915 -0.13934697 -0.109519534 0.078823 0.038907483 0.10478528 -0.09824104 0.11805458
0.10279408 0.03790699 -0.1015206 -0.049794108 0.1333914 0.13228111 -0.08954968 0.026259825
0.058592707 -0.027001634 0.11523928 -0.09712222 0.040734306 -0.13519035 -0.0 0.08503753
-0.13865729 -0.0 0.10426645 0.030526683 0.0 -0.07944735 -0.09396576 -0.035115257
0.11321615 -0.051259436 0.028008595 0.09997569 0.038135126 0.05649869 -0.045954667 0.021085754
-0.09574652 0.05652228 -0.0 -0.09953262 -0.021763772 0.09565011 -0.12185223 0.016196564
-0.112840265 0.118533716 -0.035578027 0.05703467 -0.05112514 -0.08566049 0.064794615 0.0
-0.0 -0.029085152 -0.0447139 0.023378372 0.052760914 -0.09667307 0.11869849 -0.1020055
-0.021916129 0.13295399 -0.05757127 -0.042349443 0.13551392 -0.03730104 0.05429919 0.13354029
0.0849684 -0.09924663 -0.0455233 -0.13010469 0.0 0.114770725 0.016366094 0.14031805
-0.11889239 -0.101774715 -0.09495068 0.14141823 0.034983605 0.101264074 0.021329343 0.086608276
-0.08051436 -0.0 -0.030091517 -0.12680204 -0.13539168 0.0 0.103356674 -0.10032855
0.049695104 -0.12333427 0.123939976 0.08279522 -0.122101024 0.04961814 0.017250016 -0.08070471
0.0 0.06920031 -0.03120017 -0.096206255 0.09056561 -0.02329433 0.048136756 0.04861304
0.09300423 -0.09562788 0.024054185 0.13444264 0.10536431 -0.038305923 0.11804588 0.057199508
0.020246789 0.105278745 -0.027792305 0.029884353 -0.11692142 -0.0 -0.062319763 -0.08826048
0.07851809 -0.0 0.06163329 -0.08109792 0.0392638 0.081848174 0.13687642 -0.0
0.052853227 -0.068134956 -0.07780626 -0.09313731 -0.03489808 0.07956393 0.13263558 -0.021049485
0.06596075 0.13857754 -0.09285331 -0.034150578 -0.051562943 -0.05581329 0.10585472 -0.115244895
-0.03688146 0.09509127 0.03923388 -0.08602858 -0.11548565 0.04877788 0.09614693 0.05127552
0.0 -0.022391945 0.1133938 -0.03256122 -0.0496118 -0.0 -0.06533377 0.0
-0.072304696 0.139547 0.13965385 -0.11255992 0.09609608 -0.04641673 -0.1353071 -0.07824772
0.10160819 -0.085089095 -0.019531645 -0.09321648 -0.116263926 0.13091035 -0.0 -0.13535534
0.0943183 0.09276986 0.03857203 -0.10178179 0.05010654 0.13854699 0.06527461 -0.091167785
-0.0148734 -0.0 0.05037956 -0.10726164 0.03343688 -0.06939176 -0.0 0.04203862
0.078026205 -0.030529916 0.045487598 0.059661478 -0.053898133 -0.07995202 0.025330275 0.12816624
0.042384356 0.10612647 -0.13526034 0.029429212 -0.085287355 -0.04543353 0.0 -0.09725632
-0.02247341 0.040759146 -0.09147313 0.08476044 0.13054056 -0.097492814 -0.029853359 0.07524419
0.12642525 -0.11423041 -0.083884336 0.09124552 -0.015563831 -0.09236096 -0.08755917 -0.13519993
0.0532804 -0.0672836 0.104383186 0.10434759 -0.092665434 0.08561723 -0.022112466 0.06121905
00000000: fc40 1d3d 5817 863c 5e59 a3bd 6984 08be
00000010: ba6d cd3d 06e6 a2bd 0223 afbd 081c f53c
00000020: ebbc 073e e291 d03d c461 cbbd e843 343d
00000030: 78cb 703d b33e 9bbd feab db3d ded9 3ebd
00000040: 5caf f6bc f9b0 0ebe c74b e0bd f46d a13d
00000050: 745d 1f3d aa99 d63d 9932 c9bd 9ac6 f13d
00000060: b485 d23d 5c44 1b3d 08ea cfbd e8f4 4bbd
00000070: c197 083e b374 073e d365 b7bd d81e d73c
00000080: e8fe 6f3d 8832 ddbc 9202 ec3d 04e8 c6bd
00000090: 04d9 263d 576f 0abe 0000 0080 2828 ae3d
000000a0: 2dfc 0dbe 0000 0080 a689 d53d 1813 fa3c
000000b0: 0000 0000 4bb5 a2bd 1f71 c0bd 04d5 0fbd
000000c0: dedd e73d 6af5 51bd 4872 e53c 0ec0 cc3d
000000d0: 9433 1c3d 2c6b 673d f63a 3cbd 08bc ac3c
000000e0: c016 c4bd e883 673d 0000 0080 c2d7 cbbd
000000f0: f049 b2bc 34e4 c33d a98d f9bd a8ae 843c
00000100: cc18 e7bd cec1 f23d 44ba 11bd 309d 693d
00000110: 9868 51bd c46e afbd 0ab3 843d 0000 0000
00000120: 0000 0080 fc43 eebc ec25 37bd 0084 bf3c
00000130: d41b 583d 88fc c5bd 3218 f33d 42e8 d0bd
00000140: 7489 b3bc 1725 083e dacf 6bbd 9c76 2dbd
00000150: 29c4 0a3e fac8 18bd d468 5e3d c9be 083e
00000160: ea03 ae3d d141 cbbd a476 3abd 2a3a 05be
00000170: 0000 0000 ea0c eb3d 3012 863c 89af 0f3e
00000180: da7d f3bd 436f d0bd 8175 c2bd f1cf 103e
00000190: f84a 0f3d 8a63 cf3d e0ba ae3c ae5f b13d
000001a0: b6e4 a4bd 0000 0080 7c82 f6bc 65d8 01be
000001b0: 1ea4 0abe 0000 0000 aaac d33d 0e79 cdbd
000001c0: 188d 4b3d ae96 fcbd 3ed4 fd3d 8a90 a93d
000001d0: 1a10 fabd 643c 4b3d e84f 8d3c 8348 a5bd
000001e0: 0000 0000 e4b8 8d3d 8097 ffbc c907 c5bd
000001f0: 767a b93d c0d3 bebc 0c2b 453d 781e 473d
00000200: 0079 be3d 8dd8 c3bd 480d c53c 55ab 093e
00000210: 3ec9 d73d ace6 1cbd 0ac2 f13d 084a 6a3d
00000220: 98dc a53c 629c d73d b0ac e3bc 08d0 f43c
00000230: 7f74 efbd 0000 0080 0243 7fbd e9c1 b4bd
00000240: 18ce a03d 0000 0080 3073 7c3d ab16 a6bd
00000250: 14d3 203d 04a0 a73d 5529 0c3e 0000 0080
00000260: a07c 583d 578a 8bbd e358 9fbd c6be bebd
00000270: 4af1 0ebd 6af2 a23d 9fd1 073e f86f acbc
00000280: 6e16 873d 45e7 0d3e e029 bebd 7ae1 0bbd
00000290: aa33 53bd 7a9c 64bd 5cca d83d 8405 ecbd
000002a0: 0411 17bd 36bf c23d b4b3 203d c12f b0bd
000002b0: be83 ecbd 50cb 473d aee8 c43d 4806 523d
000002c0: 0000 0000 506f b7bc 023b e83d ea5e 05bd
000002d0: be35 4bbd 0000 0080 b6cd 85bd 0000 0000
000002e0: 7c14 94bd 69e5 0e3e 6b01 0f3e d185 e6bd
000002f0: 06ce c43d 781f 3ebd f28d 0abe 5740 a0bd
00000300: f417 d03d 3143 aebd d400 a0bc 48e8 bebd
00000310: c81b eebd 5d0d 063e 0000 0080 979a 0abe
00000320: f429 c13d 20fe bd3d b4fd 1d3d f972 d0bd
00000330: 843c 4d3d 43df 0d3e b2ae 853d 2db6 babd
00000340: 90af 73bc 0000 0080 cc5a 4e3d feab dbbd
00000350: 1cf5 083d 441d 8ebd 0000 0080 b030 2c3d
00000360: 34cc 9f3d e019 fabc 3451 3a3d 985f 743d
00000370: 4ac4 5cbd e2bd a3bd 7081 cf3c 033e 033e
00000380: 389b 2d3d d658 d93d b081 0abe 8815 f13c
00000390: 23ab aebd 8218 3abd 0000 0000 522e c7bd
000003a0: 281a b8bc 10f3 263d 4456 bbbd e296 ad3d
000003b0: 6dac 053e 50aa c7bd 088f f4bc a019 9a3d
000003c0: 9f75 013e a2f1 e9bd 8dcb abbd eede ba3d
000003d0: 70ff 7ebc be27 bdbd 3952 b3bd da71 0abe
000003e0: 8c3c 5a3d fccb 89bd dac6 d53d 30b4 d53d
000003f0: 60c7 bdbd 1658 af3d 3425 b5bc d4c0 7a3d

lstm2.bias_ih_l0 f4 [100]
0.18999712 0.18074192 -0.11326542 -0.11448484 -0.033397883 -0.16649361 -0.1399984 -0.10920777
-0.0132098645 -0.009360045 0.18531288 -0.14940897 -0.08374248 0.08320056 -0.008834928 -0.14468245
0.046509072 0.13485862 -0.19300842 -0.0008755028 -0.08944912 0.08285393 -0.19266763 0.18816598
0.058777258 0.112388626 -0.13031012 0.17921181 0.19510452 -0.15472157 -0.010015368 0.1599801
0.14275233 -0.060512945 0.13159452 0.00022861362 0.07335119 0.021330282 -0.13775125 0.13441555
0.114437655 0.004874423 0.17874162 0.07391627 -0.06954262 0.14349808 0.18937396 -0.040420458
-0.07757101 -0.12579218 -0.016124323 0.0011245459 -0.16481118 -0.11155279 0.01443851 0.031196997
0.13867547 -0.12544462 0.12500669 -0.15384416 -0.053704098 -0.0067774504 -0.09313643 -0.010766342
0.05876787 0.015431568 -0.061604142 0.06764738 0.15140025 0.07522009 0.0013417751 -0.102619484
-0.11498976 0.15566613 0.112305984 0.1885965 0.024931043 -0.045263052 0.1194167 -0.1273503
0.053755477 0.18040551 0.017554164 -0.04499264 -0.17094715 0.108755246 -0.14452536 -0.05275841
0.024800777 0.17189126 -0.05921349 0.15819745 0.16153492 -0.11492379 0.09582387 0.050143883
-0.06787738 0.07471295 0.124852195 0.037721068
00000000: 9b8e 423e 6914 393e b3f7 e7bd 0777 eabd
00000010: 38cc 08bd 4d7d 2abe be5b 0fbe 53a8 dfbd
00000020: 306e 58bc e05a 19bc a9c2 3d3e aafe 18be
00000030: 2d81 abbd 0e65 aa3d 60c0 10bc a327 14be
00000040: 4c80 3e3d 6118 0a3e 00a4 45be 0082 65ba
00000050: 1a31 b7bd 52af a93d aa4a 45be 95ae 403e
00000060: 6cc0 703d 022c e63d 0470 05be 4d83 373e
00000070: 7bc9 473e 556f 1ebe 8017 24bc d3d1 233e
00000080: ab2d 123e 6cdc 77bd b7c0 063e 00b8 6f39
00000090: 2639 963d d8bc ae3c aa0e 0dbe 3ba4 093e
000000a0: 4a5e ea3d a0b9 9f3b 0b08 373e 6a61 973d
000000b0: 5c6c 8ebd 29f1 123e 3feb 413e ec8f 25bd
000000c0: 8ddd 9ebd aacf 00be 2817 84bc 8065 933a
000000d0: 43c4 28be ca75 e4bd 808f 6c3c d890 ff3c
000000e0: f100 0e3e 8e74 00be c101 003e 5389 1dbe
000000f0: d4f8 5bbd 6015 debb 50be bebd 5065 30bc
00000100: 94b6 703d b0d4 7c3c a054 7cbd b68a 8a3d
00000110: ab08 1b3e fe0c 9a3d 80de af3a 2a2a d2bd
00000120: c07f ebbd f166 1f3e ae00 e63d 711f 413e
00000130: 303c cc3c c065 39bd be90 f43d 1e68 02be
00000140: b42e 5c3d 39bc 383e c0cd 8f3c 344a 38bd
00000150: c50c 2fbe 12bb de3d 75fe 13be 3419 58bd
00000160: 002b cb3c 4304 303e d889 72bd 83fe 213e
00000170: 6969 253e 2a5d ebbd 4e3f c43d ac63 4d3d
00000180: 4c03 8bbd 1a03 993d 82b2 ff3d 6881 1a3d

lstm2.bias_hh_l0 f4 [100]
0.013896152 -0.07112761 -0.013114691 0.18985291 -0.006601125 -0.15872805 0.033531874 -0.09999275
-0.13052285 0.061302558 0.1191207 0.090473816 -0.12986052 0.16254403 -0.09766412 -0.19751532
-0.18723142 -0.19243813 -0.106155515 0.14317365 -0.059277505 0.04084161 0.1519648 0.03411734
-0.058000773 -0.18948904 0.04206927 -0.07144049 -0.085610844 -0.047628015 -0.080021314 -0.133062
0.009199947 -0.15386179 -0.14933714 -0.088134766 0.15565132 -0.041555256 -0.14110863 0.06769039
-0.06534545 -0.15415022 -0.14970168 0.05467327 -0.12699464 -0.1654584 -0.0111040175 0.03388092
0.19489853 0.11147116 -0.025541395 0.053622976 0.009360313 -0.06782384 -0.1144907 -0.0023138523
-0.07414861 -0.12763557 -0.18887813 0.11606623 -0.05526881 0.03905964 0.119638786 -0.013277292
0.13089304 -0.06364457 0.053691998 -0.013191342 0.17597009 -0.052798554 -0.17356066 0.12441565
0.059478477 -0.12482848 0.14247416 -0.07447147 -0.06633875 0.0718223 0.129773 0.017235368
0.18453793 0.032775193 -0.10853984 0.035672665 0.11533196 -0.16287076 -0.032683164 -0.09927364
0.09240247 -0.19721416 -0.1289577 -0.015976861 -0.14463155 0.01840508 -0.031923294 0.08447994
-0.01610586 -0.058378726 0.0079122335 -0.18353212
00000000: b0ac 633c 5aab 91bd 00df 56bc cd68 423e
00000010: 404e d8bb 9b89 22be b858 093d 00c9 ccbd
00000020: c8a7 05be 6418 7b3d 8ef5 f33d 564a b93d
00000030: 28fa 04be f171 263e 2004 c8bd 7541 4abe
00000040: 98b9 3fbe 800e 45be 1068 d9bd 1d9c 123e
00000050: f8cc 72bd 8849 273d a99c 1b3e a0be 0b3d
00000060: 3892 6dbd 6a09 42be d450 2c3d 644f 92bd
00000070: bd54 afbd 9815 43bd 37e2 a3bd 6841 08be
00000080: 60bb 163c f28d 1dbe d6eb 18be 0080 b4bd
00000090: 0f63 1f3e d835 2abd c87e 10be 42a1 8a3d
000000a0: d6d3 85bd 8ed9 1dbe 664b 19be 14f1 5f3d
000000b0: e20a 02be ed6d 29be a0ed 35bc b8c6 0a3d
000000c0: 7b93 473e fe4a e43d 303c d1bc c4a3 5b3d
000000d0: 005c 193c 3ae7 8abd 1a7a eabd 00a4 17bb
000000e0: 3adb 97bd e6b2 02be 4569 41be 22b4 ed3d
000000f0: 8c61 62bd 00fd 1f3d 2e05 f53d 0089 59bc
00000100: d308 063e 1658 82bd 24ec 5b3d 8020 58bc
00000110: 8131 343e 4c43 58bd e3b9 31be a2cd fe3d
00000120: b49f 733d 13a6 ffbd bfe4 113e 8084 98bd
00000130: 9cdc 87bd 9217 933d 37e3 043e 3031 8d3c
00000140: 83f7 3c3e 483f 063d 234a debd 801d 123d
00000150: 2a33 ec3d 98c7 26be c8de 05bd fa4f cbbd
00000160: 823d bd3d 82f2 49be 7d0d 04be e8e1 82bc
00000170: 4b1a 14be 40c6 963c 00c2 02bd d203 ad3d
00000180: 70f0 83bc 881e 6fbd 50a2 013c d8ef 3bbe

lstm2.weight_ih_l0 f4 [100, 50]
-0.08345044 -0.092808746 0.1042421 0.082136855 -0.11944745 0.16597454 0.08289309 0.03536196
-0.12624761 0.100569144 -0.029254824 -0.026713252 -0.06857216 0.19282116 0.0 -0.07326877
0.08688219 -0.0 -0.124321155 0.16506119 0.08979572 0.09460114 0.0 0.07168235
-0.16669166 -0.1600466 -0.10893943 -0.19590096 -0.067020565 0.0 -0.051640183 -0.081595205
-0.0 -0.0 -0.14037481 0.11847068 0.025865912 -0.06234327 0.08006717 0.08063404
-0.15296586 -0.039392352 -0.033662707 0.16554926 0.15459676 0.18474449 -0.12041092 0.035149813
0.095823064 0.15166532 0.029850408 0.054748222 -0.13711771 -0.11556549 -0.06589344 -0.13983767
0.025994033 -0.18899958 -0.1151701 0.06877841 0.09264673 -0.17466512 -0.082542874 0.04376109
-0.18490396 0.1167828 -0.0 -0.17520769 -0.19133683 -0.09789002 0.16489549 0.042475194
-0.10456629 -0.0760922 0.17632867 0.068227276 -0.062737554 -0.1343053 -0.18649967 0.14275806
0.0 0.16273727 -0.05523479 0.17386527 -0.19319463 0.18197401 0.08974333 0.049125627
0.0 -0.0 -0.119411945 -0.049084872 0.15564184 0.17272647 0.1283194 0.0
-0.07998383 0.08695264 0.02310042 0.13586204 -0.18236728 -0.06521499 -0.0 0.03199771
-0.13532275 0.08339454 0.08454119 0.09935306 -0.09722536 0.14639576 -0.18735974 -0.15790883
-0.062430948 0.13906361 -0.09799643 -0.09650784 0.10650869 0.102281496 -0.19986537 0.05138065
0.064205304 -0.10864677 -0.18448119 0.17677803 -0.06464219 -0.038475633 0.08041273 0.10939993
-0.17503913 0.17504467 -0.0 -0.13582054 -0.033622056 0.045388937 0.031332135 -0.0820766
0.17667724 0.11667676 0.048454404 -0.1472111 -0.13722855 -0.079264574 0.1818542 -0.14726388
-0.0219073 0.11514644 0.07929511 0.0318702 0.060494676 0.088290885 -0.14115727 0.046857208
0.13855125 -0.120735645 0.19153191 0.10652469 0.1034589 0.19264998 -0.04246728 -0.0
0.034901977 0.18384592 -0.12113907 -0.17979975 -0.039859265 -0.049120978 0.11491944 -0.17419644
-0.06252329 -0.0 0.13470937 0.11101146 0.079240754 -0.11865683 0.019667506 -0.08473261
0.0 -0.09106705 -0.059799507 0.1801378 -0.15774521 0.05024658 -0.042233318 0.0426441
0.17277242 -0.0695214 0.1391943 -0.035142034 0.1200086 -0.1950744 -0.13875031 0.09989588
0.07883729 -0.0 -0.1478353 0.14397849 -0.043636367 -0.08598864 -0.18036023 0.17663245
-0.17575048 -0.17035888 -0.052032664 -0.15051565 -0.18853235 0.0 0.18403046 0.0
0.07929219 0.18424232 -0.18896857 -0.029877618 0.06800176 0.04169461 0.13743939 0.042258427
-0.17358468 0.06376822 0.021392673 -0.16478999 -0.077497296 0.13296755 -0.13942584 -0.15498897
0.16448916 0.06565039 -0.116234854 0.028000161 -0.07856488 -0.050728828 0.102914765 -0.15360081
0.1636268 -0.14357531 -0.07107845 -0.07580097 0.17230774 0.053599373 0.13525356 0.10105206
-0.03871663 0.10354604 0.16382842 -0.0 0.047368005 0.097719446 0.09602697 0.19594158
-0.0 -0.060640484 -0.0 -0.12923223 -0.14967188 -0.019424751 -0.11649332 0.026740476
00000000: 10e8 aabd 8312 bebd e27c d53d 5e37 a83d
00000010: dda0 f4bd 3bf5 293e dac3 a93d b4d7 103d
00000020: 0e47 01be 32f7 cd3d d0a7 efbc c0d5 dabc
00000030: 906f 8cbd e972 453e 0000 0000 f00d 96bd
00000040: 4aef b13d 0000 0080 179c febd cd05 293e
00000050: d2e6 b73d 3ebe c13d 0000 0000 32ce 923d
00000060: 38b1 2abe 42e3 23be a31b dfbd 439a 48be
00000070: 1442 89bd 0000 0000 a884 53bd 631b a7bd
00000080: 0000 0080 0000 0080 6abe 0fbe c2a0 f23d
00000090: c0e4 d33c a85b 7fbd 42fa a33d 7623 a53d
000000a0: 15a3 1cbe e059 21bd e8e1 09bd bf85 293e
000000b0: 9d4e 1e3e a92d 3d3e 009a f6bd 40f9 0f3d
000000c0: e23e c43d 274e 1b3e d888 f43c ac3f 603d
000000d0: 9668 0cbe 9aad ecbd 24f3 86bd 9b31 0fbe
000000e0: 70f1 d43c 1b89 41be 4dde ebbd b2db 8c3d
000000f0: 92bd bd3d 6adb 32be 3d0c a9bd d43e 333d
00000100: 7757 3dbe d22b ef3d 0000 0080 a569 33be
00000110: cded 43be 907a c8bd 5dda 283e 78fa 2d3d
00000120: da26 d6bd 3ad6 9bbd 818f 343e beba 8b3d
00000130: 8c7c 80bd 5487 09be c5f9 3ebe 2b2f 123e
00000140: 0000 0000 99a4 263e e03d 62bd bd09 323e
00000150: d0d4 45be 6557 3a3e 5acb b73d f437 493d
00000160: 0000 0000 0000 0080 408e f4bd 380d 49bd
00000170: 9360 1f3e 35df 303e 2966 033e 0000 0000
00000180: 90ce a3bd 3a14 b23d 183d bd3c 6b1f 0b3e
00000190: 7dbe 3abe 708f 85bd 0000 0080 0810 033d
000001a0: 0c92 0abe c2ca aa3d ee23 ad3d 9e79 cb3d
000001b0: 171e c7bd c5e8 153e 3bdb 3fbe dab2 21be
000001c0: 98b7 7fbd b166 0e3e 5ab2 c8bd e7a5 c5bd
000001d0: 3a21 da3d f678 d13d 82a9 4cbe 8474 523d
000001e0: 127e 833d 3382 debd a3e8 3cbe 4d05 353e
000001f0: 2063 84bd a098 1dbd 6eaf a43d 120d e03d
00000200: 753d 33be e93e 333e 0000 0080 8a14 0bbe
00000210: 48b7 09bd c0e9 393d 2056 003d c717 a8bd
00000220: e1ea 343e 3af4 ee3d 2078 463d 82be 16be
00000230: a485 0cbe 7755 a2bd fd37 3a3e 58cc 16be
00000240: f076 b3bc e6d1 eb3d 7a65 a23d 548a 023d
00000250: 44c9 773d dad1 b43d 888b 10be 58ed 3f3d
00000260: 61e0 0d3e 4044 f7bd f120 443e 9e29 da3d
00000270: 42e2 d33d 0946 453e 2cf2 2dbd 0000 0080
00000280: 60f5 0e3d 1b42 3c3e c317 f8bd 6d1d 38be
00000290: 7843 23bd 1433 49bd e25a eb3d 8d60 32be
000002a0: 360c 80bd 0000 0080 41f1 093e fa59 e33d
000002b0: fa48 a23d 5a02 f3bd c01d a13c 4a88 adbd
000002c0: 0000 0000 5d81 babd 54f0 74bd 0b76 383e
000002d0: f687 21be 5ccf 4d3d d8fc 2cbd 94ab 2e3d
000002e0: 41eb 303e 3c61 8ebd f388 0e3e 18f1 0fbd
000002f0: 12c7 f53d 95c1 47be 9014 0ebe 3696 cc3d
00000300: 7275 a13d 0000 0080 2362 17be 196f 133e
00000310: 0cbc 32bd d01a b0bd 5ab0 38be 23df 343e
00000320: eff7 33be 8f72 2ebe 3420 55bd c620 1abe
00000330: a00e 41be 0000 0000 7b72 3c3e 0000 0000
00000340: f263 a23d 05aa 3c3e fa80 41be e8c1 f4bc
00000350: 8244 8b3d f8c7 2a3d e9bc 0c3e 2c17 2d3d
00000360: 2fc0 31be ea98 823d b03f af3c b5be 28be
00000370: e7b6 9ebd a528 083e a6c5 0ebe 6eb5 1ebe
00000380: d96f 283e b673 863d 8a0c eebd 9860 e53c
00000390: a0e6 a0bd 08c9 4fbd fac4 d23d 8849 1dbe
000003a0: c98d 273e 6805 13be 9491 91bd 8a3d 9bbd
000003b0: 7171 303e 048b 5b3d e97f 0a3e 62f4 ce3d
000003c0: 5495 1ebd f20f d43d a3c2 273e 0000 0080
000003d0: f404 423d 2221 c83d caa9 c43d e9a4 483e
000003e0: 0000 0080 2862 78bd 0000 0080 7455 04be
000003f0: 9643 19be a820 9fbc 0d94 eebd d80e db3c

lstm2.weight_hh_l0 f4 [100, 25]
0.13505377 0.08863844 0.17002048 -0.101539016 0.049119785 -0.11267374 -0.1386806 -0.09809778
-0.023200989 -0.1454438 -0.11750879 0.099338725 0.059428945 0.1463653 -0.18865566 0.17882596
0.045430496 0.06930511 -0.15420902 0.16004972 0.119804576 0.13467954 0.07655598 0.13800006
0.16001035 0.06629579 -0.032249138 0.031965375 -0.18671368 0.06544857 -0.14488813 0.15063383
-0.10753041 0.046474963 0.070564166 -0.059082717 -0.17207478 0.14713289 -0.07544553 0.08670296
-0.16082911 0.14471148 0.0 0.04129234 -0.14042416 -0.0 -0.11573782 0.094636574
0.04487188 -0.091896795 0.033418134 -0.0 -0.06306794 0.15330808 0.05073981 0.13690673
-0.18296888 -0.11298793 0.06712432 0.0872903 -0.12820771 0.0 -0.053326726 -0.17131098
0.19234182 0.14542235 -0.11746442 -0.06176679 0.1723703 -0.0734375 -0.1114218 0.06698845
0.055786595 0.11970197 -0.110767104 0.17796002 -0.028126284 -0.0 0.10882284 -0.0
-0.031380862 0.09991445 0.021689922 0.09601988 0.14358069 -0.14066298 0.05929102 -0.126314
-0.025662988 -0.14500356 -0.06818108 0.19400574 0.0 -0.0 0.09393428 0.061610863
0.079601064 0.19536223 -0.0 0.17278881 0.13017039 0.059950456 0.157977 -0.18523712
0.18076457 0.12949826 -0.14601938 -0.1359684 -0.10434258 -0.060096696 -0.1372185 0.05409439
-0.06010659 0.18576916 -0.17929073 -0.1360482 0.1253814 -0.02869013 0.0 0.089949384
0.0 -0.15649721 0.1721146 0.13834096 0.16180481 0.07099022 0.13904972 -0.14278206
0.07225834 -0.099967696 -0.14540477 0.0 0.15769605 0.08193247 0.03717892 -0.054522008
0.034891322 0.13996674 0.056267574 -0.07205391 -0.08043697 -0.120386295 0.17431061 -0.0
0.08262469 -0.1316737 0.18177922 0.16738974 -0.17163265 -0.097106576 -0.14326568 -0.036406636
0.07081883 0.08109774 0.0 -0.16969053 -0.16194701 0.1635931 0.19370808 -0.06549446
-0.16537699 -0.0 0.16096838 -0.08420878 0.0 0.13274975 -0.13518676 0.16363098
0.0 -0.1330984 0.051622048 0.08470179 -0.118433 0.16986902 0.09770055 -0.06335445
0.19447677 -0.19660015 0.0 -0.083683826 0.0 -0.08347974 -0.023790032 0.1839522
-0.0 0.15830375 0.12114625 0.03313172 -0.18745993 -0.1371437 0.03816302 0.15237601
0.07265784 -0.0 0.05290313 -0.1889329 -0.04073584 -0.07399666 -0.042779 0.16596691
0.1532905 -0.13653752 0.064411834 0.18432166 -0.0 -0.028094605 0.0641097 -0.18777227
-0.08921633 -0.12682803 -0.14911442 0.18127753 0.0 0.13008948 -0.14150314 -0.12687707
0.11209412 0.09620018 -0.076893404 0.05346237 0.06595005 0.19890065 0.12636451 0.17809041
0.115310326 0.13365833 -0.025606707 -0.057250336 0.14500012 0.19476302 0.071529016 -0.16168627
-0.111753754 0.098395154 0.1878543 0.08214675 0.14459209 0.17382036 0.06953253 0.08365871
-0.16290057 -0.11124628 0.14244671 -0.047876358 0.17407684 0.12733285 0.052115098 0.07045208
0.03735152 0.18170644 -0.09704633 0.06090398 -0.15745668 0.11651535 0.07880683 0.17307533
00000000: 894b 0a3e 1288 b53d d919 2e3e b0f3 cfbd
00000010: d431 493d 7dc1 e6bd 4a02 0ebe 7de7 c8bd
00000020: 0010 bebc 38ef 14be 73a8 f0bd 1a72 cb3d
00000030: c46b 733d c9e0 153e f32e 41be 271e 373e
00000040: 5415 3a3d d6ef 8d3d f8e8 1dbe 13e4 233e
00000050: 1a5c f53d 6fe9 093e 62c9 9c3d e34f 0d3e
00000060: c1d9 233e 16c6 873d ac17 04bd 20ee 023d
00000070: df31 3fbe e609 863d 8e5d 14be c13f 1a3e
00000080: e738 dcbd 885c 3e3d f283 903d b800 72bd
00000090: 5f34 30be 01aa 163e 3083 9abd 5291 b13d
000000a0: 63b0 24be 3f2f 143e 0000 0000 2822 293d
000000b0: 5acb 0fbe 0000 0080 f307 edbd d2d0 c13d
000000c0: 94cb 373d 6334 bcbd 74e1 083d 0000 0080
000000d0: c429 81bd cbfc 1c3e 8cd4 4f3d 4731 0c3e
000000e0: 325c 3bbe 3766 e7bd 7a78 893d 42c5 b23d
000000f0: e248 03be 0000 0000 206d 5abd 256c 2fbe
00000100: 41f5 443e 99e9 143e 3091 f0bd 2cff 7cbd
00000110: d781 303e 6666 96bd 1d31 e4bd 3e31 893d
00000120: 7c80 643d 4e26 f53d ddd9 e2bd 273b 363e
00000130: 1869 e6bc 0000 0080 82de de3d 0000 0080
00000140: 3889 00bd f29f cc3d 10af b13c 12a6 c43d
00000150: d106 133e f509 10be 24db 723d 7558 01be
00000160: 303b d2bc d07b 14be 86a2 8bbd 71a9 463e
00000170: 0000 0000 0000 0080 9e60 c03d ac5b 7c3d
00000180: e205 a33d 090d 483e 0000 0080 8def 303e
00000190: 634b 053e 9c8e 753d b9c4 213e cdae 3dbe
000001a0: 591a 393e 319b 043e 1b86 15be 4d3b 0bbe
000001b0: 90b1 d5bd f427 76bd 0283 0cbe 1492 5d3d
000001c0: 5432 76bd 453a 3e3e fd97 37be 3850 0bbe
000001d0: fb63 003e 9007 ebbc 0000 0000 6237 b83d
000001e0: 0000 0000 ce40 20be cf3e 303e 41a9 0d3e
000001f0: 29b0 253e 5263 913d 0d63 0e3e 7635 12be
00000200: 2efc 933d ddbb ccbd fde4 14be 0000 0000
00000210: 137b 213e 36cc a73d ec48 183d 7852 5fbd
00000220: 34ea 0e3d 7153 0f3e d478 663d 0091 93bd
00000230: 23bc a4bd 178d f6bd 7b7e 323e 0000 0080
00000240: 2237 a93d 78d5 06be 5524 3a3e 3768 2b3e
00000250: 78c0 2fbe d0df c6bd 3db4 12be 201f 15bd
00000260: 7609 913d 9216 a63d 0000 0000 5bc3 2dbe
00000270: 70d5 25be f384 273e 695b 463e f621 86bd
00000280: 9658 29be 0000 0080 e5d4 243e a775 acbd
00000290: 0000 0000 8def 073e 666e 0abe e18e 273e
000002a0: 0000 0000 f24a 08be a471 533d 2278 ad3d
000002b0: 008d f2bd 25f2 2d3e 3a17 c83d fabf 81bd
000002c0: eb24 473e 8d51 49be 0000 0000 6d62 abbd
000002d0: 0000 0000 6df7 aabd 50e3 c2bc f75d 3c3e
000002e0: 0000 0080 611a 223e 861b f83d 20b5 073d
000002f0: 7ff5 3fbe 666f 0cbe d450 1c3d 7508 1c3e
00000300: a2cd 943d 0000 0080 f4b0 583d a077 41be
00000310: a0da 26bd 908b 97bd 0839 2fbd 3bf3 293e
00000320: 2ff8 1c3e 7ed0 0bbe 5aea 833d d1be 3c3e
00000330: 0000 0080 a826 e6bc f24b 833d 6047 40be
00000340: 0db7 b6bd 35df 01be 73b1 18be d1a0 393e
00000350: 0000 0000 2d36 053e 33e6 10be 10ec 01be
00000360: 9a91 e53d 9a04 c53d 4a7a 9dbd 5cfb 5a3d
00000370: d210 873d 9dac 4b3e b365 013e 555d 363e
00000380: d227 ec3d bbdd 083e 28c5 d1bc 547f 6abd
00000390: e97a 143e f56f 473e ce7d 923d 1691 25be
000003a0: 27df e4bd 6683 c93d e15c 403e 8e3c a83d
000003b0: f30f 143e f7fd 313e 1267 8e3d 4255 ab3d
000003c0: 68cf 26be 17d5 e3bd 8ddd 113e 001a 44bd
000003d0: 3341 323e 8b63 023e a476 553d 2e49 903d
000003e0: e8fd 183d 4111 3a3e 3ac0 c6bd 7476 793d
000003f0: 533c 21be 9a9f ee3d 7a65 a13d a93a 313e

fc.bias f4 [6]
-0.097574644 -0.083702855 -0.15504813 -0.08179398 -0.19143112 -2.963841e-05
00000000: 37d5 c7bd 676c abbd f0c4 1ebe 9a83 a7bd
00000010: 8506 44be 00a0 f8b7

fc.weight f4 [6, 25]
-0.08231068 0.126191 0.073566094 0.18161173 -0.18752146 -0.09491954 0.06046121 0.037612006
-0.13997371 0.1404105 0.12316482 -0.1809885 0.17600586 -0.029718354 -0.03066799 -0.0
-0.020233348 -0.046788663 0.16252686 0.09944798 -0.09005179 0.1758671 -0.12268543 -0.093140624
0.065795496 -0.14406972 0.0867628 -0.08312676 0.07507397 -0.12797625 -0.09227925 -0.08995183
-0.054916903 0.030288309 -0.07616615 0.17415164 -0.098940134 -0.19712472 -0.08909371 0.17203887
0.0 0.12314148 -0.03223987 0.045255035 0.18205883 0.19919507 -0.19495201 -0.15710633
-0.151523 0.12516858 -0.16224985 -0.09665771 0.07505186 0.02435942 0.055781737 0.1921085
0.1641349 -0.026022837 0.13309647 -0.1281473 -0.14028938 -0.1766496 -0.16704658 0.17599322
-0.12458074 0.0 -0.18582438 -0.1609009 -0.11029394 -0.16494994 -0.0 -0.07248974
-0.08070266 0.11908688 -0.1110492 -0.116123416 0.122509494 0.0 -0.13520177 0.18509342
-0.09307039 -0.0 0.105129525 0.070677385 -0.16224813 -0.0 0.0 0.13561623
-0.16640523 -0.11434114 -0.17587309 -0.026748106 0.0 0.08192821 0.13443242 -0.0
-0.0835109 -0.06792538 -0.14449593 -0.10467596 -0.0 -0.09454634 -0.1361424 0.10598804
-0.107697345 -0.095844224 0.13817792 -0.18209867 -0.13948922 -0.10625257 0.06480934 0.05223222
-0.19334237 -0.1881126 -0.045668274 -0.19484833 -0.19572985 0.033650085 0.10301165 0.03178127
0.15588824 0.19879939 -0.15363197 0.09846069 0.022330314 0.17430587 0.063814625 -0.10196712
0.032084137 -0.07880485 0.113553 -0.035679534 -0.12863013 -0.17306636 -0.10754392 0.13457374
-0.022030637 0.019617766 -0.185369 0.0 -0.0 -0.12791818 0.025684685 -0.0
0.16759999 -0.0 -0.11089122 0.024890393 -0.17932343 0.07820739
00000000: 8092 a8bd 3738 013e d2a9 963d 6df8 393e
00000010: a005 40be 2d65 c2bd 2ca6 773d 0c0f 1a3d
00000020: 4555 0fbe c5c7 0f3e d63d fc3d 0d55 39be
00000030: e13a 343e e873 f3bc 703b fbbc 0000 0080
00000040: 68c0 a5bc 78a5 3fbd 716d 263e 62ab cb3d
00000050: 136d b8bd 8116 343e 8042 fbbd 83c0 bebd
00000060: cabf 863d 0387 13be b2b0 b13d 5d3e aabd
00000070: 62c0 993d 350c 03be e7fc bcbd aa38 b8bd
00000080: 8cf0 60bd 301f f83c 00fd 9bbd cf54 323e
00000090: 20a1 cabd 10db 49be c376 b6bd f52a 303e
000000a0: 0000 0000 9a31 fc3d f40d 04bd 585d 393d
000000b0: a16d 3a3e cbf9 4b3e 80a1 47be 7be0 20be
000000c0: d828 1bbe 312c 003e d324 26be 7af4 c5bd
000000d0: cab4 993d 688d c73c 647b 643d 17b8 443e
000000e0: fb12 283e d82d d5bc 714a 083e 0c39 03be
000000f0: 05a8 0fbe a2e3 34be 420e 2bbe 9137 343e
00000100: 3024 ffbd 0000 0000 bf48 3ebe 35c3 24be
00000110: cae1 e1bd a3e8 28be 0000 0080 8075 94bd
00000120: 7047 a5bd d2e3 f33d c36d e3bd 1dd2 edbd
00000130: 42e6 fa3d 0000 0000 5572 0abe 2189 3d3e
00000140: b09b bebd 0000 0080 264e d73d 4ebf 903d
00000150: 6024 26be 0000 0080 0000 0000 fbde 0a3e
00000160: 2266 2abe b02b eabd 1318 34be d81e dbbc
00000170: 0000 0000 fac9 a73d a7a8 093e 0000 0080
00000180: c307 abbd 761c 8bbd bef6 13be 5a60 d6bd
00000190: 0000 0080 83a1 c1bd ea68 0bbe 4210 d93d
000001a0: 6d90 dcbd fa49 c4bd 837e 0d3e 1378 3abe
000001b0: 43d6 0ebe f39a d9bd c2ba 843d 74f1 553d
000001c0: 8bfb 45be 97a0 40be a80e 3bbd 5286 47be
000001d0: 686d 48be acd4 093d c6f7 d23d 142d 023d
000001e0: 2ba1 1f3e 1192 4b3e b351 1dbe c2a5 c93d
000001f0: 10ee b63c 3d7d 323e 3eb1 823d 23d4 d0bd
00000200: a86a 033d 7064 a1bd 7a8e e83d b424 12bd
00000210: 9eb7 03be 4f38 31be fd3f dcbd b3cd 093e
00000220: 9879 b4bc 70b5 a03c 5fd1 3dbe 0000 0000
00000230: 0000 0080 fcfc 02be b068 d23c 0000 0080
00000240: 559f 2b3e 0000 0080 f01a e3bd f0e6 cb3c
00000250: 90a0 37be 322b a03d
