code/conjugate_gradient/models/MLP_pruned_structured.pt (torch, 62420 bytes, 6 tensors)

fc1.bias f4 [128]
0	0x3c078520	0.008271486
1	0x3d8b7cce	0.06810914
2	0xbdf68986	-0.12037949
3	0x3c934468	0.017976955
4	0x3d415044	0.047195688
5	0xbe104e4c	-0.14092368
6	0xbe0bd7cd	-0.1365654
7	0xbc730900	-0.014833689
8	0xbe0f171a	-0.13973656
9	0x3de43098	0.11142081
10	0xbdd10062	-0.10205151
11	0x3dd610dc	0.104524344
12	0x3e007d1a	0.12547722
13	0x3dd9e04c	0.10638484
14	0xbe04f251	-0.12983061
15	0x3be7bc00	0.007071972
16	0x3c71c560	0.0147565305
17	0x3d336774	0.043799832
18	0x3ce39650	0.027781636
19	0xbdfb136c	-0.12259564
20	0x3d146b3c	0.03623508
21	0xbdfadd54	-0.12249246
22	0x3d506ec4	0.050886884
23	0xbe0389d7	-0.1284555
24	0x3d921146	0.07132201
25	0x3d384f48	0.044997483
26	0x3ccbed00	0.024893284
27	0xbdde0878	-0.10841459
28	0x3d74bc78	0.05975005
29	0xbbe8cde0	-0.0071046203
30	0xbde7e1d2	-0.11322369
31	0xbbc038c0	-0.00586614
32	0x3df9e1b0	0.122012496
33	0xbdda7afc	-0.10667989
34	0xbe1041e0	-0.1408763
35	0x3c8e0008	0.017334
36	0xbe131c90	-0.14366364
37	0xbdd873be	-0.10568951
38	0xbda3728f	-0.07980835
39	0x3db39ace	0.08769761
40	0x3ddb222c	0.10699877
41	0x3d21c360	0.039492965
42	0xbdc57070	-0.096405864
43	0xbde95aba	-0.11394258
44	0xbd2afb4a	-0.041743554
45	0x3de8bcf0	0.11364162
46	0xbe053360	-0.1300788
47	0x3d82e2e6	0.06390934
48	0x3dfd9fb0	0.123839736
49	0x3d37a6dc	0.044836864
50	0x3dbd4e82	0.0924349
51	0xbc546b20	-0.012964994
52	0xbd82f3b0	-0.06394136
53	0xbd1f38ea	-0.038872637
54	0x3dc61f60	0.09673953
55	0xbc492c00	-0.012278557
56	0x3cb3d798	0.021953389
57	0xbda99aa4	-0.082814485
58	0x3ccd0650	0.025027424
59	0xbd19780a	-0.037467994
60	0x3b305c80	0.0026910603
61	0xbdf1344c	-0.11777553
62	0xbcce6464	-0.025194354
63	0x3e106cc4	0.14103991
64	0x3c0ab8c0	0.008466899
65	0xbdd57e9e	-0.10424541
66	0xbdaeb47a	-0.08530517
67	0x3bdce4a0	0.0067411214
68	0x3cae1f58	0.02125518
69	0xbdc8584c	-0.09782466
70	0x3d73ca60	0.05951917
71	0x3d328034	0.043579295
72	0x3de0e494	0.10981098
73	0x3dbbb20a	0.09164818
74	0xbe113221	-0.14179279
75	0xbd95adaa	-0.073085144
76	0x3d2997fc	0.04140471
77	0xba02a900	-0.00049842894
78	0xbde51b1c	-0.11186811
79	0xbd08d0d8	-0.033402294
80	0xbe07ff2c	-0.13280934
81	0x3c97f0a0	0.018547356
82	0xbd9d6825	-0.076858796
83	0x3d6a4950	0.057198822
84	0xbddaa2fa	-0.106756166
85	0x3b0c1240	0.0021373183
86	0xbd8d7413	-0.06906905
87	0xbd564308	-0.05231002
88	0xbd3fe6b8	-0.04685089
89	0x3d7357bc	0.059409842
90	0x3c505b00	0.012717009
91	0x3cda1420	0.026620924
92	0xbda26cd9	-0.07930917
93	0x3d922daa	0.07137616
94	0x3e11e154	0.14246112
95	0xbd81566a	-0.0631531
96	0x3db7a7d2	0.08967556
97	0x3cad7a78	0.021176562
98	0xbcfffdbc	-0.03124892
99	0xb9bcc200	-0.00036002696
100	0x3c668ca0	0.014071614
101	0xbde748f4	-0.112932116
102	0xbe026a45	-0.12735851
103	0xbddd07e1	-0.107925184
104	0xbdb702dd	-0.08936093
105	0x3de144dc	0.10999462
106	0x3de68a50	0.1125685
107	0x3d40f3ec	0.047107622
108	0xbc1ea940	-0.009683907
109	0xbd96185b	-0.07328864
110	0x3e11e72a	0.14248338
111	0x3dcdb01e	0.10043357
112	0xbde2e360	-0.110785246
113	0x3d437150	0.047715485
114	0xbc312620	-0.010812312
115	0xbe138d9b	-0.14409487
116	0xbdf04fc4	-0.11733964
117	0x3e0e33d0	0.13886952
118	0xbcb2cda0	-0.021826565
119	0x3dd6a114	0.10479942
120	0x3bf22cc0	0.0073905885
121	0xbd3c67ea	-0.045997538
122	0xbbcaf5e0	-0.0061938614
123	0x3de28de0	0.11062217
124	0xbdbe6bb0	-0.092978835
125	0xbdc46644	-0.09589818
126	0xbd469f14	-0.048491552
127	0x3d4bc818	0.04975137

fc1.weight f4 [128, 48]
0	0x3e12c5be	0.14333245
1	0xbd2adce2	-0.041714557
2	0xbd65009e	-0.05590879
3	0x3dbb60d2	0.091493264
4	0xbdaecc10	-0.085350156
5	0xbd9eadd5	-0.077479996
6	0x3ca45080	0.020057917
7	0x3d335c50	0.043789208
8	0x3dfc8598	0.123301685
9	0x3db5aac8	0.088704646
10	0xbde7898c	-0.11305532
11	0x3e0c99fe	0.13730618
12	0xbdeccd8d	-0.11562643
13	0x3bcd2c40	0.0062613785
14	0xbd85b3e5	-0.06528453
15	0xbc9b6908	-0.018970981
16	0x3e09f37c	0.13471788
17	0xbd97c83e	-0.0741124
18	0xbd3141c8	-0.043275625
19	0x3e0c6b7c	0.13712877
20	0x3cb70848	0.022342816
21	0x3d6dcd8c	0.058057353
22	0xbdd447ea	-0.10365279
23	0x3bccf8c0	0.0062552392
24	0xbe0458d4	-0.1292451
25	0x3e0fd802	0.14047244
26	0x3b821460	0.003969714
27	0x3e0e1a9a	0.13877335
28	0x3d63f334	0.05565186
29	0x3de4bca8	0.11168796
30	0x3cf39d28	0.029738024
31	0x3d1fe7dc	0.039039478
32	0x3da0e39c	0.07855913
33	0xbd95ab58	-0.07308072
34	0xbd144368	-0.036197096
35	0xbcfb8afc	-0.030705921
36	0x3d62a650	0.05533439
37	0x3e1349fa	0.14383689
38	0x3d8dbfa2	0.06921317
39	0xbd32f094	-0.043686464
40	0x3cf9c6d8	0.030490324
41	0xbc3d9be0	-0.011572808
42	0x3e130670	0.14357924
43	0xbda39ccb	-0.0798889
44	0xbda5d495	-0.080971874
45	0x3de1f270	0.110325694
46	0xbc4e9fd0	-0.012611344
47	0xbd2ee8f0	-0.042702615
48	0xbde29c10	-0.11064923
49	0x3cf2be00	0.029631615
50	0x3dd972a8	0.10617572
51	0xbe0d465c	-0.13796371
52	0xbcc98df0	-0.024603814
53	0x3da28b22	0.07936694
54	0xbd72f3c2	-0.059314497
55	0x3dc586e8	0.09644872
56	0xbd5dcbd6	-0.05414947
57	0x3cb99c50	0.022657543
58	0x3dd37a76	0.10326092
59	0xbd0fcf64	-0.035109892
60	0x3cbced08	0.023062244
61	0x3dc94ace	0.09828721
62	0xbdc8ee9b	-0.098111354
63	0x3d25c984	0.040475383
64	0xbddcd8fd	-0.10783575
65	0x3e03ae24	0.12859398
66	0xbd9a46c8	-0.07533032
67	0x3d8e894e	0.069597825
68	0x3d941f66	0.07232551
69	0xbdde76f8	-0.10862535
70	0x3d81e354	0.063421875
71	0x3d86bd3e	0.06579064
72	0x3aaefb80	0.0013350099
73	0x3cbc5740	0.022990823
74	0x3d86cf4e	0.06582509
75	0x3dbad23c	0.0912213
76	0x3d5d45a0	0.054021478
77	0x3ddd2dbc	0.10799739
78	0x3e0da276	0.13831505
79	0xbdcafa46	-0.09911017
80	0x3e0d7b0a	0.13816467
81	0xbdd88889	-0.10572917
82	0x3e00c06e	0.12573406
83	0xbda1a305	-0.07892422
84	0x3d831410	0.06400311
85	0x3e0ea98e	0.13931867
86	0xbd2bf72c	-0.04198377
87	0xbdbb1821	-0.091354616
88	0x3dde7330	0.10861814
89	0x3e0244a2	0.12721494
90	0xbdf3fddb	-0.119136535
91	0x3df6e904	0.12056163
92	0xbd8a890c	-0.06764421
93	0xbd5f5f90	-0.054534495
94	0x3bf70600	0.007538557
95	0x3e0dcb06	0.13846979
96	0xbe0f2f1e	-0.13982818
97	0xbdd30c69	-0.103051014
98	0xbe10eae9	-0.14152111
99	0xbbf7f520	-0.007567063
100	0x3df38d08	0.11892134
101	0x3c22d430	0.009938285
102	0x3bb9bde0	0.005668387
103	0x3de9cbd4	0.1141583
104	0x3dbfaf94	0.09359661
105	0xbdd8a8d9	-0.1057908
106	0x3e02db8c	0.12779063
107	0xbd331e38	-0.04372999
108	0x3c9cc230	0.019135565
109	0xbdf3d21d	-0.1190531
110	0xbe07fac0	-0.13279247
111	0xbe0d1bfd	-0.13780208
112	0x3db0d88c	0.08635053
113	0xbe105955	-0.14096577
114	0x3c8094a0	0.01569587
115	0xbdfe208a	-0.1240855
116	0x3dda9e80	0.10674763
117	0xbd42d55c	-0.047566757
118	0xbc9982c8	-0.01873912
119	0x3da543b8	0.08069557
120	0xbda03845	-0.078232326
121	0x3d8a67fc	0.06758115
122	0xbe0f1990	-0.13974595
123	0xbdae2c36	-0.08504526
124	0xbdd8e0bc	-0.1058974
125	0x3a40bc00	0.0007352233
126	0xbda06a49	-0.07832772
127	0x3a9ac400	0.001180768
128	0xbe0868f8	-0.13321292
129	0x3dbf3b9c	0.093375415
130	0xbe13a1ec	-0.14417237
131	0x3d977482	0.07395269
132	0x3cb26160	0.021774948
133	0xbe120654	-0.14260226
134	0x3dec0944	0.11525205
135	0xbdc53baa	-0.09630521
136	0x3cd8c390	0.026460439
137	0x3dc58b42	0.09645702
138	0xbdbeadb8	-0.09310478
139	0x3d9b7492	0.075905934
140	0xbcf79f4c	-0.030227326
141	0x3dfdd10c	0.12393388
142	0xbb173f40	-0.0023078471
143	0x3e03c05c	0.12866348
144	0x80000000	-0.0
145	0x80000000	-0.0
146	0x00000000	0.0
147	0x00000000	0.0
148	0x00000000	0.0
149	0x80000000	-0.0
150	0x00000000	0.0
151	0x00000000	0.0
152	0x00000000	0.0
153	0x00000000	0.0
154	0x80000000	-0.0
155	0x80000000	-0.0
156	0x80000000	-0.0
157	0x00000000	0.0
158	0x00000000	0.0
159	0x80000000	-0.0
160	0x80000000	-0.0
161	0x00000000	0.0
162	0x80000000	-0.0
163	0x80000000	-0.0
164	0x80000000	-0.0
165	0x80000000	-0.0
166	0x80000000	-0.0
167	0x00000000	0.0
168	0x80000000	-0.0
169	0x80000000	-0.0
170	0x80000000	-0.0
171	0x80000000	-0.0
172	0x00000000	0.0
173	0x80000000	-0.0
174	0x80000000	-0.0
175	0x80000000	-0.0
176	0x00000000	0.0
177	0x00000000	0.0
178	0x80000000	-0.0
179	0x00000000	0.0
180	0x00000000	0.0
181	0x80000000	-0.0
182	0x80000000	-0.0
183	0x00000000	0.0
184	0x80000000	-0.0
185	0x80000000	-0.0
186	0x00000000	0.0
187	0x80000000	-0.0
188	0x80000000	-0.0
189	0x00000000	0.0
190	0x80000000	-0.0
191	0x80000000	-0.0
192	0x3d14a31c	0.036288366
193	0xbc33d610	-0.010976329
194	0xbd6a20c0	-0.05716014
195	0xbd5adb48	-0.05343178
196	0xbe0b9c82	-0.13633922
197	0x3d667280	0.05626154
198	0xbdddcb7e	-0.10829829
199	0xbdd96e77	-0.106167726
200	0x3d58aecc	0.052901074
201	0xbdee70dc	-0.1164262
202	0xbd44854a	-0.047978677
203	0x3dd9c148	0.106325686
204	0x3cdaf988	0.026730314
205	0xbdd42147	-0.1035791
206	0xbda01720	-0.07816911
207	0x3d9bcc06	0.07607274
208	0xbdd34654	-0.103161484
209	0x3d1bb194	0.03801115
210	0x3d901316	0.0703489
211	0x3d836ef2	0.064176455
212	0xbd251404	-0.04030229
213	0x3e0c8f5a	0.1372656
214	0x3d5f2e0c	0.054487273
215	0x3d8ade14	0.06780639
216	0xbd15a04e	-0.03652983
217	0xbdc430b8	-0.09579605
218	0x3dd3797e	0.10325907
219	0xbddbfe5f	-0.10741877
220	0x3d5a9ce8	0.053372294
221	0xbe085eed	-0.13317461
222	0xbe002080	-0.12512398
223	0xbd086186	-0.03329613
224	0xbc584510	-0.0132000595
225	0xbe02658a	-0.12734047
226	0x3de25dac	0.11053023
227	0xbdc39b79	-0.095511384
228	0x3dca8674	0.09888926
229	0x3dda85e8	0.10670072
230	0xbd8e8d43	-0.06960537
231	0x3d4b98d0	0.04970628
232	0xbc0e3330	-0.008679196
233	0xbdb2065e	-0.08692621
234	0x3db9d624	0.09074047
235	0x3db7d912	0.0897695
236	0xbdc2c916	-0.0951101
237	0x3e034916	0.12820849
238	0x3da486a6	0.08033495
239	0x3e0ae9a0	0.13565683
240	0xbdcf9fdc	-0.10137913
241	0x3cb673f8	0.022272095
242	0xbd10c2e8	-0.035342127
243	0xbc00a5d0	-0.007852033
244	0x3bee1140	0.00726524
245	0x3c9e4cd0	0.019323736
246	0x3d089304	0.03334333
247	0x3ddaeb10	0.10689366
248	0x3dc407a2	0.09571768
249	0x3d8ed2c4	0.06973794
250	0x3cd6fb68	0.026242927
251	0x3e0836ca	0.1330215
252	0x3dd421ba	0.10357995
253	0x3e0437ec	0.12911958
254	0x3db512ae	0.088414535
255	0xbcf85648	-0.03031458

fc2.bias f4 [64]
0	0x3cb28378	0.021791205
1	0xbda0e444	-0.07856038
2	0x3daeb7bb	0.085311376
3	0x3d56f1a6	0.052476548
4	0x3d586af6	0.05283638
5	0x3c9f8ab0	0.019475311
6	0x3da3d2af	0.07999169
7	0x3b0b5da0	0.0021265522
8	0x3d392202	0.045198448
9	0xbc279270	-0.0102277845
10	0xbc0155d8	-0.007894002
11	0x3da0a16d	0.078432895
12	0xbdb02793	-0.08601298
13	0x3d485106	0.048905395
14	0x3d9e0325	0.077154435
15	0xbc930680	-0.017947435
16	0xbd95c5e7	-0.073131375
17	0xbb9b1da0	-0.004733756
18	0xbd8b4f25	-0.06802205
19	0x3d9feaab	0.07808431
20	0x3d56c6e2	0.052435763
21	0x3d962e3d	0.07333038
22	0x3d2efd2e	0.04272192
23	0x3d45b6ae	0.04826992
24	0xbd3a8db7	-0.045545306
25	0xbd7eff4d	-0.062255193
26	0xbd071d0b	-0.032986682
27	0xbd057607	-0.032583263
28	0xbd889324	-0.0666869
29	0xbd52ff58	-0.051513046
30	0x3d8f1d69	0.069880314
31	0xbce6be7c	-0.028167002
32	0x3b545a00	0.0032402277
33	0x3d3f7936	0.046746455
34	0xbd220fc7	-0.039565828
35	0x3cfec44c	0.031099461
36	0xbd3ffc76	-0.046871625
37	0xbcc591d4	-0.024117388
38	0x3b5246a0	0.0032085553
39	0x3cfece88	0.031104341
40	0xbd5035e3	-0.05083264
41	0xbd9d2efa	-0.07674976
42	0x3d8037fb	0.062606774
43	0xbd732dd6	-0.059369884
44	0xbcf0a57c	-0.029375784
45	0x3d7c7af2	0.061640687
46	0x3c7d4230	0.015457675
47	0xbd2bd8f8	-0.041954964
48	0x3c269038	0.01016622
49	0x3d3c6bea	0.046001352
50	0xbd7b3eb5	-0.0613391
51	0xbcdd0348	-0.026979104
52	0x3c5ca858	0.013467871
53	0x3d7532d2	0.05986292
54	0xbd770004	-0.06030275
55	0xbd4e06a4	-0.0502993
56	0x3d766f16	0.060164534
57	0xbda66bf6	-0.08126061
58	0x3d8c355b	0.06846114
59	0x3cab2fa8	0.020896748
60	0x3d7c4de6	0.061597727
61	0x3ca0beac	0.01962217
62	0x3d9607d7	0.07325714
63	0x3d2ee796	0.042701326

fc2.weight f4 [64, 128]
0	0xbb952890	-0.0045519546
1	0xbd91bb12	-0.07115759
2	0x3d39d582	0.045369633
3	0xbd6b4139	-0.057435248
4	0xbc474658	-0.012162767
5	0xbd312500	-0.043248177
6	0x3d912269	0.07086641
7	0x3c98231c	0.018571429
8	0xbda2dffb	-0.07952877
9	0x3ceea978	0.029133543
10	0xbd81031b	-0.062994204
11	0xbd5835d8	-0.052785724
12	0x3c00e360	0.00786671
13	0x3d24b5d2	0.04021246
14	0xbd18b61c	-0.037283048
15	0xbd9070b9	-0.0705275
16	0x3d64f362	0.05589617
17	0xbba0be00	-0.0049054623
18	0xbd77f7c8	-0.060539037
19	0xbce89362	-0.02839059
20	0xbd95913b	-0.07303091
21	0xbd63a17d	-0.05557393
22	0x3d3757de	0.04476153
23	0xbda227a9	-0.07917721
24	0xbd8690bf	-0.06570577
25	0xbd5bdfb0	-0.053680122
26	0x3d91e345	0.07123426
27	0x3db130d9	0.08651895
28	0x3c8f0368	0.017457679
29	0xbd741e90	-0.05959946
30	0xbd8111d8	-0.063022316
31	0x3db16a7b	0.08662888
32	0xbc59ebb8	-0.013300829
33	0xbdae6e47	-0.085171275
34	0x3a8131c0	0.0009856746
35	0xbceb83dc	-0.028749399
36	0xbda249cf	-0.07924234
37	0xbd8cb262	-0.06869961
38	0x3ce63194	0.028099813
39	0x3db2332f	0.08701169
40	0xbd28bf4c	-0.04119806
41	0x3d88a8a9	0.06672794
42	0xbc8643ac	-0.01638969
43	0x3dad8e25	0.084743775
44	0xbd923cde	-0.07140516
45	0x3d9a6a99	0.07539863
46	0xbda9cfb5	-0.0829157
47	0xbda3178b	-0.07963475
48	0x3da4d105	0.0804768
49	0xbd7b9fb1	-0.06143159
50	0xbd9b98b3	-0.075974844
51	0xbd071d8e	-0.03298717
52	0xbb0ec9e0	-0.0021787807
53	0xbc1a21a0	-0.009407431
54	0x3c498ff0	0.012302384
55	0x3cea3efc	0.028594486
56	0xbd9f3f80	-0.077757835
57	0xbd9c9538	-0.07645649
58	0xbb18c840	-0.0023312718
59	0x3d0c846a	0.034305967
60	0xbd1b0e8e	-0.037855677
61	0x3d5f6ade	0.054545276
62	0xbd929a10	-0.07158291
63	0x3db0da73	0.08635416
64	0x3d8f4065	0.06994704
65	0x3d53efd6	0.051742397
66	0x3d5df1d6	0.05418571
67	0xbcd319e4	-0.025769182
68	0x3cf4e2c4	0.029893287
69	0x3d92fe3b	0.07177397
70	0xbd648a75	-0.055796105
71	0x3cbb0b7c	0.022832625
72	0x3c783a18	0.015150569
73	0xbd64d689	-0.05586866
74	0xbd56d811	-0.05245215
75	0xbb945320	-0.004526511
76	0xbd9870f2	-0.074434176
77	0x3d153d8a	0.03643564
78	0x3d8f8cd3	0.07009282
79	0x3d316e86	0.043318294
80	0x3da3b5f9	0.07993693
81	0x3ca19ec8	0.019729033
82	0x3d2f37ee	0.042777948
83	0xbd859edc	-0.06524441
84	0x3aa274c0	0.0012394413
85	0xbd9d66b0	-0.07685602
86	0xbccab988	-0.024746671
87	0xbda8b47e	-0.08237551
88	0xbc7044a0	-0.014664799
89	0xbd90f8b4	-0.07078686
90	0x3ab31280	0.001366213
91	0xbda07bb6	-0.07836096
92	0xbc06ff88	-0.008239634
93	0xbc253078	-0.010082357
94	0xbd056054	-0.03256257
95	0x3cfd7878	0.030941233
96	0x3c8beb00	0.01707983
97	0xbd2e09d9	-0.04248986
98	0x3ccc9bd8	0.024976656
99	0xbc8fbd14	-0.017546214
100	0xbd9cc4fd	-0.0765476
101	0xbd1e9e6f	-0.038725313
102	0x3cbc99cc	0.023022555
103	0xbd460ac8	-0.048350126
104	0x3d2f613a	0.04281733
105	0xbd775a05	-0.060388584
106	0x3da0b2bd	0.078465916
107	0x3db24175	0.08703891
108	0xbd12fe55	-0.03588708
109	0xbd817216	-0.06320588
110	0x3d60970e	0.054831557
111	0x3c017d98	0.007903479
112	0x3d088a64	0.033335105
113	0xbd6e0cd6	-0.05811771
114	0x3d8bdbdb	0.068290435
115	0xbcf7c2c6	-0.030244242
116	0xbd9b5610	-0.075847745
117	0xbd1eafc5	-0.038741846
118	0x3d97f521	0.074198015
119	0x3c520f78	0.012821071
120	0x3b439fc0	0.0029849857
121	0xbdaf55c2	-0.08561279
122	0x3cb658c8	0.022259131
123	0x3db04ae9	0.08608038
124	0x3c276c58	0.010218702
125	0x3d5f9cda	0.054592945
126	0xbdae97f6	-0.08525078
127	0x3d6898b6	0.05678626
128	0xbdab4bf6	-0.08364098
129	0x3cfebae4	0.031094976
130	0xbd3d09c5	-0.046151895
131	0x3d7e5836	0.062095843
132	0x3bdc23b0	0.0067181215
133	0xbbc791f0	-0.006090395
134	0x3cfe6978	0.03105615
135	0x3c1d2a28	0.00959257
136	0xbd70c589	-0.058782134
137	0x3c0e0960	0.008669227
138	0xbb9d8e30	-0.00480821
139	0x3d00d808	0.031456023
140	0xbd16a8be	-0.03678202
141	0x3d425842	0.04744745
142	0x3d8b7069	0.0680855
143	0xbc18e348	-0.009331532
144	0x3d68ff0a	0.05688385
145	0xbd4bff70	-0.04980415
146	0xbb6d3cc0	-0.003619954
147	0xbd8a6d0f	-0.067590825
148	0xbcfd612e	-0.030930128
149	0x3d966db9	0.07345147
150	0x3d2f6716	0.04282292
151	0xbdb3626e	-0.08759008
152	0x3d1b0256	0.037844025
153	0x3d77ca1a	0.060495473
154	0x3db3cac9	0.087789126
155	0x3b859870	0.00407701
156	0xbc43b600	-0.011945248
157	0xbd4eb16e	-0.05046218
158	0xbcb5d284	-0.022195108
159	0x3d3bc536	0.045842372
160	0x3d2620b6	0.04055854
161	0xbd2e4038	-0.042541713
162	0xbc10b9c8	-0.008833356
163	0xbc317e18	-0.010833286
164	0x3d8d54f1	0.06900967
165	0xbd57fb7f	-0.05273008
166	0x3c879f14	0.016555347
167	0x3d40936a	0.047015585
168	0x3c360380	0.011109233
169	0xbd4055e6	-0.04695692
170	0x3da24f93	0.07925334
171	0xbd9fcfb0	-0.07803285
172	0xbcf21e6a	-0.029555518
173	0xb9485600	-0.00019105524
174	0xbd4fe0bc	-0.050751433
175	0xbca488f0	-0.020084828
176	0xbd1e054d	-0.038579274
177	0xbd89a18e	-0.06720267
178	0xbc929c84	-0.017896898
179	0xbcd5aadc	-0.026082449
180	0x3d268d16	0.040661894
181	0xbdacfa18	-0.08446139
182	0x3d28b57e	0.04118871
183	0x3d1cec86	0.038311504
184	0x3d92a9cf	0.07161295
185	0x3d4a4742	0.049384363
186	0x3be65a70	0.007029824
187	0x3d192752	0.037391014
188	0xbdaddf62	-0.084898725
189	0x3db3f1cb	0.08786353
190	0xbca433dc	-0.02004426
191	0xbd140d2d	-0.036145378
192	0xbc38f4e0	-0.0112888515
193	0x3c9c86a8	0.019107178
194	0x3da0b7b9	0.07847542
195	0xbd224fe1	-0.03962696
196	0x3d822719	0.063551135
197	0x3d9a04a5	0.07520417
198	0x3cd73ee4	0.026275106
199	0x3ce9e2f4	0.028550602
200	0x3d8ceb73	0.06880846
201	0x3d088912	0.033333845
202	0x3a0e4180	0.00054266304
203	0xbccc1820	-0.024913847
204	0xbd00be0f	-0.031431254
205	0x3c934c24	0.017980643
206	0xbc043ed8	-0.008071624
207	0xbd20396b	-0.039117258
208	0xbd1b3ea0	-0.03790152
209	0x3aaeb480	0.001332894
210	0x3d2f1d76	0.042752706
211	0x3c952bd0	0.018209368
212	0xbbe2c600	-0.006920576
213	0xbd9dc315	-0.077032246
214	0x3d5210de	0.051285617
215	0x3cb5130c	0.022103809
216	0x3d6e6742	0.058203943
217	0x3c0b9f60	0.008521885
218	0xbd57f8de	-0.052727573
219	0xbdabe04a	-0.08392389
220	0xbcdb5ea4	-0.026778527
221	0x3d3f1aea	0.046656527
222	0x3d4b25d2	0.049596615
223	0xbd007669	-0.031362925
224	0x3c3c61c0	0.011497915
225	0x3d84db45	0.06487135
226	0xbc651d30	-0.01398401
227	0xbda72784	-0.08161834
228	0x3d4218aa	0.047386803
229	0x3d4fa3d2	0.05069334
230	0x3cb48c30	0.022039503
231	0xbd6bc50b	-0.05756096
232	0xbd7bea56	-0.061502777
233	0x3daf4ec7	0.085599475
234	0xbd94e66e	-0.072705135
235	0x3d7d478e	0.061835818
236	0xbd906eec	-0.07052407
237	0x3d9c6e9d	0.07638285
238	0xbd8ccb28	-0.068746865
239	0xbc1e7740	-0.009671986
240	0x3ce6944c	0.028146885
241	0x3d7f9252	0.0623954
242	0xbd83c041	-0.06433154
243	0x3d593a02	0.053033836
244	0xbd4e56e0	-0.05037582
245	0x3d96b2c7	0.07358318
246	0xbd8bdc6b	-0.06829151
247	0x3c75aa00	0.014994144
248	0xbdacc20c	-0.08435449
249	0xbd6752db	-0.0564755
250	0xbd9ed531	-0.07755507
251	0x3dad8527	0.084726624
252	0x3d23484a	0.039863862
253	0xbc8af5ec	-0.016962968
254	0x3d2c9286	0.042131923
255	0xbda5fb88	-0.081046164

fc3.weight f4 [6, 64]
0	0x3d464154	0.048402146
1	0xbbd596c0	-0.006518215
2	0xbd78a134	-0.06070061
3	0x3cbbf2f8	0.022943005
4	0x3db813e4	0.08988169
5	0xbc1d5e70	-0.009605035
6	0xbd2dbef4	-0.042418435
7	0xbdb0a8e4	-0.08625963
8	0xbd00bc68	-0.03142968
9	0x3c38d670	0.011281595
10	0x3df36048	0.118835986
11	0x3da80bf4	0.08205405
12	0xbde2acb4	-0.11068097
13	0xbb96f460	-0.0046067685
14	0x3d8ba91a	0.06819363
15	0x3d9152b2	0.07095851
16	0x3b024240	0.0019875914
17	0xbd3dcb74	-0.046336606
18	0xbcecb888	-0.028896585
19	0xbdfa7584	-0.122294456
20	0x3d0baed4	0.034102276
21	0x3c4608f0	0.012087092
22	0x3dfd86d0	0.12379229
23	0x3daa9762	0.08329655
24	0xbd7385fc	-0.05945395
25	0xbba67280	-0.0050795674
26	0xbdb7be46	-0.08971839
27	0xbc6529d0	-0.01398702
28	0xbdc12e34	-0.09432641
29	0x3deb563c	0.11491057
30	0x3daa6720	0.08320451
31	0x3cfed020	0.031105101
32	0xbdba426a	-0.09094699
33	0x3dddfeba	0.10839601
34	0x3ddf6e46	0.10909705
35	0xbcbd8358	-0.023133919
36	0xbd858f3c	-0.065214604
37	0xbd27a8cc	-0.04093246
38	0x3d5bc8b4	0.053658202
39	0xbde8537e	-0.1134405
40	0xbdd60cc8	-0.104516566
41	0xbdfc9410	-0.12332928
42	0x3d2b3544	0.041798845
43	0xbdbf13d2	-0.09329952
44	0xbd412cfc	-0.04716204
45	0xbd30dd6c	-0.043179914
46	0xbdfb573a	-0.122724965
47	0x3d977afc	0.07396504
48	0x3d88ba70	0.06676185
49	0x3daa4652	0.08314194
50	0xbc2f5dd0	-0.010703519
51	0xbd8ab44e	-0.06772672
52	0xbd487af4	-0.048945382
53	0xbdcd52a0	-0.10025525
54	0xbd9270ba	-0.07150407
55	0x3db7d698	0.089764774
56	0xbdaf0668	-0.08546144
57	0xbc4c0570	-0.012452468
58	0x3dceb25e	0.100926146
59	0x3c841810	0.016124755
60	0x3da3633c	0.07977912
61	0xbd6ccbb4	-0.057811454
62	0xbdaf7f78	-0.085692346
63	0xbcc5a190	-0.02412489
64	0x3dad61fe	0.08465956
65	0x3cea42b8	0.028596267
66	0x3ddc14d6	0.10746162
67	0x3c36c210	0.011154667
68	0x3df0e22e	0.1176189
69	0x3d5029f8	0.050821275
70	0xbc0fd9e0	-0.008779973
71	0xbd6f6178	-0.058442563
72	0x3ccf9e20	0.025343955
73	0x3bc3a5a0	0.005970672
74	0xbdd2436c	-0.10266766
75	0xbda712fa	-0.08157916
76	0x3da4739a	0.08029862
77	0x3d726b50	0.059184372
78	0xbdd5f4dc	-0.10447094
79	0x3df33dfa	0.118770555
80	0xbde00964	-0.10939291
81	0x3d317be4	0.043331042
82	0xbd000088	-0.031250507
83	0x3da4b2ea	0.08041938
84	0xbd2f8a48	-0.042856485
85	0xbadeee00	-0.0017008185
86	0x3d3bfee8	0.045897394
87	0xbd6d6128	-0.057953984
88	0xbde9b522	-0.114115015
89	0x3d487514	0.04893978
90	0xbdafe112	-0.08587851
91	0x3d59c1d0	0.05316335
92	0xbd85ba24	-0.06529644
93	0xbdef68a0	-0.116898775
94	0x3d910cc6	0.070825145
95	0x3ba34900	0.0049830675
96	0xbb1eab80	-0.0024211109
97	0x3cff40d0	0.031158835
98	0x3c206690	0.009790078
99	0x3d7beb5c	0.061503753
100	0x3dae1532	0.085001364
101	0x3bda3980	0.0066596866
102	0x3dda8df0	0.10671604
103	0x3baea020	0.005329147
104	0xbda65276	-0.08121197
105	0xbd85415e	-0.065066084
106	0x3bcd43a0	0.006264165
107	0x3d1a3350	0.03764659
108	0xbcd24d90	-0.02567175
109	0x3b8c2920	0.0042773634
110	0x3dfd6076	0.12371914
111	0x3d532db0	0.051557243
112	0xbd207918	-0.039177984
113	0xbdb823d0	-0.08991206
114	0x3d9c8520	0.07642579
115	0x3da1ba06	0.07896809
116	0x3d2bf150	0.04197818
117	0xbd93d728	-0.07218772
118	0xbdbd0ad8	-0.09230584
119	0x3dbb874c	0.09156665
120	0xbde0fc4e	-0.10985623
121	0xbd3c0214	-0.04590042
122	0xbdcb2d08	-0.099206984
123	0x3dbe54e4	0.09293535
124	0xbdf70aca	-0.12062605
125	0xbde8db94	-0.11370006
126	0x3dd3746c	0.1032494
127	0xbd87c4dc	-0.06629345
128	0xbd1ee8d4	-0.03879626
129	0xbc5bec00	-0.013422966
130	0x3d570f2c	0.052504703
131	0x3c83d128	0.016090944
132	0x3db1b0cc	0.086762995
133	0xbdd863f0	-0.105659366
134	0xbd807084	-0.06271461
135	0xbd62c23c	-0.055361018
136	0x3deebf54	0.11657587
137	0xbd36e2cc	-0.044649884
138	0x3de46da2	0.11153723
139	0xbd65eb48	-0.056132585
140	0x3d88699c	0.066607684
141	0x3c522020	0.012825042
142	0xbb1e5240	-0.0024157912
143	0x3cca2f08	0.02468063
144	0xbc11b3f0	-0.008892998
145	0x3bc38780	0.0059670806
146	0xbd1d8884	-0.03846027
147	0x3d837012	0.0641786
148	0x3c3fd2c0	0.011707962
149	0xbd7f40fc	-0.062317833
150	0xbdecc1e2	-0.11560418
151	0xbd40bfa8	-0.047057778
152	0xbd814172	-0.06311311
153	0x3d1eb5c0	0.03874755
154	0xbda683f2	-0.08130635
155	0x3ddd5a3c	0.108082265
156	0xbc374e60	-0.01118812
157	0x3d1cde68	0.03829804
158	0xbdb1bc5a	-0.08678503
159	0x396d5800	0.00022634864
160	0x3bf69de0	0.0075261444
161	0x3d515720	0.05110848
162	0x3cb7d090	0.022438318
163	0x3dcfd582	0.10148145
164	0x3dbc95e6	0.09208278
165	0xbd065da4	-0.032804146
166	0xbdaf4208	-0.08557516
167	0xbde5fffc	-0.11230466
168	0xbd8325ae	-0.06403671
169	0xbdb7c17e	-0.089724526
170	0x3d288b4c	0.04114847
171	0x3dcd46b4	0.10023251
172	0x3d619698	0.055075258
173	0xbdd6cd22	-0.10488345
174	0x3d9119aa	0.07084973
175	0xbcd98b50	-0.026555687
176	0x3dfff680	0.12498188
177	0xbda5abf6	-0.080894396
178	0xbd6eb8a0	-0.05828154
179	0x3b1c14c0	0.002381608
180	0x3d5c3d60	0.05376947
181	0x3bd2c080	0.006431639
182	0x3dbd503c	0.09243819
183	0x3d9e6004	0.07733157
184	0xbdcdfafe	-0.100576386
185	0x3d05b3d0	0.032642186
186	0xbddd84b0	-0.10816324
187	0xbd760b78	-0.06006953
188	0xbbbb8d40	-0.0057236254
189	0x3dda6d82	0.10665418
190	0xbc6737d0	-0.014112428
191	0x3d7fc8f0	0.06244749
192	0x3d33996c	0.043847486
193	0xbd5068ac	-0.050881073
194	0xbd99b680	-0.07505512
195	0xbd60ff20	-0.054930806
196	0x3cb9b0f8	0.022667393
197	0xbd16259c	-0.03665696
198	0x3d9046b4	0.070447356
199	0xbddba734	-0.10725251
200	0x3bdcf820	0.006743446
201	0x3db4eb42	0.08833934
202	0x3d4e05b4	0.050298408
203	0xbc0b1af0	-0.008490309
204	0xbc75a7a0	-0.014993578
205	0xbca12cd8	-0.019674703
206	0x3d83540e	0.064125165
207	0x3d341a58	0.043970436
208	0x3d2ade54	0.041715935
209	0x3d8feeae	0.070279464
210	0xbdab823c	-0.083744496
211	0xbd9cf208	-0.07663351
212	0x3d40b1c0	0.047044516
213	0xbc8e1e98	-0.017348573
214	0xbd08e6dc	-0.03342329
215	0xbd17a7ec	-0.037025377
216	0x3d0f7634	0.035024837
217	0xbc3936a0	-0.0113045275
218	0xbd66912c	-0.05629079
219	0xbc951d38	-0.01820241
220	0xbc3ff0f0	-0.011715159
221	0x3dce4516	0.10071771
222	0xbdfea358	-0.12433499
223	0xbdaf47f0	-0.08558643
224	0x3cb339d8	0.021878168
225	0x3d280f7c	0.041030392
226	0xbde0571c	-0.10954115
227	0x3bf30600	0.0074164867
228	0xbddd141e	-0.10794853
229	0x3d84af1e	0.064787135
230	0xbd1b84c0	-0.037968397
231	0xbde15742	-0.11002971
232	0x3d884b56	0.06654994
233	0xbdce2f4e	-0.100676164
234	0x3c813a78	0.01577495
235	0xbdb1a020	-0.086731195
236	0x3d32d8f0	0.04366392
237	0xbb8107c0	-0.0039376915
238	0xbdec1d9a	-0.115290835
239	0x3de3abda	0.111167625
240	0xbdc39a20	-0.095508814
241	0x3d5d5708	0.054038078
242	0x3cdf7270	0.027276248
243	0x3d9a2556	0.075266525
244	0x3df7e93a	0.12105031
245	0xbda11a56	-0.07866351
246	0xbdf80c0c	-0.12111673
247	0x3dd64f2e	0.10464321
248	0x3d36393c	0.044488177
249	0x3dc7de7c	0.097592324
250	0xbdde0770	-0.10841262
251	0x3d054570	0.032536924
252	0xbdeb3974	-0.11485568
253	0xbb97ca20	-0.0046322495
254	0x3d2b6f84	0.041854396
255	0xbd881558	-0.06644696

fc3.bias f4 [6]
0	0x3de9fe58	0.11425465
1	0xbce616c0	-0.02808702
2	0x3d308190	0.04309231
3	0x3c771db0	0.015082762
4	0x3d86d7ee	0.06584154
5	0xbd376810	-0.044776976
