code/conjugate_gradient/models/MLP_pruned_activation.pt (torch, 62420 bytes, 6 tensors)

fc1.bias f4 [128]
000000 8f 9c 6b bc f6 27 76 bd 2e 3e 39 be a7 9e 8c bd
       -0.014380588 -0.060096703 -0.18090126 -0.06866198
000010 84 4d 3f be cb 8b c8 3d 19 5f 89 bd 05 88 3c 3d
       -0.18681914 0.097922884 -0.067075916 0.046028156
000020 1a 96 3c bc c9 d7 51 3e bb 0f 2f 3e a8 00 67 be
       -0.011510396 0.20492472 0.17095844 -0.22558844
000030 9c 3d 18 be 85 8c a3 bd 47 e1 bc 3d b3 9a 87 bc
       -0.14867252 -0.07985786 0.09222656 -0.016553259
000040 fb a8 ae bc 42 b4 bb bd 9c da 9f 3e 9b 3a 70 3d
       -0.02132081 -0.09165241 0.31221473 0.05864964
000050 e1 14 9e bd 97 c1 a1 bd aa c9 e6 bd 72 2b a1 3d
       -0.07718826 -0.078982525 -0.11268933 0.07869615
000060 82 4d 6d 3d 9e 45 c6 3d 55 1c 7b bd 90 4b d2 bc
       0.057935245 0.09681247 -0.061306316 -0.025670797
000070 dd 24 58 bd 03 45 25 bc ee d6 90 bd dc 0f d0 bd
       -0.05276953 -0.010087254 -0.070722446 -0.10159275
000080 7e ef df bd 0c f2 15 be 3a 07 60 be 87 d7 b8 ba
       -0.109343514 -0.14643115 -0.21877757 -0.0014102318
000090 1b 43 f0 bd 78 48 eb bc b8 62 4c 3e 12 39 1c be
       -0.11731549 -0.02872108 0.19959533 -0.15256146
0000a0 3c 9e 80 3c 6f 5f 48 3e de a0 04 be 7c 24 0a be
       0.015700452 0.19567655 -0.12951991 -0.1349048
0000b0 44 b9 1a be 69 51 6a 3d de 92 07 be bb 13 62 3d
       -0.15109736 0.057206545 -0.13239619 0.055194598
0000c0 0a d9 f7 3a eb 17 df 3d f6 be 94 bd bd 78 59 3d
       0.0018909287 0.10893234 -0.072629854 0.05309366
0000d0 d0 34 31 be 33 53 9b bd b7 34 2f 3d 90 77 67 bb
       -0.17305303 -0.07584228 0.042774882 -0.0035319068
0000e0 eb fb ea bc 5c 6d 5c 3e 81 6d 2b 3d 2a fa ee bd
       -0.028684577 0.21526092 0.041852478 -0.11668809
0000f0 1c d3 9c bb ac a0 8b 3d 2a b7 52 3c c8 d3 9b 3d
       -0.0047859084 0.06817755 0.0128610525 0.076087534
000100 1e 61 91 bc 89 dd 3c be e3 fb b8 bd 02 2b 46 bd
       -0.017746504 -0.18443884 -0.090324186 -0.04838086
000110 75 87 5e 3c 5f 6f 00 3e 6d 97 d9 3d fd 7c b6 bd
       0.0135821 0.12542485 0.10624585 -0.089105584
000120 ff 62 fc 3c 0c ba 08 be 42 8d 18 be e6 16 1b 3a
       0.030808924 -0.13352221 -0.14897636 0.0005916193
000130 46 90 56 bd 3d fd 5d be 03 af 4f bd 36 62 e2 3a
       -0.052383684 -0.21678634 -0.050704014 0.0017271701
000140 df 40 54 3d d8 d4 23 bd ec e2 32 3d 51 dd eb bd
       0.05181968 -0.039997905 0.04367344 -0.11516822
000150 f5 35 b9 bd 17 28 57 3d 2f c5 ec bd 43 13 8e bc
       -0.090434946 0.052528467 -0.11561047 -0.01734317
000160 32 f0 e8 bc 6a df c4 bd 7f ba be 3d 3a e9 db bd
       -0.028434847 -0.09612925 0.09312915 -0.10737844
000170 e0 a7 d8 bd b1 3d ab 3d 3b 24 d3 bc 8c 1c 52 bd
       -0.105788946 0.08361376 -0.025774112 -0.051296756
000180 f3 15 7e bd 8a 3d 68 3c 74 fb d9 bd 9c 9f 62 3d
       -0.06203265 0.014174828 -0.10643664 0.055327997
000190 ab 5a 23 be c9 86 cb bd 0a e9 18 be c3 d0 33 bd
       -0.15952556 -0.099378176 -0.14932647 -0.043900263
0001a0 4d 0d 15 3d f1 d6 cd 3d 68 c2 ac bc cb c4 f4 3c
       0.036389638 0.100507624 -0.021088794 0.029878994
0001b0 3f fe b8 3c d8 2e 87 bc ac 9e 1f 3e e2 e2 cd 3c
       0.022582171 -0.016501829 0.15587872 0.0251326
0001c0 47 34 bd 3c b7 bb 0a 3d 41 1b a6 bd 2e 03 99 bc
       0.023096217 0.033870425 -0.08110667 -0.018678274
0001d0 43 bc 94 3e 47 6e b4 bc f0 6f d9 3c b0 ee f4 bc
       0.29049882 -0.02202524 0.026542634 -0.029898971
0001e0 19 e0 f4 3d 77 e8 52 be ab 94 ee 3d c0 39 c7 3d
       0.11956806 -0.20596491 0.1164945 0.09727812
0001f0 bf 2e 0f 3d 92 a9 19 3e c7 b7 90 bd 95 98 46 be
       0.03495669 0.15006092 -0.07066303 -0.19394143

fc1.weight f4 [128, 48]
000000 b2 15 00 bd 28 32 da 3c ca 14 d0 3c 2e ae ac bd
       -0.03127069 0.026635244 0.025400538 -0.0843166
000010 cb 1c f5 3b ae d5 88 bd 4f ce 2b be 32 73 1b bb
       0.007480239 -0.06681381 -0.16777919 -0.0023719785
000020 ed 43 33 bd ae 90 28 be 15 b6 11 bd 09 05 72 bd
       -0.04376595 -0.16461441 -0.035574038 -0.059086833
000030 a0 fa db bd d3 17 1f bd 7a c2 be bd 1d 75 c1 3c
       -0.10741162 -0.03884108 -0.09314437 0.023615414
000040 9d 04 00 bd 7a 2b d4 bd 89 11 84 bd bc 94 29 3d
       -0.0312544 -0.10359855 -0.06448657 0.04140161
000050 03 7f 49 be 1b aa 01 bd 12 70 99 3d 03 e8 d9 bd
       -0.19677357 -0.031656366 0.07492079 -0.10639956
000060 60 8a 15 be c0 7a 30 bc 2b f4 ab bd 0d 81 88 bd
       -0.14603567 -0.010771453 -0.08396181 -0.066652395
000070 2e a4 4e bc e1 92 b3 bb 5b cc 89 bd a4 49 2d bd
       -0.012612386 -0.005480156 -0.06728431 -0.042306557
000080 03 be f7 bc ef df e0 bd f1 74 3f 3d 8d cb 21 3d
       -0.030241972 -0.10980212 0.046742383 0.03950076
000090 a7 a8 f3 bd 0a 4c 1c 3c bb ad a0 3c d5 16 b7 bd
       -0.11897402 0.0095396135 0.019614091 -0.08939902
0000a0 75 54 93 3d da d4 9b 3d 8e 76 12 bd ee 7f 04 bd
       0.07193843 0.076089576 -0.035757594 -0.032348566
0000b0 8e 60 85 bc f3 79 99 bd 6b a8 74 bd 72 9f 68 3c
       -0.016281392 -0.07493963 -0.05973093 0.014198171
0000c0 00 00 00 00 00 00 00 80 00 00 00 80 00 00 00 80
       0.0 -0.0 -0.0 -0.0
0000d0 00 00 00 00 00 00 00 00 00 00 00 00 00 00 00 80
       0.0 0.0 0.0 -0.0
0000e0 00 00 00 80 00 00 00 80 00 00 00 80 00 00 00 00
       -0.0 -0.0 -0.0 0.0
0000f0 00 00 00 00 00 00 00 80 00 00 00 00 00 00 00 00
       0.0 -0.0 0.0 0.0
000100 00 00 00 80 00 00 00 80 00 00 00 80 00 00 00 80
       -0.0 -0.0 -0.0 -0.0
000110 00 00 00 80 00 00 00 00 00 00 00 80 00 00 00 00
       -0.0 0.0 -0.0 0.0
000120 00 00 00 00 00 00 00 00 00 00 00 00 00 00 00 00
       0.0 0.0 0.0 0.0
000130 00 00 00 00 00 00 00 00 00 00 00 80 00 00 00 80
       0.0 0.0 -0.0 -0.0
000140 00 00 00 00 00 00 00 00 00 00 00 00 00 00 00 00
       0.0 0.0 0.0 0.0
000150 00 00 00 00 00 00 00 00 00 00 00 00 00 00 00 80
       0.0 0.0 0.0 -0.0
000160 00 00 00 00 00 00 00 00 00 00 00 80 00 00 00 00
       0.0 0.0 -0.0 0.0
000170 00 00 00 00 00 00 00 80 00 00 00 80 00 00 00 80
       0.0 -0.0 -0.0 -0.0
000180 9f ab de bc 3e fa 81 3e 69 76 83 3d e2 bf 53 bd
       -0.027181445 0.25386232 0.06419069 -0.051696666
000190 94 71 d1 3d 80 19 0d 3d 3f 30 b8 bc 06 74 e0 3d
       0.102267414 0.034448147 -0.022483943 0.1095963
0001a0 8b 3e 8c 3d c9 c3 d3 3d ba 41 0e 3e da 13 b5 ba
       0.068478666 0.103400774 0.1389226 -0.001381512
0001b0 63 77 a6 3d 17 1f 9d bc 6e db 5c 3e dd 37 28 3d
       0.0812824 -0.019179864 0.21568081 0.0410689
0001c0 e1 22 4c be d7 db ec bd 39 45 29 bd 5e 13 f3 3c
       -0.1993518 -0.115653686 -0.04132578 0.029672321
0001d0 84 38 fb 3b 77 b4 62 be 6e f3 3b 3e 57 99 3e 3e
       0.0076666493 -0.22139154 0.1835458 0.18613182
0001e0 72 e7 03 3d 46 c7 36 3d 46 5c 6c 3d 50 90 c7 bd
       0.032203145 0.044623636 0.057705186 -0.09744322
0001f0 2a 7d 28 3d db 10 ec bb 7a 52 35 3e 31 d9 80 3d
       0.04113499 -0.0072041578 0.17707244 0.06291426
000200 57 06 27 3e ab 41 f6 3d b1 21 dc bd b4 34 8c 3c
       0.16311012 0.12024244 -0.107486136 0.017114975
000210 c5 56 8f bd d5 00 64 be 6b 09 9b bd 38 e9 2b be
       -0.06998972 -0.22265942 -0.07570156 -0.16788185
000220 49 53 bd bd 6b 32 80 bd 91 e6 aa bc 40 f8 b9 bd
       -0.09244401 -0.062596165 -0.020861896 -0.09080553
000230 81 dd 27 3d c1 ba 2a be a7 f5 38 3e f9 fa 06 3e
       0.040982727 -0.16672803 0.18062459 0.13181676
000240 03 61 83 bd 22 6e 1c bd f6 a3 2f 3d 90 7b fe bd
       -0.06414988 -0.03819097 0.042880975 -0.124259114
000250 3d c8 6c 3d 20 ee 08 3b c8 41 ae 3d e7 7e e1 3d
       0.05780815 0.0020893887 0.085086405 0.11010533
000260 9d a6 a5 bd 69 8c 49 be 3a 82 7e bd b2 0a 9d bd
       -0.080884196 -0.19682468 -0.062135912 -0.076680556
000270 fd 11 82 bb d0 64 36 be fd 3f cb bd 2c 24 50 be
       -0.0039694295 -0.17811894 -0.09924314 -0.20326298
000280 6e 63 83 bd 14 3d 22 3d 9d c1 8c be 27 a6 2b be
       -0.06415449 0.03960903 -0.27491465 -0.16762601
000290 69 34 49 3d 7c 3e 80 be 59 d1 a8 3c b2 2a 03 bc
       0.049122248 -0.25047672 0.020607637 -0.008005785
0002a0 f1 ca 82 be 25 4b a9 bd 5c dd 20 bd f3 c2 4c be
       -0.25545457 -0.08266286 -0.039273605 -0.19996242
0002b0 27 d4 ea 3d 2b 2c 2f bd 58 e9 e6 bd 03 cf 25 be
       0.11466246 -0.04276673 -0.112749755 -0.1619225
0002c0 cb e9 c7 bd 09 8c 4a be 0c 1d 9d bd eb dc b6 3d
       -0.09761389 -0.19779982 -0.07671556 0.089288555
0002d0 9a 83 3b be 81 01 04 be ae 92 5b 3d c0 e5 24 be
       -0.18311921 -0.12891199 0.05360668 -0.16103268
0002e0 aa 0c a6 bb d2 49 07 bc 1e ac 33 be 6a df d1 bd
       -0.0050674276 -0.008257346 -0.17546126 -0.10247691
0002f0 d2 85 4a 3c c6 78 39 be 73 8f 8f bd 30 30 4e 3c
       0.012361007 -0.18112478 -0.07009783 0.012584731
000300 ef f2 f2 3d c1 a1 87 bd 89 55 8a 3d 11 56 19 bc
       0.11862742 -0.06622649 0.06754596 -0.009358899
000310 75 b8 70 ba 20 fa 08 be d8 c9 7a be 6e ac d1 bd
       -0.00091827597 -0.13376665 -0.2449106 -0.102379665
000320 45 d2 e8 bc 59 4c 26 3e 1c 44 9d 3c 82 67 6a 3c
       -0.028420577 0.16240062 0.019197516 0.014306905
000330 36 40 30 be e4 e8 49 3e df 19 ee 3d 8c b4 a6 3d
       -0.17211995 0.19717747 0.11626028 0.08139905
000340 e1 1c 2e 3c d9 04 2c 3e 3e c4 20 3b 4b ce e7 3b
       0.010627002 0.16798724 0.0024531032 0.0070741526
000350 f3 21 d8 bd 27 0e b7 bd 8d 45 4a bd 6e d9 b5 bd
       -0.1055335 -0.08938246 -0.049382735 -0.08879362
000360 8b 9e 6a bb de 20 b8 bb 28 11 81 3d f2 99 06 3e
       -0.0035800065 -0.0056191524 0.063021004 0.13144663
000370 b5 f7 56 3d 58 8c 9d bd 81 67 66 bb ec ab f8 3d
       0.052482326 -0.07692784 -0.0035156908 0.121421665
000380 6a a9 73 be ae b0 a3 bd c7 83 ca bc 25 0c 80 be
       -0.23795095 -0.07992683 -0.02472104 -0.25009266
000390 06 b0 37 bd 1d 53 21 be 85 26 0d be 9a 89 12 bc
       -0.044845603 -0.15754361 -0.13784225 -0.00894394
0003a0 5f c6 a7 bd ec 38 91 bd f0 16 69 bd 96 e1 09 3e
       -0.08192133 -0.07090935 -0.05690664 0.1346496
0003b0 92 79 de 3d e8 fe 84 3e 95 ab 0f bd c0 c5 10 3e
       0.108630314 0.25975728 -0.035075743 0.14137936
0003c0 66 2a 1e be c2 2f 20 bd f4 64 59 3e 6c f6 0e bd
       -0.15445861 -0.039108045 0.21229917 -0.034902975
0003d0 93 58 ce bc 55 7c 01 bd 1b de 5d bd 59 7b 8b 3c
       -0.02518872 -0.031612713 -0.054166894 0.01702659
0003e0 0f 84 db bc ca af 36 bd a5 31 01 3e c6 8b 50 ba
       -0.026796369 -0.04460124 0.12616594 -0.0007955398
0003f0 4e 1d 86 bc eb bb aa 3d f9 0b 5f bd de cd 59 bd
       -0.016371395 0.08336624 -0.054454777 -0.053174846

fc2.bias f4 [64]
000000 57 f8 4e be 33 f6 ee 3d 3c 40 70 3d 8e 2f 98 3d
       -0.20211922 0.116680525 0.05865501 0.07430945
000010 4a cf fc 3d 20 b8 8b bd c8 ad 19 be ab dc 63 3d
       0.12344225 -0.068222284 -0.15007699 0.055630367
000020 90 10 b4 3c 67 a0 84 3d 51 52 63 3c f5 b5 29 be
       0.021980554 0.06475907 0.013874606 -0.16573317
000030 56 ce 59 3d b0 ce b7 bd dd ef 1f be 52 bb 82 bb
       0.053175293 -0.089749694 -0.15618844 -0.0039896155
000040 5b f6 2e 3e 7c 8e 6c 3d 32 61 04 bd 82 23 ed bc
       0.17086165 0.05775307 -0.032319255 -0.028947596
000050 80 4c c0 bc 77 86 62 3e 3a 51 29 bd 42 bd 5e bd
       -0.023473978 0.22121607 -0.04133723 -0.05437971
000060 7a bb 81 bd c6 d0 9d bd fc e6 27 be 15 c6 88 3d
       -0.063345864 -0.07705836 -0.16396707 0.06678406
000070 d8 e6 0a bc 66 11 52 bd 53 a6 46 bd 9b 24 5f bd
       -0.008477889 -0.051286124 -0.048498463 -0.05447827
000080 60 e6 b3 bd b3 df a5 3d e8 a1 69 3e cb 60 d4 bd
       -0.08784175 0.08099308 0.22815669 -0.10370024
000090 18 67 92 3d 6f d3 d1 bd 10 4e 1e bc 5e ed 35 3e
       0.0714857 -0.10245406 -0.009662166 0.1776633
0000a0 42 b3 78 bd d8 2e a6 3d f1 59 51 be 04 c5 83 3d
       -0.06071783 0.081144035 -0.20444466 0.06434062
0000b0 88 7b ee 3d bf 18 78 be 00 e9 8a 3c 0b 20 75 be
       0.116446555 -0.2422819 0.016956806 -0.23938005
0000c0 aa 45 19 3d c7 19 28 bd 10 13 1e bc 04 b7 8f be
       0.037419952 -0.04104021 -0.0096481 -0.28069317
0000d0 a8 13 95 3e a9 a9 e4 bd 77 f1 f2 bd 11 f0 a9 3d
       0.2911656 -0.111651726 -0.11862462 0.08297742
0000e0 8f a3 20 3d de 3c d5 bd e7 91 c4 be a3 54 dd bd
       0.03921848 -0.10412 -0.38392565 -0.10807159
0000f0 b5 79 ba 3d 87 b7 02 3f da 7d 8d be 97 ea 99 bd
       0.09105245 0.5106129 -0.2763508 -0.075154476

fc2.weight f4 [64, 128]
000000 f8 7c 85 3d 00 00 00 80 ac 98 1e 3e 99 86 66 3d
       0.065179765 -0.0 0.15487927 0.056280706
000010 8b 1f 93 3d 1d fa 9c bd 00 36 19 3c f7 c0 13 bd
       0.07183751 -0.07664893 0.0093512535 -0.036072697
000020 91 09 b0 bc 43 77 a5 bd 5d 08 e7 3d d4 ee d6 3d
       -0.021488937 -0.08079388 0.11280892 0.104947716
000030 a4 1c 52 3d 21 09 f0 3c 0e ff c5 3c be 42 9f 3d
       0.051296845 0.029301228 0.024169471 0.07776402
000040 06 a5 29 3d c0 39 b6 3d 19 12 b5 3d 47 dd 9e 3d
       0.041417144 0.08897734 0.088413425 0.07757049
000050 00 00 00 80 00 00 00 80 ff ad 36 3d 38 6c 07 be
       -0.0 -0.0 0.04459953 -0.13224876
000060 59 7f ed bc 18 26 41 3e 1c 1b 46 3d ab fd 96 3d
       -0.028991388 0.18862188 0.048365697 0.07372602
000070 ed 32 0f 3b 25 f8 6d 3d a6 46 9c 3d 67 44 35 3d
       0.0021850422 0.058097977 0.076306626 0.044254687
000080 2f cf 7f 3c b2 9e d8 3d b0 59 4a 3c 6b 50 55 3d
       0.015613361 0.10577144 0.012350485 0.052078646
000090 49 8d 3a 3e 00 00 00 00 81 bd c4 bd e7 ef f2 3d
       0.18217959 0.0 -0.096064575 0.11862164
0000a0 62 3d 83 3d f3 68 c9 3c 04 ff 26 3d 5f 9e 96 3d
       0.06408192 0.024586176 0.040770546 0.07354426
0000b0 15 79 22 3d 50 0b c0 bc 3d 61 67 3d 21 00 0c 3d
       0.039666254 -0.023442894 0.056489218 0.03417981
0000c0 3c 94 d9 3d e7 5c 99 bb fc 7f c6 3d 4f 21 83 3d
       0.106239766 -0.0046802643 0.0969238 0.064028375
0000d0 82 1e 90 3c 16 7c 91 bb c4 71 f6 3d e3 68 a4 bd
       0.017592672 -0.004439841 0.12033418 -0.08027818
0000e0 79 eb e4 3d db c3 4c be b5 09 88 3c 2c 21 6c 3d
       0.11177725 -0.19996588 0.016606191 0.057648823
0000f0 fe 85 57 bc 9c fd 27 3d c2 89 05 3d 48 6e 4a bb
       -0.013154505 0.041013345 0.03260208 -0.0030888487
000100 c9 57 43 bd dd 7f 97 3c 75 ce 07 3e 00 00 00 80
       -0.04769114 0.018493587 0.13262351 -0.0
000110 c5 70 e5 bc 75 49 00 bc a2 4e 71 3c 4b 27 83 3d
       -0.028007874 -0.0078300135 0.01472822 0.06403979
000120 b4 e9 9d bc aa 19 a3 3d 83 c7 85 3d 8e 19 b8 3d
       -0.019276477 0.079638794 0.065321945 0.08989249
000130 00 00 00 00 4a 2c 13 3d a8 d0 64 3d 34 f1 cb 3d
       0.0 0.03593091 0.055863053 0.09958115
000140 25 67 7f 3c 84 04 98 3c 36 19 80 3d 53 50 14 3d
       0.015588556 0.01855684 0.062548086 0.036209416
000150 01 ef 1c 3e ee 00 8b 3d 9e 0b 88 3c ed 6e 54 3d
       0.15325548 0.06787287 0.016607102 0.0518636
000160 e9 05 43 3d 77 e9 c4 3d 40 23 b7 bc 00 00 00 80
       0.04761306 0.096148424 -0.022355676 -0.0
000170 85 04 f9 bc c2 9a db bd e3 53 b2 3d 00 00 00 00
       -0.030397663 -0.10722877 0.08707406 0.0
000180 21 ce c4 3d 90 d6 af 3c 00 00 00 00 d7 fe 66 bd
       0.096096285 0.021464616 0.0 -0.056395378
000190 bd 27 91 3d 66 36 db 3b 12 35 ce 3d b9 94 0b bd
       0.070876576 0.0066898344 0.10068716 -0.03407738
0001a0 9b 3b 81 bd 34 e0 0e 3d 00 00 00 00 7f 4c 7c bd
       -0.06310197 0.034881786 0.0 -0.06159639
0001b0 dd 59 f4 3c 00 00 00 00 a8 0c f3 bd c9 82 ce bc
       0.029828006 0.0 -0.11867648 -0.025208848
0001c0 e5 2e 96 bc dd 50 49 3d 7f 7e a1 3c 5b 7e 4a bb
       -0.018332908 0.049149383 0.019713638 -0.0030898068
0001d0 7d e9 de bd af f4 d8 3d 66 4b ea 3d b5 43 37 3d
       -0.10884378 0.10593545 0.11440162 0.044742305
0001e0 96 67 d3 3b d8 a2 63 3d 2c ec 3a bb ad 66 97 bb
       0.0064515574 0.05557522 -0.0028522117 -0.004620394
0001f0 d4 a4 b1 bb a4 86 4b 3d 84 e9 17 3e 1a a4 86 3d
       -0.0054212604 0.04968895 0.14835173 0.06574269
000200 33 18 cb 3b df e6 a1 bd d0 62 4a 3d 01 77 a2 3d
       0.006197953 -0.07905363 0.04941064 0.079328544
000210 bd 3d 37 bd 66 42 15 3e 7c 9c 42 3c 56 b4 ad 3d
       -0.044736613 0.1457611 0.011878129 0.08481662
000220 c9 af 22 3d 22 3c f1 3d 53 54 97 3d eb 1d 06 3e
       0.039718423 0.117790475 0.073891304 0.1309735
000230 4a c9 80 bd da a9 90 3d 2b 6b 86 bd 6f e9 ca ba
       -0.06288393 0.070636466 -0.065634094 -0.0015480946
000240 b3 78 53 bd 05 b4 8a bd 01 3c aa 3d de 35 c7 3d
       -0.05162878 -0.06772617 0.08312226 0.09727071
000250 24 42 c6 3c e0 ea de 3c 7a bf 17 bd 0d b9 df 3c
       0.02420146 0.027211607 -0.03704784 0.027309919
000260 08 1d 79 bd 47 d6 9c 3c 74 9c fd 3d 1b 28 58 3d
       -0.060818702 0.019145144 0.12383357 0.052772623
000270 29 47 de bc 13 f9 78 3b c9 90 e9 3b 81 b4 2f bd
       -0.027133541 0.0037990257 0.0071278554 -0.04289675
000280 cd cd d3 3b 4a f0 b3 3c 0b f0 cd bc 41 6f a5 3d
       0.0064637423 0.021965165 -0.025138875 0.080778606
000290 34 ea 24 bd f4 bf d7 3c 1a 1e 0c be a9 08 22 bd
       -0.040262416 0.026336648 -0.13683358 -0.03955904
0002a0 c4 63 e2 3c e5 fd 3b 3e a0 01 23 be 29 f1 8e 3d
       0.027635463 0.18358572 -0.15918589 0.069795914
0002b0 30 43 51 3d ef 12 a7 3d 83 97 83 bd 21 5e a3 bd
       0.051089466 0.08157908 -0.06425383 -0.07976938
0002c0 6a a3 f4 bc 8a c1 0c bd 7f 1c 32 bc b6 93 6a bd
       -0.029863078 -0.03436426 -0.010871052 -0.057269774
0002d0 7c 0b 11 bb c2 32 87 3d 44 80 3c bd ea 2c c0 bd
       -0.002213209 0.06601478 -0.04602076 -0.09383567
0002e0 e7 07 03 bd 18 7a 0d bb 3e e7 88 bc 7d 59 f9 3d
       -0.031989958 -0.0021587666 -0.016711827 0.12175272
0002f0 57 73 6d 3d 6e ec 1b bd af 55 05 bc ad 49 02 bd
       0.057971325 -0.038067274 -0.008138104 -0.031808544
000300 33 76 03 3b e7 3a 14 bd 0e d9 04 bd 8e 5e 3d 3d
       0.0020059466 -0.036188986 -0.032433562 0.046232753
000310 ce bc ca 3d 06 7e fc bc 21 f8 37 bd 89 c2 f8 bd
       0.09899293 -0.030821811 -0.04491437 -0.1214648
000320 0e 7b 98 3c 57 a0 af bd 7f af d3 bd b2 59 10 be
       0.018613365 -0.08575504 -0.103362076 -0.14096716
000330 e8 79 57 bd 07 4b 89 bd d9 48 67 3d f6 e0 03 bd
       -0.052606493 -0.067037635 0.056465957 -0.03219696
000340 ff 8a 5d 3d 4b d2 07 3d a1 e6 93 bd 55 45 96 3c
       0.054087635 0.033159535 -0.07221723 0.018343607
000350 12 e8 b6 3c 38 66 ba bd f0 dc 8f be 29 ba c0 bd
       0.022327457 -0.09101528 -0.2809825 -0.09410507
000360 7b fb 04 3e 75 6d 27 3c d7 7b 42 be 3a 85 58 3d
       0.12986557 0.010218968 -0.18992554 0.05286143
000370 96 92 93 3c d3 8a af bd da f6 47 bd 81 1d 4b bd
       0.018014234 -0.085714005 -0.0488194 -0.049588684
000380 b2 01 87 bd 0d 51 51 bb 6f 4e 52 bd a2 e7 a8 3d
       -0.0659212 -0.003193918 -0.05134433 0.082473055
000390 88 59 9d bd 4e b7 52 3c e7 4e c1 3d 7b 1f 13 bd
       -0.07683092 0.012861086 0.094388776 -0.035918694
0003a0 35 be 2d bd 02 80 d5 bd fa c7 05 3d df 47 71 bd
       -0.042417724 -0.10424806 0.032661416 -0.058906432
0003b0 f1 32 1f be 10 b1 02 bc ef 9e ed bc c9 95 63 3d
       -0.15546776 -0.007976785 -0.02900645 0.055562768
0003c0 df 4f e2 3b 4a 50 2c 3d 2a 86 df bc ee 47 3c 3d
       0.006906494 0.042068757 -0.027285654 0.045967035
0003d0 63 57 e2 bd d0 4f 71 3d 1a 0b 78 3d db 10 29 3e
       -0.11051824 0.058914006 0.060557462 0.16510336
0003e0 60 3d 67 bc ed cb b5 bd bb 84 91 3d 83 7f 4c 3d
       -0.014113754 -0.088767864 0.071053945 0.049926292
0003f0 1c b0 3e 3d 8b 98 04 3e 5c 06 97 3c 55 3c 8e bc
       0.04655467 0.12948816 0.01843565 -0.017362753

fc3.weight f4 [6, 64]
000000 68 86 31 be 99 fe 26 3e fa 09 81 3c 01 1b 02 3f
       -0.17336428 0.16308059 0.015751828 0.50822455
000010 77 48 d3 be 2d 0a b5 bd 26 30 1e 3d 0f d8 85 be
       -0.41266224 -0.088398315 0.038620137 -0.26141402
000020 fe 69 14 3e 22 b7 7a bd 8a 22 9f bc e7 0d 77 3e
       0.14493558 -0.061209805 -0.01942565 0.24126397
000030 cf 51 8e 3e 91 0a c9 3e 2d 26 b0 be 1d a8 14 3f
       0.2779679 0.39265874 -0.34404126 0.5806902
000040 a7 d1 24 3e 7c 4b f5 be 8c 04 21 bd 5d a3 b1 3e
       0.16095601 -0.47909153 -0.039310977 0.3469495
000050 db e3 80 3e da e1 45 bf 30 3b 37 bd eb 42 dc be
       0.2517384 -0.7729775 -0.04473418 -0.43019804
000060 21 67 3e bf ba 2e d1 3e 56 a0 63 bd 43 86 08 3f
       -0.7437611 0.40855962 -0.05557283 0.5332987
000070 72 c8 f4 3d a5 e4 90 3e c0 e0 28 bb 0e e8 96 bd
       0.119522944 0.28299442 -0.0025768727 -0.0736848
000080 c7 b1 d4 be 73 ec 2a 3f 86 0e 14 3e 9b bd 1c bf
       -0.41541883 0.6676704 0.14458665 -0.61226815
000090 5f f1 da bc 6b 45 eb 3d 60 91 da 3e f0 23 47 3e
       -0.026726423 0.1148785 0.42689037 0.19447303
0000a0 7a 2b f7 3e a1 5e 02 bf d7 fb 3c bf 31 2b 80 3e
       0.48275357 -0.5092564 -0.7382178 0.25032952
0000b0 17 b1 af be af 3e 04 bf 6a 6f b1 3c 03 a5 a9 3e
       -0.34314796 -0.5165815 0.021659572 0.33133706
0000c0 d3 43 de 3b ea f6 fe 3d b0 a9 9c bd 69 f7 06 3e
       0.0067829876 0.12449439 -0.07649553 0.13180317
0000d0 4b f0 93 3e 07 85 aa bc d8 87 6e 3e d8 57 2f 3e
       0.28894266 -0.020815386 0.23294008 0.17123353
0000e0 3d bb 03 be 53 4e 40 3e 6f 07 79 be d4 3b 04 bd
       -0.12864394 0.18779878 -0.24319242 -0.03228362
0000f0 5d 11 f7 be eb 6c d3 3e 78 fd 05 3c 30 48 04 3c
       -0.48255435 0.41294035 0.008178107 0.0080738515
000100 65 3c 8c 3e ea 5a 02 bf fe ff c8 be fc 98 e9 bc
       0.27389827 -0.50919974 -0.39257807 -0.028515331
000110 24 5b cf be 97 f7 99 bd 00 f0 52 3e 15 b0 e8 bd
       -0.40499222 -0.07517927 0.20599365 -0.1136171
000120 a3 5b 2d 3e 85 df 8d be 74 b7 d2 bd cd 68 e9 3e
       0.16929488 -0.27709594 -0.10288897 0.4558777
000130 a5 eb c3 3d 48 96 2d 3e 34 6e 18 3e b6 a2 20 3e
       0.0956643 0.16951859 0.14885789 0.1568707
000140 d3 49 93 be db c8 1c be b4 b0 6b bd da d7 f9 bd
       -0.2876726 -0.15310995 -0.057541564 -0.121993735
000150 e5 ee 36 be eb 22 9c be c6 ca ee 3d e4 f3 49 be
       -0.17864569 -0.3049539 0.1165977 -0.19721943
000160 78 67 33 3d b5 03 b6 3c 5e 2b e0 3e 16 ea 55 bd
       0.043799847 0.022218565 0.43783087 -0.052225195
000170 2c b6 f3 bd 08 5e e1 3d 90 78 14 3d 50 b2 3e 3d
       -0.11899981 0.11004263 0.03624779 0.04655677
000180 9d 10 0b be 4b a3 8a be c1 77 ab be a0 19 f4 3e
       -0.13580556 -0.27077708 -0.33489802 0.476758
000190 29 29 c8 3c a3 0d c1 3e 0d 42 a2 3e da f6 1a bf
       0.02443369 0.37705716 0.31691018 -0.60532916
0001a0 5d 5d b2 3e 10 7a 8e bd bf c7 be 3e 81 f6 7f be
       0.34836856 -0.06956875 0.3726177 -0.24996378
0001b0 fb c0 bd bd 4a f4 9e 3e 5d b7 a4 3e 53 d8 f5 3e
       -0.09265324 0.31045753 0.32171145 0.48016605
0001c0 3b 5f 84 3d 10 a2 77 bc 70 66 e8 3c a2 0d 01 3f
       0.06463476 -0.015114322 0.028369159 0.5041143
0001d0 67 60 11 bf 51 1f 43 3e 37 0b ae 3e d0 c3 09 be
       -0.56787723 0.19054915 0.3399293 -0.13453603
0001e0 88 7a 9a be ba 19 2c 3e 6e 4d fd 3e 8a 7a 9b 3e
       -0.3017161 0.16806689 0.49473137 0.30366927
0001f0 18 7d 01 be dd c4 4c bf bb 51 d0 3e c2 58 98 bd
       -0.12645376 -0.7998789 0.40687355 -0.07438804
000200 b8 ed 29 bc 78 33 7c bd 49 b2 9b 3d ec 07 36 3d
       -0.010371618 -0.061572522 0.076023646 0.04444115
000210 37 22 e6 3e 24 8c 19 bc c7 89 13 be e5 45 89 3d
       0.4494798 -0.009371791 -0.14408027 0.067027844
000220 43 5e 45 be 89 78 ae be c3 b8 68 bd 01 53 9a 3c
       -0.19274239 -0.34076336 -0.056816828 0.018838407
000230 61 fd 9f be ed fe 1f 3e e3 62 49 be a4 3b ff be
       -0.31248 0.1562459 -0.19666629 -0.4985019
000240 1d 85 00 3e 26 cb 7d bd 98 02 c6 bc 4a c1 4e 3e
       0.12550779 -0.061961316 -0.024171159 0.20190921
000250 13 df b5 3c f8 11 74 3e e0 1d 0a 3c 6d 5b 4a 3e
       0.022201097 0.2383498 0.008429974 0.19761439
000260 a8 90 f6 3d 55 e8 15 3f 1f 68 a2 3e fb bd c5 3e
       0.1203931 0.58557636 0.31720063 0.38621506
000270 ec 32 a5 3d 89 b8 8b ba 9a 2f f0 3d 0e 97 e6 3d
       0.08066353 -0.0010659854 0.11727829 0.1125928
000280 b3 5a b8 be 4d 90 cc 3d 71 86 5c bd f8 11 22 3e
       -0.36006698 0.09988461 -0.05383915 0.15827167
000290 bd 58 45 3c 63 0b 0b bd af 40 97 3d fd a0 1d 3d
       0.012045083 -0.033946406 0.07385384 0.03848361
0002a0 99 24 e0 bd fc 84 2d be f7 08 a1 3d 99 8a 96 3b
       -0.109444804 -0.16945261 0.07863038 0.004594159
0002b0 b4 6c a7 3d 0c 78 6f 3d 1b 0e 30 3e cb 9d 54 be
       0.0817503 0.058464095 0.17192881 -0.20763318
0002c0 f4 d3 50 3e 6c 7f 82 bd 00 33 4c 3d 08 7c d8 be
       0.20393354 -0.0637196 0.049853325 -0.42282128
0002d0 96 98 41 3e 9c 65 0f 3e a9 44 4d 3e f8 3b 07 be
       0.18905863 0.14003605 0.20045723 -0.1320647
0002e0 ae 45 4e 3d 0c 03 8a 3d db 51 73 be 4b cf 03 3f
       0.05035942 0.067388624 -0.23761694 0.5148818
0002f0 f2 34 a9 bd 51 d2 ec be 80 56 e6 be e8 07 87 bc
       -0.08262052 -0.4625421 -0.4498787 -0.016483262
000300 38 b0 ed be aa 60 96 3d db f0 49 3d 3b ea e1 3d
       -0.46423507 0.07342656 0.049301963 0.11031004
000310 d9 f5 4b be dc f2 08 3d e4 71 c3 be 01 af 5f be
       -0.19918002 0.033434734 -0.3817283 -0.21844102
000320 86 65 ef 3e e8 0e b3 bb 49 a5 a7 bd 46 ef 55 be
       0.46757144 -0.0054644234 -0.081858225 -0.20892057
000330 bc a6 20 be 69 1a 1e bf d2 f8 2e be a8 7d c0 be
       -0.15688604 -0.6175905 -0.17087105 -0.37595868
000340 ea 8b b2 3e 96 dc 1e be 0c 41 6e 3d e1 d5 d1 3c
       0.3487237 -0.15513834 0.058167502 0.02561468
000350 bf 20 2c bd c6 80 3c 3f f0 af cc 3d 56 ed 8d bd
       -0.042023417 0.7363399 0.09994495 -0.06930034
000360 59 26 fa bc 7a 49 64 bc 7a 7f 91 be cb eb 70 be
       -0.030535864 -0.013933534 -0.2841757 -0.23527448
000370 68 fa 3d bd 0f db f5 bd ce b2 d1 bd 0e 2c 95 3d
       -0.046381384 -0.12004673 -0.102391824 0.072837934
000380 c0 f9 00 be 4b d7 2f bd fc 6d ee be 5f b3 01 ba
       -0.12595272 -0.04292993 -0.46568286 -0.0004947688
000390 85 d6 f5 3c 5d 9c 9c bd 4a 85 40 3e 44 a5 9e 3e
       0.030009517 -0.076470114 0.18800846 0.30985463
0003a0 ef 4e 17 be 8e ae 0c 3d fe 99 b3 bd 48 f3 79 3e
       -0.14776205 0.034346156 -0.08769606 0.2440921
0003b0 a0 68 99 be ae 41 ef bd 08 f4 80 bd dd 3f c1 3d
       -0.29962635 -0.11682449 -0.06296545 0.09436009
0003c0 4b 4d 32 3d 5a 4e fb 3d c6 38 a5 3d cf f7 a5 be
       0.043530744 0.12270804 0.08067469 -0.32415625
0003d0 96 23 07 3e 63 49 d8 bd 42 37 ea be 06 01 d2 3d
       0.13197169 -0.105608724 -0.45745283 0.102541015
0003e0 d0 ce fa 3d 0a 8a 73 3d b2 d0 b6 be 3b ea 90 bd
       0.122464776 0.059457816 -0.35706097 -0.07075926
0003f0 f7 02 04 bd b7 46 06 3f 85 95 52 be e2 54 b7 3d
       -0.03222939 0.5245165 -0.2056485 0.08951737

fc3.bias f4 [6]
000000 8b 36 cc 3e 4e 12 51 bf 41 70 22 3e 84 90 91 bc
       0.39885363 -0.81668556 0.15863134 -0.017769106
000010 09 e0 8b 3e ac ac 4b 3e
       0.27319363 0.19890088
