code/conjugate_gradient/models/MLP_QAT_v2.pt (torch, 62310 bytes, 6 tensors)

fc1.weight f4 [128, 48]
00000000: 3f05 7dbd 9f4f 86bd 8c60 0a3e d6aa 2dbe
00000010: 384b 233d 15dd 1a3d 9121 ae3b b9b2 a53c
00000020: 6df7 963d 500d 03be 41d2 03bc 70a9 fcbd
00000030: aa4b 14be ef34 cdbc 5850 3fbe 64b8 fe3c
00000040: 4b7a 15be 4143 c4be 7deb 373e 5202 a53e
00000050: 02cb e33d 4352 e8bd 17aa 853d 7438 ae3e
00000060: 6522 203e deb2 d9bd d844 0f3e ccac 5a3d
00000070: 8cef 1e3d 02a4 ccbd 4b6f 9abd 47c2 473a
00000080: 02d8 1ebe 214e 673e 9d20 eb3c c764 47be
00000090: 3bca 3dbd 1d64 27bd 67c6 933d a534 d33d
000000a0: d5d7 cebd c1be d53d 4498 40bc 89f4 01be
000000b0: 0589 d03d 4dd4 d13c 4a11 0b3d 1255 8abd
000000c0: 8c05 3f3d d556 c7bd e282 803d a5bb f13d
000000d0: 8341 90bd 7937 a73d 5bf7 53bc 5904 0aba
000000e0: c2e4 a9bd 3b0b 473d fb8e e7bd 995f 9cbe
000000f0: dc8d 7cbd 101d 6ebd fc19 abbd 133d 5cbd
00000100: cf61 23be 2bbf 12be 2acb 74bc ebc5 21bd
00000110: 5935 45be b9fd 47be 0718 aa3d b834 03be
00000120: 5b15 a1bd 2dc5 0f3e 96cb 61be 2b9c 23be
00000130: f6cb 6bbe 83a1 363d 6a07 93bd 9382 51bd
00000140: 4283 a7bd be63 c9bc 4227 b5be 8cdc c43c
00000150: fcdf 21bd 8fb2 b9bd 3521 c53c 31d6 6a3d
00000160: b1a2 30be 5dbb 08be 6091 a43d f683 0ebe
00000170: 3c65 45be 8a9c 2dbd 33d1 05be 12db 82be
00000180: 73a7 20be 77a8 b73d 374e 56bd ad0e e8bd
00000190: bc4b 993d 0d83 5d3e 22b7 0d3e 6888 093e
000001a0: d903 093e 34f3 ac3c 481f 21be 8d7c 01be
000001b0: 2f06 25bd 09a5 bcbd 122e a4bd 6cd6 febc
000001c0: 821d 613d dc12 803c 5a82 023e 42cf 40bc
000001d0: 3f08 303a 198a 3e3e bf50 083e 7f62 923d
000001e0: ca82 043d 9274 6cbd c3fb 33be 77f4 49be
000001f0: 15ef 49be aef6 88bd 0e3f aebd c08f c03d
00000200: 64e0 673d 2d5d c03d d969 053c a5d5 533d
00000210: 92a6 753e 8fa2 6a3d 984d 7abd 9946 843d
00000220: 8e46 a2be 0e2f 53be cfe1 0e3d 2a7c 483d
00000230: ecf1 17be 7262 7cbe 39cd 4f3e 0c44 c1bd
00000240: fdbb a93d 0852 303d 7494 beba ad84 db3d
00000250: bf77 a83d 06c9 ea3c 8468 a23d 8fb4 983d
00000260: 4647 2b3d 7abe b83d 608f c03d 18af cb3c
00000270: 1bc3 98bc 15ff 69bd 194d b53d 78ff 7fbd
00000280: dfcf 79bd c339 013e 8480 debd 4d5e 8a3e
00000290: fccc a4bc e377 453e 1fd7 623d cdaf 08be
000002a0: 86ca ddbc f5d4 983e 240c 4fbe 1d3a 45bd
000002b0: 417c d13d cc8d 77be b8bd 89be c711 b3be
000002c0: 2fb7 11be 9009 76be 1307 373e b3fe afbb
000002d0: 7afe 833d 398f 5b3d c057 283e d702 7e3e
000002e0: b83f 35be 20be 083e ea9a 9fbc 4ee1 3abe
000002f0: 648a e8bd 213b 5bbd 7f10 debd a9f6 bfbb
00000300: a151 2a3e bc0f 4b3c 2049 ec3d 02e7 1cbd
00000310: 55c6 47bd a12b cebc 0414 303d 0e58 33bb
00000320: 49ba 933d 6334 033d 7add 943c 9392 9a3d
00000330: 1e2b a4bd 6577 0cbe fb22 30be 9364 8fbe
00000340: d5dc 183e 96b2 2f3e 32a2 4ebe 6676 773e
00000350: 920e 9a3e 00ac 00be a33e 013d 880e 8a3e
00000360: 16fd e23c 7c30 ddbd a8f9 823e de77 113e
00000370: 72cd 0ebe b9d1 223e b883 803d 2704 08be
00000380: c62a 6b3e edea d73d e9d6 ecbc 065d f23d
00000390: 0aed 813e fcfc 113e ea07 23be 082b c23d
000003a0: 4fc3 28bd dac7 51be 80cf 1a3e f739 61bd
000003b0: 76e6 24be fcf3 053e 927f 41bd 6156 55be
000003c0: 7e81 78be 09d9 70be 9905 cd3d cbd6 9cbc
000003d0: 3dc5 b23d 1dc5 223e 9a60 fcbb c8b1 9c3d
000003e0: 2976 acbd e39d 50be b07f 2abe 84e1 42bd
000003f0: 8fd4 74be 57b1 4cbc 8686 3cbe 9626 a43d
-0.06177258 -0.06558155 0.13513392 -0.169597 0.039866656 0.037808497 0.00531406 0.020226823
0.073714115 -0.12798047 -0.008045734 -0.12337005 -0.14481989 -0.025049655 -0.18682992 0.031093784
-0.14597432 -0.3833256 0.17960925 0.32228333 0.11122705 -0.11343815 0.06526583 0.34027445
0.1563812 -0.10629819 0.13991106 0.05338745 0.03880267 -0.099922195 -0.07540759 0.0007620197
-0.15512088 0.22588398 0.028702075 -0.19472037 -0.04633544 -0.04086696 0.072155766 0.103127755
-0.100997604 0.10436774 -0.011755053 -0.12690939 0.101823844 0.025613928 0.033952035 -0.06754507
0.04663615 -0.09733359 0.06274964 0.118033685 -0.07043745 0.081648774 -0.012937392 -0.000526493
-0.08295585 0.048594695 -0.11306568 -0.30541685 -0.061658725 -0.058133185 -0.083545655 -0.053769182
-0.1595528 -0.14330737 -0.014941016 -0.03949539 -0.19258632 -0.19530381 0.08305364 -0.1281308
-0.07865401 0.1404006 -0.22050318 -0.15977542 -0.23027024 0.044587623 -0.071791485 -0.051149916
-0.08179332 -0.024583694 -0.35381514 0.024030946 -0.03952025 -0.090672605 0.024063686 0.057333175
-0.17249562 -0.13352723 0.080355406 -0.13917527 -0.19276899 -0.042385615 -0.13068084 -0.25557762
-0.15688877 0.08967679 -0.052320685 -0.11330924 0.07485148 0.21632023 0.13839391 0.13430941
0.13380374 0.021112062 -0.15734589 -0.12645169 -0.0402891 -0.092111655 -0.080166 -0.031108104
0.05495978 0.015633993 0.12745038 -0.011768164 0.0006715096 0.18607368 0.13312052 0.07147693
0.032351293 -0.057728358 -0.17576508 -0.19722162 -0.19720109 -0.066876754 -0.085081205 0.09402418
0.05661048 0.09392772 0.008142912 0.05171742 0.23989323 0.057283934 -0.061109155 0.06458778
-0.31694454 -0.20623419 0.034883317 0.048946537 -0.1483838 -0.24646929 0.2029313 -0.09436807
0.08287809 0.04304698 -0.0014540092 0.10718665 0.08225965 0.028660309 0.07930091 0.07456314
0.04181602 0.090207055 0.094023466 0.024863765 -0.018647721 -0.05712803 0.08852596 -0.062499493
-0.060989257 0.1261969 -0.10864356 0.2702507 -0.020117275 0.19284014 0.055380937 -0.13348313
-0.02707411 0.29849973 -0.20219475 -0.048151124 0.10228778 -0.24175185 -0.26902556 -0.349745
-0.14230035 -0.24027085 0.17873792 -0.0053709387 0.06445022 0.053603385 0.16439724 0.24805771
-0.17700088 0.13353777 -0.019483048 -0.1825001 -0.11354521 -0.053523187 -0.1084299 -0.0058582616
0.16632701 0.012393888 0.11537385 -0.038306244 -0.04877313 -0.025167288 0.04298784 -0.0027365717
0.072132654 0.03203238 0.018172015 0.07547488 -0.080160365 -0.1371742 -0.17200844 -0.2800642
0.1492799 0.17157969 -0.2017906 0.24166259 0.3008924 -0.12565613 0.031553876 0.2696421
0.027708571 -0.10800263 0.25581098 0.14205882 -0.13945559 0.15900315 0.06275123 -0.13282834
0.22965536 0.105428554 -0.02891107 0.11834149 0.2537616 0.14256662 -0.15920988 0.09480864
-0.041201886 -0.20486394 0.15118217 -0.05498692 -0.16103539 0.13081354 -0.0472408 -0.20833732
-0.24268147 -0.23520292 0.10010833 -0.01914539 0.087290265 0.15895505 -0.0077019455 0.076510966
-0.08420975 -0.20372729 -0.16650271 -0.04757835 -0.2390921 -0.012493453 -0.18410692 0.08015172

fc1.bias f4 [128]
00000000: cb8f 76bd 8dc3 f7bc 8f0f 8a3d 20ee 49be
00000010: d55f ab3d 1826 23be c434 bc3c 7a3e e6bc
00000020: 6860 59be 139d 503e ccc9 efbc eca1 2fbd
00000030: a631 edbd b597 b3bd 73d9 dc3b f8e1 02bd
00000040: 7c3c 2fbe 78d0 d3bc 8b89 f43b f210 21be
00000050: 4fb5 503d d9bf 17be 538f 85bd 7fb4 44bc
00000060: bddc a9bd 6ebc e0bc 2282 70bd 54ac 9bbd
00000070: 4689 a03d 8217 61be 9804 bdbd aecf ac3d
00000080: 2a3d c53e 8f7a 813d 5def 573d 8508 363e
00000090: 1108 5abe f5bb 813d 786d 6cbc 801a 2bbd
000000a0: 4eeb 18bd 339d ce3b b0a5 043e b158 b6bc
000000b0: 919e cd3d 7f74 8fbd 5d1e 00be 4d8a cf3d
000000c0: fb4c 8cbd 5bb2 873d f436 08be 7b07 4ebd
000000d0: b594 493d 264d a4bc fbbf 103d 54bd 4fbe
000000e0: 3fe4 70bc aaf6 f53c 6e8f f43d fde8 543c
000000f0: 3ac9 86be 241e d83d df50 543d 7e39 1fbe
00000100: 7118 083e 81f5 7fbe 304b a3bd 2a67 b03c
00000110: eb50 30be ac13 f33c a154 ed3c 88ad 9dbd
00000120: d6df 22be 6984 5a3c 85e3 5cbd f75c 7c3e
00000130: 449d b1bd 1456 95bd 2054 56be 6785 9abc
00000140: 5ac4 e5bd 5462 f9bd 8b27 57bd f49f 9e3b
00000150: 7d7c d53e e4fe 32bb 12c4 0b3c f989 e93c
00000160: 2c1f 7abe 82b0 bcbd 5cf3 98be c243 68bc
00000170: 334f 533c 9a3c b73d 28fc c1bd a250 a83e
00000180: cdcf 82bd 26c7 f0bd 6cd6 29bd b12c 053c
00000190: 9b6f 1bbd 648d e23d df44 babd b319 fa3d
000001a0: ced2 6cbe 680d 34be 3be9 b5bd dd03 153e
000001b0: 38c6 42be cb3a 6f3d d14a b53d c592 9cbd
000001c0: 408f 73be 608e 6fbd 5b20 a53d 1c63 70be
000001d0: 08cf 9bba 3a3b 013e 6a46 4c3e c501 fbbd
000001e0: 19fc 72bd 78dc c33d eede 873d c2e9 d53b
000001f0: f33c 6f3e 8a62 243d af8e 75be 60ff 6bbd
-0.060195725 -0.030244613 0.06741249 -0.19719744 0.08367888 -0.159325 0.02297438 -0.028105963
-0.21228182 0.20372419 -0.029271029 -0.04287903 -0.11581735 -0.0876917 0.006739789 -0.03195378
-0.17112917 -0.025856242 0.0074626855 -0.1572912 0.05095416 -0.14819278 -0.065214776 -0.012005924
-0.082940556 -0.0274336 -0.058717854 -0.07601228 0.07838683 -0.21981624 -0.09229392 0.08438049
0.38523227 0.06322204 0.05271851 0.17776687 -0.2129214 0.06334678 -0.014430396 -0.04177332
-0.03733378 0.0063053607 0.1295383 -0.022259088 0.1004001 -0.07004642 -0.12511583 0.10133801
-0.0685062 0.066258155 -0.13302213 -0.050300103 0.049214084 -0.020056318 0.035339337 -0.20287067
-0.014702856 0.030024845 0.119414195 0.012995002 -0.263254 0.10552624 0.051834937 -0.15549275
0.13290574 -0.24995996 -0.07973325 0.021533567 -0.17218368 0.029672466 0.028971018 -0.07699114
-0.15905699 0.013337233 -0.053927917 0.24644838 -0.08672574 -0.07291809 -0.20930529 -0.01886244
-0.11219092 -0.12176958 -0.052527945 0.0048408452 0.4169654 -0.0027312571 0.0085306335 0.028508173
-0.24425954 -0.09213354 -0.29873168 -0.014176311 0.0128973005 0.08947106 -0.09471923 0.32874018
-0.06387291 -0.117567345 -0.041464254 0.008128331 -0.037948232 0.11062124 -0.09095167 0.12211933
-0.2312729 -0.17583239 -0.08882376 0.14552255 -0.19020927 0.05840568 0.08852161 -0.076451816
-0.23785114 -0.05848539 0.08062812 -0.23475307 -0.0011887262 0.1262025 0.19948736 -0.12256197
-0.05932245 0.095635355 0.06634317 0.0065281102 0.23363094 0.040133037 -0.2398021 -0.05761659

fc2.weight f4 [64, 128]
00000000: 21a5 013d c12e c0bd e211 0d3e e2ee b8bd
00000010: 5dc7 0d3e aca6 5b3d d35c e1bd 5d68 47bd
00000020: c4a1 e63d 3f3b f63a ed8d 30bd af1f 3e3d
00000030: 009b 47bd 6395 7abd e98f a8bd 62bb 24bc
00000040: a2f2 1a3e 25ba 043d 0e8e 10be e968 253d
00000050: fcf8 063c 92eb cc3c ac04 fbbd 02de 85bd
00000060: d9cf 96bd 6009 78bb 028e 103e e889 563d
00000070: ea6e 8fbe 3802 2ebd 7309 523d c358 a23c
00000080: 8fb2 3ebc b955 5f3d b985 1fbe 6106 173d
00000090: 3eaf 253c d28e 2b3e 7399 9cbd ae30 6b3e
000000a0: f426 eabc e35c 87bc a7fe 563d 0c2b e33d
000000b0: 09ff cc3c 8ef6 8a3d 60c1 9a3e 5aee 9b39
000000c0: 12f3 833d 63ce db3c d394 48be 17b0 af3d
000000d0: 9cf3 2d3d 74bf 8e3d ee1d 333d f58b 403d
000000e0: eb26 3cbe 3999 c1bd f39e be3d b196 e73c
000000f0: 930f fa3d 17a4 8d3d f63b 973d 1b45 693e
00000100: fe3d 73bd 5aa9 b63d 98ed 28be fc2a 1d3d
00000110: ea41 473e 8231 61be 16a0 0fbd 8e57 0f3e
00000120: da1f 89be b9a9 813e c6ca ca39 dd7e 3a3e
00000130: 81f7 d63d c402 873e 665b a1bd d22e 3cbd
00000140: 9c37 20bd d516 7fbb 477d 72bd 4158 a4bd
00000150: 4f7c 90bd 6482 e2bb ad39 06bd eab6 9f3e
00000160: 7062 333d 709f 5ebd 0372 92bd ae06 4b3e
00000170: 3c7d 2a3c 000c 943d d4cf debd 93a4 583e
00000180: e593 dabd 6dcd e93d 4112 113e bc9d 3f3d
00000190: 8d87 ec3d 6765 0a3e 07b5 cf3c e350 55bd
000001a0: 7929 133d 3e53 0b3e 453c 063d ddd3 96bd
000001b0: e3f6 a43d bc6a 70bd 49d6 b63c de0b c2bd
000001c0: 0d9b ee3d 52ff ccbd 055f 54be 54a7 2c3e
000001d0: 49f9 743e 016d 04bc 2dc5 22be da59 723e
000001e0: d015 823c e474 e43d fba8 973d 9ea9 da3d
000001f0: 9778 b9bd b191 1b3e 5a72 803d 9a35 7d3e
00000200: d2cf f03c 48b9 803c 203f 5f3d c2b1 dc3d
00000210: 0be8 143e ee77 73bd cacc 183d 7d52 80bd
00000220: ab0b 0abe 71d6 4bbe 36f3 3fbd 5f60 273e
00000230: 511f 03be 7798 0c3d 960b 92bc 27fa b13d
00000240: 1c16 3abd a137 4f3d 785e b03d 4b88 22bc
00000250: 25ff d83d 6ea9 e2bd 97f0 893d c3f9 efbd
00000260: 7f3f 36be 0b0d 94bc fba3 33bd 6590 e93d
00000270: 0dbc 1dbe cc2d 1cbd 83da 203d 0af6 e7bd
00000280: ea50 33be 3cb2 043d 147d c8bd d3c5 893d
00000290: 0b8f 393d a1d0 1b3e 1463 8b3d fc1a 15be
000002a0: efb0 623d 9a42 c13b 3b27 3bbe acc8 193e
000002b0: a0af 983e 8247 003c 7de0 1ebb d67f 65bd
000002c0: f497 5bbc d324 efbd 1d60 073d 9f20 08bd
000002d0: cf59 0f3e 5728 ec3d 068b b53d 4740 38bd
000002e0: 217c 95bc 70c1 2f3d 8d01 5cbd 366a 20be
000002f0: d182 223e 2e6d efbd f065 993d 2f66 383d
00000300: 95c8 2e3d 605e f5bd 3bf8 a13d 10c4 8f3d
00000310: d8bb 07be 0286 2bbd 3880 4c3e 0625 94bd
00000320: cb17 1c3d 9a3c 263e cc96 50bd 8231 26be
00000330: e2de ebbc eb49 4f3c a012 f2bd f493 c33d
00000340: a17f fa3c 4053 353e 3257 17be b8b4 733d
00000350: 7e5e c63d 8871 67bd b48a 3ebd 490d 8a3d
00000360: 00e8 023e 9101 763d f0bf 103d 25e0 383e
00000370: d102 873b cfce ad3d 8b07 c4bc 406e 4abe
00000380: 2d28 b0bd a667 ee3c c3ff f33c 8fea 37bd
00000390: c222 81bd 5482 c23d 6a03 9e3d 2ba7 1dbe
000003a0: b3fd 5fbc 6c8a 66bd 40df fb3d a601 48bd
000003b0: 41eb 2c3e 606d 1e3c d6c1 c13d 81ff 4ebd
000003c0: fbe3 cdbc db44 fcbd 0bab 3d3c 6d31 e33d
000003d0: b45c f13d 3ea9 fa3d 687b 903c 6516 c8bd
000003e0: 5811 463d 0dc7 1abe fd63 4abd 026e 16be
000003f0: 5d72 54bd 2a91 983d 2776 b43b b242 ad3d
0.03165162 -0.093839176 0.13776353 -0.09029938 0.13845582 0.053625748 -0.11004033 -0.048683513
0.11261323 0.0018785967 -0.0431041 0.046416935 -0.048731804 -0.061177623 -0.08230574 -0.010054441
0.1513162 0.032404084 -0.1411669 0.040383253 0.008238073 0.025014672 -0.122567505 -0.06536485
-0.073638625 -0.0037847385 0.14116672 0.05237761 -0.28014308 -0.042482585 0.051278543 0.019817716
-0.011639251 0.05452511 -0.15578355 0.036871318 0.010112582 0.167537 -0.076464556 0.22967789
-0.028583027 -0.016523784 0.05248895 0.11092195 0.025023954 0.06785308 0.30225658 0.0002974149
0.06442846 0.026831811 -0.19588022 0.08578508 0.042468652 0.069701105 0.043729715 0.047008473
-0.18374221 -0.09453053 0.09307661 0.028270097 0.12210002 0.06916063 0.073844835 0.22780268
-0.059385292 0.0891902 -0.16496885 0.03837107 0.19458738 -0.21991542 -0.03506478 0.13998243
-0.26782113 0.253248 0.0003867952 0.18212457 0.104964264 0.26369298 -0.07878761 -0.04594309
-0.039115533 -0.003892352 -0.059201505 -0.080246456 -0.0705496 -0.0069125164 -0.032769848 0.3119424
0.04379505 -0.05435127 -0.07150652 0.19826767 0.010405835 0.07228851 -0.10879484 0.2115653
-0.1067274 0.11416135 0.1416712 0.046781287 0.11549292 0.13515244 0.025354875 -0.052079093
0.035928223 0.13605973 0.03277232 -0.073646285 0.080549024 -0.05869554 0.022318976 -0.0947492
0.11650667 -0.10009636 -0.20739372 0.16860706 0.2392322 -0.008082629 -0.15895529 0.23667088
0.015879542 0.111551076 0.07405277 0.10676883 -0.09056204 0.15192296 0.06271811 0.24727479
0.029395971 0.015713349 0.05450356 0.10776092 0.14541642 -0.059440546 0.037304677 -0.062657334
-0.13481013 -0.19906022 -0.046862803 0.16345356 -0.12804915 0.03432509 -0.01782779 0.08690291
-0.04543124 0.05059016 0.086117685 -0.00992019 0.1059554 -0.110674724 0.06735342 -0.1171756
-0.1779766 -0.018072626 -0.043857556 0.11404494 -0.15403767 -0.038129613 0.03927089 -0.11326225
-0.17511335 0.03239654 -0.09789482 0.06727185 0.045302432 0.15216304 0.06806007 -0.14561075
0.05534452 0.005897832 -0.18276684 0.15017956 0.2982149 0.007829549 -0.0024242692 -0.056030117
-0.013402928 -0.116769455 0.033050645 -0.033234235 0.13999103 0.11531132 0.08864407 -0.044983175
-0.018247666 0.042909086 -0.053712416 -0.15665516 0.15870215 -0.11690746 0.07490146 0.045019325
0.04267176 -0.11980891 0.07908674 0.07019818 -0.1325525 -0.041875847 0.19970787 -0.07233624
0.03810863 0.16234055 -0.05092506 -0.16229823 -0.028792802 0.012651901 -0.11819959 0.09549704
0.030578436 0.17707539 -0.14779356 0.05949852 0.09685992 -0.056504756 -0.046518996 0.06740815
0.12783813 0.060060088 0.035339296 0.18054254 0.004120209 0.08486711 -0.023929378 -0.1976862
-0.08601413 0.029102158 0.029785043 -0.044901427 -0.06305458 0.09497514 0.07715495 -0.15395801
-0.013671326 -0.056284353 0.12298441 -0.048829697 0.16886617 0.009669632 0.094607994 -0.050536636
-0.025133124 -0.12317821 0.011576424 0.110934116 0.1178526 0.12239312 0.01763697 -0.097698964
0.048356384 -0.15114994 -0.049411763 -0.14690402 -0.051866878 0.07449563 0.005507249 0.08459987

fc2.bias f4 [64]
00000000: adb5 48bf 16ce 61be 8954 f83d b458 cfbd
00000010: 230e 4c3c 8007 693d 1a5e 7f3d 6dec 15be
00000020: dc24 5f3d 640d 103e f2fd 68bd 5496 bdbd
00000030: f0ef cbbd 98da 48bd 4683 183d 4ee9 fdbe
00000040: ca7d 543e b91e 85bc 4fa0 dabd 6342 d83b
00000050: 8291 da3d d115 a1be d429 7abc c854 00bf
00000060: 0956 ec3d 96ff a8bc 7c8b 37bc 8011 133d
00000070: c5aa 003f 89eb 48bd 291c 0abe d1b2 1ebe
00000080: b257 49bc cdc4 233f 6c1d fe3e b509 f13e
00000090: d3d9 95bd af81 5f3e c4b7 763c af13 33be
000000a0: 82f8 b0be e29d 09bd 9918 203e f09f 133d
000000b0: a2e9 3fbe 6505 fabd 77e5 183b f691 bebc
000000c0: 9d60 d1be e5ae e43d 84dc cbbe 9f89 f7bd
000000d0: a72c b53b c4e1 9f3d 06c2 0fbd df91 3cbd
000000e0: 406d 533e 1de4 443e c33f f4bd f63f 7fbe
000000f0: 8546 11b6 c44b 5c3d 145e 71bc 1b82 753d
-0.78402215 -0.22051272 0.12125499 -0.10124341 0.012454542 0.05689192 0.0623456 -0.1464097
0.05447851 0.14067608 -0.056882806 -0.092571884 -0.09957874 -0.049036592 0.037234567 -0.4959206
0.2075111 -0.016250001 -0.10675108 0.006599711 0.10672285 -0.31461957 -0.015268762 -0.50129366
0.115398474 -0.020629685 -0.011202689 0.03590536 0.50260574 -0.04905275 -0.13487305 -0.154979
-0.012288975 0.6397217 0.49631822 0.47077718 -0.07316937 0.21826814 0.015058462 -0.17487977
-0.34564596 -0.033597834 0.15634383 0.0360412 -0.18741468 -0.1220806 0.002333013 -0.023262959
-0.40894023 0.11166171 -0.39816678 -0.12086796 0.0055290046 0.07806733 -0.035097145 -0.04603755
0.20647144 0.19227643 -0.11926224 -0.24926743 -2.1647732e-06 0.053783193 -0.014731903 0.05993853

fc3.weight f4 [6, 64]
00000000: a2c5 67be 2c9b acbd 94d6 05bf bd87 52be
00000010: 9a3e aabe ea52 c5be 5ce9 543f 9d18 f03d
00000020: 9be3 e23c 771c 8c3e af01 473e 12e6 6a3e
00000030: 274d 4cbe 3069 c0bb 46ee b23d 7f44 46bf
00000040: d35a 16be 8402 043f 09d2 203b 9123 70bd
00000050: 1b6f 0a3f 2d46 2c3d 7290 39bf 0fe2 56bf
00000060: bd8b 98be 5804 62bf a20b efbe 41be 42be
00000070: aa92 563f abdd 5bbf e9a5 583f ccbc bdbe
00000080: ba4f 843f d57d 2a3d 1e37 07be 531c 313e
00000090: 1afc 36be dcb8 18be 96e5 083f 4af8 b83c
000000a0: cca6 45bf c000 cfbe ce5c 60be 7e47 ffbd
000000b0: 69c8 a53e 9f91 213f 75ca 133e 1740 ecbd
000000c0: 9894 05bf d03a ffbe ee16 e03d cf6a ddbe
000000d0: 02a8 3fbf 7703 063f 0f87 083f f19b 42be
000000e0: 54ee f1bd c30f e53e ca25 293e fd8a 4cbe
000000f0: 8567 60bf 8b6a 643f 2add 65bf 6275 873e
00000100: fedc 723f 0522 5f3f f132 1dbe 4b72 f0bc
00000110: ca4e 7e3e da4e 813a 43fa 103e 05f2 d33e
00000120: 593b 17be 3a34 0bbf aff3 f03d 72d4 513e
00000130: 33c2 163f 2116 f93c 0fd6 11be c365 483f
00000140: bda9 f6be 7f7a eebb 82a3 003f f10d 25bd
00000150: 80d7 46be 19bf 223f a534 e53e 01de 7e3f
00000160: c783 49be 0661 3cbe 8612 5cbc ec52 f8bd
00000170: cb16 2fbf fa0b b1bd b95d 2d3e 1767 203f
00000180: a926 633c 2054 73bf 760f 8dbf dd4f 4fbf
00000190: b4f2 b4bd 7c79 3f3d 08ab 3d3e 7f04 d23e
000001a0: 4d3a 0e3f 8f1a bfbd 63f3 4dbf 4de2 b4bb
000001b0: 9544 153f 011f cf3e 1095 40be 5d01 183e
000001c0: 27d9 7a3f 999a 0abf b1a5 283f 0f61 873e
000001d0: 0a85 463e b891 343e 40a9 173d 8d32 603e
000001e0: e55d a5be 8411 27be f71e 043f 03ed 4d3f
000001f0: d888 0ebe 4a4d 8bbd 4afd de3d 8634 013e
00000200: 0928 d6be 12a5 34bd d956 06bf 3906 c7bd
00000210: 289e b3be 200d e1bc a0c0 9f3e 5474 1cbc
00000220: 5c96 dd3d 8b85 85bd 7d76 e73e 1926 523e
00000230: dcd0 323c 576b abbc a9ea 5e3d c768 d43e
00000240: 46d7 903d 939e 07be c348 513d 49c2 813c
00000250: 884b 31be 2c47 063e ac74 95be 4281 82bc
00000260: f69a 50bc a599 0e3d ed30 163b c1cb 82bd
00000270: 16c6 853e 493e 2a3d ddc5 63be a277 c43d
00000280: 33c7 7ebd fc1b cebe 2a9a 92bc 2945 e0be
00000290: 4231 a03c e0b0 6ebe 3c8f b03d 34df 273f
000002a0: 16a2 56bd b7b6 04ba a40d 8e3e cf82 33ba
000002b0: dd01 cdbc 750d b33d 8498 93bd cc57 c4bd
000002c0: 5b0d 703e a7ca b13e 7534 64be 61db 13bf
000002d0: 68ff 023f 92bd ffbe 8529 0e3f 5102 60be
000002e0: f5e6 a03e a603 24bc 9761 17be 60ea abbd
000002f0: 0426 5b3e 5cb5 a7bd 9abc 54be f8d1 25bf
00000300: 0d0a 58bf 853b adbd 0bfb e53e a3b0 70be
00000310: 82f2 c4be 2cab 413d a733 d5be 4672 19be
00000320: 5c34 a0be a329 cf3d 4859 273f 3bab 943e
00000330: c517 11be 0891 ed3c eff9 be3d 9df8 f8be
00000340: 1959 543c f143 a13d 8d5a 6e3e 96f2 433c
00000350: d342 ce3d 0ef6 8bbd 720f 3bbe ace3 db3d
00000360: 6211 023c 234f 3e3e 798f dabd e1c2 a4bc
00000370: c026 aa3c 3043 12bd c849 523c 8c91 373c
00000380: f3a4 18bf 3db1 4a3f 9234 e03e bdd4 213e
00000390: 2fa8 9f3b 1e22 9f3e a803 35bd cd80 813e
000003a0: 9454 6d3e 0541 713d 37ec a9bd ed9b cb3c
000003b0: 4f20 703d 4570 bbbe e382 9dbc efe1 02bd
000003c0: 0873 95bb 07f8 4abe fba7 e1be fe5a c7bb
000003d0: 04e4 86be ea30 833e 0c50 18be 56fc ddbe
000003e0: 4026 0cbf 1340 3abf 451a 6ebd ecee 9ebc
000003f0: 3537 06be 04d6 433e 239d ff3b 6bb7 403b
-0.22633985 -0.08428034 -0.52280545 -0.20559593 -0.33250886 -0.3853982 0.8316858 0.117234446
0.027696421 0.27365467 0.19434236 0.22939327 -0.19951306 -0.0058719143 0.08736853 -0.77448267
-0.14683084 0.5156634 0.0024539253 -0.05862767 0.54075783 0.042059112 -0.7248603 -0.8393869
-0.29794112 -0.8828788 -0.46688563 -0.19017889 0.8381754 -0.85885113 0.8462816 -0.37058103
1.0336831 0.04162391 -0.1320462 0.17295961 -0.17869607 -0.14914268 0.5347532 0.022579331
-0.77207637 -0.4043026 -0.21910402 -0.12464808 0.32379463 0.63112825 0.144327 -0.11535662
-0.5217986 -0.49849558 0.109418735 -0.4324555 -0.74865735 0.52349037 0.53331083 -0.190048
-0.118130356 0.44738588 0.16518322 -0.19974895 -0.8765796 0.8922507 -0.89790595 0.26456743
0.9486846 0.87161285 -0.15351464 -0.029351374 0.24834743 0.0009865419 0.14157967 0.41395584
-0.14768733 -0.54376566 0.11765229 0.20491198 0.58890074 0.03040606 -0.14241813 0.78280276
-0.48176375 -0.0072777863 0.50249493 -0.0402965 -0.19418144 0.6357284 0.44766727 0.995575
-0.19679175 -0.18396387 -0.013432151 -0.12125191 -0.68394154 -0.086448625 0.16930284 0.626573
0.013864198 -0.9505024 -1.1020343 -0.80981237 -0.088353544 0.046746716 0.18522274 0.41019055
0.5555771 -0.093312375 -0.80449504 -0.005520141 0.5830777 0.40453342 -0.18806863 0.1484427
0.979876 -0.5414215 0.65877825 0.26441237 0.19386688 0.17633712 0.037026644 0.21894284
-0.32298198 -0.16315275 0.5160975 0.80439776 -0.13919389 -0.06801851 0.10888155 0.12617692
-0.4182742 -0.044102736 -0.5247627 -0.09717984 -0.350816 -0.027472079 0.3120165 -0.009549219
0.108196944 -0.06519612 0.45207587 0.20522346 0.010914054 -0.020925207 0.054423008 0.4148619
0.0707231 -0.13244085 0.05109478 0.015839713 -0.17313969 0.13113087 -0.29190576 -0.015930776
-0.012732258 0.034814496 0.0022917346 -0.06386519 0.2612769 0.041563306 -0.22243448 0.09593131
-0.06220169 -0.40255725 -0.017895777 -0.43802765 0.019554738 -0.2330966 0.0862107 0.65574956
-0.05240067 -0.0005062627 0.27744782 -0.00068478 -0.025025303 0.08742801 -0.072068244 -0.095870584
0.23442595 0.34724924 -0.22285636 -0.5775662 0.5117097 -0.49949318 0.55532104 -0.21875884
0.31426206 -0.0100106355 -0.14783321 -0.08394313 0.2140122 -0.081888884 -0.20775071 -0.6477351
-0.84390336 -0.08458618 0.44918093 -0.23504882 -0.3846627 0.047282383 -0.4164097 -0.14984998
-0.31289947 0.101153634 0.6537061 0.29036888 -0.14169224 0.02899982 0.09325015 -0.48627177
0.012960696 0.07874287 0.2327673 0.011959692 0.100713395 -0.068340406 -0.1826761 0.10736784
0.007938715 0.18584876 -0.106718965 -0.020112457 0.02077043 -0.035708606 0.012834974 0.011204135
-0.5962669 0.79176694 0.43790108 0.1580381 0.004872344 0.31080717 -0.04419294 0.2529358
0.23176795 0.058899898 -0.082970075 0.024854625 0.058624562 -0.36609092 -0.01922745 -0.03195375
-0.004560832 -0.19821177 -0.4407347 -0.006083845 -0.26345837 0.25623256 -0.14874285 -0.4335658
-0.54745865 -0.7275402 -0.05813052 -0.019401036 -0.13106997 0.19124609 0.0078007146 0.00294062

fc3.bias f4 [6]
00000000: e589 a23e 6589 bcbf 6465 893d 68ff 803e
00000010: f186 373f 76d2 113e
0.3174583 -1.472943 0.06708792 0.2519486 0.7169028 0.1424044
