code/conjugate_gradient/models/QAT_CG_pruned.pt (torch, 537228 bytes, 10 tensors)

conv1.bias f4 [256]
000000 fe 28 52 be 72 3d 4e 3e e0 8c a4 3d 2a 8d 8f be
       -0.2052345 0.20140627 0.08034682 -0.28037387
000010 ca 3e 40 3e 68 5d 4e 3d 6d 86 9e 3e c4 b7 d6 3d
       0.18773952 0.050382048 0.30961934 0.10484269
000020 70 03 fa 3c 43 67 0b be 33 a8 93 be 90 50 2b be
       0.030519217 -0.1361361 -0.28839263 -0.16729951
000030 bf 47 9a be b0 58 4b be 9a 04 7b 3e 9b 28 97 be
       -0.30132863 -0.1985805 0.24513474 -0.29523167
000040 d0 19 ee bd 60 b4 40 bd 42 7c 3a 3e 1b fa 5f be
       -0.11626017 -0.04704702 0.18211463 -0.21872751
000050 b7 e1 8d be c6 36 25 3e 5a 65 2d 3e 20 dd 52 bd
       -0.2771127 0.16134176 0.16933194 -0.051480412
000060 96 3f 15 be f1 a3 91 3e b6 b3 38 3e 8e cd 67 be
       -0.14575037 0.2844539 0.18037304 -0.22637007
000070 3e cb 6e be f8 15 0a be 2b 5a 6e be 95 eb 99 3e
       -0.23319718 -0.13484943 -0.23276584 0.30062547
000080 53 dc 7a be d3 12 1c be d3 51 79 be 5b 37 a4 3e
       -0.2449811 -0.15241556 -0.2434762 0.32073483
000090 0c 6e 8b bd c0 b7 2a be 43 c7 59 be b0 2b ff 3d
       -0.06808099 -0.16671658 -0.21267419 0.124595046
0000a0 d0 c2 19 3e 70 e1 1f 3e fa e1 26 3e 9c 8e b1 bd
       0.15015721 0.15613341 0.1629714 -0.08669779
0000b0 90 e1 81 3d bb ae 5c be 64 b4 cf 3d 28 16 62 3d
       0.06341851 -0.2155103 0.10141829 0.05519691
0000c0 78 f3 47 be 08 41 72 3d 94 23 db 3d 08 66 25 3e
       -0.1952647 0.05914405 0.10700145 0.16152203
0000d0 4a cc 30 3e a0 bb 5c bd 6a a1 59 3e c6 9b a9 be
       0.1726543 -0.05388987 0.21252981 -0.33126658
0000e0 b8 c8 0e be 25 39 99 3e 80 27 22 bb c1 4a a7 3e
       -0.13943756 0.2992641 -0.0024742782 0.3267422
0000f0 2e 0e 1a be a0 be 55 be 10 f8 05 3e c4 23 ac 3d
       -0.15044472 -0.20873499 0.1308291 0.08405259
000100 b8 dc 24 3e 78 3f 7b 3d b8 3d 05 3e 48 dc 6a 3d
       0.16099823 0.061339825 0.13011825 0.057338983
000110 e0 41 35 3c c0 45 bf 3c 84 2b 8b 3d c4 18 86 3d
       0.011063069 0.02334869 0.06795409 0.065476924
000120 13 7d 71 be 2c d2 cc 3d ee 69 12 be 79 61 90 3e
       -0.23582868 0.100010246 -0.14298221 0.28199366
000130 5d 35 a3 3e 78 f9 44 3d 40 f3 8a bc b0 aa 1d 3e
       0.3187665 0.048089474 -0.016961694 0.15397143
000140 80 8d 60 be 2a 99 65 3e 60 a2 2d bc 16 73 6d be
       -0.21928978 0.22421709 -0.010597795 -0.23188433
000150 40 ec ab 3d 26 0a 7d 3e 5b 08 51 be fa 38 0a 3e
       0.083946705 0.24710903 -0.20413344 0.13498297
000160 60 c7 38 3d 1b 28 13 be f6 b0 07 3e 60 19 f7 3d
       0.045112014 -0.14370768 0.13251099 0.12065387
000170 d6 60 e8 bd 50 f4 96 3c 61 f1 81 3e 60 97 4a 3c
       -0.11346595 0.018427044 0.2537947 0.012365192
000180 f0 f7 cb 3d c8 01 1e bd 98 9d 6a bd d9 06 86 3e
       0.099594 -0.038575917 -0.0572792 0.261771
000190 5d 6c 9d 3e a9 c5 a3 3e 36 d6 32 3e 00 ed 21 3d
       0.30746737 0.3198674 0.17464527 0.03953266
0001a0 4a e4 45 3e 22 b9 50 3e 00 cd 4d be 70 25 1d be
       0.19325367 0.20383123 -0.20097733 -0.15346313
0001b0 ba 70 5b 3e 8a be 72 3e f2 f9 66 3e 93 d6 98 be
       0.2142972 0.23705497 0.22556284 -0.29851207
0001c0 19 57 92 3e 94 d1 aa 3d b0 0c 84 3d 6c 38 e9 3d
       0.28582075 0.08340755 0.064477324 0.11387715
0001d0 80 66 91 3c d2 b3 57 3e c0 13 c1 3c 60 d4 a3 be
       0.017749071 0.2106469 0.023568988 -0.31997967
0001e0 18 6a 2f bd 22 94 4d 3e 4c a9 b6 3d 12 8c 44 3e
       -0.04282579 0.2007604 0.089190096 0.19194058
0001f0 8b 86 a3 3e 97 df 99 be 8c c6 b5 3d e0 46 67 3d
       0.31938586 -0.30053398 0.088757604 0.056464076
000200 b8 0b 17 bd 08 b6 0f 3e 32 8d a1 be d6 78 b9 bd
       -0.03687641 0.14034283 -0.31553036 -0.09056251
000210 b6 73 7d 3e b4 f5 9c 3d 9e b3 17 be a0 3f 79 be
       0.24751171 0.07664052 -0.14814612 -0.24340677
000220 ee 0c 1b 3e 09 d8 89 3e f8 b0 00 be 88 58 58 bd
       0.15141651 0.26922634 -0.12567508 -0.052818805
000230 ce e9 58 be 72 ce 61 3e b0 48 17 3e 40 2e 89 3b
       -0.2118294 0.22051409 0.14773822 0.0041864216
000240 0d 38 84 3e 9b 4d aa 3e 40 c5 6c 3d 18 6c 00 3e
       0.25824013 0.33262333 0.0578053 0.12541234
000250 64 78 92 3d a8 ec 73 bd 4e 83 1f 3e 58 bd 8a be
       0.07151869 -0.059551865 0.15577433 -0.27097583
000260 3e 18 7e be cb 3a 3f be 80 be 26 bc 87 88 84 3e
       -0.24813935 -0.18674771 -0.010177255 0.25885412
000270 c4 ac be 3d 8d fc a5 3e 46 ca 01 3e cd 41 86 3e
       0.09310296 0.32419243 0.12674817 0.26222077
000280 1a cc 55 3e 80 13 62 3c 90 91 c7 bc 6e 0e 54 3e
       0.2087864 0.0137985945 -0.024361402 0.2070863
000290 1c 7e c4 bd 58 4e 5f 3d b8 db 19 3e 74 c4 89 bd
       -0.09594366 0.054518074 0.15025222 -0.067269236
0002a0 1c 57 92 be 70 a3 a4 bc 2e 26 0e be f4 72 ae 3d
       -0.28582084 -0.020097464 -0.13881752 0.08518019
0002b0 06 aa 79 be 26 fc e7 bd e3 de 4f be df 7b 97 be
       -0.24381265 -0.113273904 -0.20299868 -0.29586694
0002c0 1a 15 7a 3e 98 bf 26 bd 80 3e d8 3c de f0 81 be
       0.24422112 -0.04071006 0.02639699 -0.2537908
0002d0 cc 00 8b 3d b6 ec c1 bd 4a 99 30 3e 60 5d 92 bd
       0.06787261 -0.09468977 0.17245975 -0.07146716
0002e0 0a 86 0b 3e 94 ff 97 be 18 d6 4c be ee 51 2b be
       0.1362535 -0.29687178 -0.20003545 -0.16730472
0002f0 6c 26 aa be 86 0b 56 3e 80 13 32 be 2f 33 95 3e
       -0.3323244 0.20902833 -0.17390251 0.29140612
000300 80 2a ea 3d f2 92 0f 3e 31 b8 a5 3e 20 9a 97 bd
       0.114338875 0.14020899 0.3236709 -0.07402444
000310 c4 3b b4 3d 24 35 98 be 90 88 14 3e 18 04 45 bd
       0.08800462 -0.29728043 0.1450522 -0.048099607
000320 10 ca e4 3d 3e b2 17 3e 30 31 8e bd c0 55 1b 3d
       0.11171353 0.14814088 -0.069429755 0.037923574
000330 82 b6 59 3e f6 c6 39 be 60 fb 61 bc 80 c1 15 be
       0.21261027 -0.18142304 -0.013792843 -0.14624596
000340 c2 0d 6a 3e f6 d5 f9 bd c0 f8 d6 3b 0e a0 1e 3e
       0.2285681 -0.12199013 0.006560415 0.15490744
000350 aa 99 50 3e 58 e6 4d be 38 07 7c 3d 32 34 3d 3e
       0.20371118 -0.201074 0.06153032 0.18476942
000360 8c 32 e3 bd 30 7d ae bd f0 93 bb 3c 20 48 16 bc
       -0.110936254 -0.08519971 0.02289769 -0.009172469
000370 44 e7 a8 be 6a 86 36 3e c0 19 a3 bb 96 81 44 be
       -0.32988942 0.17824712 -0.004977435 -0.19190058
000380 5f 0a a9 be 83 19 5f be ee 1d 87 be 2e 31 7f be
       -0.33015725 -0.21787076 -0.26390022 -0.24921104
000390 df 0f 88 be f2 a6 a6 be 32 59 2c 3e d8 e0 27 be
       -0.2657461 -0.32549244 0.168309 -0.16394365
0003a0 68 7c 6c be 40 42 15 bd 66 e5 b2 bd dc 73 fd 3d
       -0.23094332 -0.036440134 -0.087351605 0.12375614
0003b0 7c 92 ec 3d 94 98 f5 3d ae f8 0e 3e 2a ff 56 3e
       0.11551377 0.119919926 0.13962051 0.20995775
0003c0 9c 9c c5 3d eb c1 49 be 80 5a 2b 3d 56 9d 78 3e
       0.096490115 -0.1970288 0.041834354 0.24278769
0003d0 46 44 3e 3e 79 4f 9c 3e 22 92 48 3e a7 35 99 3e
       0.18580732 0.30529383 0.19586995 0.29923746
0003e0 a0 21 33 3d e5 38 a0 3e f4 bd d6 3d 30 d7 e1 3d
       0.04373324 0.31293407 0.104854494 0.11027372
0003f0 d3 ac 01 be a2 2d 4b 3e f3 bc 96 be b1 ee 84 3e
       -0.12663583 0.19841626 -0.29441032 0.25963357

conv1.weight f4 [256, 3, 3]
000000 00 00 00 80 cb d7 1c be 00 00 00 00 30 d2 75 be
       -0.0 -0.15316693 0.0 -0.24005961
000010 dd da 85 3e 98 21 8c be ab 18 a8 3e 00 26 05 be
       0.26143542 -0.2736938 0.3283132 -0.13002777
000020 4c 77 df bd d0 7b bc 3d 80 8a 73 be dd cf 85 3e
       -0.10911426 0.09203303 -0.23783302 0.2613515
000030 00 00 00 80 fd d7 98 3e 58 d9 26 be 00 00 00 80
       -0.0 0.29852286 -0.16293848 -0.0
000040 f8 28 83 be ca b7 25 3e 00 00 00 00 02 7a 96 be
       -0.25617194 0.16183391 0.0 -0.2938996
000050 00 00 00 80 ba 62 4c 3e 8a ad 17 3e 8c 46 ae 3d
       -0.0 0.19959536 0.14812294 0.085095495
000060 3c b7 f0 bd a9 b4 86 3e 7c 8b b4 3d 00 00 00 00
       -0.11753699 0.26309708 0.08815667 0.0
000070 00 00 00 00 4e 4c 1b be 90 20 bf 3d 39 df a8 3e
       0.0 -0.15165827 0.09332383 0.32982805
000080 66 df f3 bd c4 13 d1 3d 68 63 61 be 45 3d a5 3e
       -0.11907844 0.10208848 -0.22010577 0.32273307
000090 00 00 00 00 3b 77 a7 be 7c f7 af bd a3 36 88 3e
       0.0 -0.32708153 -0.08592126 0.26604185
0000a0 36 39 2e 3e 63 55 1d be 36 0d 4c be 00 00 00 80
       0.17014012 -0.15364604 -0.19926915 -0.0
0000b0 6f e2 a6 3e 00 00 00 80 53 2b a2 be 83 08 80 3e
       0.3259463 -0.0 -0.3167368 0.25006494
0000c0 e2 af 3e 3e 9f 45 a4 be 26 bd 0f 3e 00 00 00 00
       0.18621781 -0.32084367 0.14036998 0.0
0000d0 00 71 c1 bd 02 7f 37 3e c4 d2 ad 3d 30 6f a9 3d
       -0.09445381 0.17919543 0.08487466 0.082731605
0000e0 a8 e7 48 be de e0 55 be 60 82 d6 bd de e1 4b be
       -0.1961962 -0.20886561 -0.10474086 -0.1991038
0000f0 85 a2 a9 3e 0e da 5f 3e a7 08 a1 be df b8 83 be
       0.33131805 0.21860525 -0.31451914 -0.25726983
000100 9b 90 2b be f1 d8 81 3e 86 cb 6b 3e 7c 20 88 be
       -0.16754381 0.25360826 0.23026857 -0.26587284
000110 d5 80 a3 3e 15 07 99 3e 61 7e a7 3e 74 da 9b 3d
       0.3193423 0.29888216 0.32713607 0.07610026
000120 93 94 9c be e6 9c 09 be 80 57 f7 bd 72 e4 1c 3e
       -0.30582103 -0.13438758 -0.12077236 0.1532152
000130 00 00 00 00 aa a1 4d 3e 54 22 8f 3d d6 f9 7f be
       0.0 0.20081201 0.069889694 -0.24997649
000140 92 5c 8d be 5e c3 00 be 72 53 6a 3e ba d0 2c 3e
       -0.27609688 -0.12574527 0.22883394 0.16876498
000150 a6 d2 c8 bd 85 bb 98 3e be 1f 58 3e 85 fc 84 3e
       -0.09805803 0.29830566 0.21105859 0.25973907
000160 e6 28 87 be dd da 9a 3e 2c 8a ca 3d b0 18 a7 bd
       -0.2639839 0.30245104 0.098896354 -0.08159006
000170 00 00 00 00 e6 91 7e 3e 4e 79 a1 be 07 ef 94 be
       0.0 0.24860343 -0.3153786 -0.29088613
000180 70 d2 c9 bd a4 4c 8f 3d 32 30 02 3e 00 00 00 00
       -0.09854591 0.0699704 0.12713698 0.0
000190 2c 86 b3 bd 00 00 00 00 fa 13 2e 3e 45 f6 9e 3e
       -0.08765826 0.0 0.16999808 0.31047264
0001a0 80 e7 f4 bd 00 00 00 00 1f 9f 91 be 1e e9 72 3e
       -0.119582176 0.0 -0.28441712 0.2372174
0001b0 a2 35 32 3e b6 e3 77 3e 06 a9 54 be b3 f0 3a be
       0.17403272 0.24207959 -0.20767602 -0.18255882
0001c0 d2 65 58 3e a6 01 05 3e 00 00 00 00 1b 7f 9c 3e
       0.21132591 0.1298891 0.0 0.30565724
0001d0 fe 1c 31 3e 26 96 02 be dc 3d ff bd d6 e7 03 be
       0.17296216 -0.1275259 -0.124629706 -0.12881407
0001e0 90 3d 2e be 53 7d 50 be 4e ff 92 be 00 00 00 80
       -0.17015672 -0.20360307 -0.28710407 -0.0
0001f0 a0 57 77 be 38 e4 0d 3e 48 7d 34 be 3e fb 62 be
       -0.2415452 0.1385659 -0.17625916 -0.22166154
000200 46 37 44 3e 00 00 00 00 02 5c 62 3e 00 00 00 00
       0.1916171 0.0 0.2210541 0.0
000210 cf 10 94 be 66 ba d8 bd 00 00 00 00 00 00 00 00
       -0.28919074 -0.10582428 0.0 0.0
000220 55 4b 89 3e 00 00 00 80 00 00 00 00 00 00 00 80
       0.26815286 -0.0 0.0 -0.0
000230 c0 7d 05 3e c6 87 41 3e e9 f1 a5 3e a5 b0 98 3e
       0.13036251 0.1889945 0.32411125 0.2982227
000240 03 73 a3 be 00 00 00 00 a0 d8 0b be 3c b7 a5 3d
       -0.31923684 0.0 -0.13656855 0.0809159
000250 00 00 00 80 ef f5 a2 be 38 ea 00 be 36 21 e4 bd
       -0.0 -0.31828257 -0.12589347 -0.11139147
000260 00 00 00 80 7a 6b 3b 3e 3b 90 05 be 39 e9 83 3e
       -0.0 0.18302718 -0.13043301 0.25763872
000270 35 77 94 3e b0 f4 66 be 00 00 00 80 e3 6b 95 3e
       0.28997198 -0.22554278 -0.0 0.29183874
000280 c0 34 1b 3e f8 c0 57 be 9d 81 88 3e e6 a2 f5 bd
       0.15156841 -0.21069705 0.26661387 -0.11993961
000290 8e 4a 14 3e 8c 8b f3 bd e7 46 88 3e 6d 59 98 3e
       0.14481565 -0.11891851 0.26616594 0.29755726
0002a0 e0 e2 94 bd cb 49 7c be b6 bb 28 be 00 00 00 80
       -0.072698355 -0.24637525 -0.16477856 -0.0
0002b0 24 cc 95 be c0 a8 7a be 1c 6b a0 be 00 00 00 00
       -0.2925731 -0.24478436 -0.31331718 0.0
0002c0 00 00 00 80 01 73 89 3e 5d 50 91 3e 00 00 00 00
       -0.0 0.26845554 0.28381625 0.0
0002d0 aa 4e 7d 3e 26 e5 55 3e 0a 14 67 3e fb 59 a3 be
       0.24737039 0.20888194 0.22566238 -0.31904587
0002e0 00 00 00 00 ac 6e 9d bd 90 e6 15 be 80 cd 9c be
       0.0 -0.076871246 -0.14638734 -0.30625534
0002f0 57 3f 8a 3e d0 d8 a7 be e0 ce 09 3e ec a5 81 be
       0.2700145 -0.32782602 0.13457823 -0.253219
000300 15 91 9e 3e 00 00 00 00 9a 81 3e 3e d2 73 79 3e
       0.30970064 0.0 0.18604127 0.24360588
000310 00 00 00 00 ca 8a 55 3e 18 da 52 be 00 00 00 80
       0.0 0.20853725 -0.20591009 -0.0
000320 43 cd 6d be f3 a4 64 be 00 00 00 80 fe 5b 0e 3e
       -0.23222832 -0.22328548 -0.0 0.1390228
000330 de d5 47 3e e0 b8 a2 3d ae 89 01 3e 9f cf 9f be
       0.19515178 0.07945418 0.12650177 -0.3121309
000340 28 79 a4 be 50 bf 98 bd 54 69 85 be fd db a1 3e
       -0.32123685 -0.07458365 -0.2605692 0.3161315
000350 e2 87 0f 3e 1b 4e 81 3e 00 00 00 80 e6 83 76 3e
       0.14016679 0.25254902 -0.0 0.24073753
000360 00 00 00 80 b6 4e b0 bd b0 dd 92 bd 00 00 00 80
       -0.0 -0.08608763 -0.0717119 -0.0
000370 95 16 86 3e 00 00 00 80 4b 3d 4a be 00 00 00 00
       0.26189104 -0.0 -0.19749944 0.0
000380 7c 11 d4 3d 1e e8 60 3e 8b a2 00 be 1e 48 2f be
       0.103548974 0.21963546 -0.12562005 -0.17117354
000390 46 c3 3a be 00 00 00 80 00 00 00 80 e9 0c 83 3e
       -0.18238553 -0.0 -0.0 0.25595787
0003a0 00 00 00 00 4a 9b 67 3e b7 01 82 be ca 7e 96 be
       0.0 0.22617832 -0.25391933 -0.29393607
0003b0 10 4e 8f 3d 54 c8 a8 3d 28 a4 2a 3e 22 07 82 be
       0.06997311 0.082413346 0.16664183 -0.25396067
0003c0 8a b4 0e 3e 59 3d a4 3e 00 5b 99 be 00 00 00 80
       0.13936058 0.32078055 -0.2995224 -0.0
0003d0 00 00 00 00 28 35 25 3e 00 00 00 00 2d 43 8b 3e
       0.0 0.16133559 0.0 0.2719969
0003e0 00 00 00 80 2a be 17 3e 46 eb 4e 3e 82 d1 48 3e
       -0.0 0.14818636 0.20206937 0.19611171
0003f0 83 2e 32 be 62 d9 31 3e a6 05 40 be 2e f8 56 be
       -0.17400555 0.17368081 -0.18752155 -0.2099311

conv2.bias f4 [128]
000000 c0 6a 0b 3d cb 78 10 bd 4e 16 b5 bc 00 d0 1a 3a
       0.03403735 -0.035271447 -0.022105362 0.0005905628
000010 de be d4 bc 24 e1 cc bc 2a 4e a0 3c 44 bb 93 3c
       -0.025969919 -0.0250097 0.019568522 0.018033631
000020 b2 1a 84 3c 0a 3b 6f bc a4 b9 03 3d f4 01 dd bc
       0.01612601 -0.014601478 0.032159463 -0.02697847
000030 c4 07 f9 3c be 24 0f bd 5e 1a 00 3d b0 99 0a bb
       0.03039921 -0.03494715 0.031275146 -0.0021148734
000040 ac b9 04 bd ec 11 b4 bb 00 3d 92 ba 9e 8f c4 3c
       -0.032403633 -0.0054953005 -0.0011157095 0.023994263
000050 b4 76 e7 3c fb a8 05 bd 70 93 ee 3b 92 3c 19 bc
       0.028254844 -0.032631855 0.0072807595 -0.00935282
000060 aa 66 a0 3c 2d 61 96 bc 20 67 88 bb c4 5c 83 bc
       0.019580204 -0.018356884 -0.004162684 -0.016035445
000070 5b 69 bc bc 72 52 10 3d 32 95 d1 bc da cc 87 3c
       -0.022999456 0.035234876 -0.025583837 0.016577173
000080 2f 14 0e bd 04 56 29 3c 0a 1c 89 3c da 52 90 bc
       -0.034687217 0.010335449 0.016737003 -0.017617632
000090 b8 9a e0 3b 48 34 ae 3b 54 80 d9 bc b8 f2 09 bd
       0.0068543814 0.005316291 -0.02655045 -0.03367874
0000a0 b0 d1 db 3c c0 5a a0 ba 00 5e 5a bb 22 4f 60 bc
       0.026833385 -0.0012234077 -0.0033320189 -0.013690742
0000b0 fc ac df 3c 4a 2f 7e bc 20 88 31 bb f2 c9 8a 3c
       0.027304165 -0.015514204 -0.0027089193 0.016941998
0000c0 c4 3d 08 3d 1c 8a 9e 3c b6 ea 0d 3d 88 cd 9f 3c
       0.03326203 0.019352965 0.034647666 0.019507185
0000d0 9a 4c c5 bc 50 bc 56 3c 30 6b e6 bc 78 e8 95 3c
       -0.024084378 0.013106421 -0.028127283 0.018299326
0000e0 ba d8 02 bd cc dc 76 3c 24 d5 2d 3c 40 20 48 ba
       -0.031944968 0.0150672905 0.010609899 -0.00076342
0000f0 fd 93 b9 bc 4e 0d b0 bc ba 3c d5 3c 58 c3 77 3c
       -0.022653574 -0.02149072 0.026029933 0.015122257
000100 60 02 d0 3a 8e 02 bb 3c 78 a7 90 3c b8 a2 0d bc
       0.0015869848 0.022828367 0.01765798 -0.008644752
000110 3e f6 05 bc 80 c8 09 bb e9 b3 83 bc 8c 57 0c 3d
       -0.0081763845 -0.0021024048 -0.016076999 0.03426318
000120 3c a6 dc 3c af 45 92 bc fa a0 92 bc 3c 56 71 bc
       0.026934735 -0.017855493 -0.017899025 -0.0147300325
000130 f0 82 29 3c 3a 8d 3e bc 22 cd 81 bc 40 76 eb 3b
       0.010346159 -0.011630351 -0.015844885 0.0071857274
000140 aa c7 3c bc 98 18 01 3c a4 09 d3 bc 80 03 f5 3c
       -0.011522213 0.007879399 -0.025761433 0.029908895
000150 64 3d 0b 3c 70 ea 30 3c 8f bf f5 bc 29 a1 ae bc
       0.008498523 0.010798082 -0.029998569 -0.021317082
000160 c4 75 b0 bb 43 1a d8 bc 8a 7f fc bc 5c 7f 3b 3c
       -0.0053851325 -0.02637971 -0.030822534 0.011443939
000170 8e 2a 5c bc 09 51 ae bc 44 04 ee bc 18 7e 0c 3c
       -0.01343788 -0.021278875 -0.029054768 0.008574985
000180 8c 47 6e bc ce 95 50 bc 30 d3 02 3d f2 5b 7f bc
       -0.014543425 -0.012731029 0.031939685 -0.015585886
000190 2e 4f 9c bc 28 41 63 3c 94 a2 d5 3c c8 8f 80 3c
       -0.019080725 0.013870515 0.0260785 0.01569356
0001a0 c0 4d 0a bd a0 5d 39 3c 1c 49 10 bd 00 6e fa b9
       -0.033765554 0.011313826 -0.035225973 -0.00047765672
0001b0 04 a2 64 bc d4 28 79 3c cd 8a a7 bc c0 e4 72 bb
       -0.013954643 0.015207488 -0.020451928 -0.0037062615
0001c0 ec 95 f2 3c f6 22 78 bc 0d 57 f9 bc 64 6d bc bb
       0.029612504 -0.015145054 -0.030437017 -0.005750345
0001d0 60 59 90 bb e0 c4 0e 3d 94 3f ad 3c 1a 7e b5 bc
       -0.0044051856 0.034855723 0.02114848 -0.022154856
0001e0 54 f5 e3 3c 78 7f c2 3c fc 54 9b 3c 20 d7 38 bc
       0.027826943 0.023742422 0.018961422 -0.011281759
0001f0 dc da 58 bc c0 8b fb 3c b4 4f dd bc 8c a5 82 3c
       -0.013235774 0.030706286 -0.027015544 0.01594808

conv2.weight f4 [128, 256, 3]
000000 dc 30 f8 bb 11 ee 03 bd 1c b0 12 bc 00 00 00 80
       -0.007574184 -0.03220946 -0.008953121 -0.0
000010 b8 0e 6d 3c 68 9c ec 3c 5e 81 01 bd 00 00 00 80
       0.014468841 0.028883174 -0.031617515 -0.0
000020 f8 92 25 3c d4 6a e5 bc 00 00 00 00 6c 90 f9 bb
       0.010105841 -0.028005041 0.0 -0.0076160934
000030 0c 8f af bc 28 b4 ea 3c 02 18 a8 3c 28 53 03 bc
       -0.021430515 0.028650358 0.02051926 -0.008015431
000040 30 dd 20 3c 68 a1 4c 3c aa 94 03 3d cc 3a f3 3c
       0.00981836 0.012489654 0.0321242 0.029691122
000050 98 70 5b 3c fc ca 75 bc 06 f4 01 bd 14 32 13 bc
       0.013393544 -0.0150020085 -0.03172686 -0.0089841075
000060 90 31 10 bd 44 22 f2 3c ce 02 0c bc 70 9c 2d bc
       -0.035203516 0.029557355 -0.008545591 -0.01059638
000070 58 e0 11 bd ae 40 ac 3c aa 80 aa bc 38 dc e0 3c
       -0.03561434 0.021026935 -0.020813305 0.027448758
000080 00 00 00 80 b7 bc a9 bc 00 00 00 80 00 00 00 80
       -0.0 -0.020719869 -0.0 -0.0
000090 00 00 00 80 91 0e 08 bd f2 25 c2 bc ac 3b 69 bc
       -0.0 -0.033217017 -0.023699734 -0.014235418
0000a0 35 83 09 bd fa 40 00 bd 00 00 00 00 f0 5c 36 3c
       -0.033572394 -0.031311966 0.0 0.011130556
0000b0 44 c1 aa bc 5d 67 fe bc d4 dc ef bc 1d a9 86 bc
       -0.02084411 -0.031055147 -0.029280104 -0.016438061
0000c0 fe 27 82 bc 00 00 00 00 ee d5 80 3c 06 de c2 bc
       -0.01588821 0.0 0.01572701 -0.02378751
0000d0 86 34 cc bc 7a 5a f3 bc 44 05 a9 3c 00 00 00 00
       -0.024927389 -0.029706229 0.020632394 0.0
0000e0 49 84 95 bc c8 fb 8a 3c 68 50 6d bc 3a b6 95 3c
       -0.018251555 0.016965762 -0.014484502 0.018275369
0000f0 8c 43 b0 bc 7a 00 81 3c 00 00 00 00 c0 09 08 bd
       -0.021516584 0.015747298 0.0 -0.033212423
000100 00 00 00 80 00 00 00 80 7a 9e 08 3d 7d 59 98 bc
       -0.0 -0.0 0.03335426 -0.018597359
000110 98 f8 77 3c 28 45 64 3c 20 e5 f6 3c 24 c3 0f bc
       0.015134953 0.013932504 0.030138552 -0.0087745525
000120 a2 28 a3 3c 52 e9 d2 bc d0 0b cc 3c 6d 9d a2 bc
       0.019916836 -0.025746021 0.024907976 -0.019850457
000130 e0 14 a5 bc ec 54 5e 3c 54 d2 0d 3c 64 8a 5e 3c
       -0.020151556 0.013570052 0.008656103 0.0135828
000140 b8 3a f1 3c 2f 9b 04 bd a6 e2 c0 3c 50 90 e3 3c
       0.029446945 -0.032374557 0.023545574 0.027778774
000150 38 8a 0b 3d 97 90 b2 bc ce a5 bd 3c 2e 5a 95 3c
       0.034067363 -0.021797461 0.02315035 0.018231478
000160 60 bf f1 3c c6 2a c6 bc 64 12 9c 3c 00 00 00 80
       0.0295102 -0.024190318 0.019051738 -0.0
000170 b0 0c 63 3c 6c a1 2d 3c 7c d4 f7 bb 18 52 12 3c
       0.013858005 0.010597568 -0.007563172 0.0089307055
000180 d6 13 72 bc 7c 26 02 3c 00 00 00 00 c7 f0 f5 bc
       -0.014775237 0.007943746 0.0 -0.030022038
000190 34 f7 e9 3c c6 f0 fb bc 00 00 00 00 00 00 00 80
       0.028560258 -0.030754458 0.0 -0.0
0001a0 48 79 eb 3c e7 bd 8c bc 3a 10 87 3c 00 00 00 80
       0.028744355 -0.017180396 0.01648723 -0.0
0001b0 2a 91 90 3c d0 82 1f bc 00 00 00 00 00 00 00 00
       0.017647345 -0.009735778 0.0 0.0
0001c0 00 00 00 80 ca 6b b0 3c 17 01 c8 bc 00 00 00 80
       -0.0 0.021535773 -0.024414582 -0.0
0001d0 28 05 78 bc e7 6a 0d bd 9c d1 c7 3c 1e 7b 04 3d
       -0.015137948 -0.03452578 0.024391942 0.032343976
0001e0 a8 43 1c 3c b4 7a ec bb bc 0e 0e 3d e8 9d 61 3c
       0.009537615 -0.007216776 0.03468202 0.013770558
0001f0 1c 78 57 3c 80 ed 02 bd 00 00 00 80 86 2c c4 bc
       0.013151195 -0.03196478 -0.0 -0.023947012
000200 a2 a6 c5 bc cc cd e5 3c 24 d0 2a 3c 44 d1 27 bc
       -0.024127308 0.028052233 0.010425601 -0.010242764
000210 70 f7 1f 3c 0d 3d dd bc bc 4a 9d bc 74 ad a1 3c
       0.009763584 -0.02700665 -0.019200675 0.01973603
000220 b0 df cd bc 00 00 00 80 60 e9 6b 3c f1 61 04 bd
       -0.025131077 -0.0 0.014398903 -0.032319967
000230 3a 1d 97 bc 16 d4 c6 3c 48 00 e6 bc 10 d1 04 3c
       -0.018446553 0.024271052 -0.028076306 0.008106485
000240 fc 7a 06 3c 34 c0 e2 bc 58 d6 5e 3c 9c 19 22 bc
       0.008208033 -0.02767954 0.013600908 -0.009893801
000250 ee c0 cd bc 93 bf da bc 2c be 3c 3c 88 83 02 bc
       -0.02511641 -0.026702678 0.01151995 -0.00796593
000260 ee 80 09 bd 30 4b aa bc 00 00 00 80 00 00 00 00
       -0.033570223 -0.020787805 -0.0 0.0
000270 00 00 00 80 9a 46 37 bc 08 8c ea 3c da 44 62 bc
       -0.0 -0.011186266 0.028631225 -0.013810361
000280 47 84 8a bc 84 b2 01 3d 00 00 00 00 00 00 00 80
       -0.016908778 0.031664386 0.0 -0.0
000290 00 00 00 00 88 45 f0 3c 80 c6 1a bc 00 00 00 00
       0.0 0.02933003 -0.00944674 0.0
0002a0 ec 8e f6 3c 6c 78 09 bd 03 69 d4 bc 00 00 00 80
       0.030097447 -0.03356211 -0.02592898 -0.0
0002b0 00 00 00 80 12 22 d3 bc 66 8d 32 bc 7c 8b 74 3c
       -0.0 -0.025773082 -0.01089797 0.014925834
0002c0 3c 2c 05 3d 7c f9 df bc a1 08 93 bc 00 9a ec 3b
       0.03251289 -0.027340643 -0.01794845 0.0072205067
0002d0 9c a2 d4 bc 2e c8 32 bc 80 a1 f6 3c 50 36 ab 3c
       -0.025956444 -0.010911984 0.030106306 0.020899922
0002e0 d6 79 fa bc 32 4e ba 3c d2 bd 89 3c 5c 4e b7 bc
       -0.030575674 0.022742365 0.016814146 -0.022376232
0002f0 3e f3 b8 bc 00 00 00 00 c0 1f f5 3c 96 6d 9c 3c
       -0.022576924 0.0 0.029922366 0.019095223
000300 2c 23 d4 3c 98 49 d6 3c 12 f5 cb 3c f4 0b cf 3c
       0.025895678 0.02615814 0.024897132 0.025274254
000310 00 00 00 00 f9 d6 10 bd 48 f4 f0 3b 00 00 00 80
       0.0 -0.035361264 0.0073533393 -0.0
000320 1c a0 9a bc 18 39 0f 3d 1c 71 34 3c 60 37 ff 3b
       -0.018875174 0.03496656 0.0110132955 0.0077885836
000330 50 e7 79 3c 42 66 de bc ba e4 ca 3c 3b 9d 0d bd
       0.015252903 -0.02714837 0.024767268 -0.034573775
000340 6a 02 62 bc 00 00 00 80 98 e4 ae 3c b6 3f a1 3c
       -0.013794521 -0.0 0.021349236 0.0196837
000350 00 00 00 80 00 63 df 3c 20 06 ce 3c 8a 88 b8 3c
       -0.0 0.027268887 0.025149405 0.022526044
000360 bb 1d 89 bc 00 00 00 80 4b 97 f0 bc e9 55 f4 bc
       -0.01673781 -0.0 -0.029369017 -0.029826121
000370 44 ac 27 3c 28 39 f6 3c 77 09 0c bd f0 b0 7e 3c
       0.010233942 0.030056551 -0.034188714 0.015545115
000380 88 1c de 3c 00 00 00 00 c0 b0 03 bd 00 00 00 00
       0.027113214 0.0 -0.032150984 0.0
000390 28 6c 26 bc d1 95 03 bd 40 da 0d 3d 90 f3 a8 3c
       -0.010157622 -0.032125298 0.034631968 0.020623952
0003a0 d6 66 04 3d 10 93 d9 bc ba 35 bc 3c 10 f4 15 3c
       0.032324634 -0.026559383 0.022974838 0.009152427
0003b0 70 a7 f5 3c 58 6c e7 3c a0 79 0f bd 24 94 0d 3d
       0.029987067 0.028249905 -0.0350281 0.034565106
0003c0 ad 77 c1 bc 11 da 97 bc 2b c3 a2 bc c0 f4 69 3c
       -0.023616636 -0.0185366 -0.019868454 0.014279544
0003d0 00 00 00 80 00 00 00 00 0e 38 c3 3c 62 3b 88 3c
       -0.0 0.0 0.02383044 0.016629878
0003e0 4c 5f 2b 3c f6 39 0a 3d 00 00 00 00 ce bf 80 3c
       0.010459732 0.033746682 0.0 0.01571646
0003f0 78 59 f5 3c 00 00 00 00 00 00 00 80 60 b1 e5 3c
       0.029949889 0.0 -0.0 0.02803868

conv3.bias f4 [64]
000000 88 a6 77 3c 30 f5 48 3c c0 b9 68 ba ec 01 b2 3c
       0.015115388 0.0122654885 -0.00088777766 0.021729432
000010 78 1e b5 bc 07 64 36 bd 00 4f c1 39 70 2b 9a 3c
       -0.022109255 -0.044528987 0.00036870688 0.01881954
000020 90 c1 25 bc b8 a2 1a 3d 62 10 4a 3d fd e7 db bc
       -0.01011695 0.037752837 0.04933203 -0.02684402
000030 f0 53 59 3c 36 9b 81 bc 8c 5c 80 3c b2 43 92 bc
       0.013264641 -0.01582108 0.01566913 -0.017854545
000040 ca 9a cd bc b8 be 4b 3c 78 8e 14 3c 00 6a 87 b8
       -0.025098223 0.012435608 0.00906717 -6.457046e-05
000050 48 9a 39 3c a2 84 39 3d 52 57 2c 3d 84 25 74 bc
       0.011328287 0.045292504 0.042075463 -0.014901523
000060 b0 54 10 3b 30 a5 1a 3c d0 a8 f8 3c 80 c3 40 bb
       0.0022023134 0.009438798 0.030353934 -0.0029413402
000070 f4 2b ac 3c 18 11 1b 3c f8 b5 a9 3c f8 fc 1a 3c
       0.021017052 0.009464525 0.020716652 0.0094597265
000080 68 ab ca 3c 7e ff fe bc 1c 6e 10 bd c4 c3 c4 3c
       0.024739936 -0.031127688 -0.03526126 0.02401913
000090 45 02 35 bd 58 12 16 3d 2d fd 1a bd f6 e6 3c 3d
       -0.044191618 0.036638588 -0.037839103 0.0461187
0000a0 06 d5 48 3d 42 95 1a bd 88 ef 1d 3d c5 6a a4 bc
       0.04903128 -0.03774 0.038558513 -0.020070443
0000b0 90 70 68 3b 3c e7 b7 3c c0 c3 38 bc a8 5f 5e 3c
       0.0035467483 0.022449128 -0.011277139 0.013572611
0000c0 8c 6c 23 3c 1c f5 9b 3c 40 74 ac 3c ca 2e 23 3d
       0.00997461 0.019037776 0.021051526 0.039839543
0000d0 7a fd 3f 3d 98 10 44 3d 4a 28 44 bd 98 85 b6 3c
       0.046872593 0.047867388 -0.047889985 0.0222805
0000e0 4b b7 de bc c4 0f 0c 3d ec e6 32 bd 70 47 57 3c
       -0.02718701 0.034194723 -0.043677256 0.013139591
0000f0 80 3a 4d bb 2a 94 c6 bc ea 7a de bc c0 17 6a 3c
       -0.0031315386 -0.024240572 -0.02715822 0.014287889

conv3.weight f4 [64, 128, 3]
000000 00 00 00 80 84 8a 26 bc 4f 1c 3e bd 00 00 00 80
       -0.0 -0.010164861 -0.046413716 -0.0
000010 a2 e5 bd bc c4 3d 2e 3c 9c fc 0c 3d 8c 32 20 bd
       -0.023180787 0.010634843 0.034420595 -0.039110705
000020 54 7f c0 3c 18 45 4f 3d 64 7d 34 bd 66 00 0e bd
       0.023498215 0.050603002 -0.044064894 -0.03466835
000030 00 00 00 80 25 e6 a2 bc 5f da bc bc e1 8c c2 bc
       -0.0 -0.019885132 -0.023053346 -0.023748817
000040 1c 41 3c 3d cb 9e c5 bc 08 c1 48 bd c5 3f af bc
       0.04596053 -0.02412357 -0.049012214 -0.021392712
000050 00 00 00 00 42 be 2f bd fc e1 a6 bc 74 ab 32 bc
       0.0 -0.042906053 -0.02037143 -0.010905135
000060 0c 83 20 3d 4a 70 3a 3d 84 9e d8 3c 08 da fc 3c
       0.039187476 0.045517243 0.026442774 0.030865684
000070 a8 4d 1a 3d 8a f8 27 3d 00 00 00 80 69 67 d4 bc
       0.037671715 0.04100851 -0.0 -0.025928216
000080 64 5d 89 3c 08 8c 9f bc 69 35 4e bd 00 00 00 00
       0.016768165 -0.019475952 -0.050343905 0.0
000090 c8 2a 03 bd 2c 97 d9 3c a4 58 08 bd 02 75 3a 3d
       -0.03202322 0.026561342 -0.03328766 0.045521744
0000a0 3e bf 2c bd 00 00 00 00 00 00 00 00 7e 98 80 bc
       -0.04217457 0.0 0.0 -0.015697714
0000b0 7c f2 f7 bc 00 00 00 80 05 0c ff bc 60 e5 0c 3d
       -0.030266993 -0.0 -0.031133661 0.034398437
0000c0 00 00 00 00 78 82 28 bd 00 00 00 00 00 00 00 00
       0.0 -0.04114005 0.0 0.0
0000d0 ea 19 95 bc 44 b6 8f 3c b8 18 32 bd 00 00 00 00
       -0.018200833 0.017542966 -0.043480605 0.0
0000e0 d2 46 33 3d f8 d6 24 3d 94 25 01 bd 54 a5 e2 3c
       0.04376871 0.040244073 -0.031529978 0.027666725
0000f0 54 85 fc 3c 00 00 00 00 e0 e5 3a 3d 28 48 43 3c
       0.030825295 0.0 0.045629382 0.011919059
000100 8c cd cd 3c c8 a8 0f bd c4 2e 36 bd 4c da 3d 3d
       0.025122426 -0.03507307 -0.044478193 0.046350762
000110 28 c6 5e 3c 8a 23 31 bd 38 b2 10 3d 00 00 00 00
       0.013597049 -0.043246783 0.035326213 0.0
000120 5a dc 33 3d 4b ae 13 bd ee af 09 3d 62 24 0e 3d
       0.043911316 -0.03605489 0.033615045 0.034702666
000130 78 62 54 3c 00 00 00 80 00 00 00 00 52 25 91 bc
       0.01296293 -0.0 0.0 -0.017717991
000140 d4 16 2a bd 29 2b 4b bd 00 00 00 80 b8 71 9d 3c
       -0.041525677 -0.049601708 -0.0 0.019219264
000150 00 00 00 80 cc 77 87 3c 00 00 00 80 78 25 47 bc
       -0.0 0.016536616 -0.0 -0.012154929
000160 0b b0 3c bd 00 00 00 00 ad 88 c4 bc 7e 8b 17 bd
       -0.046066325 0.0 -0.023990953 -0.036998264
000170 78 3d 1a 3d 00 00 00 80 b6 0e 2a 3d 7a 50 05 3d
       0.037656277 -0.0 0.041517936 0.03254745
000180 fc be 39 3d 8a 42 06 bd bc 07 2d bd ef 8b ab bc
       0.045348153 -0.0327783 -0.042243704 -0.020940749
000190 fa ea e2 bc 00 00 00 00 c6 95 1d 3d 5d 60 ac bc
       -0.027699936 0.0 0.038472913 -0.021042043
0001a0 f2 1a 4e 3d 14 e1 ab 3c 78 83 1a 3d 7c 4d d6 3c
       0.050318666 0.020981349 0.037723035 0.026159994
0001b0 ee 86 02 3d 3e ed e4 bc b8 b3 c9 3c 20 91 e7 bc
       0.03186696 -0.027945157 0.02462183 -0.028267443
0001c0 10 9b a1 3c 64 0b 04 3d 00 00 00 00 2c 18 24 bd
       0.01972726 0.032237425 0.0 -0.040062115
0001d0 00 00 00 00 00 00 00 80 50 81 41 3d 00 00 00 00
       0.0 -0.0 0.047242463 0.0
0001e0 80 ef 9a 3c 00 00 00 80 86 a1 3c 3d a2 a1 1c 3d
       0.01891303 -0.0 0.04605248 0.038240083
0001f0 0d 15 e0 bc 6c 17 20 3d a7 f6 20 bd 98 39 f3 3c
       -0.027353788 0.039084837 -0.039297726 0.029690549
000200 b8 7b 71 bc 1f 97 b0 bc 00 00 00 80 9c d2 2b bd
       -0.0147389695 -0.021556435 -0.0 -0.0419489
000210 2b f0 d1 bc 00 00 00 80 00 00 00 00 79 4e a5 bc
       -0.025627216 -0.0 0.0 -0.02017902
000220 84 16 93 3c 00 00 00 00 84 2b 41 3d 00 00 00 00
       0.017955072 0.0 0.04716064 0.0
000230 00 00 00 80 00 00 00 00 00 00 00 00 00 00 00 80
       -0.0 0.0 0.0 -0.0
000240 38 bd 18 3d 24 30 3d bd 00 00 00 00 00 00 00 00
       0.037289828 -0.04618849 0.0 0.0
000250 32 12 4e bd 54 28 22 bd e2 65 1b bd 0a 35 11 3d
       -0.05031032 -0.03958924 -0.03793896 0.035450973
000260 44 e1 d9 3c c8 80 23 bd 0f b7 40 bd e0 ea 83 bc
       0.026596673 -0.039917737 -0.04704958 -0.016103208
000270 70 69 3a bd 00 00 00 80 05 12 b4 bc ad fe e6 bc
       -0.04551071 -0.0 -0.021981249 -0.02819761
000280 00 00 00 00 86 9f 00 bd 00 00 00 00 8a 9f 09 bd
       0.0 -0.031402133 0.0 -0.033599414
000290 00 00 00 80 14 59 30 bd b0 48 32 bd 00 00 00 00
       -0.0 -0.0430537 -0.04352635 0.0
0002a0 f8 a2 9d 3c 88 ba 67 3c e0 b0 e8 bc 71 0f 32 bd
       0.019242749 0.014143594 -0.028404653 -0.043471757
0002b0 98 80 65 bc b0 b9 eb 3c 00 00 00 80 1a bd 09 3d
       -0.01400771 0.028775066 -0.0 0.033627607
0002c0 00 00 00 00 a0 6e 43 bd 6a e2 36 3d c6 a0 41 3d
       0.0 -0.047712922 0.04464952 0.047272466
0002d0 00 00 00 80 29 68 dd bc 9c c0 4d bc 00 00 00 00
       -0.0 -0.027027206 -0.012558129 0.0
0002e0 24 99 4d 3d 70 df 1f 3d 35 c2 31 bd 19 a7 1a bd
       0.050194874 0.039031446 -0.0433981 -0.037757013
0002f0 00 00 00 80 ec 5a 8a 3c c0 63 83 3c 0b 24 08 bd
       -0.0 0.016889058 0.016038775 -0.0332375
000300 00 72 17 3d 54 f7 74 bc dc ac 46 3d c9 2e fa bc
       0.036973953 -0.014951546 0.048504695 -0.030539887
000310 20 a7 39 bc 84 95 12 bd 00 00 00 80 00 c4 09 3d
       -0.01133135 -0.03578712 -0.0 0.033634186
000320 2c f4 3b bd 34 06 bf bc 81 38 49 bd 0f 79 50 bd
       -0.045887157 -0.023318388 -0.049126152 -0.0508967
000330 0e 81 3a 3d 64 99 06 3d 00 00 00 00 05 c4 cf bc
       0.045533232 0.03286113 0.0 -0.025362024
000340 cf b0 3e bd 8c f4 ee 3c 00 00 00 80 15 ea f6 bc
       -0.046555337 0.029169343 -0.0 -0.030140916
000350 d0 ed 29 3c 00 00 00 00 52 bf 1a bd 00 00 00 00
       0.01037164 0.0 -0.037780114 0.0
000360 cc 4c a4 3c 0e b4 48 3d d8 96 11 bd 98 db 8f 3c
       0.02005615 0.04899984 -0.035544246 0.017560765
000370 5d b2 ae bc a4 00 90 3c aa d8 38 3d 5c e7 4d bc
       -0.021325285 0.01757843 0.045128502 -0.012567367
000380 54 cd 87 bc 76 19 d8 bc 00 00 00 00 30 5e 45 bd
       -0.0165774 -0.026379328 0.0 -0.048185527
000390 0b 63 1e bd c0 7f 38 3c 00 00 00 00 90 c0 02 3d
       -0.038668673 0.011260927 0.0 0.031921923
0003a0 2d b4 2a bd b5 91 24 bd 96 7b 46 bd 00 00 00 00
       -0.041675735 -0.04017802 -0.048457704 0.0
0003b0 75 92 c9 bc ca ed 9c bc 00 00 00 00 00 00 00 80
       -0.024605969 -0.019156355 0.0 -0.0
0003c0 cf e2 f2 bc 3c b2 87 3c b7 65 4e bd 01 28 fd bc
       -0.029649166 0.016564481 -0.05038997 -0.030902864
0003d0 78 25 6c 3c 8c ac 80 3c 00 00 00 80 62 83 20 bd
       0.01441323 0.015707277 -0.0 -0.039187796
0003e0 00 00 00 80 4c de 2a 3c 40 04 ed 3c b4 3a 4c 3d
       -0.0 0.010428976 0.02893269 0.04986067
0003f0 4a 7e 42 bd 00 00 00 00 5e 5d 39 3d c6 cb 44 3d
       -0.04748372 0.0 0.045255058 0.048045896

conv4.bias f4 [32]
000000 a8 50 da 3c 44 ab 29 3d 60 0e 54 bc 88 d9 15 bc
       0.026649788 0.041423097 -0.01294288 -0.009146102
000010 6b 0b 85 bd ed 1a 1f bd 16 9b 29 bd b2 0a 45 3d
       -0.064963184 -0.038844038 -0.041407667 0.048105903
000020 1c bc 72 3d 7a 56 0c 3d fc e9 76 bd a0 ff 74 3d
       0.059261426 0.034262158 -0.06028174 0.059814095
000030 58 1d 3f 3c e8 0b 3b 3c 1f d8 90 bd 68 26 d7 3c
       0.011664711 0.011416413 -0.07072472 0.02626343
000040 6c b3 c3 bc fa c5 22 3d e0 e8 87 bc 04 8a 76 3d
       -0.023889266 0.039739586 -0.016590536 0.060190216
000050 b0 06 a9 bb 60 a4 06 3d 54 08 5a bd 31 33 7a bd
       -0.005158268 0.032871604 -0.0532306 -0.061083976
000060 a0 59 72 3d 70 40 94 3c 09 69 1c bd 40 62 d0 ba
       0.059167504 0.018097132 -0.038186107 -0.0015898421
000070 a4 db 88 3c d8 4e 06 3c ee 8b 5b bd c6 7c ad bc
       0.016706295 0.008197509 -0.053600244 -0.02117766

conv4.weight f4 [32, 64, 3]
000000 00 00 00 00 00 c9 3d 3d a0 8b 36 3d 00 00 00 00
       0.0 0.046334267 0.04456675 0.0
000010 b8 7f 6a 3d 00 00 00 80 d4 6b d5 3c 34 c6 1b bd
       0.05725071 -0.0 0.026052393 -0.038030818
000020 ba c8 45 3d 00 00 00 00 38 62 06 3d da bd 45 3d
       0.04828713 0.0 0.032808512 0.04827676
000030 14 2f 2b 3d f0 34 5d 3d 00 00 00 80 4f e3 11 bd
       0.041792944 0.054005563 -0.0 -0.03561717
000040 e6 bd d0 bc 78 d5 00 bd c2 0a 44 bd 00 c1 5f 3d
       -0.025481176 -0.03145358 -0.047861822 0.05462742
000050 52 c4 87 bd f6 68 d6 bc 76 94 88 bd 30 3d 56 3d
       -0.06629242 -0.026173096 -0.06668942 0.052304447
000060 84 52 94 3c 00 00 00 80 cc e5 1d 3d 9c 6a 9c 3c
       0.018105753 -0.0 0.03854923 0.019093804
000070 00 00 00 80 72 11 8e 3d 00 00 00 80 50 df 06 3d
       -0.0 0.06936921 -0.0 0.03292781
000080 79 53 4b bd 12 35 86 bc 00 00 00 80 00 00 00 80
       -0.049640153 -0.016382728 -0.0 -0.0
000090 80 fb f1 3c 96 8d 90 3d 13 b7 7d bd c4 b1 97 bc
       0.02953887 0.070582554 -0.06194217 -0.018517382
0000a0 b2 fa 15 bd 7e 44 0c 3d 84 65 77 3d d2 1e 28 3d
       -0.036616035 0.034245007 0.060399547 0.041045018
0000b0 00 00 00 00 00 00 00 80 00 00 00 80 8c 4c f2 bc
       0.0 -0.0 -0.0 -0.029577516
0000c0 8a 68 19 3d 48 eb 5b 3d 00 00 00 00 bc 7b cb bc
       0.03745321 0.05369118 0.0 -0.024839275
0000d0 14 a1 6e bd e7 3d 8b bd 94 16 39 bd 4e 6c 43 bd
       -0.058259085 -0.06798916 -0.045187548 -0.04771071
0000e0 80 e6 4f bd fe f6 42 3d 48 d9 0f 3d f2 9b ee bc
       -0.05075693 0.04759883 0.035119325 -0.029127095
0000f0 f4 fb 65 bd 10 ed 86 bd f6 a8 23 3d 00 00 00 80
       -0.056148484 -0.06588185 0.039956056 -0.0
000100 00 00 00 80 c4 d7 cd 3c 0e 76 84 3d 74 02 0f 3d
       -0.0 0.0251273 0.0646783 0.03491445
000110 00 00 00 00 9a 0a 10 bd 00 00 00 00 ec 45 a8 3c
       0.0 -0.03516636 0.0 0.020541154
000120 c8 96 9e bc 6a f3 8c 3d 28 80 e6 3c 84 c7 6b 3d
       -0.019359007 0.06882365 0.028137282 0.05756332
000130 00 00 00 00 7c 85 cd 3c 00 00 00 00 e7 34 0f bd
       0.0 0.025088064 0.0 -0.03496256
000140 2a f4 61 bd 00 00 00 80 8c f3 dc 3c 00 00 00 00
       -0.055164494 -0.0 0.026971601 0.0
000150 6d db 53 bd 2c a5 48 bd cb d9 6a bd d6 d3 58 bd
       -0.051722933 -0.048985645 -0.05733661 -0.052936397
000160 98 69 fd 3c 00 00 00 00 7a ba a6 bc 3f 81 0f bd
       0.03093414 0.0 -0.02035259 -0.035035368
000170 18 89 73 3d 2a ec 55 3d 50 30 6a bd ce d8 43 3d
       0.059456915 0.052227177 -0.05717498 0.047814183
000180 64 00 da bc 00 00 00 80 00 00 00 80 00 00 00 00
       -0.026611514 -0.0 -0.0 0.0
000190 a2 ca 86 bd 00 00 00 80 f8 cb 70 3d 0b 69 0e bd
       -0.06581618 -0.0 0.05878827 -0.034768146
0001a0 82 01 89 3d 2e 9a a4 bc 74 83 cd 3c fa 45 16 bd
       0.06689741 -0.02009305 0.025087096 -0.03668783
0001b0 00 00 00 80 00 00 00 00 a4 33 8e 3c d4 6e 14 3d
       -0.0 0.0 0.017358609 0.036238506
0001c0 fc 46 8a 3d 00 00 00 80 38 f7 77 3c ee 63 8f bc
       0.067518204 -0.0 0.015134625 -0.017503705
0001d0 2d 02 28 bd f2 5b 38 bd 6e 20 11 3d 00 00 00 00
       -0.0410177 -0.04500956 0.035431318 0.0
0001e0 00 00 00 00 60 28 55 3d 80 2b fd bc 1c bd a1 3c
       0.0 0.052040458 -0.030904531 0.019743495
0001f0 f8 e3 6e 3d fd e5 10 bd 00 00 00 00 9c 8e 68 bd
       0.058322877 -0.035375584 0.0 -0.056776628
000200 a4 58 14 3d 46 54 ab bc 00 00 00 80 71 36 89 bd
       0.036217347 -0.020914208 -0.0 -0.06699837
000210 2b c5 41 bd 00 00 00 00 92 fd 11 bd a8 8c 81 3c
       -0.047307175 0.0 -0.035642214 0.01581414
000220 ce 68 0f 3d 4a 05 fd bc 14 88 5a 3d d9 6e 1f bd
       0.03501206 -0.030886311 0.05335243 -0.038924072
000230 ec bf b8 3c 00 00 00 00 b0 e6 13 3d 37 48 40 bd
       0.022552453 0.0 0.036108673 -0.04694387
000240 38 db 23 3d e8 6b b4 3c 0a 17 1c 3d 60 ee 7d bd
       0.040003985 0.02202411 0.03810791 -0.06199491
000250 b0 4a 5d 3d ce a6 99 bc cc e0 83 3d 25 9b 82 bd
       0.054026306 -0.018756296 0.06439361 -0.06377248
000260 f2 45 91 bc 00 00 00 80 0c 6e 7c 3d 38 cd 24 bd
       -0.017733548 -0.0 0.061628386 -0.040234774
000270 00 00 00 00 a6 97 21 3d 00 00 00 80 00 00 00 80
       0.0 0.039451264 -0.0 -0.0
000280 6e 29 07 3d 02 e4 86 3d 96 de 82 bd c4 5f 16 3d
       0.032998495 0.06586458 -0.06390111 0.036712423
000290 f4 31 2b bd 55 af 83 bd 06 77 70 bd 78 7a 2b bd
       -0.041795686 -0.06429926 -0.05870726 -0.041864842
0002a0 00 00 00 00 fc b6 54 bd 5c ef 3d 3d 4d 4c 81 bd
       0.0 -0.05193232 0.04637085 -0.06313381
0002b0 20 35 54 3d 00 00 00 80 6c 3e 74 bc 60 81 66 3d
       0.051808476 -0.0 -0.014907461 0.056275725
0002c0 a4 b0 fe 3c c5 b3 53 bd ce ac 44 bd 00 00 00 80
       0.031090088 -0.051685113 -0.048016362 -0.0
0002d0 be 67 70 bd 84 da 62 3d 74 bc 36 bd c2 ef 34 bd
       -0.058692686 0.055384174 -0.044613317 -0.044173963
0002e0 4a 29 7f bd ed 73 21 bd 40 fb 78 bc e4 25 42 bd
       -0.062295236 -0.039417196 -0.015196621 -0.047399417
0002f0 9e a4 80 3d 00 00 00 80 36 59 01 bd 7a 54 93 3d
       0.06281398 -0.0 -0.03157922 0.07193847
000300 5c 83 c0 bc fc 44 ed 3c df 19 90 bd aa 17 1a 3d
       -0.023500137 0.028963558 -0.070361845 0.037620224
000310 f4 d8 af 3c 10 93 0b bd c0 e3 13 3d 00 00 00 80
       0.021465756 -0.034075797 0.03610587 -0.0
000320 b2 0c 5d bd e0 62 2f 3d 78 e2 7e 3c 4a e4 33 3d
       -0.053967185 0.042818904 0.015556924 0.043918885
000330 3c 2e 5e 3d 0c 18 85 3d 7e 76 33 bd ba 83 74 bd
       0.05424331 0.06498727 -0.043814175 -0.059695937
000340 00 00 00 00 c4 16 cf 3c b8 ec 89 3d 28 92 7b 3c
       0.0 0.02527941 0.06734604 0.015354671
000350 20 ef 02 3d 62 d6 30 3d 22 c8 42 3d 5a a4 90 bd
       0.03196633 0.0431732 0.047554143 -0.070625976
000360 c0 d4 12 bd 00 00 00 80 7c 1d 70 3d 8e 46 0a 3d
       -0.035847425 -0.0 0.05862187 0.033758692
000370 e8 a2 91 3d a2 01 8a 3d 00 00 00 80 d0 64 bd 3c
       0.0711115 0.06738593 -0.0 0.02311936
000380 6e 03 87 3d 0c b1 fb bc 3c 28 b4 3c b3 16 1b bd
       0.06592451 -0.030724071 0.021991841 -0.037863445
000390 00 00 00 00 28 67 2f bd 84 ce 8a 3d 68 1b 90 3c
       0.0 -0.042822987 0.06777671 0.017591193
0003a0 4c 76 37 bd 00 00 00 00 32 8d 57 3d d7 4f 42 bd
       -0.04479055 0.0 0.05262489 -0.047439422
0003b0 00 00 00 00 a4 cb 91 3d 1e 4c fe bc a4 7d 4c 3d
       0.0 0.071189195 -0.031042155 0.049924508
0003c0 bf 12 91 bd b3 54 4a bd 00 00 00 80 00 00 00 00
       -0.07083654 -0.04939718 -0.0 0.0
0003d0 40 10 9e 3c be 32 22 bd f4 8e 05 3d 48 bc 15 3d
       0.019294858 -0.039599173 0.032607034 0.036556512
0003e0 e4 11 0e 3d 00 00 00 80 f0 53 52 bd 00 00 00 80
       0.03468503 -0.0 -0.05134958 -0.0
0003f0 c1 0f 1a bd bc f6 6e bd 00 bf 91 bd 50 32 0d 3d
       -0.03761268 -0.058340773 -0.071165085 0.03447181

fc.weight f4 [6, 256]
000000 78 90 4b bc b0 ac b6 3c d8 0b d8 3c 80 bd 3c bc
       -0.012424581 0.02229914 0.026372835 -0.01151979
000010 80 c1 7d bb be 16 79 3d 30 77 b1 3b 20 16 8d 3b
       -0.0038720071 0.060812704 0.0054158196 0.004305616
000020 20 a4 a9 3c 7e f4 6c bd 66 5b 52 3d 96 8b 78 bd
       0.020708144 -0.057850353 0.051356696 -0.060679995
000030 66 c5 6e bd 64 45 29 3d 94 40 df 3c e0 6c c6 bc
       -0.058293723 0.04132594 0.027252473 -0.024221838
000040 00 54 c2 3b 5c c3 fd bc 38 6f 45 3d fa 12 0d 3d
       0.0059304237 -0.030976944 0.04820177 0.034441926
000050 88 aa da bc a0 a7 08 bb e0 d4 2c 3d fc 1c dc 3c
       -0.026692644 -0.0020851865 0.0421952 0.02686929
000060 c0 d9 b8 3a ac 67 60 bd d4 a7 97 bc f0 b0 ec bb
       0.001410298 -0.05478637 -0.018512644 -0.007223241
000070 20 ce 97 bc 70 ea de bc 16 16 62 bd 68 ca 6c bc
       -0.018530905 -0.027211398 -0.055196844 -0.014452554
000080 b6 a4 07 3d ac 49 4c bd 74 6d 68 3d ce f0 36 bd
       0.033116065 -0.049874946 0.056745008 -0.044663243
000090 10 f9 93 bb 12 48 48 3d e0 ba 45 3b 1a 1d 7d 3d
       -0.0045157745 0.048896857 0.00301712 0.06179533
0000a0 b0 27 e5 bc 48 4a 5f bd 50 c9 67 3c 40 93 82 bc
       -0.027973026 -0.0545142 0.014147118 -0.015939355
0000b0 78 9c 35 bd 1e da 62 bd 36 46 44 bd 68 a4 5e 3c
       -0.044338673 -0.055383794 -0.04791852 0.013589002
0000c0 30 6f 1e bd e0 41 7c bc 7c dc 8b 3c 00 70 5c bc
       -0.038680255 -0.015396565 0.017072909 -0.013454437
0000d0 9e 76 35 3d e8 cf 98 bc 00 59 e2 b9 72 83 05 bd
       0.044302575 -0.018653825 -0.0004317239 -0.03259606
0000e0 18 fe 95 bc 1c 16 ea 3c d0 79 44 bd a2 77 04 3d
       -0.018309638 0.028574996 -0.047967732 0.032340653
0000f0 c4 5f b9 3c 18 e2 e3 bc 58 1b 02 3c 64 85 ef bc
       0.022628672 -0.02781777 0.00794109 -0.02923841
000100 d6 db 5b bd 00 75 83 bc d0 a0 ce bc 68 5e c9 bc
       -0.05367645 -0.016047 -0.025223166 -0.02458115
000110 7a 48 1b 3d 20 d2 7d 3b fa ce 51 3d 1c 88 9a 3c
       0.037910916 0.003872998 0.05122278 0.01886373
000120 2a 68 0d 3d 80 89 06 3a be 53 15 3d 34 b5 41 bd
       0.034523167 0.00051321834 0.036456816 -0.04729195
000130 20 1d 77 bc 20 d1 76 bc a0 e2 de 3c 4c 8d a0 3c
       -0.015082628 -0.015064508 0.027207673 0.019598626
000140 f0 0f 51 bd 10 50 90 bb 2e fb 7f 3d 94 c4 55 3d
       -0.05104059 -0.0044040754 0.062495403 0.052189425
000150 88 05 4b bd 2c d4 67 3d 30 3b 66 bc 60 82 2d bb
       -0.049565822 0.056598827 -0.014052197 -0.0026475415
000160 9e 1a 2c bd 40 14 99 ba 3c 34 29 3d e8 87 07 bc
       -0.04201757 -0.0011679009 0.04130958 -0.008272149
000170 66 de 59 3d 14 78 ee 3c e4 7d 9e bc da 7d 1c 3d
       0.05319061 0.029109992 -0.019347139 0.03820596
000180 5a b1 18 bd 6c 7e 8a bc e4 bf 46 bd 8c 4a 69 3d
       -0.03727851 -0.016905986 -0.048522845 0.05695586
000190 98 ff 2f bd 72 9c 0d bd 30 92 ff bb e4 3b ad bc
       -0.042968363 -0.034573026 -0.0077994093 -0.021146722
0001a0 4e f6 4b bd ae 0b 33 bd 8c 77 5b bd 40 86 4b 3b
       -0.04979544 -0.04371231 -0.053580806 0.003105536
0001b0 a8 d4 50 bd 6c ff 1b bd 58 aa 30 bc b2 ed 3a 3d
       -0.050984055 -0.038085386 -0.010782801 0.04563684
0001c0 26 2a 76 3d a8 ed 00 bc 70 85 e1 3c 54 55 5d bd
       0.06009879 -0.007869162 0.027529448 -0.054036453
0001d0 f2 8e 7c 3d c0 9a a5 bc 4e b6 53 bd 78 80 59 3c
       0.06165976 -0.020215392 -0.05168753 0.013275258
0001e0 b8 4b 7e bd f6 cf 1b bd aa 03 77 bd 1a 7f 52 bd
       -0.06208393 -0.038040124 -0.06030623 -0.051390745
0001f0 58 de 18 3d 74 3d 17 3d 98 a0 e0 bc a4 8e 94 3c
       0.03732142 0.03692384 -0.027420327 0.018134423
000200 3e c4 76 3d 88 73 08 3d 62 b2 1d bd 48 97 51 bc
       0.060245745 0.033313304 -0.038500197 -0.012792416
000210 88 0b 44 bc 0a 1c 33 3d 06 7b 78 3d 00 4a 18 3d
       -0.01196564 0.043727912 0.0606642 0.037179947
000220 68 18 89 3c 10 b6 51 bd 94 10 0a bd 1c 59 7c bd
       0.01673527 -0.05119902 -0.033707216 -0.06160842
000230 d8 35 29 3d a6 76 19 bd a8 9c 70 3d 48 c0 aa bc
       0.041311115 -0.037466668 0.05874315 -0.02084364
000240 d4 64 81 3c f0 d6 ff 3b c0 25 f9 bc 3c b4 88 bc
       0.015795149 0.007807605 -0.030413508 -0.016687505
000250 f8 00 6d 3d 40 4c ba 3b 82 60 08 3d de e2 51 3d
       0.057862252 0.0056853592 0.033295162 0.051241748
000260 b0 0f 35 3c 40 9b b9 3c bc 15 40 3d 0c a8 b2 bc
       0.0110511035 0.022657037 0.046895728 -0.021808647
000270 f0 cb 98 bb b4 99 de bc bc 4c 3f bd dc dc 10 bd
       -0.004662983 -0.0271729 -0.04670404 -0.035366878
000280 8e a9 7c bd 80 34 93 ba 86 8d 17 3d cc 57 f6 bc
       -0.061685137 -0.0011230856 0.0370002 -0.030071162
000290 10 be 2e bc 94 e5 ec bc 82 0b 34 3d 3c 0a 1a bd
       -0.010665432 -0.028918065 0.043956287 -0.037607417
0002a0 72 ce 28 bd 72 01 4e bd 9a 13 33 3d 38 35 fd 3c
       -0.041212507 -0.050294347 0.043719865 0.030909166
0002b0 bc 49 d1 bc 80 22 a2 bc 3a 73 31 bd e8 f8 2d 3c
       -0.025547855 -0.019791842 -0.04332278 0.010618426
0002c0 a4 0b 46 bd 90 d3 f4 bb 2e 4e 7e bd 70 9d 72 bd
       -0.048350945 -0.0074715093 -0.062086277 -0.059232175
0002d0 3c 06 b2 bc a8 7b 5b bc c0 1f 5c 3d 48 e7 49 3c
       -0.021731488 -0.013396181 0.053741217 0.012323208
0002e0 2c eb d2 bc d0 c2 51 bc f8 bb 8e bc bc 42 83 bc
       -0.025746904 -0.012802795 -0.017423615 -0.016023032
0002f0 60 09 a2 bc e0 ad f3 bc 6a 89 4d 3d 90 ca 32 bc
       -0.019779861 -0.029745996 0.050179876 -0.0109125525
000300 78 c4 c4 bc b8 08 44 3c ae b5 41 bd 70 dd 13 bd
       -0.024019465 0.011964969 -0.047292404 -0.03609985
000310 f8 ca b0 bc 18 b2 39 bd c0 4d f4 3a 7c 55 6e bd
       -0.021581158 -0.04533586 0.0018638894 -0.058186993
000320 98 8f 2d 3c ac a3 31 bd 40 eb d2 bc be b9 18 3d
       0.010593317 -0.04336898 -0.025746942 0.037286513
000330 de 00 5c 3d 2a db 42 3d 00 a4 73 3b 30 32 bf 3c
       0.053711765 0.047572292 0.003717661 0.023339361
000340 48 16 0a 3d b8 4b f9 bc 00 f3 cc 39 dc 87 5e 3d
       0.033712655 -0.030431613 0.0003909096 0.054328784
000350 10 74 1e 3d 46 c1 0e bd b0 ed cc 3c c8 cc ce 3c
       0.038684905 -0.03485229 0.025015682 0.025244132
000360 c0 9f d3 3a 90 6c 17 bc ee 0b 13 bd 4c 7b 49 3d
       0.0016145632 -0.009242192 -0.03590005 0.04918985
000370 d4 18 6b bd 58 90 7b 3c f8 9e 0b bd f4 b0 8d bc
       -0.057396725 0.015354238 -0.03408715 -0.017296292
000380 4c 68 21 3d e2 a6 39 bd 2c fb 16 bd c6 80 04 bd
       0.039406106 -0.045325167 -0.03686063 -0.03234937
000390 40 9a 88 3a 88 e0 fd bc a8 16 34 3d ee 04 0e bd
       0.0010421947 -0.030990854 0.04396692 -0.03467267
0003a0 fe 9d 6d 3d da d4 25 bd 36 04 2a 3d 00 8b d2 3a
       0.058012 -0.040486194 0.041507922 0.0016063154
0003b0 28 16 19 bd 22 89 73 3d 80 03 02 bb cc 33 9c 3c
       -0.037374645 0.059456952 -0.0019838512 0.019067667
0003c0 82 9c 7d bd dc 9e b1 bc c4 5b 3f 3d 90 cd bf bc
       -0.061916836 -0.021682195 0.046718374 -0.02341345
0003d0 b2 d7 03 3d 20 45 6d 3b 08 d0 7b bd b8 bb 89 3c
       0.032188125 0.0036204532 -0.06147769 0.016813144
0003e0 f8 ff d0 bc 46 7c 1a 3d 3a ae 1c 3d 06 04 41 bd
       -0.02551268 0.037716173 0.038252093 -0.047122978
0003f0 70 d1 e5 bb bc fe 5b 3d 60 89 2a 3c f0 a1 01 bc
       -0.0070134923 0.05370973 0.010408729 -0.007912144

fc.bias f4 [6]
000000 20 7c e8 3b c8 78 d2 bc a0 11 74 bb c8 ec 76 3c
       0.007094875 -0.025692359 -0.003724195 0.0150711015
000010 56 4a 54 3d fe 16 4f 3d
       0.051828705 0.050559036
