code/conjugate_gradient/models/transformer_base.pt (torch, 63422 bytes, 54 tensors)

encoders.0.norm1.weight f4 [3]
1.0110551 0.96472615 0.9790461
00000000: 416a 813f 4bf8 763f c4a2 7a3f

encoders.0.norm1.bias f4 [3]
-0.020403085 -0.10410612 -0.02744842
00000000: 5f24 a7bc 9735 d5bd 82db e0bc

encoders.0.attention.in_proj_weight f4 [9, 3]
-0.23010409 -0.2851991 -0.42015612 0.5006708 0.4195537 0.1976434 0.5054882 -0.5913246
-0.07770786 0.025614979 0.097118825 -0.670013 -0.41798106 -0.50709254 0.040914457 0.09478966
-0.54540634 -0.51014245 0.032927178 -0.5131036 0.6633107 -0.00818054 0.49695837 -0.34536496
-0.30594745 -0.4775345 -0.5366792
00000000: 68a0 6bbe 9e05 92be b41e d7be f62b 003f
00000010: becf d63e 0863 4a3e ad67 013f 0d61 17bf
00000020: 4c25 9fbd 81d6 d13c 3ce6 c63d f985 2bbf
00000030: 9d01 d6be d1d0 01bf eb95 273d 1521 c23d
00000040: c09f 0bbf b298 02bf a6de 063d c25a 03bf
00000050: bbce 293f ac07 06bc 5471 fe3e add3 b0be
00000060: 25a5 9cbe 677f f4be cf63 09bf

encoders.0.attention.in_proj_bias f4 [9]
0.015503174 -0.010192521 0.01870809 -6.7013513e-12 -1.7454372e-12 -1.0825544e-11 -0.0115353735 -0.09754647
0.081768006
00000000: 0601 7e3c 88fe 26bc b541 993c 68c8 ebac
00000010: 01a6 f5ab ea71 3ead ddfe 3cbc 72c6 c7bd
00000020: fc75 a73d

encoders.0.attention.out_proj.weight f4 [3, 3]
-0.056471378 0.37055963 0.20309941 0.4052895 0.387313 -0.43360272 0.0550951 -0.3680022
0.48098376
00000000: 884e 67bd feb9 bd3e 4bf9 4f3e 1b82 cf3e
00000010: e44d c63e 2d01 debe 66ab 613d c96a bcbe
00000020: 8143 f63e

encoders.0.attention.out_proj.bias f4 [3]
-0.056158677 -0.062034164 0.14062859
00000000: a406 66bd 8917 7ebd f100 103e

encoders.0.norm2.weight f4 [3]
1.183429 1.3008397 1.2795641
00000000: 9a7a 973f ea81 a63f c2c8 a33f

encoders.0.norm2.bias f4 [3]
0.055355955 -0.09149732 0.13671981
00000000: edbc 623d f262 bbbd 4700 0c3e

encoders.0.conv1.weight f4 [64, 3, 1]
0.5292095 0.39420825 -0.0033589227 -0.122102074 -0.3266156 0.5698739 0.14318714 -0.24513505
-0.23818275 0.2958676 -0.18560731 0.35016757 0.55314356 0.098044716 -0.15907909 -0.543149
0.5215907 0.21001402 0.13820022 0.53502357 -0.5264003 -0.11657581 -0.454663 0.2666995
0.026343575 -0.2711261 -0.19110861 -0.14127809 -0.18629578 0.4953571 0.34334308 0.06488858
0.03895306 0.040463317 -0.46645668 0.11604999 -0.124042176 -0.34615898 0.41893968 0.51796734
0.04350297 -0.09126015 -0.11209041 -0.5724744 -0.43209022 -0.22114943 -0.41734996 0.008785301
-0.52261853 -0.02179829 0.22529052 0.02853306 -0.3634734 -0.33431974 -0.44587237 0.38869616
-0.5281633 0.5574196 0.043228377 0.15862794 0.21439326 -0.084884636 -0.2378637 0.5690983
-0.28291655 -0.2932366 0.19567049 -0.29525667 0.3595035 -0.41273087 0.40798855 0.18863997
-0.01763226 0.17018734 0.30250707 -0.4868632 -0.3093068 0.30742264 -0.33173707 0.51161957
0.44816592 0.26059353 -0.6287181 0.15981553 -0.3692589 -0.54324 0.3217976 -0.37182078
-0.2842971 0.35948718 -0.5287025 -0.39324412 -0.26269782 0.36111972 -0.500976 -0.21251018
0.1106331 0.3300564 0.46780136 0.51437163 -0.17317039 0.13334331 -0.069027215 0.023217382
-0.5306267 -0.090468585 -0.14045814 0.12391931 0.45364708 0.21893615 0.47355157 0.47168064
0.18204112 0.15760872 -0.32587993 -0.42275482 -0.3676802 -0.32570243 -0.2446595 -0.5383979
-0.21605684 -0.09886573 -0.44166014 0.019248666 0.14785746 -0.21396625 -0.35307485 -0.4567171
0.61553895 0.46886778 -0.03507418 0.36823237 -0.46236315 0.53231174 0.10822569 0.53941053
0.52688104 0.26452643 0.51251924 -0.22393516 0.49537843 -0.051616374 0.4948059 0.34746197
0.55985177 -0.2939085 0.42315388 -0.59869874 0.32364097 -0.20012145 -0.02763206 0.30008107
0.45909473 -0.15522793 0.5687004 -0.24730028 -0.11332693 0.14177242 -0.052746244 -0.06156557
-0.5849243 -0.43878892 -0.44480222 0.09260822 0.1489116 -0.18741587 0.49555922 0.066038795
0.42404488 0.10083753 0.026195403 0.5530856 -0.6537392 -0.20146737 0.49763766 0.55619633
0.09332772 -0.10537359 -0.0120926015 -0.46994248 0.22545981 -0.044345196 -0.15762621 -0.36796603
0.52250963 -0.21811898 -0.30554357 -0.3821136 -0.27184564 0.45364177 -0.62834406 0.63111496
00000000: 467a 073f aad5 c93e 5f21 5cbb a710 fabd
00000010: 293a a7be 42e3 113f a69f 123e af04 7bbe
00000020: 2ee6 73be f57b 973e d80f 3ebe 2a49 b33e
00000030: d19a 0d3f abcb c83d a1e5 22be d00b 0bbf
00000040: f886 053f ea0d 573e 5c84 0d3e 4ef7 083f
00000050: 2cc2 06bf 4cbf eebd 97c9 e8be d68c 883e
00000060: 7bce d73c 0ad1 8abe fab1 43be 34ab 10be
00000070: 52c4 3ebe 729f fd3e aaca af3e 4ee4 843d
00000080: 3e8d 1f3d ddbc 253d 69d3 eebe 9eab ed3d
00000090: d309 febd c03b b1be 437f d63e 8299 043f
000000a0: 2c30 323d 9ae6 babd a88f e5bd af8d 12bf
000000b0: ee3a ddbe ff74 62be e5ae d5be 39f0 0f3c
000000c0: 54ca 05bf 5492 b2bc 8fb2 663e 2abe e93c
000000d0: 2f19 babe f52b abbe 6249 e4be 2f03 c73e
000000e0: b635 07bf 0db3 0e3f 3d10 313d 5d6f 223e
000000f0: e889 5b3e ffd7 adbd 8b92 73be 6db0 113f
00000100: 70da 90be 1c23 96be d85d 483e e22b 97be
00000110: d810 b83e 7651 d3be e0e3 d03e d62a 413e
00000120: 8871 90bc 9745 2e3e 35e2 9a3e 2246 f9be
00000130: 765d 9ebe 8066 9d3e 71d9 a9be 80f9 023f
00000140: 0176 e53e 846c 853e abf3 20bf afa6 233e
00000150: 810f bdbe c711 0bbf a8c2 a43e 4b5f bebe
00000160: 648f 91be b40e b83e 0c59 07bf 4b57 c9be
00000170: 5480 86be afe4 b83e f73f 00bf 459c 59be
00000180: 9b93 e23d 27fd a83e a983 ef3e dcad 033f
00000190: 9453 31be 268b 083e 245e 8dbd 6132 be3c
000001a0: 27d7 07bf 9847 b9bd 42d4 0fbe 68c9 fd3d
000001b0: 6e44 e83e cc30 603e 5a75 f23e 2080 f13e
000001c0: fd68 3a3e 2e64 213e bcd9 a6be 5273 d8be
000001d0: 9440 bcbe 78c2 a6be 0588 7abe 72d4 09bf
000001e0: 013e 5dbe 1e7a cabd 4721 e2be 61af 9d3c
000001f0: f267 173e f819 5bbe 3ac6 b4be d3d6 e9be
00000200: f693 1d3f 700f f03e f2a9 0fbd f488 bc3e
00000210: ddba ecbe 9545 083f 6ea5 dd3d cf16 0a3f
00000220: ade1 063f 0270 873e 7634 033f 424f 65be
00000230: 3ea2 fd3e b16b 53bd 3357 fd3e 89e6 b13e
00000240: 7252 0f3f 2d7b 96be a0a7 d83e 5244 19bf
00000250: 45b4 a53e a3ec 4cbe a15c e2bc 3aa4 993e
00000260: 770e eb3e 12f4 1ebe 5996 113f 493c 7dbe
00000270: f317 e8bd ca2c 113e 720c 58bd 2e2c 7cbd
00000280: 99bd 15bf f1a8 e0be 1ebd e3be 61a9 bd3d
00000290: 487c 183e f2e9 3fbe f0b9 fd3e 593f 873d
000002a0: 691c d93e e883 ce3d be97 d63c 0597 0d3f
000002b0: 745b 27bf 764d 4ebe 5dca fe3e e262 0e3f
000002c0: 9b22 bf3d 1cce d7bd 0c20 46bc 4d9c f0be
000002d0: f0de 663e 4fa3 35bd c468 21be 0b66 bcbe
000002e0: 31c3 053f 955a 5fbe 3570 9cbe 65a4 c3be
000002f0: 5a2f 8bbe bc43 e83e 28db 20bf c090 213f

encoders.0.conv1.bias f4 [64]
-0.370796 0.4323809 -0.32094932 -0.47521028 -0.023852373 -0.44448286 0.46841484 -0.04559389
0.1679407 0.04468941 0.09802006 -0.1507593 0.01817603 -0.108786605 0.34282833 0.5845897
-0.23480187 -0.43618557 0.5545367 0.037804 0.35621896 0.22607753 0.3947255 -0.562338
0.2799135 0.4306523 -0.44773114 -0.42325017 -0.4305633 -0.541863 0.364393 -0.109116115
-0.4565051 0.16540727 0.5524883 -0.5680652 0.038373042 -0.13938814 -0.35549933 -0.21102285
0.40467134 -0.24912593 -0.3009395 0.41662583 0.30774504 0.5947368 0.38399538 0.34870097
0.50042707 -0.27161372 -0.3541984 -0.55206966 0.3504705 0.5463661 0.5225205 -0.58369565
0.11303378 0.5912366 -0.50853175 -0.48850146 -0.37850156 -0.55635625 -0.43380418 0.5470773
00000000: f9d8 bdbe 0861 dd3e 7853 a4be c34e f3be
00000010: 0d66 c3bc 4293 e3be 12d4 ef3e a9c0 3abd
00000020: a6f8 2b3e 3e0c 373d bebe c83d a560 1abe
00000030: e6e5 943c 83cb debd 3287 af3e aca7 153f
00000040: e76f 70be b753 dfbe 1ef6 0d3f 5ed8 1a3d
00000050: 5562 b63e de80 673e 7619 ca3e 62f5 0fbf
00000060: d350 8f3e 757e dc3e 043d e5be 3fb4 d8be
00000070: cb72 dcbe 89b7 0abf b891 ba3e 4578 dfbd
00000080: 09bb e9be 8660 293e e06f 0d3f b96c 11bf
00000090: 0d2d 1d3d c4bb 0ebe 0204 b6be 6016 58be
000000a0: 1531 cf3e de1a 7fbe be14 9abe fb4f d53e
000000b0: c290 9d3e ac40 183f 0b9b c43e ef88 b23e
000000c0: fd1b 003f f410 8bbe 7e59 b5be 7054 0dbf
000000d0: df70 b33e a6de 0b3f e7c3 053f 146d 15bf
000000e0: 417e e73d 485b 173f 232f 02bf dd1c fabe
000000f0: f5ca c1be 5d6d 0ebf 951b debe 420d 0c3f

encoders.0.conv2.weight f4 [3, 64, 1]
-0.10882621 -0.109567605 0.060893506 0.0049124155 -0.019587332 0.0780804 0.08660236 -0.078133404
-0.12506448 -0.040783428 0.0753966 -0.12458911 0.026908107 -0.09650295 -0.19820884 -0.019111555
-0.015265335 -0.0099450275 0.11730598 0.031080652 -0.0050217984 -0.09751221 -0.20513047 -0.12220179
0.019114709 0.0009413632 -0.040155213 -0.20801106 0.08662716 0.03478418 0.061888464 0.02884546
-0.09928272 -0.05470481 0.13845274 0.08565195 -0.1432593 -0.11262843 -0.02369012 -0.07882802
-0.03089197 0.11447384 -0.11098369 0.025348412 -0.035968333 -0.07789478 -0.017632548 -0.013654819
-0.22438304 -0.05510931 0.06527476 0.0005941704 -0.0058601154 -0.12593979 0.02129885 -0.045097508
-0.09883888 -0.13937394 0.08418572 -0.1167388 0.11760973 0.09438821 -0.10844487 -0.09126444
0.044215787 -0.34654686 -0.101403184 0.053668965 0.052400377 -0.118635066 0.10162516 -0.12510285
0.00619517 -0.18952356 0.03598629 -0.013203145 -0.20533162 0.08629979 0.022109656 -0.32472104
-0.17469773 0.05608765 0.07618837 -0.12190949 0.07289509 -0.02004997 -0.23726963 -0.013555514
-0.07947823 -0.29513747 -0.15483089 -0.22186616 -0.2052074 0.0328184 -0.06495696 -0.01435007
0.027214218 -0.1570702 0.19009309 -0.07796931 -0.11094015 0.07175923 0.095843256 0.047826808
-0.015482689 0.031563364 -0.24356006 -0.17766237 -0.15144859 -0.003223923 -0.29508474 -0.0130395945
-0.32208565 -0.16728447 -0.05801663 0.10761999 -0.015294762 0.016756348 -0.24661101 -0.011576929
-0.044685926 -0.19898026 0.118638776 0.009834802 -0.0051674303 -0.054927915 -0.07520233 -0.5192208
-0.035437547 -0.103478424 -0.1302185 -0.024634402 -0.19545835 0.085601956 0.061160274 0.057947405
-0.010596409 0.06495954 -0.17563684 -0.0016664454 -0.03422954 0.016371403 -0.21726157 -0.07871369
-0.15442686 -0.06934367 0.15205964 -0.080710344 -0.14922409 -0.20318922 0.020283995 0.035446502
-0.07201424 0.023792367 -0.03953112 0.048041094 0.118920766 0.014439366 0.05025986 -0.2022557
-0.016220482 -0.24219544 0.008619442 -0.064523935 0.02520529 0.00729769 -0.00080931187 0.07211978
-0.014563719 0.067460276 0.06412306 -0.18530536 0.2508752 -0.009743334 -0.2135128 0.160893
-0.23575789 0.15522729 -0.06452336 0.19266473 0.006749382 -0.11422773 0.00073482294 -0.03768978
-0.15221588 -0.37604707 -0.028851746 -0.013777196 -0.041867107 0.14964306 0.042725697 -0.122992724
00000000: 47e0 debd fb64 e0bd 786b 793d 54f8 a03b
00000010: 9d75 a0bc 9ee8 9f3d 945c b13d 6804 a0bd
00000020: e710 00be 860c 27bd 8869 9a3d 9328 ffbd
00000030: 646e dc3c 57a3 c5bd 42f7 4abe d68f 9cbc
00000040: 751b 7abc 78f0 22bc 1e3e f03d da9c fe3c
00000050: e68d a4bb 7bb4 c7bd b90d 52be ef44 fabd
00000060: 7396 9c3c d1c5 763a cb79 24bd da00 55be
00000070: 9569 b13d db79 0e3d c27e 7d3d 504d ec3c
00000080: bd54 cbbd 2712 60bd 8ec6 0d3e 4a6a af3d
00000090: 91b2 12be bca9 e6bd c811 c2bc 9670 a1bd
000000a0: 2811 fdbc 4371 ea3d 6b4b e3bd 79a7 cf3c
000000b0: 8853 13bd 4c87 9fbd 2272 90bc 76b8 5fbc
000000c0: abc4 65be 4dba 61bd c6ae 853d 1ac2 1b3a
000000d0: 3606 c0bb 5cf6 00be ed7a ae3c 2ab8 38bd
000000e0: 0a6c cabd 0bb8 0ebe 9069 ac3d c114 efbd
000000f0: 5fdd f03d 9b4e c13d 5818 debd dae8 babd
00000100: 9d1b 353d 976e b1be 79ac cfbd fdd3 5b3d
00000110: c7a1 563d f1f6 f2bd da20 d03d f61a 00be
00000120: da00 cb3b 7712 42be 5c66 133d 0152 58bc
00000130: 7442 52be f2bd b03d 4f1f b53c d641 a6be
00000140: f6e3 32be 2abc 653d a608 9c3d afab f9bd
00000150: 054a 953d d63f a4bc cff6 72be f217 5ebc
00000160: 7bc5 a2bd 421c 97be fd8b 1ebe e230 63be
00000170: e321 52be 966c 063d 2808 85bd 8e1c 6bbc
00000180: 5af0 de3c 03d7 20be c3a7 423e 60ae 9fbd
00000190: 9734 e3bd 81f6 923d 7849 c43d 0be6 433d
000001a0: 1bab 7dbc 9648 013d cf67 79be 20ed 35be
000001b0: 5715 1bbe 7448 53bb 5915 97be 06a4 55bc
000001c0: 69e8 a4be 9f4c 2bbe d9a2 6dbd df67 dc3d
000001d0: e296 7abc 9c44 893c 9987 7cbe 29ad 3dbc
000001e0: 9708 37bd 7bc1 4bbe e3f8 f23d 2622 213c
000001f0: 8c53 a9bb 18fc 60bd ae03 9abd a8eb 04bf
00000200: f626 11bd 7fec d3bd 0058 05be 16ce c9bc
00000210: 3c26 48be 1450 af3d 3283 7a3d 425a 6d3d
00000220: 909c 2dbc 8209 853d 25da 33be a16c daba
00000230: 4634 0cbd 521d 863c d179 5ebe a534 a1bd
00000240: 1322 1ebe 0e04 8ebd 86b5 1b3e 774b a5bd
00000250: 33ce 18be d610 50be 9f2a a63c 5a30 113d
00000260: 347c 93bd 36e8 c23c 62eb 21bd bdc6 443d
00000270: bb8c f33d 1793 6c3c 48dd 4d3d 1e1c 4fbe
00000280: d1e0 84bc 1502 78be 8f38 0d3c 2025 84bd
00000290: 537b ce3c 7621 ef3b 0028 54ba 89b3 933d
000002a0: aa9c 6ebc 9d28 8a3d f352 833d b0c0 3dbe
000002b0: b772 803e 81a2 1fbc 19a3 5abe 22c1 243e
000002c0: 846a 71be e7f3 1e3e d324 84bd e749 453e
000002d0: eb29 dd3b 3af0 e9bd 22a1 403a 9960 1abd
000002e0: 7bde 1bbe 3e89 c0be 7f5a ecbc c0b9 61bc
000002f0: d87c 2bbd 083c 193e 2401 2f3d 9ce3 fbbd

encoders.0.conv2.bias f4 [3]
-0.02593189 -0.09237825 -0.02585796
00000000: 1d6f d4bc cf30 bdbd 13d4 d3bc

encoders.1.norm1.weight f4 [3]
0.9940001 0.9979258 1.0071541
00000000: ca76 7e3f 1178 7f3f 6dea 803f

encoders.1.norm1.bias f4 [3]
-0.011232865 0.0036722277 -0.007075864
00000000: 0d0a 38bc c2a9 703b a6dc e7bb

encoders.1.attention.in_proj_weight f4 [9, 3]
-0.18025641 -0.038090084 0.60622007 0.21839873 -0.41269672 -0.15953594 0.3285465 0.2930087
0.64445025 -0.5121287 0.25544545 0.4118072 -0.47484133 -0.68730634 0.19674271 -0.29968387
-0.10770787 -0.24148132 0.07045245 0.09029186 -0.66958684 -0.47627613 -0.01479526 -0.4370301
-0.10112301 0.1921965 0.16966127
00000000: 2395 38be 5904 1cbd 3d31 1b3f eba3 5f3e
00000010: fc4c d3be 645d 23be 3f37 a83e 3c05 963e
00000020: b1fa 243f de1a 03bf bfc9 823e 65d8 d23e
00000030: 671e f3be 4ff3 2fbf ec76 493e 2a70 99be
00000040: f295 dcbd e146 77be 6049 903d f0ea b83d
00000050: 0b6a 2bbf 77da f3be d167 72bc 69c2 dfbe
00000060: 9519 cfbd 29cf 443e afbb 2d3e

encoders.1.attention.in_proj_bias f4 [9]
-0.0006116305 -0.003820188 0.00059004675 -2.6933497e-12 1.4500632e-12 -1.7477983e-11 0.0015372876 0.019836158
0.010317258
00000000: d455 20ba 1f5c 7abb 5ead 1a3a 1387 3dac
00000010: 0814 cc2b ebbc 99ad d07e c93a 707f a23c
00000020: b709 293c

encoders.1.attention.out_proj.weight f4 [3, 3]
-0.016552754 -0.29792634 -0.49665135 -0.4068301 0.57011795 -0.5572771 0.43399745 0.11017376
0.11111436
00000000: a499 87bc cd89 98be 1649 febe 094c d0be
00000010: 40f3 113f b6a9 0ebf ea34 de3e c8a2 e13d
00000020: ed8f e33d

encoders.1.attention.out_proj.bias f4 [3]
-0.032493845 0.014394802 0.017005192
00000000: 4418 05bd 2dd8 6b3c 794e 8b3c

encoders.1.norm2.weight f4 [3]
1.0995255 1.1562831 1.1144313
00000000: 40bd 8c3f 1601 943f afa5 8e3f

encoders.1.norm2.bias f4 [3]
-0.0057428 -0.040905096 0.023563586
00000000: 192e bcbb 1a8c 27bd 6c08 c13c

encoders.1.conv1.weight f4 [64, 3, 1]
0.4467092 -0.2811865 0.38705388 0.06778512 0.21993575 -0.08467507 0.32139772 -0.013666893
-0.0071547357 -0.12096384 0.10671119 0.07627442 0.34462354 0.40045503 -0.31952423 -0.3545906
0.27311397 0.5115574 0.23240556 0.57613426 0.07280155 -0.28132868 -0.34335193 -0.3925115
-0.46701238 -0.4643599 -0.36358407 -0.29455572 0.45482266 -0.11953349 0.21045311 -0.5322782
0.405868 -0.21592183 0.46220616 -0.50337654 -0.34651238 -0.49080575 -0.42654192 -0.49436665
-0.03509442 -0.019594882 -0.059422836 0.12769213 -0.47494644 0.01608284 -0.25255615 -0.40950632
0.25892103 -0.25381917 0.07062241 -0.5443299 0.15910357 -0.07995003 0.043692086 -0.4149495
-0.0635643 0.49050355 -0.47439682 -0.03098154 -0.28153595 0.07249901 -0.041720863 -0.11343371
0.33287436 0.40050367 -0.39116815 -0.2246782 -0.19300373 0.3623701 -0.33253247 0.39527032
-0.49129173 -0.47481427 0.37741163 0.35940987 0.042105496 -0.27129444 0.25432846 -0.36404443
-0.3638413 -0.30935946 -0.39827913 -0.20668021 -0.38366416 0.06875557 0.5908272 0.34979227
-0.3157949 -0.23345454 -0.55034786 -0.02552992 -0.50096583 -0.3629059 -0.30198434 0.07002535
0.5159111 0.2407436 -0.5414178 -0.5127429 0.11885836 -0.1774633 -0.38409674 0.0026731978
-0.52992 -0.3024102 -0.2186544 0.48319495 -0.43209338 0.15711679 0.3927658 -0.22004102
-0.5418423 -0.18189403 -0.5809033 0.29543662 -0.020596167 0.15643352 0.1321297 -0.28268492
-0.44378626 -0.44210997 0.115506984 -0.24845564 -0.28622553 -0.10503641 -0.5325185 -0.114520624
-0.5601328 -0.16807373 0.13112028 0.31865972 0.3831201 0.048333984 0.36642897 -0.47378027
-0.20781387 0.48989847 -0.18131989 -0.5007618 -0.18430397 0.32101467 0.115389936 -0.03970499
-0.55527115 0.054018144 0.34782723 0.37946868 0.17238115 0.17747813 0.1759427 0.5088074
0.26210696 -0.077081464 0.021785196 0.47313976 -0.13183329 0.07588657 0.30467913 0.39661008
0.5282417 -0.23025484 -0.24863577 0.2281716 -0.018616749 -0.0030047032 -0.049978796 0.3203876
-0.5514609 0.065718666 0.30202675 -0.083044276 -0.25807813 -0.17661485 -0.51652825 0.45017776
0.38789988 0.55283386 0.31040177 -0.016615096 -0.31877097 -0.22383001 0.3693932 -0.14739452
0.35900664 0.060720034 -0.49539164 0.53751236 0.41423637 -0.37355003 -0.56485087 0.4137002
00000000: 11b7 e43e adf7 8fbe ed2b c63e edd2 8a3d
00000010: d636 613e 206a adbd 3e8e a43e 1beb 5fbc
00000020: 4672 eabb e4bb f7bd 658b da3d c335 9c3d
00000030: 7f72 b03e 7108 cd3e ae98 a3be e68c b5be
00000040: 98d5 8b3e 6df5 023f b9fb 6d3e 897d 133f
00000050: fb18 953d 500a 90be d3cb afbe 44f7 c8be
00000060: 3f1c efbe 95c0 edbe b127 babe 02d0 96be
00000070: 84de e83e f9cd f4bd 0581 573e 6243 08bf
00000080: eecd cf3e 9d1a 5dbe 49a6 ec3e 49dd 00bf
00000090: 126a b1be e44a fbbe b463 dabe a01d fdbe
000000a0: 2bbf 0fbd 7285 a0bc 5c65 73bd bac1 023e
000000b0: 2e2c f3be 29c0 833c 0a4f 81be d0aa d1be
000000c0: 4c91 843e 96f4 81be 7ba2 903d 3459 0bbf
000000d0: 0cec 223e d7bc a3bd 79f6 323d 4374 d4be
000000e0: 002e 82bd 4823 fb3e 24e4 f2be 00cd fdbc
000000f0: 7b25 90be 5c7a 943d 7fe3 2abd ef4f e8bd
00000100: 826e aa3e d10e cd3e 3147 c8be 0b12 66be
00000110: c5a2 45be 9388 b93e b241 aabe df60 ca3e
00000120: 978a fbbe db1a f3be 193c c13e 9204 b83e
00000130: d076 2c3d 1be7 8abe 5737 823e 0864 babe
00000140: 6849 babe 5d64 9ebe 3eeb cbbe faa3 53be
00000150: a16f c4be b8cf 8c3d 7440 173f f917 b33e
00000160: deaf a1be b50e 6fbe 99e3 0cbf 1f24 d1bc
00000170: 4c3f 00bf cdce b9be b19d 9abe 7369 8f3d
00000180: c012 043f 7e85 763e 5b9a 0abf 1e43 03bf
00000190: 036c f33d f0b8 35be 54a8 c4be d130 2f3b
000001a0: d6a8 07bf 82d5 9abe f0e6 5fbe 5465 f73e
000001b0: 583b ddbe 39e3 203e 9918 c93e 6f52 61be
000001c0: 2db6 0abf 6e42 3abe 14b6 14bf 7843 973e
000001d0: 4bb9 a8bc 1c30 203e 024d 073e 14bc 90be
000001e0: f437 e3be 3d5c e2be ed8e ec3d 286b 7ebe
000001f0: 278c 92be 541d d7bd 2253 08bf ca89 eabd
00000200: dd64 0fbf 851b 2cbe 6544 063e 5e27 a33e
00000210: 5128 c43e dbf9 453d 949c bb3e 5493 f2be
00000220: 29cd 54be f9d3 fa3e ecab 39be ed31 00bf
00000230: 2eba 3cbe 095c a43e 8f51 ec3d b3a1 22bd
00000240: 4026 0ebf 2142 5d3d 6916 b23e b849 c23e
00000250: af84 303e d4bc 353e 532a 343e 3441 023f
00000260: e232 863e e3dc 9dbd de76 b23c 603f f23e
00000270: 4eff 06be 6b6a 9b3d e7fe 9b3e 7a10 cb3e
00000280: d93a 073f edc7 6bbe 609a 7ebe d1a5 693e
00000290: 2782 98bc 8eea 44bb 91b6 4cbd d809 a43e
000002a0: 8b2c 0dbf 8297 863d 40a3 9a3e 1e13 aabd
000002b0: d122 84be 86da 34be 323b 04bf b37d e63e
000002c0: d09a c63e 8586 0d3f fbec 9e3e 621c 88bc
000002d0: f335 a3be b233 65be 1b21 bd3e 97ee 16be
000002e0: b8cf b73e 92b5 783d f9a3 fdbe 699a 093f
000002f0: ca16 d43e f341 bfbe 119a 10bf 83d0 d33e

encoders.1.conv1.bias f4 [64]
-0.55273867 -0.29916224 0.53226006 -0.25392088 -0.40084577 0.27014112 -0.14042002 -0.15002376
0.49154004 -0.56500334 0.17134318 0.3669498 -0.40213937 0.19002075 -0.49636522 0.030426132
0.10122031 0.33195767 -0.3114361 0.037265696 0.066713825 0.0053223977 -0.22551186 0.41432923
-0.15259126 0.00965162 0.31281355 -0.37856233 -0.41092423 0.424878 0.16169101 0.08281678
-0.539822 -0.019442659 0.49629757 0.2398311 0.52649385 -0.039220702 0.2192979 -0.0035381776
-0.50766796 0.18043344 0.38433796 -0.048800703 0.30580282 -0.17997259 0.5471128 -0.46600834
-0.21118268 0.33002615 0.37100586 -0.4920187 0.3264759 -0.46308956 -0.18138674 -0.46782404
0.0134070385 -0.21345563 0.26716283 0.42497614 -0.12538704 0.26174292 0.12688576 -0.455694
00000000: 4880 0dbf cb2b 99be 3242 083f eb01 82be
00000010: a83b cdbe f04f 8a3e 44ca 0fbe d49f 19be
00000020: 23ab fb3e 0fa4 10bf 9674 2f3e d8e0 bb3e
00000030: 36e5 cdbe cd94 423e 9523 febe 3940 f93c
00000040: 984c cf3d 5bf6 a93e 8d74 9fbe eaa3 183d
00000050: 42a1 883d 8267 ae3b 95ec 66be f622 d43e
00000060: e240 1cbe d421 1e3c 1929 a03e ecd2 c1be
00000070: a964 d2be 9c89 d93e 5492 253e d89b a93d
00000080: c631 0abf 3646 9fbc b71a fe3e 4996 753e
00000090: 4dc8 063f e3a5 20bd a18f 603e c5e0 67bb
000000a0: 87f6 01bf 8bc3 383e f2c7 c43e 3fe3 47bd
000000b0: 3092 9c3e bc4a 38be 960f 0c3f a598 eebe
000000c0: 4640 58be 30f9 a83e 7bf4 bd3e e0e9 fbbe
000000d0: d927 a73e 131a edbe 72bd 39be a286 efbe
000000e0: 32a9 5b3c 1d94 5abe 91c9 883e 7996 d93e
000000f0: 7665 00be 2b03 863e 57ee 013e b950 e9be

encoders.1.conv2.weight f4 [3, 64, 1]
-0.04344873 -0.0011885295 0.061385304 -0.07638498 -0.026269224 -0.023477936 0.13141084 0.009869614
0.084524214 0.10877058 -0.16725202 0.14781226 0.015366569 -0.043169424 0.06641811 -0.063924976
0.06974824 -0.035602264 -0.0979752 -0.011707656 -0.036020502 0.10095924 0.004418753 -0.006760596
-0.14978456 0.06146188 -0.071310595 -0.080726355 0.0046655093 -0.027722899 0.06615521 -0.04170121
-0.06084845 -0.02968488 -0.03691225 -0.14060144 -0.0115736555 -0.02527084 0.12553605 0.050254088
-0.013147271 0.02503987 -0.036821257 -0.04769115 0.010911489 -0.0064546745 -0.14315315 -0.07279314
-0.08163041 0.015043707 0.107415386 0.118294016 0.0067147226 -0.017912343 0.053535216 -0.0049300073
0.040706445 -0.011624984 0.124634616 0.1225883 0.08351453 0.07364022 -0.009508316 0.030973276
-0.13947222 0.032963842 0.020541875 0.09655823 0.12277429 -0.22745228 0.038499694 -0.04235115
-0.18427166 -0.13469696 -0.33362347 -0.01151599 -0.11803755 -0.061584186 0.08143519 0.109068535
-0.1401565 -0.11983183 0.060767423 -0.20516919 -0.0064832503 0.06624872 -0.037282053 -0.3234042
-0.115273885 0.039243508 -0.05385874 -0.057917416 -0.12675835 -0.09546102 0.089255475 -0.07210608
0.1974433 0.036956795 0.17429641 -0.10140173 -0.09444697 -0.029764922 -0.06969595 -0.009173128
0.09030805 -0.06458688 0.1434579 -0.025685795 -0.09485919 -0.1330069 -0.20165978 -0.028204791
-0.1596915 0.026458478 -0.064574644 0.007567155 -0.079271585 0.14268221 -0.1139509 -0.070600584
-0.031926714 0.092038564 -0.05303519 0.098883346 -0.08411991 0.080067635 -0.16384292 -0.111644916
0.022473736 -0.02752599 -0.13918921 -0.08179285 -0.12784448 -0.015180093 0.056025397 0.11880392
0.028707858 -0.008913186 0.019901713 0.17634949 0.0306907 0.13822429 -0.043547194 -0.08270927
-0.07751725 0.23050018 -0.04691347 -0.11824134 -0.018397136 0.12243109 -0.01440635 -0.08739654
-0.15183906 -0.23098888 -0.1994615 0.042854533 -0.11942638 -0.10662372 0.062646456 -0.0010550546
0.013588923 0.04932631 -0.040048208 -0.15420045 0.12134808 0.0026385318 0.12182227 -0.03006575
0.05836062 0.061682012 0.066992745 0.04630234 -0.030871224 -0.10326666 -0.11646782 0.03516754
-0.084876016 -0.10899995 -0.009470742 0.08964792 -0.0068283295 -0.11361745 0.05150754 -0.018649867
0.0670678 0.055188637 0.045084443 -0.21310611 -0.029491538 0.1724319 0.028403962 0.004653206
00000000: 4cf7 31bd 6fc8 9bba 286f 7b3d ba6f 9cbd
00000010: 8e32 d7bc cd54 c0bc 9090 063e 29b4 213c
00000020: 081b ad3d 1cc3 de3d 1d44 2bbe 195c 173e
00000030: 10c4 7b3c 6cd2 30bd 3806 883d 19eb 82bd
00000040: 2ad8 8e3d aed3 11bd 39a7 c8bd 78d1 3fbc
00000050: 3c8a 13bd b8c3 ce3d 30cb 903b fd87 ddbb
00000060: 2061 19be 74bf 7b3d 4a0b 92bd dc53 a5bd
00000070: 21e1 983b 221b e3bc 627c 873d e3ce 2abd
00000080: 393c 79bd b52d f3bc 4d31 17bd d3f9 0fbe
00000090: 6e9f 3dbc cb04 cfbc 868c 003e 3bd7 4d3d
000000a0: a767 57bc 6a20 cd3c e3d1 16bd cc57 43bd
000000b0: 1ac6 323c bc81 d3bb bd96 12be 9214 95bd
000000c0: d82d a7bd e179 763c 99fc db3d 2244 f23d
000000d0: 2d07 dc3b e8bc 92bc be47 5b3d e68b a1bb
000000e0: cdbb 263d b876 3ebc 6f40 ff3d 930f fb3d
000000f0: aa09 ab3d afd0 963d c5c8 1bbc abbb fd3c
00000100: ced1 0ebe 1805 073d 6f47 a83c 52c0 c53d
00000110: 1671 fb3d 40e9 68be dbb1 1d3d 6678 2dbd
00000120: b6b1 3cbe 00ee 09be b2d0 aabe 90ad 3cbc
00000130: acbd f1bd b33f 7cbd 7ec7 a63d 535f df3d
00000140: 2f85 0fbe 646a f5bd 43e7 783d df17 52be
00000150: 7271 d4bb 69ad 873d 11b5 18bd 3c95 a5be
00000160: b714 ecbd cdbd 203d fb9a 5cbd d03a 6dbd
00000170: f1cc 01be 1181 c3bd 93cb b63d 5aac 93bd
00000180: 942e 4a3e 0260 173d c27a 323e b6ab cfbd
00000190: 6a6d c1bd 91d5 f3bc c0bc 8ebd e34a 16bc
000001a0: 6df3 b83d 2046 84bd a1e6 123e 046b d2bc
000001b0: 8945 c2bd f632 08be e77f 4ebe bc0d e7bc
000001c0: 2b86 23be 73bf d83c b63f 84bd e6f5 f73b
000001d0: 2459 a2bd 491b 123e 175f e9bd 0a97 90bd
000001e0: 96c5 02bd b77e bc3d 6d3b 59bd 5a83 ca3d
000001f0: 0f47 acbd 80fa a33d 70c6 27be 17a6 e4bd
00000200: d71a b83c 2f7e e1bc 9e87 0ebe 0283 a7bd
00000210: aae9 02be edb5 78bc e37a 653d 784f f33d
00000220: be2c eb3c 9d08 12bc eb08 a33c f694 343e
00000230: 106b fb3c ab8a 0d3e 8b5e 32bd 7a63 a9bd
00000240: 5dc1 9ebd 3d08 6c3e 5728 40bd 8428 f2bd
00000250: 97b5 96bc 27bd fa3d 9d08 6cbc f5fc b2bd
00000260: b37b 1bbe 5988 6cbe a33f 4cbe 3c88 2f3d
00000270: d195 f4bd 895d dabd c94c 803d c249 8aba
00000280: 13a4 5e3c 630a 4a3d 9709 24bd b9e6 1dbe
00000290: 5885 f83d 38eb 2c3b f47d f93d 734c f6bc
000002a0: 8c0b 6f3d 47a6 7c3d 7e33 893d 86a7 3d3d
000002b0: a6e5 fcbc 787d d3bd ae86 eebd d70b 103d
000002c0: 7ad3 adbd 5e3b dfbd 2c2b 1bbc 5499 b73d
000002d0: 2ec0 dfbb 44b0 e8bd 92f9 523d 9bc7 98bc
000002e0: d85a 893d 7b0d 623d 77aa 383d 7d38 5abe
000002f0: 3d98 f1bc fd91 303e 6daf e83c ec79 983b

encoders.1.conv2.bias f4 [3]
-0.1611535 -0.2385072 -0.04638687
00000000: 6c05 25be 3b3b 74be 2900 3ebd

encoders.2.norm1.weight f4 [3]
0.9965313 0.9556148 0.99772453
00000000: ad1c 7f3f 2ca3 743f e06a 7f3f

encoders.2.norm1.bias f4 [3]
0.0012345666 0.017418476 0.0058116
00000000: 2ed1 a13a 31b1 8e3c 3c6f be3b

encoders.2.attention.in_proj_weight f4 [9, 3]
-0.07383876 -0.41813746 -0.37553257 -0.12645212 0.12539427 0.2811185 -0.28284502 -0.6194374
0.32720932 -0.50023746 -0.6033968 0.43125516 0.6456684 -0.050040923 -0.37105098 -0.32356772
-0.031138878 0.35215315 -0.25445437 -0.15042652 -0.19618963 -0.051705755 -0.58483255 0.11089374
-0.44739684 -0.3945668 0.07873183
00000000: c738 97bd 1d16 d6be ce45 c0be aa7c 01be
00000010: 5b67 003e c4ee 8f3e 10d1 90be 7393 1ebf
00000020: fb87 a73e 900f 00bf 3678 1abf 7acd dc3e
00000030: 864a 253f b6f7 4cbd 65fa bdbe abaa a5be
00000040: f616 ffbc 6b4d b43e d847 82be 6909 1abe
00000050: efe5 48be 6ac9 53bd 96b7 15bf 421c e33d
00000060: 3311 e5be a904 cabe 273e a13d

encoders.2.attention.in_proj_bias f4 [9]
-0.023473764 0.0026514456 -0.0065247705 -7.217539e-14 -1.8344586e-12 -1.5706154e-12 0.0020980781 -0.0066769733
0.003430107
00000000: 0d4c c0bc e0c3 2d3b becd d5bb 4886 a2a9
00000010: ab16 01ac 620b ddab e97f 093b 83ca dabb
00000020: a5cb 603b

encoders.2.attention.out_proj.weight f4 [3, 3]
0.012950262 -0.12402427 0.04590853 0.33373818 0.2546295 0.4166929 -0.079822265 -0.54799384
-0.027006907
00000000: 562d 543c 7000 febd 950a 3c3d bbdf aa3e
00000010: cc5e 823e c658 d53e db79 a3bd 5349 0cbf
00000020: 973d ddbc

encoders.2.attention.out_proj.bias f4 [3]
-0.03467298 0.0124924965 0.024487415
00000000: 4105 0ebd 54ad 4c3c d599 c83c

encoders.2.norm2.weight f4 [3]
1.3067762 1.289635 1.2265719
00000000: 7144 a73f c212 a53f 4f00 9d3f

encoders.2.norm2.bias f4 [3]
0.20343594 -0.13806503 -0.00024307302
00000000: 8351 503e eb60 0dbe 6be1 7eb9

encoders.2.conv1.weight f4 [64, 3, 1]
0.068719976 -0.36417976 0.5928686 -0.56979376 -0.035227787 -0.25009656 0.50586957 0.12549134
-0.6487403 0.108887896 -0.5153281 -0.4975521 0.31370664 0.27303687 0.19814648 -0.24308655
0.5371536 -0.5698364 0.43375504 0.03290597 -0.45578724 -0.48056453 0.22663821 -0.40865114
-0.5197081 -0.2494652 -0.33489737 0.02455923 0.22103158 -0.51949036 0.008452942 0.12118172
-0.49052894 -0.12972805 0.078949094 -0.07856097 -0.2138117 -0.25966895 0.34834054 0.29497963
-0.047142874 0.42737538 0.4443581 0.4131072 -0.12464023 -0.44640884 -0.20158483 -0.11402017
0.40048766 -0.19137889 0.49915367 -0.16676283 -0.5207095 0.14316928 -0.13937582 -0.26836887
-0.38228017 0.4481897 0.070033625 0.056449547 0.041494694 0.30252478 0.57483184 -0.32356766
0.08311492 0.5424667 0.10702545 -0.58739984 0.23204768 -0.5494 -0.19163653 0.56407356
0.08484211 0.55720484 0.03723203 0.3056261 0.03909331 0.09605393 -0.42548537 -0.055161037
0.29344064 -0.16052647 0.17285588 0.212341 0.37132585 -0.5712527 -0.06837944 0.40362722
0.09959527 -0.13203359 0.43259227 0.5110626 -0.18954362 -0.5944155 -0.56649834 -0.016284104
0.22165364 -0.1853055 0.31963328 0.021791864 0.14728047 -0.25164002 0.49588236 0.29419476
-0.008751002 0.48511595 -0.2759882 -0.522891 0.4520035 -0.10001854 -0.2815635 -0.46321732
0.13389775 -0.48411152 -0.44330814 -0.5871362 -0.22989093 0.2694709 0.52434844 -0.49927235
-0.44322553 -0.5189002 0.22865987 0.13694541 -0.40012193 -0.08149029 -0.2898741 -0.153221
-0.017626584 0.20344044 -0.021974804 0.5862969 -0.48252416 -0.012826712 0.08518555 -0.21047144
0.44028407 -0.347806 0.544151 0.39561972 0.119368285 -0.3622752 -0.120946944 -0.1703623
0.1286446 -0.41591763 0.15826344 0.5338281 -0.27964914 -0.11587131 0.48392767 -0.6024578
-0.55415875 0.3570976 -0.48824137 -0.41112682 -0.42806903 -0.34591436 0.078978375 0.2338978
-0.5461891 0.14004858 -0.42067227 -0.47251308 -0.32351744 0.28599522 -0.5531828 0.4461867
-0.5196485 0.48588195 0.37336698 -0.3597654 -0.082321204 -0.008557649 -0.18126598 0.009257436
-0.6020316 0.19517864 0.367762 -0.13360184 0.32322454 0.13854295 0.37596345 -0.4072355
0.59113324 0.41832894 -0.07765394 -0.16244413 -0.41259402 0.47464493 0.20663083 0.33274397
00000000: 0fbd 8c3d c575 babe 3dc6 173f 01de 11bf
00000010: 034b 10bd a80c 80be ab80 013f cd80 003e
00000020: d813 26bf 9e00 df3d 8bec 03bf 26bf febe
00000030: 289e a03e 7dcb 8b3e e9e6 4a3e aeeb 78be
00000040: e682 093f cce0 11bf 2415 de3e 69c8 063d
00000050: f25c e9be 8e0c f6be d913 683e b93a d1be
00000060: 970b 05bf ce73 7fbe ab77 abbe 7030 c93c
00000070: 1a56 623e 52fd 04bf 357e 0a3c 1f2e f83d
00000080: 9c26 fbbe 6ed7 04be 10b0 a13d 93e4 a0bd
00000090: 74f1 5abe 54f3 84be b159 b23e 9207 973e
000000a0: e318 41bd f2d0 da3e e882 e33e c982 d33e
000000b0: 6043 ffbd b38f e4be 416c 4ebe 6883 e9bd
000000c0: b80c cd3e d4f8 43be 1291 ff3e e0c3 2abe
000000d0: 384d 05bf f89a 123e 89b8 0ebe a567 89be
000000e0: 3aba c3be 1f79 e53e ca6d 8f3d a437 673d
000000f0: 57f6 293d 87e4 9a3e 2e28 133f a9aa a5be
00000100: 2838 aa3d 19df 0a3f 2930 db3d d65f 16bf
00000110: e89d 6d3e 7aa5 0cbf 5e3c 44be 2067 103f
00000120: b3c1 ad3d faa4 0e3f 9d80 183d 067b 9c3e
00000130: 4e20 203d ecb7 c43d 38d9 d9be 8af0 61bd
00000140: da3d 963e 0d61 24be 2201 313e eb6f 593e
00000150: 6c1e be3e 9e3d 12bf 850a 8cbd 3aa8 ce3e
00000160: 9bf8 cb3d d033 07be bc7c dd3e 00d5 023f
00000170: b917 42be 9d2b 18bf 0906 11bf 3e66 85bc
00000180: 2cf9 623e bac0 3dbe f9a6 a33e da84 b23c
00000190: b1d0 163e f6d6 80be 4be4 fd3e b2a0 963e
000001a0: 5d60 0fbc 1e61 f83e 534e 8dbe 2fdc 05bf
000001b0: 016d e73e 85d6 ccbd 1729 90be d22a edbe
000001c0: 7e1c 093e 77dd f7be 49f9 e2be 8f4e 16bf
000001d0: 8768 6bbe 17f8 893e b33b 063f a0a0 ffbe
000001e0: 75ee e2be a5d6 04bf d025 6a3e 6b3b 0c3e
000001f0: c8dc ccbe 62e4 a6bd 616a 94be f7e5 1cbe
00000200: a065 90bc b152 503e 8104 b4bc 8e17 163f
00000210: 680d f7be 2127 52bc c375 ae3d d385 57be
00000220: ea6c e13e a113 b2be 7b4d 0b3f ab8e ca3e
00000230: 5c77 f43d 237c b9be 08b3 f7bd 7473 2ebe
00000240: 69bb 033e 28f3 d4be d00f 223e f5a8 083f
00000250: 2c2e 8fbe f04d edbd 5ec5 f73e ad3a 1abf
00000260: 59dd 0dbf 7fd5 b63e c6fa f9be 377f d2be
00000270: dd2b dbbe b01b b1be 6abf a13d e882 6f3e
00000280: 0dd3 0bbf e568 0f3e 5b62 d7be 3ced f1be
00000290: 14a4 a5be f76d 923e 639d 0dbf 9572 e43e
000002a0: af07 05bf 85c5 f83e f529 bf3e 2c33 b8be
000002b0: 0598 a8bd 6235 0cbc ca9d 39be 80ac 173c
000002c0: be1e 1abf e9dc 473e 4d4b bc3e ecce 08be
000002d0: b07d a53e 34de 0d3e 487e c03e 2c81 d0be
000002e0: 8254 173f 362f d63e 0709 9fbd c157 26be
000002f0: 863f d3be a904 f33e 0897 533e 6b5d aa3e

encoders.2.conv1.bias f4 [64]
0.31241634 -0.20869397 -0.12122869 0.2162572 0.32187778 0.2898807 0.27134183 -0.058316868
0.37004834 -0.11878677 0.15534486 -0.058868866 0.08480663 0.14092824 0.06673142 0.11945969
0.26821503 -0.44559228 0.13171573 0.59965956 0.542382 -0.2480343 0.22900014 0.39669022
-0.24305849 -0.3846186 0.5431281 -0.021330297 0.25857186 -0.0799839 -0.041709352 -0.29624638
-0.1273756 -0.25579652 0.2936412 -0.49978697 -0.04876568 -0.04812003 0.49230877 0.045443505
0.3981027 -0.14849363 -0.00055907195 0.55728006 0.109754354 -0.41811565 0.117297105 -0.42863333
0.25294653 -0.013122166 0.382457 0.37179282 -0.2145251 -0.40534708 0.110211976 0.5699904
0.38131467 -0.17246257 0.47278348 0.21735308 -0.5584496 -0.49171463 -0.22365512 0.49187732
00000000: 09f5 9f3e dfb3 55be bf46 f8bd 8772 5d3e
00000010: 2acd a43e 3e6b 943e 51ed 8a3e abdd 6ebd
00000020: fa76 bd3e 7a46 f3bd b912 1f3e 7b20 71bd
00000030: 19af ad3d 7e4f 103e 7caa 883d 48a7 f43d
00000040: 7b53 893e ac24 e4be 7de0 063e 4a83 193f
00000050: 8cd9 0a3f b4fc 7dbe 037f 6a3e fb1a cb3e
00000060: 53e4 78be bbec c4be 710a 0b3f e0bc aebc
00000070: 8863 843e 99ce a3bd 6dd7 2abd 9bad 97be
00000080: c06e 02be c3f7 82be 2458 963e 14e4 ffbe
00000090: 86be 47bd 8219 45bd e50f fc3e f822 3a3d
000000a0: 1ed4 cb3e b70e 18be af8e 12ba e8a9 0e3f
000000b0: e4c6 e03d 4113 d6be 7739 f03d d475 dbbe
000000c0: 3582 813e 5afe 56bc 67d1 c33e a15b be3e
000000d0: 78ac 5bbe a789 cfbe d1b6 e13d e4ea 113f
000000e0: ad3b c33e 079a 30be ad10 f23e ce91 5e3e
000000f0: 8ef6 0ebf 05c2 fbbe d905 65be 58d7 fb3e

encoders.2.conv2.weight f4 [3, 64, 1]
-0.20060231 0.11732208 0.14143175 0.072104014 -0.08619661 0.26541886 -0.01903003 0.14288554
0.085960954 0.10130947 0.18613914 0.05878103 -0.08474089 -0.067056485 -0.037517756 -0.1233174
-0.12880123 0.06440021 0.04307613 0.009893634 -0.0071304506 -0.025641883 -0.16261761 -0.10990439
0.07089714 -0.018044151 0.03696451 -0.093463115 -0.11390547 -0.07704357 -0.026283285 -0.0022265706
-0.112417765 0.054034024 0.024662456 -0.1030171 -0.13006094 0.05958014 -0.15112132 0.008176825
-0.059656776 -0.047406137 -0.12418123 -0.17643142 -0.0790363 0.12347248 0.03371826 0.03771706
-0.02029471 0.07044959 -0.0083360225 -0.16494805 0.074267745 -0.106124945 0.082997486 -0.053136054
0.101771824 -0.07173496 0.18393265 0.15746993 -0.08031508 -0.067886986 -0.057519093 -0.05843981
-0.11567794 -0.15562896 0.18817222 -0.16574839 -0.11470423 -0.07302104 -0.055886682 -0.17491429
0.015110182 0.14682141 0.100833684 0.03181677 -0.0045068595 -0.22528169 0.07298703 -0.14775814
-0.3260235 -0.0012086474 0.08445417 -0.21338056 -0.04860336 -0.042289987 -0.3079765 -0.18078749
-0.028553711 0.094194 -0.09683096 0.010217878 -0.33987492 0.11733723 0.14473642 0.051604304
-0.17330818 0.008499664 -0.014534773 -0.062173046 -0.056013767 -0.08664277 -0.15980354 0.17361431
-0.06663381 -0.030388517 -0.024327539 -0.1716652 -0.064952396 0.047627155 0.13353398 0.06023787
-0.22454877 -0.22140194 -0.14366934 -0.20844248 0.08758711 -0.035524935 0.031779774 -0.4248811
-0.15318808 -0.031244274 0.123430334 -0.07293455 0.09777816 -0.1564488 0.03715319 -0.19859639
-0.23469725 0.12867984 -0.29963496 -0.1295971 -0.08357131 0.16920015 -0.2782054 0.060819123
0.0032998747 -0.02854422 -0.0830579 0.046788786 -0.18107753 -0.07423779 -0.052736733 0.016375434
-0.23317958 0.06321425 -0.17314997 -0.2700505 -0.08497413 -0.044930257 -0.06751787 -0.19101228
0.12640075 0.0838577 0.026725234 0.016375693 -0.24720828 -0.18845397 0.0007797899 -0.1495176
0.059433464 -0.11785387 -0.23261523 -0.13960075 -0.17814454 0.19874543 -0.0052412595 -0.025312798
-0.11679132 -0.10561815 0.07796691 -0.11467237 0.048711475 0.17930177 -0.17484736 0.05254869
-0.15005738 -0.1469687 -0.38740385 -0.31816953 0.024808807 -0.13802886 -0.03658297 -0.34349892
0.051108733 0.021741685 0.04430006 0.03254908 0.121653736 0.1622118 -0.07119526 -0.050147064
00000000: b16a 4dbe 8f46 f03d 7cd3 103e 45ab 933d
00000010: d987 b0bd fbe4 873e dee4 9bbc 9650 123e
00000020: 4c0c b03d 577b cf3d 429b 3e3e 61c4 703d
00000030: a28c adbd e954 89bd 38ac 19bd d58d fcbd
00000040: 78e4 03be 42e4 833d 9970 303d e918 223c
00000050: 8ea6 e9bb ed0e d2bc 3b85 26be 8e15 e1bd
00000060: 8532 913d 54d1 93bc 1968 173d 9769 bfbd
00000070: 4547 e9bd 05c9 9dbd 0b50 d7bc a8eb 11bb
00000080: 493b e6bd c852 5d3d eb08 ca3c a1fa d2bd
00000090: b22e 05be 4e0a 743d 8cbf 1abe 17f8 053c
000000a0: aa5a 74bd f02c 42bd bb52 febd 70aa 34be
000000b0: c9dd a1bd 24df fc3d 281c 0a3d 347d 1a3d
000000c0: 1741 a6bc e047 903d d093 08bc 24e8 28be
000000d0: b019 983d 0958 d9bd 96fa a93d 31a5 59bd
000000e0: bf6d d03d c7e9 92bd d758 3c3e cc3f 213e
000000f0: 3c7c a4bd 5508 8bbd 2499 6bbd 955e 6fbd
00000100: 8ee8 ecbd 335d 1fbe 38b0 403e f2b9 29be
00000110: 0dea eabd 0e8c 95bd 6fe9 64bd bb1c 33be
00000120: b290 773c 5a58 163e e481 ce3d 4d52 023d
00000130: 47ae 93bb 3eb0 66be 397a 953d e94d 17be
00000140: 8dec a6be 7a6b 9eba 4ff6 ac3d 6f80 5abe
00000150: 5114 47bd 4438 2dbd 19af 9dbe 5b20 39be
00000160: 79e9 e9bc c9e8 c03d 4f4f c6bd e368 273c
00000170: 1604 aebe 804e f03d c935 143e 095f 533d
00000180: b377 31be 2d42 0b3c 4223 6ebc 2aa9 7ebd
00000190: b16e 65bd c471 b1bd 8aa3 23be f3c7 313e
000001a0: 4f77 88bd 57f1 f8bc 8c4a c7bc 01c9 2fbe
000001b0: c305 85bd b114 433d 22bd 083e fcbb 763d
000001c0: 1df0 65be 31b7 62be 0e1e 13be f271 55be
000001d0: df60 b33d 9882 11bd 822b 023d 048a d9be
000001e0: 56dd 1cbe fef3 ffbc 0bc9 fc3d b65e 95bd
000001f0: ea3f c83d 1d34 20be f12d 183d da5c 4bbe
00000200: 7a54 70be a6c4 033e c169 99be 1ab5 04be
00000210: 6f27 abbd ce42 2d3e f070 8ebe 791d 793d
00000220: b642 583b 91d5 e9bc 431a aabd 99a5 3f3d
00000230: 636c 39be fc09 98bd 7902 58bd c625 863c
00000240: a1c6 6ebe 7976 813d 3a4e 31be 0f44 8abe
00000250: eb06 aebd ca08 38bd cf46 8abd b998 43be
00000260: 336f 013e 96bd ab3d e1ee da3c 5126 863c
00000270: 2b24 7dbe 14fa 40be d06a 4c3a 241b 19be
00000280: 8170 733d 5f5d f1bd b032 6ebe 80f3 0ebe
00000290: 866b 36be ec83 4b3e dfbe abbb c95c cfbc
000002a0: 4a30 efbd 544e d8bd 1ead 9f3d 59d9 eabd
000002b0: af85 473d e29a 373e 300b 33be 4c3d 573d
000002c0: a4a8 19be f77e 16be cc59 c6be 1ee7 a2be
000002d0: d73b cb3c 7057 0dbe 06d8 15bd 17df afbe
000002e0: 6457 513d 9e1b b23c fb73 353d 2f52 053d
000002f0: 9825 f93d da1a 263e d2ce 91bd 0267 4dbd

encoders.2.conv2.bias f4 [3]
0.045283385 -0.19126368 -0.091215044
00000000: 127b 393d a0da 43be f4ce babd

encoders.3.norm1.weight f4 [3]
1.004842 1.0192238 1.0884612
00000000: aa9e 803f ed75 823f b252 8b3f

encoders.3.norm1.bias f4 [3]
0.0026516267 0.0028707338 0.040095996
00000000: eac6 2d3b ec22 3c3b b33b 243d

encoders.3.attention.in_proj_weight f4 [9, 3]
-0.51722014 0.6926684 0.3913982 0.43077126 -0.60879755 -0.3960946 0.6791693 -0.21983495
0.4533299 -0.47302604 -0.104895726 -0.40970775 -0.6834673 0.01174841 -0.59439915 0.3779627
0.7119196 0.1619592 0.08995563 0.08305299 -0.6984649 0.5478689 0.5627883 -0.57622653
0.66322774 -0.6156164 0.18109655
00000000: 8a68 04bf b752 313f 5865 c83e 0d8e dc3e
00000010: 28da 1bbf e9cc cabe 0ade 2d3f 6a1c 61be
00000020: db1a e83e 7830 f2be 92d3 d6bd 37c5 d1be
00000030: b7f7 2ebf 677c 403c 8b2a 18bf 5484 c13e
00000040: 5d40 363f a2d8 253e a83a b83d b017 aa3d
00000050: 98ce 32bf 2341 0c3f e512 103f 9583 13bf
00000060: 4bc9 293f 0999 1dbf 6071 393e

encoders.3.attention.in_proj_bias f4 [9]
0.010774796 0.022836423 0.011989178 -1.5590258e-11 -5.517793e-11 -9.675363e-12 -0.07737539 0.009646962
-0.01653214
00000000: c588 303c 7313 bb3c 426e 443c 2422 89ad
00000010: d4ac 72ae f635 2aad fd76 9ebd 4b0e 1e3c
00000020: 696e 87bc

encoders.3.attention.out_proj.weight f4 [3, 3]
-0.5170564 -0.29322982 0.17157836 0.31928313 -0.2997677 0.36293432 0.29585922 0.16289707
0.14464918
00000000: cf5d 04bf 3822 96be 3db2 2f3e 1479 a33e
00000010: 277b 99be 87d2 b93e dc7a 973e 7dce 263e
00000020: ea1e 143e

encoders.3.attention.out_proj.bias f4 [3]
0.10883793 -0.09603417 0.003742996
00000000: 6ce6 de3d 90ad c4bd 0d4d 753b

encoders.3.norm2.weight f4 [3]
1.2999134 1.4388953 1.3074931
00000000: 9063 a63f b92d b83f ef5b a73f

encoders.3.norm2.bias f4 [3]
0.16308938 -0.18595122 0.13186815
00000000: e700 273e ff69 3ebe 7208 073e

encoders.3.conv1.weight f4 [64, 3, 1]
-0.034797948 -0.47468892 -0.089910686 0.022579843 -0.23445866 0.38952777 -0.37975574 -0.5550274
0.5839061 0.22892061 0.57968104 0.060465645 0.25403953 0.39919865 0.15253103 0.5732652
-0.520589 0.46992952 -0.3691884 -0.38597482 0.17590262 0.5424815 -0.615784 0.08601669
0.084034614 -0.050951004 0.27830735 0.42624214 0.15540081 -0.35525438 0.3584917 0.36188358
0.08944147 0.37783664 0.37266785 0.11815489 -0.18148308 0.39067638 0.38895532 -0.26680574
0.005422713 0.22024623 -0.48312694 -0.3571439 0.5637434 0.45975465 0.079285815 -0.2441931
-0.40804258 -0.4686924 0.65457416 -0.37733293 -0.4315749 -0.32315874 0.4351955 -0.62275726
-0.30511743 -0.3559162 -0.30282167 -0.3132094 -0.42564982 0.58664256 -0.4379076 0.35989395
0.48721203 0.53439826 0.5697988 0.49787512 0.43225902 -0.42264694 0.15862392 0.26543626
-0.2059289 -0.50730914 -0.029380877 -0.022507291 -0.48955444 -0.3938024 0.5441537 -0.46495903
0.27161726 -0.49026084 0.3432641 0.49526706 0.47355068 0.38108787 -0.1521042 0.538428
-0.41945553 -0.4928683 -0.37141052 0.2558713 0.13126814 0.081385046 -0.14480528 -0.5010802
-0.5386423 0.49687067 0.1972718 0.097173646 -0.16852431 0.3623513 -0.4054904 -0.20989929
0.29361317 0.6173108 0.23402096 0.20209888 -0.3343117 -0.42846847 0.13949755 0.3737666
0.49530572 0.33011338 -0.3497175 0.44656122 0.1935039 0.5358507 0.15002535 0.38919604
-0.4851066 0.5215343 0.27025685 -0.01968661 -0.33655983 0.5798314 0.026497245 0.07436705
0.005308032 0.28245384 -0.38268304 0.36119446 0.42550132 -0.63423574 -0.05039906 0.5575019
-0.3771747 0.48202753 0.1252873 -0.4126388 0.40585116 0.08768146 0.4313776 0.36143783
0.025203925 0.53461665 -0.24601437 -0.08280196 0.011507401 0.57205045 0.47585076 -0.58900577
-0.12929271 -0.43335468 -0.41363212 0.6646775 0.5663058 0.03289032 -0.4921132 0.18191628
0.44309986 0.090207875 -0.29098532 0.42773834 0.28676572 0.19163185 -0.1282426 -0.019305937
-0.5481426 -0.10459383 -0.10931975 0.56133014 0.38569844 -0.14282763 -0.13031612 0.108163774
-0.112772174 -0.16254474 0.5231868 0.45205626 0.42143512 0.22104785 0.019736022 0.5836271
0.46490344 -0.38839978 -0.5116925 -0.4108344 0.12773645 -0.5538859 0.40791824 0.5510837
00000000: 4b88 0ebd 6d0a f3be 1823 b8bd 5df9 b83c
00000010: ee15 70be 2f70 c73e 586f c2be 4716 0ebf
00000020: df7a 153f 2a6a 6a3e fa65 143f d3aa 773d
00000030: 7811 823e c463 cc3e 1831 1c3e 82c1 123f
00000040: 5245 05bf 9a9a f03e 4306 bdbe 7e9e c5be
00000050: d11f 343e 11e0 0a3f 05a4 1dbf 8529 b03d
00000060: 571a ac3d 00b2 50bd 4d7e 8e3e 693c da3e
00000070: 6421 1f3e e7e3 b5be 398c b73e ce48 b93e
00000080: 172d b73d ce73 c13e 52ce be3e 31fb f13d
00000090: b3d6 39be bc06 c83e 2725 c73e c39a 88be
000000a0: 03b1 b13b 3a88 613e 6a5c f7be 91db b6be
000000b0: 7d51 103f f664 eb3e 9a60 a23d c20d 7abe
000000c0: f5ea d0be 73f8 efbe 2c92 273f c831 c1be
000000d0: 63f7 dcbe 1075 a5be f2d1 de3e 056d 1fbf
000000e0: 5a38 9cbe a63a b6be 710b 9bbe fc5c a0be
000000f0: c6ee d9be 352e 163f 6d35 e0be 0544 b83e
00000100: db73 f93e 53ce 083f 56de 113f 7de9 fe3e
00000110: 0e51 dd3e 2e65 d8be 4f6e 223e 43e7 873e
00000120: 07df 52be 03df 01bf 2ab0 f0bc 3661 b8bc
00000130: e1a6 fabe 78a0 c9be a84d 0b3f 1c0f eebe
00000140: 6b11 8b3e 7803 fbbe 50c0 af3e a593 fd3e
00000150: 3c75 f23e f31d c33e 34c1 1bbe 6bd6 093f
00000160: e0c2 d6be 3c59 fcbe 8529 bebe 9001 833e
00000170: 286b 063e 34ad a63d d647 14be cb46 00bf
00000180: 76e4 09bf d565 fe3e 9e01 4a3e fa02 c73d
00000190: a391 2cbe 1c86 b93e 709c cfbe d7ef 56be
000001a0: 7754 963e 1508 1e3f 31a3 6f3e 02f3 4e3e
000001b0: e72a abbe 3860 dbbe 72d8 0e3e 565e bf3e
000001c0: b698 fd3e 9f04 a93e 2c0e b3be aca3 e43e
000001d0: e325 463e 832d 093f 3fa0 193e b444 c73e
000001e0: e45f f8be 4683 053f 1b5f 8a3e d045 a1bc
000001f0: 9251 acbe d56f 143f c010 d93c c04d 983d
00000200: 00ef ad3b ca9d 903e 08ef c3be 7bee b83e
00000210: 4fdb d93e 465d 22bf 3f6f 4ebd 72b8 0e3f
00000220: 0b1d c1be 50cc f63e 504b 003e 6545 d3be
00000230: b9cb cf3e 5692 b33d 86dd dc3e 610e b93e
00000240: 7678 ce3c a3dc 083f 31eb 7bbe 1394 a9bd
00000250: 8a89 3c3c e671 123f b6a2 f33e 15c9 16bf
00000260: 4f65 04be aae0 ddbe 97c7 d3be 4e28 2a3f
00000270: 6bf9 103f 00b8 063d 43f6 fbbe 4348 3a3e
00000280: fcdd e23e e8be b83d 07fc 94be 8500 db3e
00000290: f5d2 923e 243b 443e 0752 03be 7c27 9ebc
000002a0: 1353 0cbf 4a35 d6bd 08e3 dfbd 55b3 0f3f
000002b0: 447a c53e 6841 12be 9771 05be f884 dd3d
000002c0: 19f5 e6bd 2172 26be 92ef 053f eb73 e73e
000002d0: 58c6 d73e 5e5a 623e 70ad a13c 9668 153f
000002e0: d307 ee3e 56dc c6be 48fe 02bf e358 d2be
000002f0: 58cd 023e 77cb 0dbf a9da d03e d213 0d3f

encoders.3.conv1.bias f4 [64]
0.22756098 -0.25834876 0.08658642 -0.3969658 -0.0704743 0.5929991 -0.062945254 0.036061015
-0.010975706 -0.53433543 0.48066118 -0.019602811 0.5689774 -0.25280967 -0.18790695 -0.200172
0.43141353 0.20607394 0.608817 -0.5092334 0.023747446 -0.36285788 0.26295656 -0.3692148
0.1432641 0.28391156 0.36393028 -0.2950378 -0.06511775 -0.14452145 -0.41688162 0.3870361
0.092945434 0.16529723 -0.21697763 0.28010383 0.15304415 0.3670769 0.54989576 0.4534553
-0.12162797 -0.07707651 -0.33593327 0.079266414 0.6063028 0.629933 0.1558122 0.5294353
0.15048131 -0.023607867 0.13379256 -0.2608995 0.19738038 -0.5712927 -0.18858553 0.02109184
-0.008406125 0.052210722 -0.11063867 0.47044292 -0.17616987 -0.06758523 0.16228947 -0.078920126
00000000: bf05 693e 4a46 84be 3954 b13d 1a3f cbbe
00000010: d454 90bd cace 173f 71e9 80bd b7b4 133d
00000020: 73d3 33bc 35ca 08bf 3919 f63e 1396 a0bc
00000030: 81a8 113f 4570 81be ae6a 40be e4f9 4cbe
00000040: 3ce2 dc3e 0c05 533e 6edb 1b3f 1f5d 02bf
00000050: 018a c23c 82c8 b9be 3ea2 863e b909 bdbe
00000060: d3b3 123e db5c 913e 1255 ba3e 320f 97be
00000070: 745c 85bd 6efd 13be 8271 d5be 9829 c63e
00000080: 2d5a be3d ad43 293e 622f 5ebe c569 8f3e
00000090: 9bb7 1c3e 81f1 bb3e f8c5 0c3f 4b2b e83e
000000a0: 1618 f9bd 4ada 9dbd 72ff abbe 6e56 a23d
000000b0: a936 1b3f 4a43 213f 3c8d 1f3e 1289 073f
000000c0: c617 1a3e 4965 c1bc eb00 093e 9f94 85be
000000d0: 151e 4a3e 3d40 12bf 911c 41be cbc8 ac3c
000000e0: d8b9 09bc e9da 553d 8796 e2bd e5dd f03e
000000f0: e065 34be 206a 8abd 362f 263e e0a0 a1bd

encoders.3.conv2.weight f4 [3, 64, 1]
-0.10368803 -0.1554622 -0.19049922 0.1146338 -0.09031413 -0.2500917 -0.07501951 0.011938589
-0.0943666 0.07570001 -0.07779283 -0.08514576 -0.19213286 0.04552259 -0.103292234 0.036460392
-0.32754213 -0.119782746 -0.19259651 0.10634604 0.071407445 -0.032154422 0.120274566 -0.08948683
-0.028089277 -0.0009692097 -0.046296082 0.012744661 0.15277033 -0.06636295 -0.0044748653 -0.06325385
-0.05722028 -0.11894476 -0.054211926 0.011001143 -0.1115373 0.013447288 -0.084551424 -0.1258877
-0.15182023 -0.0898966 -0.0959692 -0.2196828 -0.027627755 -0.0903651 -0.2661499 -0.028049968
0.04040006 -0.19483247 0.033170898 -0.19646744 -0.031708624 0.0054649413 -0.13084078 -0.114573635
-0.053065054 0.12356653 0.035394937 -0.039034374 0.10924481 0.14619869 -0.12074023 -0.028637655
-0.22839084 -0.025846267 0.024751019 0.022497421 -0.058091093 -0.37756458 0.086786345 -0.3147569
0.05780375 0.1475369 0.05615479 -0.015830344 -0.09900186 0.06504509 0.18392299 0.11397316
0.08309896 -0.07864688 -0.22998402 0.019113526 0.037766166 -0.09479269 -0.086141974 0.041686226
-0.015617731 -0.00070645777 -0.18304707 -0.06901838 0.12915944 -0.18869977 -0.053054474 -0.055432193
-0.13650885 -0.10897484 0.07200912 -0.091365226 0.11447797 -0.049062714 -0.030454654 -0.030043181
-0.14802055 0.08180617 0.009469837 -0.12199592 -0.37053725 -0.3002372 -0.012301875 -0.007978837
0.10781372 0.056096535 -0.29666767 0.1536489 0.07732756 -0.039553367 -0.10224776 -0.071774915
-0.10286703 0.03131039 -0.02668993 0.04912263 -0.045440834 0.12600367 0.15544619 0.105512835
-0.0040959674 -0.049812786 -0.2060888 0.10846727 0.0403172 -0.22881468 -0.21326177 -0.116408356
-0.111705184 -0.0154230185 0.0027875989 0.038846314 0.13919006 -0.051597003 -0.2149251 -0.124452986
-0.38782597 -0.10253809 -0.3404127 -0.011234552 0.34454438 0.12441538 -0.04567883 9.0468246e-05
-0.10824965 -0.062698625 -0.08242333 0.0661864 -0.1824419 -0.18215403 0.008532589 -0.10234963
0.27937493 -0.057465956 -0.07739503 -0.25921732 -0.26391727 -0.012203803 0.23493084 -0.09368573
0.25643197 -0.22633332 0.089839384 -0.17678417 -0.26606756 -0.31908184 -0.13799433 0.1049491
0.10925721 -0.22216567 -0.22946747 -0.34825042 -0.1834305 -0.00516893 0.11179247 0.00025009012
0.07801141 -0.26821125 0.025183657 0.103175625 -0.018094394 -0.28333858 -0.2179612 0.0016633351
00000000: 645a d4bd 7c31 1fbe 3a12 43be 20c5 ea3d
00000010: 9df6 b8bd 050c 80be d4a3 99bd 129a 433c
00000020: 4743 c1bd 9b08 9b3d d951 9fbd e660 aebd
00000030: 7abe 44be e575 3a3d e18a d3bd 7e57 153d
00000040: 9ab3 a7be a850 f5bd 0538 45be f4cb d93d
00000050: 113e 923d 5bb4 03bd 8352 f63d df44 b7bd
00000060: 7c1b e6bc 9012 7eba f6a0 3dbd fcce 503c
00000070: d36f 1c3e 4ce9 87bd e4a1 92bb 3c8b 81bd
00000080: d05f 6abd 4f99 f3bd 530d 5ebd 233e 343c
00000090: ab6d e4bd 0452 5c3c 4c29 adbd b5e8 00be
000000a0: c376 1bbe b51b b8bd 808b c4bd 87f4 60be
000000b0: 9a53 e2bc 5611 b9bd cd44 88be 0cc9 e5bc
000000c0: 897a 253d 2a82 47be 35de 073d c32e 49be
000000d0: e7e0 01bd 4013 b33b 20fb 05be 95a5 eabd
000000e0: be5a 59bd 7310 fd3d 48fa 103d 82e2 1fbd
000000f0: bebb df3d 1cb5 153e a746 f7bd 8499 eabc
00000100: 4adf 69be 8dbb d3bc a6c2 ca3c 834c b83c
00000110: edf0 6dbd 2550 c1be 0abd b13d d127 a1be
00000120: a0c3 6c3d ea13 173e 9102 663d a3ae 81bc
00000130: 7dc1 cabd 5c36 853d 4f56 3c3e c36a e93d
00000140: ca2f aa3d 9e11 a1bd ee80 6bbe f893 9c3c
00000150: b2b0 1a3d ab22 c2bd 346b b0bd 2dbf 2a3d
00000160: 83e1 7fbc 9431 39ba b170 3bbe 8259 8dbd
00000170: 5f42 043e 833a 41be a64f 59bd de0c 63bd
00000180: fac8 0bbe 332e dfbd 8479 933d b11d bbbd
00000190: 6d73 ea3d fcf5 48bd 0a7c f9bc 1e1d f6bc
000001a0: b392 17be fe89 a73d 6027 1b3c ffd8 f9bd
000001b0: 0fb7 bdbe b1b8 99be ce8d 49bc abb9 02bc
000001c0: 71cd dc3d 7bc5 653d d3e4 97be 2356 1d3e
000001d0: e95d 9e3d b602 22bd 4667 d1bd bafe 92bd
000001e0: f3ab d2bd 533f 003d d7a4 dabc d034 493d
000001f0: 2b20 3abd 1b07 013e 492d 1f3e 1d17 d83d
00000200: 7737 86bb 7e08 4cbd f108 53be 1724 de3d
00000210: a623 253d 654e 6abe 4b61 5abe 8167 eebd
00000220: b0c5 e4bd d4b0 7cbc 26b0 363b 501d 1f3d
00000230: d787 0e3e 6157 53bd 5315 5cbe 35e1 febd
00000240: 2091 c6be 7dff d1bd 934a aebe 2011 38bc
00000250: 1f68 b03e 7ecd fe3d ba19 3bbd c5b9 bd38
00000260: feb1 ddbd 2368 80bd 90cd a8bd bc8c 873d
00000270: 0dd2 3abe 9686 3abe 46cc 0b3c af9c d1bd
00000280: 3b0a 8f3e 6c61 6bbd 4981 9ebd 22b8 84be
00000290: 2a20 87be 76f2 47bc b691 703e 4ede bfbd
000002a0: 0d4b 833e ecc3 67be b6fd b73d e906 35be
000002b0: 023a 88be b25e a3be 634e 0dbe 8eef d63d
000002c0: 3ec2 df3d 667f 63be 85f9 6abe e14d b2be
000002d0: 34d5 3bbe 2160 a9bb 73f3 e43d 871e 8339
000002e0: 72c4 9f3d fc52 89be f54d ce3c be4d d33d
000002f0: b23a 94bc c111 91be 3931 5fbe 4404 da3a

encoders.3.conv2.bias f4 [3]
-0.21432331 -0.029023118 -0.14142103
00000000: 9277 5bbe e4c1 edbc add0 10be
