code/s4/timestep/models/best_model_s4_seq80.pt (torch, 57390 bytes, 40 tensors)

encoder.weight f4 [16, 3]
00000000: e080 4d3e dbd6 103e b090 70bf b1c5 bb3e
00000010: 5b78 6c3e 894e e9be 9098 593e 3680 e2be
00000020: b3a1 e6be 510d 7bbe c0d2 843e 6e82 d23d
00000030: e893 ca3d 12e9 2a3f 9bd2 773e 8c65 ca3d
00000040: 60fa 36be 0888 12be 4fa3 453e 9e6a 0d3f
00000050: 875a 3e3e 89aa e93e 4c9c 5dbe 171f 4f3f
00000060: 7e62 3a3f 75c0 bcbe 621c b4bc 8d52 89be
00000070: 9cdd 933e 5885 53be 3ee8 bfbe 3a8b c33e
00000080: 0016 ce3e 1943 7dbd 48c0 f0bd 2932 6a3e
00000090: b777 f33d f94e a43e 1053 2abf 2f07 0cbf
000000a0: dd73 8abe 161e cf3e 87ea d33e 1efb b2bc
000000b0: 2a00 203f ed22 d23d ae5b a8be 9101 323f
0.20068693 0.14144461 -0.93970776 0.36674264 0.23092787 -0.4556773 0.21249604 -0.44238442
-0.45045242 -0.24516799 0.2594204 0.10278784 0.09891492 0.6676189 0.24201433 0.0988265
-0.17868948 -0.14309704 0.19300579 0.5524081 0.18589221 0.4563792 -0.21641654 0.80906814
0.7280654 -0.36865583 -0.02198619 -0.26820794 0.28880012 -0.20656335 -0.37481874 0.3819216
0.4025116 -0.061831567 -0.11755425 0.22870697 0.11888068 0.320915 -0.66532993 -0.5469846
-0.27041522 0.4045264 0.41389868 -0.021848258 0.6250025 0.10260568 -0.32882446 0.6953364

encoder.bias f4 [16]
00000000: 9175 ac3e bdd4 a9be 2676 ee3e 3d6b 5dbf
00000010: 73eb 883e b976 83be 0814 efbe da2f 853d
00000020: 47ee 27bf 1dd2 71bf c209 703e 4ea1 5e3f
00000030: c393 123e 5093 0dbf bc02 973e cc65 143f
0.33683446 -0.3317012 0.46574515 -0.8649176 0.26742133 -0.25676516 -0.4669497 0.065032676
-0.6559796 -0.9446123 0.23441222 0.8696488 0.14314179 -0.55302906 0.29494274 0.5796783

s4_layers.0.D f4 [16]
00000000: 8b26 44be 3f7f adbf d8a9 013e 133a 793e
00000010: e040 4e3f 2b39 93be 5a63 36be 26d8 c73e
00000020: ac44 49bf d416 84be d0b1 bb3d dcc7 cbbf
00000030: 9d17 a8bf 982a 91bf 9f64 cb3e b6cf 2f3f
-0.19155328 -1.3554457 0.12662446 0.2433856 0.8056774 -0.28754553 -0.17811337 0.39032096
-0.7862041 -0.25798666 0.091647744 -1.5920367 -1.3132206 -1.1341124 0.39725205 0.68676317

s4_layers.0.kernel.C f4 [16, 32, 2]
00000000: 8bc6 43bf ce27 73bf db0d b53f 99ad 443f
00000010: 9b66 b53e 8fea 0ebf bf41 99bf eebe c8be
00000020: 9b2c 333f f921 263f a43b e53e eeb7 813f
00000030: 20de d1bd 0e32 833e 3132 433f fc19 663f
00000040: 7c43 93be 21b3 6bbe e90f b6bd 7652 0fbf
00000050: 0909 66be 84db b7be 6784 cf3f 72c2 ffbd
00000060: 0e31 a73f a65a 013f 836b 293f 5563 3cbe
00000070: 3bc7 493f 3f87 73bf 9b25 5a3f c899 02bf
00000080: 6a9e 123f 33ea 0cbf b999 063f 78fd 35bf
00000090: 6b0b 34be 7230 84bf b0bd 24bf 61d1 273f
000000a0: 0663 a7bf 10a8 c5be 054c acbf 089f abbe
000000b0: d054 b9bf 2836 e63e b861 72bf 6219 383f
000000c0: e9f4 1cbf 425d 853f fb37 96bf 7100 333f
000000d0: a0c5 5ebf cd81 853f 82c0 29bf cc0e 74bf
000000e0: f090 8c3f 8d80 f5bd 30e9 d33e 4659 213f
000000f0: 98c4 19bf 6e4a 7c3f 24ab 1cbf 723a 83bf
00000100: 1d43 9f3c 8fda 3a3f 0a06 21bf 7920 5abe
00000110: a216 57bf c7a9 c53e b514 40bf 667f 633f
00000120: 9347 b13d 4148 a43e e009 1fbf 2cda adbe
00000130: 9954 653e 3cdc 9c3f d006 1b3e e568 603f
00000140: 6970 4fbf a184 483f 008c 62bf 80d5 7d3f
00000150: 5530 f03e ad08 193e bf25 42be 0f6a 993e
00000160: 85a7 7ebf d963 343f 4680 e1bf f59d 7a3f
00000170: 6540 263e d528 6cbe 6082 dfbe f54d abbe
00000180: 287a a2bf ddb4 38bf 9bcf 4f3e 5afc 6e3f
00000190: fd1d 4ebf 1371 54be 3b00 b63d 646d 22bf
000001a0: 31cb c2be a94d 7d3d 9aee 86bf 2271 293f
000001b0: d0a2 85bf 060b 223e affd 8cbf c463 5f3e
000001c0: 8c95 36bf 4a91 ad3f 3ffe 88bf 2e1d 80be
000001d0: de45 39bf 42e5 0bbc 37f7 13bf bf63 ce3d
000001e0: da6f 55bf 7751 833d 103a 03c0 76b0 7a3f
000001f0: b0c4 cdbf 23ef 1f3d 4085 fcbe ff65 0dbf
00000200: 3f34 d73e d36b 3c3f befd b83f 2371 b9bf
00000210: 1a80 333e 8366 3dbf abd0 4fbf d13d 0d3e
00000220: 72f8 133e 8de4 bdbe c1e8 9abf 7b49 0ebf
00000230: 4a2f 9cbf 99bb 2cbf dfc3 16bf 64f8 1fbf
00000240: a1f8 84bf 5cd2 24be 3338 5e3e 1de6 493e
00000250: c524 eabf 51ce 503f e7a9 b43e cd21 8d3f
00000260: 0efe 663f ec03 40bf 5af2 0740 2f2c 87bf
00000270: 8a87 9a3d 1e6b 423e b533 04be 2483 fdbe
00000280: 27d3 44bf a69f 46be 4154 5ebf 5f2f 5abe
00000290: 418f 453e 2c91 9fbf d808 9dbe aaca acbd
000002a0: 1d47 a5bf b49c cebe 7454 cabf 81bf 25bf
000002b0: 677b 2c3e 9dee 2a3f 1069 5ebf becf 36bf
000002c0: eaa3 c33d c1f7 72be 3b27 44bf 1f62 8a3f
000002d0: fbff 1fbf 0bcc 08bf 816a 2c3e 6848 243e
000002e0: 2f26 013e 8efc 6dbc eb22 1cbf 447a 57bf
000002f0: b6f7 583d 0a55 1bbf 29d1 6d3f 1054 7c3f
00000300: 02a3 69bf 519c 9b3f 3f5e af3d 6271 2cbf
00000310: 1d14 51bf b7eb 4cbd f23e 413f 3a28 b2bc
00000320: 5173 d2be 5916 9a3e 3264 913f ccdd 6abf
00000330: 42ec 603e 3eb3 4a3e 1f9e a03f f5ab 27bf
00000340: 180d ce3f dda1 bdbe 551a db3e fdfd 8abe
00000350: b578 0840 beb2 a6bd 410a c23f 6c05 91bf
00000360: 92bd 1a3f 24d4 983e 413b c53f 68b0 57bf
00000370: d9db 34be 8b78 cabf d7c6 5ebf 7a27 a6be
00000380: 513a 82bf bf9f bebf a800 a0bf ce0a 563e
00000390: e981 03bf 0efb a4be b0ad 33bf 80ac 913e
000003a0: dd0a acbf 2aba aebe 1b67 413c edb0 383b
000003b0: 02cf 82bf f3c1 1abf fbbd a1bf f7f4 c9bd
000003c0: 32b5 7bbf 1ab5 6f3f e0f8 5bbf d5fc 543f
000003d0: 2d59 d3be c8b2 35be abb1 7cbe d8fe 1e3f
000003e0: 791e 133e ea2d 143f e250 393f 028e 93bd
000003f0: 9c32 223f 7d1c 313f a1f3 66be 245e 9b3f
-0.7647483 -0.9498261 1.4144853 0.7682739 0.35429844 -0.5582666 -1.1973189 -0.39208168
0.6998994 0.6489559 0.44772065 1.0134256 -0.10247445 0.25624126 0.7624846 0.898834
-0.28762424 -0.23017551 -0.08889753 -0.559852 -0.22464384 -0.35909665 1.6212281 -0.124882594
1.3061845 0.50528944 0.66179675 -0.18397267 0.78819627 -0.95128244 0.8521363 -0.510159
0.5727297 -0.5504486 0.5257831 -0.7108989 -0.1758248 -1.0327284 -0.6435194 0.6555386
-1.3077095 -0.38604784 -1.3460699 -0.3351977 -1.4479008 0.44963193 -0.94680357 0.7191373
-0.61311203 1.0419085 -1.1735834 0.6992255 -0.870203 1.0430237 -0.6630937 -0.9533508
1.0981731 -0.1198741 0.41388845 0.63026845 -0.60065603 0.9855107 -0.6119864 -1.0252211
0.019441182 0.72989744 -0.6289984 -0.2130145 -0.8401891 0.38606092 -0.75031596 0.8886627
0.0865623 0.32086375 -0.62124443 -0.33955514 0.22395553 1.225471 0.15139318 0.87660056
-0.810309 0.78327376 -0.88494873 0.991539 0.46911874 0.14944716 -0.18959711 0.2996373
-0.99474365 0.70464855 -1.7617271 0.97897273 0.16235502 -0.23062451 -0.43654156 -0.33457914
-1.2693529 -0.72150975 0.20294039 0.9335381 -0.8051451 -0.2074626 0.08886763 -0.63448167
-0.38045648 0.06184164 -1.0541565 0.6618825 -1.0440311 0.15824518 -1.1014918 0.21815401
-0.7132194 1.3559964 -1.070259 -0.25022262 -0.72372234 -0.008538546 -0.57799095 0.10077619
-0.83373797 0.064120226 -2.0504189 0.9792551 -1.6075649 0.039046418 -0.49320412 -0.5523376
0.42032048 0.73602027 1.4452436 -1.4487652 0.17529336 -0.73984545 -0.8117778 0.13793112
0.14450243 -0.37088433 -1.2102281 -0.5558087 -1.2201931 -0.6747375 -0.58892626 -0.6248839
-1.0388376 -0.1609587 0.21701126 0.19716688 -1.8292471 0.81564814 0.35285875 1.102594
0.90231407 -0.75005984 2.124167 -1.0560359 0.07545383 0.18986174 -0.1291035 -0.49514115
-0.7688469 -0.19396839 -0.8684731 -0.21307133 0.19292928 -1.2466178 -0.3067081 -0.084370926
-1.2912327 -0.4035393 -1.5807023 -0.64745337 0.1684395 0.66770345 -0.8687906 -0.7141074
0.095527485 -0.23727323 -0.7662236 1.0811194 -0.6249997 -0.53436345 0.16837503 0.16043246
0.12612222 -0.014525546 -0.6099078 -0.8417094 0.05297061 -0.60676634 0.9289728 0.9856577
-0.91264355 1.2157079 0.08562898 -0.6736051 -0.81671315 -0.050029483 0.7548667 -0.021747697
-0.41103604 0.30095175 1.1358702 -0.91744685 0.21965125 0.19794938 1.2548255 -0.6549676
1.6097746 -0.37037554 0.42793527 -0.27146903 2.1323674 -0.08139561 1.5159379 -1.132978
0.6044551 0.2984935 1.5408708 -0.8425355 -0.1766199 -1.5818037 -0.87022156 -0.32451993
-1.0174047 -1.4892501 -1.25002 0.20902559 -0.513701 -0.3222279 -0.701869 0.2845192
-1.3440815 -0.34126407 0.011804367 0.0028181628 -1.0219424 -0.60452193 -1.2636102 -0.098611765
-0.9832336 0.93635714 -0.8592663 0.8319829 -0.41278973 -0.17743981 -0.2467715 0.6210761
0.14367093 0.5788256 0.7238904 -0.0720482 0.63358474 0.69184095 -0.22553875 1.2138104

s4_layers.0.kernel.log_dt f4 [16]
00000000: 0fe6 aec0 a878 c9c0 39bb 82c0 fcb4 a0c0
00000010: fdf9 c5c0 94e5 60c0 492a 21c0 1098 8ac0
00000020: c9e5 bec0 a90a 40c0 b274 69c0 6870 b2c0
00000030: ff54 a6c0 eeb1 b6c0 9495 78c0 620b 94c0
-5.4655833 -6.2959785 -4.0853543 -5.022093 -6.186766 -3.5140123 -2.518206 -4.3310623
-5.96555 -3.0006506 -3.6477475 -5.5762215 -5.1978755 -5.70922 -3.8841295 -4.6263895

s4_layers.0.kernel.log_A_real f4 [16, 32]
00000000: 5ccb 41bf e25e 26bf d94c 28bf 37b6 0cbf
00000010: ba34 25bf 43fd e7be 44c1 cfbe 3ded c6be
00000020: 66b6 903e 07e5 1f3f c3ac d23e 1a13 c9bf
00000030: a281 c5bf 1de9 b9bf 18be 9fbf e128 9abf
00000040: 8d59 9dbf 27d6 9abf 6c15 a6bf 10ce dfbd
00000050: 8741 acbf 6702 a1bf c2a0 9ebf ce3a 95bf
00000060: e14d 94bf 40b7 b0bf c62b d2bf 068a d93e
00000070: 486d 8abf 3650 dfbf 3d3b f93e 07a0 9abf
00000080: 5f7a 90be 260a 41bf 2ab7 3fbf 0f37 3ebf
00000090: 8c88 19bf dfaf 82bf fa49 35bf 2227 34bf
000000a0: 2c14 4abf 92fa 5abf a7f6 02bf 5dd4 5dbf
000000b0: df17 98bf 9620 94bf cfe4 ffbe d6c6 b7be
000000c0: 6b13 b6be 9675 8fbf 9d01 6cbe 966c 43bf
000000d0: 30ec 2fbf df4b eabe 63d9 ccbe 5aa5 f7be
000000e0: 6b71 41bf 21f9 30bf 6e00 84bf 4a22 8cbf
000000f0: 8e3a 46bf 1f6a ddbe 6e38 c3be 75d8 4cbf
00000100: 6c72 82bf f006 71bf f6d2 74bf 949d 35bf
00000110: 77cb 7dbf 5989 a4be bc03 ddbf 4f97 3bbf
00000120: b97a c6be 43a3 b83e 9d17 6ebf 4de1 8cbf
00000130: 15f8 99bf 6141 25bf a081 00bf d1a0 44bf
00000140: 3cca 7abf 1b9b 22bf d855 04bf 241b a9be
00000150: 0c1b a1bf 817a ce3d b13a 94be 45e8 50be
00000160: 3938 80bf e109 70be 87f8 36bf 7525 c4be
00000170: 3c7f 9cbd 82de 54be 1e4b b5bf b5fc 3b3e
00000180: 8afc 50bf 28a6 0fbf 2af4 25bf 5c4c 2bbf
00000190: 1e02 6ebf 01cc 5d3d f03e 3cbf 63cb 19bf
000001a0: cde1 9cbf 8e66 cdbe 0b03 c4bf eac0 d9bf
000001b0: 57e7 f83d 61c2 77bf a259 adbf f345 88bf
000001c0: f52b b0bf dd33 f8bf 6144 2fbe 3b71 22bd
000001d0: b160 f7be cbc1 1a3e 8b30 adbf 1096 abbf
000001e0: 8e72 aebf 4a29 bdbf 5bd1 90be 25c5 36bf
000001f0: 2af9 14bf 7f4e c9be 6b2c 33bf 9f73 90bf
00000200: 0274 70bf a8bd eabe ebfb 70bf 3353 6ebf
00000210: 6d3f dbbd 75be e4be fb75 74bf 19e9 05bf
00000220: d68c eebe 7e2c bebe 91df cbbe 2fd2 10bf
00000230: aa86 63bf f40b 81bf 4b8e 54bf 876d 20bf
00000240: 55a3 6fbf 092e 24bf 33ab 70bf f97d 74bf
00000250: b313 1bbf 57eb 1fbf d40c e7be 7ed8 87bf
00000260: 9545 96bf 7906 2fbf de14 933d 37eb 12be
00000270: b481 a0bf 33d4 83be 5277 f7be e37a 72bf
00000280: 7fb7 e4be e752 8abd 8809 22bf 681b 3a3f
00000290: 40bf bebe 965a fdbd 0f47 babe 99ef 41bf
000002a0: 42f5 2cbd 80b2 1abf f101 e0bf 1944 9ebf
000002b0: c3b9 7dbd b018 8abf 2a35 c2bf 464d 1cbf
000002c0: 05d5 87bf f0e8 58be 6907 a0bf 63ea f73e
000002d0: bb4d c1bf 314b 57bf 7472 cdbe 358b 82bf
000002e0: 4990 17bf b473 68bf de83 d6be e31d 8bbf
000002f0: a950 5abf 596c 91bf dbe7 0cbf be4b 57bf
00000300: e3e0 f6be 5f49 12bd db7a 8abf 17ab 07bf
00000310: c70f 85bd 981a 39bf c003 07bf 6af2 67bf
00000320: 6b64 15be e0e6 16bf 80e3 23bf a03d debe
00000330: 8423 85be ff86 37be 57c8 53bf 1c63 46bf
00000340: b33a a5be 9811 fabe 23a6 eabe 6b93 2bbf
00000350: 540b 5dbf a968 12bf db26 54bf 51fa efbe
00000360: fa39 20be 20db 71bf a919 37bf 76f6 54bf
00000370: cda1 25bf bff5 16bf b343 3dbf fd71 2fbf
00000380: effd dabe 269f ba3e 2831 d63e f468 dabd
00000390: fbbe 143f e61a 6fbd dbb1 2dbf cbed 7ebf
000003a0: 857b 13bf dd1c 09bf 8bd2 2abf e0fa 85bf
000003b0: 9657 7cbf 3445 2ebf 13c2 60bf 2a94 173d
000003c0: 1ca0 0c3e 83c0 95be 7153 d2bf aee6 b3bf
000003d0: e763 34bf cb17 2ebf ee81 8abf 08eb debe
000003e0: a796 00c0 fe12 fdbf 4a84 8dbf 9cff 93bf
000003f0: 93af 92bf b4ac 0bbf e796 8abf f63f bfbe
-0.75700927 -0.6498853 -0.6574226 -0.5496554 -0.6453358 -0.4531041 -0.40577137 -0.38852873
0.2826416 0.62458843 0.41147432 -1.5708954 -1.5430186 -1.4524266 -1.2479887 -1.2043725
-1.2292954 -1.2096604 -1.2975287 -0.10927975 -1.3457497 -1.2578858 -1.2392809 -1.1658571
-1.1586267 -1.3805923 -1.6419609 0.42488116 -1.08146 -1.7446353 0.48678008 -1.2080086
-0.28218362 -0.7540611 -0.7488886 -0.7430276 -0.5997398 -1.0209922 -0.70816004 -0.7037221
-0.7893703 -0.8553859 -0.5115761 -0.86652166 -1.1882285 -1.1572444 -0.49979255 -0.35893887
-0.3556169 -1.1207759 -0.2304749 -0.76337564 -0.6871977 -0.4576101 -0.40009603 -0.4836834
-0.7556369 -0.6913014 -1.0312631 -1.0947964 -0.774331 -0.43245026 -0.3812899 -0.8001779
-1.0191169 -0.9415121 -0.956344 -0.7094357 -0.9913859 -0.32136038 -1.7266765 -0.73277754
-0.38765505 0.3606206 -0.9300478 -1.1006256 -1.2028834 -0.64552885 -0.5019779 -0.76807886
-0.97964835 -0.6351792 -0.5169349 -0.3302852 -1.2586379 0.100819595 -0.28951028 -0.20401104
-1.0017158 -0.23441269 -0.7147297 -0.38309827 -0.076414555 -0.20788005 -1.4163549 0.18358119
-0.81635344 -0.5611291 -0.6482569 -0.6691339 -0.9297198 0.05414963 -0.73533535 -0.6007597
-1.2256409 -0.40117306 -1.5313429 -1.7011998 0.121534996 -0.96780974 -1.3542979 -1.0646347
-1.3763415 -1.9390827 -0.17115928 -0.039658766 -0.48315957 0.15112989 -1.3530439 -1.340517
-1.3628709 -1.4778225 -0.28284726 -0.7139457 -0.58192694 -0.393177 -0.6998965 -1.1285285
-0.93927014 -0.4584782 -0.94134396 -0.930957 -0.10705457 -0.44676557 -0.95492524 -0.52308804
-0.46591824 -0.3714332 -0.39819005 -0.56570715 -0.88877356 -1.0081773 -0.8302962 -0.62667125
-0.936086 -0.64132744 -0.9401123 -0.9550472 -0.60576934 -0.62468475 -0.45126975 -1.0612943
-1.1739985 -0.6836925 0.071817145 -0.1434754 -1.2539582 -0.25747833 -0.48333222 -0.9471876
-0.44671246 -0.067540936 -0.63295794 0.7269807 -0.37255287 -0.123707935 -0.36382338 -0.7575622
-0.042226084 -0.6042862 -1.7500592 -1.2364532 -0.061944734 -1.0788784 -1.5172474 -0.6105541
-1.0611883 -0.21182609 -1.2502261 0.4842101 -1.5101846 -0.8409911 -0.40126383 -1.0198733
-0.59204537 -0.9080155 -0.41897482 -1.0868496 -0.8527933 -1.136119 -0.55041283 -0.8409995
-0.4821845 -0.035714503 -1.0818743 -0.5299544 -0.0649715 -0.72306204 -0.527401 -0.9060427
-0.14589088 -0.5894604 -0.6401901 -0.4340639 -0.2600366 -0.1792259 -0.8272757 -0.7749498
-0.32271346 -0.48841548 -0.45829877 -0.67021817 -0.8634541 -0.5719095 -0.8287179 -0.46870664
-0.15647116 -0.94474983 -0.7152353 -0.8318857 -0.64700013 -0.5896873 -0.73931426 -0.6853331
-0.4277186 0.36449546 0.41834378 -0.106645495 0.58103913 -0.05837526 -0.6784951 -0.99581593
-0.5761035 -0.53559667 -0.66727513 -1.0467186 -0.98571146 -0.68074346 -0.87796134 0.037006535
0.13732952 -0.29248437 -1.6431714 -1.4054773 -0.7046494 -0.68005055 -1.0820901 -0.4353869
-2.009195 -1.9771421 -1.1055996 -1.1562381 -1.1459831 -0.545604 -1.0827302 -0.37353486

s4_layers.0.kernel.A_imag f4 [16, 32]
00000000: 37cc 85bd 80c7 4d40 7585 d240 4d7d 1741
00000010: d971 4641 a63a 7a41 cf3d 9841 856e b541
00000020: 2e27 c441 d8c6 e241 cbdc fb41 0a43 0b42
00000030: f2c2 1342 16e0 2142 59c0 2f42 ca01 3b42
00000040: 05af 4742 7ae3 5342 5edb 6042 af2f 7042
00000050: 0336 7b42 df6b 8342 2ac3 8a42 197a 9142
00000060: 3d1c 9842 71fd 9b42 7846 a242 caa9 a942
00000070: 721c b242 e293 b542 b6e9 bb42 6988 c442
00000080: 3f04 703d c0e4 4540 771c d440 bbe5 1841
00000090: e532 4a41 9bae 7a41 7aff 9741 8b8f b241
000000a0: 6ba4 c941 58d4 e241 cce3 fc41 80ee 0b42
000000b0: 87b8 1642 90c6 2242 2f05 3142 514e 3c42
000000c0: b648 4842 bfa3 5542 b416 6242 2297 7042
000000d0: 502a 7c42 b56f 8342 3135 8a42 097f 9042
000000e0: 5989 9642 d295 9d42 90e0 a342 b6c3 a942
000000f0: 301e b042 7edb b542 4fb7 bc42 1050 c342
00000100: 1a30 9dbe 7dac 3740 e7d8 c140 a1c0 1441
00000110: 5823 4c41 c6f5 8441 4b30 9a41 6c25 af41
00000120: 7fec cb41 01f8 e441 d768 f541 f70c 0a42
00000130: 9b9e 1742 df2c 2342 898f 2f42 5b38 3c42
00000140: be70 4942 74c2 5442 12f0 6042 8bf5 6e42
00000150: 92e0 7942 3624 8442 2a2d 8b42 f7f7 8f42
00000160: 0034 9642 64ce 9d42 3153 a242 6ee3 a842
00000170: 5411 b142 8532 b742 3cfb bc42 3ff6 c242
00000180: 5d00 fb3d b0ef 4140 986f c640 a281 1741
00000190: 383f 4b41 dbe0 7e41 394f 9341 2305 b741
000001a0: 414c cd41 8c4b e541 73b8 f841 ea4d 0a42
000001b0: 370b 1242 2397 1e42 de7b 2e42 3f03 4142
000001c0: 90d5 4642 1a6c 5542 3872 6042 8944 6c42
000001d0: 654f 7f42 d8ab 8242 58e3 8942 8080 9042
000001e0: b240 9742 fe65 9c42 c577 a142 baff a742
000001f0: f174 af42 8f9c b642 eab4 bd42 f962 c342
00000200: 3173 65be 138f 5940 b1de c240 2148 1441
00000210: bbe5 4d41 9b70 7f41 bd44 9941 6599 ad41
00000220: 0e52 c841 6966 e341 ece5 f941 86dd 0842
00000230: 287a 1542 d17b 2342 82bb 2e42 9594 3b42
00000240: 4268 4942 2579 5642 f101 6442 1df8 6e42
00000250: 0ce8 7c42 c29b 8342 9c9a 8942 84d8 9142
00000260: 4645 9842 00bb 9b42 0457 a242 e92d a842
00000270: 0995 ae42 b1d2 b742 3456 be42 bf49 c542
00000280: 27d0 36be 02d9 7740 8873 c240 0b7e 1341
00000290: 1594 4641 9e63 7041 a59c a141 b7e1 a941
000002a0: 2512 ca41 4ca8 e041 d679 f541 4d55 0742
000002b0: 7341 1642 a170 2542 3984 2f42 4cfc 3b42
000002c0: 39b8 4742 b20c 5642 6d2a 6142 6f00 6e42
000002d0: 5486 7b42 7f46 8442 27bf 8a42 beca 9042
000002e0: 3305 9642 81d4 9c42 0862 a342 2d7b aa42
000002f0: fb9b af42 896c b642 0bb9 bb42 997b c242
00000300: da71 53be cabd 6640 dee3 d540 c9df 1541
00000310: 9afc 4741 d6d7 7d41 72fa 9241 2aa6 ad41
00000320: 51ba c741 5a43 e041 857f f941 4ae2 0942
00000330: e6eb 1642 033d 2242 7287 2f42 550b 3c42
00000340: 5abb 4742 e7b3 5442 7af1 6142 ddb0 6d42
00000350: fa9b 7942 f8d0 8342 31d0 8942 0ef3 9042
00000360: 6856 9742 fea4 9c42 6707 a442 50f6 a942
00000370: ac62 b042 4c81 b642 a0dc bb42 20e6 c242
00000380: f8a6 1f3f 1500 2640 96ee d140 3a79 0541
00000390: 45dc 4a41 e4bd 7a41 8b1b 9a41 15f5 ae41
000003a0: 540b cf41 500b e641 01cf f241 e268 0c42
000003b0: dd2d 1942 dd4b 2042 83ad 3342 96a0 3942
000003c0: 0d47 4842 96c8 5642 7da8 6342 c548 6c42
000003d0: cdad 7b42 c365 8542 beb5 8a42 ad6e 9342
000003e0: 7705 9742 dcad 9d42 e5d3 a142 8805 a942
000003f0: de8b af42 d524 b642 6191 bc42 067f c242
-0.065330915 3.2153015 6.578791 9.468091 12.402795 15.639318 19.03018 22.678965
24.51913 28.347092 31.48281 34.815468 36.940376 40.468834 43.93784 46.751747
49.920918 52.972145 56.214226 60.046566 62.802746 65.710686 69.38118 72.73847
76.05515 77.995 81.137634 84.83162 89.05556 90.78883 93.95647 98.266426
0.0585978 3.0920868 6.6284747 9.556087 12.637425 15.667628 18.999744 22.32009
25.205282 28.353683 31.611229 34.98291 37.680202 40.69391 44.255062 47.07648
50.071007 53.40991 56.52217 60.14759 63.04132 65.71818 69.10389 72.248116
75.26826 78.79262 81.9386 84.88225 88.05896 90.928696 94.358025 97.65637
-0.3070076 2.8699028 6.0577273 9.297029 12.758629 16.620007 19.27358 21.893272
25.490477 28.621096 30.676191 34.51266 37.90489 40.79382 43.89017 47.055035
50.3601 53.189896 56.234444 59.739788 62.469307 66.070724 69.58821 71.98431
75.10156 78.90311 81.16248 84.4442 88.533844 91.59867 94.49069 97.48095
0.12255929 3.0302544 6.2011223 9.469149 12.702934 15.929896 18.413683 22.877508
25.662233 28.661888 31.090063 34.576088 36.510952 39.647594 43.620964 48.25317
49.708557 53.355568 56.11154 59.06693 63.827534 65.33563 68.94403 72.25098
75.62636 78.1992 80.733925 83.999466 87.7284 91.30578 94.85335 97.693306
-0.22407223 3.3993576 6.089684 9.26761 12.868587 15.964992 19.158564 21.6999
25.040066 28.425005 31.237267 34.21633 37.369293 40.870914 43.683113 46.8951
50.351814 53.618305 57.001896 59.7423 63.22661 65.804214 68.80197 72.92288
76.1353 77.865234 81.16995 84.08967 87.291084 91.91151 95.168365 98.644035
-0.17852841 3.87262 6.076603 9.218272 12.411153 15.024321 20.201487 21.235212
25.25886 28.082176 30.68449 33.8333 37.563915 41.35999 43.879124 46.996384
49.929905 53.512398 56.29143 59.500423 62.88118 66.13769 69.373344 72.39598
75.010155 78.41505 81.69147 85.24058 87.80465 91.21198 93.86141 97.2414
-0.206489 3.6053338 6.684066 9.367135 12.49917 15.865194 18.372288 21.706135
24.965975 28.032887 31.187265 34.470985 37.73037 40.55958 43.88227 47.011066
49.93296 53.175686 56.485817 59.422718 62.40232 65.90814 68.906624 72.47472
75.66876 78.32225 82.01446 84.98108 88.19272 91.25253 93.93091 97.44946
0.6236415 2.593755 6.5603743 8.342096 12.678777 15.67136 19.263449 21.869669
25.880531 28.755524 30.351076 35.102425 38.29479 40.074085 44.919445 46.406822
50.069386 53.695885 56.91454 59.071064 62.919727 66.69875 69.354965 73.71616
75.51067 78.83957 80.91386 84.5108 87.77318 91.07194 94.28394 97.24809

s4_layers.0.output_linear.0.weight f4 [32, 16, 1]
00000000: a873 24bc 0252 f1bd 9c2c 9abd 7fc4 1c3e
00000010: ed4f 65be c25d 25bf 6142 373e a69b 95bd
00000020: 4d61 a7bd 7fb3 88be a875 4b3e f0be cbbe
00000030: 6f18 1dbf ecac e23d 0588 433e 591f 4bbf
00000040: ac86 88be 6f20 573d 6625 22be a3ed 91be
00000050: 1423 b8be 8215 343f 4c45 1b3e 19aa 95bc
00000060: 441a 9c3d 6b4c 8abe 248a 6ebc 4adf e33e
00000070: 12bc 3b3e 5f36 4b3e f756 183d 196c 5abf
00000080: 2da4 49bd 6f5a 003e 77ae 91bd e530 793d
00000090: 9b09 6e3e d959 1b3f 1fd8 60bd 1a3f 873d
000000a0: e1a7 cbbd 1698 f13d 2e57 953e c48d 3fbe
000000b0: a776 2e3f 0b62 da3e a0fb 8e3e b264 72be
000000c0: fe1d fdbd 16de 62be 7763 1a3f 6d30 18bd
000000d0: b2db 07bc 2689 313f 88a2 a7bc 0c20 0fbd
000000e0: c3b3 713e 4b22 abbe d1ec 603d 5e8c f5bc
000000f0: 5f61 c4be 9829 5ebe aaa5 2fbf 5a62 20bf
00000100: 7b01 a83e 362d 1a3e 0880 413e 78bc f03e
00000110: 4e61 863d 6719 35bf 8c72 5f3e f252 a13d
00000120: 8897 5b3f 739e 81bb 4a64 163e 5847 9d3d
00000130: 3cbc 8bbe a210 c43c be92 073d 898f 90bc
00000140: a4b8 a73d e86d 10be 93f3 40be d3fb 4d3e
00000150: 1778 f53e 8935 64be b945 2fbe aa64 a93e
00000160: 3b95 ac3c 7e5c 823f 8e5f 603e 4104 c23e
00000170: 56b3 f6bb 9f26 cf3e b350 c5be a1cf 803f
00000180: 36b1 5abd 8941 4ebd 2516 0b3f 2d42 e0be
00000190: 6b81 1c3e 3ec0 21bf 5591 943e 34b7 0e3e
000001a0: 3919 efbd 4a19 06be 37a4 acbe b587 afbd
000001b0: 9db7 68be 88d8 b1be e841 c23d 83ba f63d
000001c0: 2d71 64be c6f4 e5bd 0d8e 01be 26e0 a6be
000001d0: a86d f83e 4282 d7be eeff aebe 10fb 10be
000001e0: af04 35bd 02f6 fbbe fbdc 0dbe 9019 3cbe
000001f0: 0669 78be c14d d03e d997 8a3e 97da aebd
00000200: 3be0 eabe c99f 243e d2a2 71be b423 0fbf
00000210: bfa6 65be 1078 e2be ef81 eabc 5b86 cabe
00000220: 0018 433d 8722 16bf 660a 583e 8520 ee3d
00000230: ec4f 17bf 6036 323e 8fe7 f6be 8d2a 4ebf
00000240: 9f43 d53d aec0 ba3c 971e 093f ae1b 9f3c
00000250: a690 dabe 5f15 883e ff53 b5be 12b9 3f3e
00000260: e923 44bd 662b 95be 56a1 9fbd 3dc6 c0be
00000270: d817 793e 275a 1bbf de69 373e 815e b53e
00000280: 7c42 933d 7859 983b 734f e43d 329e 9d3f
00000290: 93f3 653f 2bf6 be3e 3c81 04be 7766 4c3e
000002a0: 73ff 603e 7086 59be 5eba 8abe c380 a23e
000002b0: d75c c4be c99d bb3e f99e 10be 8650 80be
000002c0: 480c f8bd a8ae b03e cac8 013d e3fd 943c
000002d0: b68f 7dbf 6b90 e13c d964 033f 86ec d73d
000002e0: 85ed fa3d f84d a73e f257 bc3e ba7e 5e3d
000002f0: 2cfa 483e bffd 77be 8d68 163e daae 77bd
00000300: 7695 80bd 2dce 033f 873e a53e 443f 2dbf
00000310: ca30 8abe ce6c 17bf 35cd 133c f8a6 8cbe
00000320: b5d7 17bf 62a6 31bf 16d5 22be b577 0dbe
00000330: 70fa a63e 83a3 f1bc 47f3 2e3e de99 3fbe
00000340: 1672 3ebe c8d4 20bf d2cb a7bc af40 48be
00000350: d991 c83e f3c0 dcbe b8d4 923d f985 ebbe
00000360: 8095 633e f85f 6f3e 8907 103e 35ae 85bc
00000370: 1f9b 0ebe 7ae9 803d fd17 adbe 4d4a 16bf
00000380: 7011 afbd 06e5 38bf 38d5 8ebf 8a85 133e
00000390: 3214 a43d e181 4dbe 8eb6 4fbe c178 1d3c
000003a0: 75f9 df3e 94a3 1f3e a467 bc3e cc8e aebd
000003b0: ac46 873e 7a0e 01be b5fe 9e3e e406 78be
000003c0: 2ead 04be a28d 0bbe ff4c dbbc 3658 ebbd
000003d0: ff92 b6be 9c6e 80be 705c 10be 870b 7137
000003e0: c4c6 3a3e 680b 03be 971d b13d 0de3 00bf
000003f0: c841 1abf 9ccd 08bf 229b f7bd ce16 35bc
-0.01003734 -0.1178322 -0.0752804 0.15309332 -0.2239377 -0.6459619 0.17896415 -0.07305078
-0.081728555 -0.26699445 0.19869101 -0.3979411 -0.6136541 0.110681385 0.19094856 -0.7934471
-0.26665246 0.052521165 -0.15834579 -0.28501615 -0.35964262 0.7034532 0.15163153 -0.018269585
0.07622197 -0.27011427 -0.0145593025 0.44506294 0.18333462 0.1984496 0.03719231 -0.85321194
-0.049228836 0.12534498 -0.07113355 0.060837645 0.23245852 0.6068397 -0.05489361 0.066038325
-0.0994413 0.11796586 0.29168075 -0.18706423 0.681498 0.42652926 0.2792635 -0.23671225
-0.12359236 -0.22155032 0.6030802 -0.037155557 -0.008292126 0.69349897 -0.020463243 -0.03494267
0.2360373 -0.334246 0.054913346 -0.029974159 -0.38355538 -0.21695554 -0.6861216 -0.6265007
0.3281363 0.15056309 0.18896496 0.4701879 0.06561528 -0.70741886 0.2182104 0.07877149
0.85778093 -0.003955656 0.14686695 0.07679623 -0.2729205 0.023933712 0.03309893 -0.017646568
0.08189514 -0.14104426 -0.18842916 0.20115595 0.47943184 -0.22286047 -0.17116441 0.33084613
0.021067252 1.0184476 0.21911451 0.3789387 -0.0075287027 0.40459153 -0.3853813 1.0063363
-0.053391658 -0.050355468 0.54330665 -0.43800488 0.15283744 -0.63183963 0.2901713 0.13937074
-0.11674733 -0.13095585 -0.33719036 -0.08570806 -0.22726293 -0.34735513 0.09485227 0.12047293
-0.22308798 -0.112283275 -0.12651844 -0.32592887 0.4852116 -0.42091566 -0.34179634 -0.14158273
-0.04419392 -0.49211127 -0.13853829 -0.18369126 -0.24258813 0.40684322 0.27068976 -0.085377865
-0.458742 0.16076578 -0.23597267 -0.55913854 -0.2242689 -0.44232225 -0.02862641 -0.3955563
0.04763031 -0.58646435 0.21097717 0.11627296 -0.59106326 0.17403555 -0.4822354 -0.8053368
0.10413288 0.022796955 0.535623 0.019422378 -0.42688483 0.26578805 -0.35415646 0.18722942
-0.04788581 -0.29134673 -0.07794444 -0.37651244 0.24325502 -0.60684437 0.17911479 0.35423663
0.07190415 0.0046493374 0.11147966 1.2313902 0.8982479 0.37297186 -0.12939924 0.19960962
0.21972446 -0.2124269 -0.27095312 0.31738862 -0.3835208 0.36643818 -0.14123143 -0.25061435
-0.121117175 0.34508252 0.031685628 0.018187469 -0.9904741 0.027534684 0.51325756 0.1054316
0.122523345 0.32676673 0.36785847 0.054320075 0.19626683 -0.2421789 0.1468832 -0.060469486
-0.062785074 0.51486474 0.32274267 -0.6767466 -0.26990348 -0.591504 0.009021093 -0.27471137
-0.5931352 -0.69394505 -0.15901598 -0.13815196 0.32612944 -0.029496914 0.1708499 -0.1871104
-0.18598208 -0.6282468 -0.020482931 -0.19555925 0.39173773 -0.4311596 0.07169479 -0.4600065
0.22224998 0.23376453 0.14065374 -0.01631842 -0.13926362 0.06294532 -0.33807364 -0.58707124
-0.08548248 -0.7222446 -1.1158819 0.1440641 0.080116645 -0.20069076 -0.20284483 0.0096113095
0.43745008 0.15589744 0.36797822 -0.0852333 0.26421106 -0.12603179 0.310537 -0.24221379
-0.12956688 -0.13628247 -0.026770113 -0.11491434 -0.35659024 -0.25084388 -0.14097762 1.4367403e-05
0.18239886 -0.1279732 0.08648222 -0.5034645 -0.60256624 -0.53438735 -0.12090136 -0.0110528

s4_layers.0.output_linear.0.bias f4 [32]
00000000: 3f24 413e 43a9 4bbf ec9a 983e 1331 123e
00000010: fbc1 f63d 9be0 bc3e 59ef e0bd acd9 f8bc
00000020: 1c48 95bd 9b7f 37bf 8c9c 4fbe 4cdb 513f
00000030: 8908 b83e 2e59 33bc 12a5 073f 99d7 d53e
00000040: ac19 afbe 6f90 ce3e dd71 0d3f 26c2 933e
00000050: 499e 49be 953c 66be 2973 1cbe 8eac ec3e
00000060: db6c 2a3f 6391 ba3e 7e15 393e 8994 ce3e
00000070: 3eb1 d73e e86c 34bd 1e50 653e 4d55 0e3e
0.18861483 -0.7955515 0.29805696 0.14276533 0.120487176 0.3689011 -0.10983152 -0.030377232
-0.072891444 -0.71679085 -0.20274562 0.81975245 0.35944012 -0.010946555 0.5298625 0.4176605
-0.34199274 0.4034457 0.55251867 0.2885906 -0.19689287 -0.22484048 -0.15278305 0.462254
0.6657235 0.36439046 0.18074605 0.40347698 0.42127413 -0.044049174 0.22393844 0.13899727

s4_layers.1.D f4 [16]
00000000: a201 96bf 4950 353f a10c 973f 4f34 5c3d
00000010: 7658 873d 8187 3fbf 638e 363f 4e85 a5bf
00000020: ff5a 27bf 3cc0 4ebe 14c9 ccbf b08d 783e
00000030: 94b2 8cbe 9fe1 cc3f 4246 33bf 60a5 d43f
-1.1719248 0.7082563 1.1800729 0.053760823 0.066086695 -0.7481614 0.71311015 -1.2931306
-0.65373224 -0.20190519 -1.5998864 0.242728 -0.27479994 1.6006354 -0.7002908 1.6612968

s4_layers.1.kernel.C f4 [16, 32, 2]
00000000: ec71 d43f 23e8 e9be 134a 48be a178 8fbf
00000010: 09ea 87be 69fa afbf e20b fd3c 1759 043f
00000020: b3b7 0bbe ec9e 9e3e 77f8 663f 03fc b73e
00000030: 4511 83bf a340 86bf 7d9e 463f deaa 6fbf
00000040: 607d 713e d3ab 3fbf ce78 9c3e bec4 cc3e
00000050: bc5c 3e3e 0b39 fcbe 907b 9a3e 1ade 55bf
00000060: b374 a43e f9d9 13bf 84fa 2a3f 3393 c3be
00000070: f562 0c3f d058 b33d 4a62 9c3e 3214 17bf
00000080: 40fc ef3e d8b8 cdbe eef6 c6be adf3 a9bf
00000090: 147c c93f fc1e 6bbf 8bf8 333d 79a4 6dbe
000000a0: 0cf4 93bf 54ca c3be ac39 b7be c34a b5be
000000b0: 1bbd e0be 0c1d 8b3e 70a5 df3e 8fd0 25bf
000000c0: 142b 39bf 53ea debe ef18 003e 6e9e 6abf
000000d0: 4b65 4cbf 80b8 2a3e 5b0d 2f3f e25d fe3d
000000e0: 56ff ba3f f764 0dbf 4f40 c3be 810a f7bd
000000f0: 4ce3 1bbf 278a 34bf 4af7 b53f 9c9c b6be
00000100: fdb9 3abe 5585 dbbe 2b7b d73e 480f 0dbf
00000110: cc8b d83f 98bc 5cbe e46f 683f 8790 473f
00000120: e25b 74bf 5f65 c3bf f4ce 3ebe 95e5 58bf
00000130: 1f52 79bf d862 34bf 191d aebf 81c5 193f
00000140: 48db 1b3f fdbf 8f3e 2ef9 b93e dfe6 dc3f
00000150: a51d 03bf be27 a93f a8e0 4fbf 2b27 763f
00000160: eaf1 0a40 7ce2 823e 7765 8c3f 56a6 033e
00000170: 54ac ad3f b25e 10bf 3f3c c43f 3953 f1be
00000180: 0367 d93d a0e3 91bf 370a c03f b90f c23d
00000190: 5c36 0fbe dc80 6dbd 9eff aa3e 4be3 1abf
000001a0: 777e 823e 4511 963f 120d 97bf 9ba4 8abf
000001b0: b748 c33e fb24 7cbf 4888 01bf 02b6 983f
000001c0: 42d2 62be 7a83 3c3f b218 ebbd 088e 9cbc
000001d0: 5354 48bd 963c 9e3e cff9 3ebe ec00 333d
000001e0: 6b8c 0ebe b100 e5be 7211 01bf 6f2f 17bf
000001f0: b1be 05bf 45dc 283e 68b3 0abf fb4f c53f
00000200: 0976 d8be 3c59 c2bf 40c7 82bf d375 583f
00000210: ac5c bb3d 367d 133f 4396 01bf 639e 96bf
00000220: 16e7 e4be 8c3b 15bf 5a70 3b3f 5c05 a2bf
00000230: 6683 613e c28e 813f 3f70 0bc0 f410 0d3f
00000240: 0969 8dbe 46cf febd acd1 a1bf a594 2a3d
00000250: 94d5 da3f 89df 863f c7a6 61bf c7bb 723f
00000260: f728 51bf b257 a43f d7f5 ac3e 2f0e b7be
00000270: 53ab e03e 8089 0240 8418 803f 1eed e43e
00000280: 958a 27bf c337 d53e bda3 733f 9277 b73e
00000290: feef 9abf 613d 123f 9cb8 a83e 4354 2b3f
000002a0: 35af 1abf b238 f83e 6ad8 b6bf e5dd a53e
000002b0: 9215 6e3f c366 8abf 972b d5be 037b 433f
000002c0: adf8 81bf 7bc6 8e3f 2016 ca3e 6b79 a33e
000002d0: 18d3 1abe 2016 523d fddf 71bf ad35 d23f
000002e0: 8fb6 8b3f eb3e 123f 904b 09bf bcba 0b3e
000002f0: 037b d03f 5745 d63f 6e80 c23f 7ec8 253e
00000300: 7a62 a83f 1694 553e 21df 2a3f 8102 1dbf
00000310: 283d ef3e d869 99bf cd78 56bf c042 48bf
00000320: 73f5 3bbf 3faf 3bbf c89b 15c0 62a1 02bf
00000330: 0aca 9abf 1862 d23e aefe b2bf 90ce e23e
00000340: 9577 753e 02c5 d63f c2b6 9e3d cef2 8abe
00000350: b6d7 6c3e d809 a2bd 3bd6 633f a18c 813e
00000360: 78ca 373e 4225 103f b052 15bd 1d80 e53e
00000370: f187 d93e 5eef 3d3f f32e 48be c6e3 52bf
00000380: dfe5 a6bf 29ec cb3e 48b4 01be 5dc6 123f
00000390: b1d8 8ebf 2f93 ce3e 0edb c8be 094f 69bf
000003a0: ed50 c0be 987a 24be 12c2 dc3d 912d a93e
000003b0: 962b f63e 9c24 b33e 6847 b0be 5762 563f
000003c0: 5656 26bf f2b6 2e3f adb9 9f3e 79bc 933e
000003d0: f468 88bd f9b9 b33f b19a 57bf cfbc 5dbe
000003e0: a1e2 a6bd 5ada 15be 3ed5 ec3e 85ae 4f3e
000003f0: b19d febe d21b dabd 934b 2fbe 19fb 61be
1.6597266 -0.4568492 -0.19559507 -1.1208688 -0.26545742 -1.3748294 0.030889455 0.5169844
-0.13644294 0.30980623 0.9022288 0.35934457 -1.0239645 -1.0488476 0.77585584 -0.936201
0.23582983 -0.7487156 0.30560917 0.39993852 0.18590063 -0.4926227 0.30172396 -0.83542025
0.32120284 -0.57754475 0.66788507 -0.38198242 0.54838496 0.08757174 0.3054374 -0.5901519
0.4687214 -0.40180087 -0.38860267 -1.3277489 1.5740991 -0.91844153 0.0439382 -0.23207273
-1.1558852 -0.38240302 -0.35786188 -0.354086 -0.43894276 0.27170599 0.43680906 -0.6477136
-0.72331357 -0.4353815 0.12509511 -0.91647995 -0.7984206 0.16671944 0.68379754 0.124202505
1.4609172 -0.55232185 -0.38135 -0.1206255 -0.608937 -0.70523304 1.4216092 -0.35666358
-0.18235011 -0.42875162 0.42086157 -0.5510144 1.6917663 -0.21556318 0.9079573 0.77954906
-0.954527 -1.5265311 -0.18633634 -0.84725314 -0.9739093 -0.70463324 -1.360263 0.6006699
0.6088147 0.28076163 0.36322922 1.7257956 -0.5121711 1.3215253 -0.81202173 0.96153516
2.1710153 0.2556342 1.0968465 0.12856421 1.3568215 -0.56394494 1.5330886 -0.47133806
0.10615351 -1.1397591 1.5003117 0.09475655 -0.1398558 -0.057984218 0.33398145 -0.6050307
0.2548711 1.172402 -1.1800864 -1.0831484 0.38141415 -0.9849393 -0.50598574 1.1930544
-0.2215052 0.7363812 -0.1147932 -0.019110695 -0.048908543 0.30905598 -0.18649982 0.04370205
-0.13920753 -0.4472709 -0.50417244 -0.5905675 -0.52244097 0.16490276 -0.5418 1.5415033
-0.42277554 -1.5183482 -1.0217056 0.84554785 0.09148535 0.5761293 -0.50619906 -1.1767086
-0.44707555 -0.58293986 0.7321831 -1.2657886 0.22022781 1.0121691 -2.178726 0.55103993
-0.27619198 -0.12441878 -1.2642112 0.041645665 1.7096429 1.0536968 -0.8814511 0.94817775
-0.8170313 1.2839262 0.3378131 -0.3575301 0.4388071 2.0396423 1.0007482 0.44712156
-0.65445834 0.41644105 0.9517172 0.35833412 -1.210449 0.57124907 0.32953346 0.6692545
-0.60423595 0.48480755 -1.4284794 0.32395855 0.93001664 -1.081261 -0.4163482 0.76359576
-1.0154015 1.1154321 0.39470005 0.31928572 -0.15119588 0.05129063 -0.94482404 1.642263
1.0915087 0.57127255 -0.53630924 0.13645452 1.628754 1.6739911 1.5195444 0.16189763
1.3155053 0.20857272 0.6674672 -0.61331946 0.46726346 -1.1985426 -0.8377808 -0.7822685
-0.734214 -0.7331428 -2.3376331 -0.510275 -1.2092907 0.41090465 -1.3983972 0.4429822
0.23971398 1.6778872 0.07749702 -0.2713837 0.23129162 -0.07912034 0.88998765 0.25302604
0.1794833 0.5630685 -0.03645581 0.44824305 0.42486528 0.7419337 -0.1954916 -0.82378805
-1.3038901 0.39828613 -0.12666428 0.5733393 -1.1159879 0.40346667 -0.39229625 -0.91136223
-0.3756174 -0.16062391 0.107792035 0.33042577 0.48080128 0.34988868 -0.3442948 0.83743805
-0.6497549 0.682479 0.31196347 0.2885473 -0.06660643 1.4041129 -0.84220415 -0.21654056
-0.08148695 -0.14634076 0.4625644 0.20281418 -0.49729684 -0.106498376 -0.17118673 -0.22068442

s4_layers.1.kernel.log_dt f4 [16]
00000000: ebdf 31c0 e71f 57c0 7702 d3c0 e734 88c0
00000010: c474 20c0 61f4 98c0 46e0 c0c0 c390 a1c0
00000020: 3762 51c0 04a6 a1c0 8ae7 c4c0 967e 89c0
00000030: 09ac 59c0 0c35 5fc0 c47e b1c0 e5e0 afc0
-2.7792919 -3.3613222 -6.594051 -4.256458 -2.5071268 -4.7798314 -6.027377 -5.048921
-3.2716196 -5.0515156 -6.153264 -4.2967024 -3.4011252 -3.4876127 -5.5467243 -5.496203

s4_layers.1.kernel.log_A_real f4 [16, 32]
00000000: 56ce 3fbf 0338 9abf 6dc8 b7bd 3834 d0be
00000010: d447 40be 63f7 8fbf dac3 c1be f0ec 0c3f
00000020: b618 a3be 7dd4 b9be af6c 96be a983 953e
00000030: 762a b3bd 0766 71be c609 83be 24ca 14bf
00000040: 4fe0 55bf 28fe 843d 814d 403e 036e 8dbe
00000050: c773 20bf 85b9 e4be e7dc 2bbe 562f aebe
00000060: 4820 eebe 7af0 913e f172 19bf 6a7c b7be
00000070: 5fae 7dbf f452 4bbf cc22 aebf 9223 fabf
00000080: 7c8a 24bf 423a 47bf fa67 49bf 45a5 02bf
00000090: 0a33 98bf bbf8 b2be 05ff 24bf 044b 16bf
000000a0: 1b00 31bf 80b7 b5be 5405 00bf 5459 2ebf
000000b0: 3881 3bbf 3a2b 51bf ad0f 80bf 290a 48bf
000000c0: 0f2f 04bf 4b4a a8be 1272 11bf c65c b9be
000000d0: 11cf 8b3e 27d6 99be c5ca a6be 2609 bdbe
000000e0: 7183 4bbe 5bc2 c3be f33b 18bf d920 eebe
000000f0: a291 22bf 809d babe d4bf 22bf 183c 1dbf
00000100: f6c0 8abf f2d3 a9bf 312d d3be 88e4 86bd
00000110: 48bf 2d3c e841 41bd bf40 a6bf 6055 56bf
00000120: fba9 023d bce0 9e3c 307f acbf 168b 90be
00000130: 9300 64be e999 63bf 86e9 2bbf 7fe8 a2bf
00000140: 248c d9bd b6d4 82bf cd42 aabe 8cc5 ecbe
00000150: bdc8 04bf 6e66 28bf 100c 2bbf ca8d 39bf
00000160: bf90 25bf 2a66 83bf 3aa8 e0be dd6b eabe
00000170: 0e01 87bf 56c7 cebe 3a8b 33bf 352d 52bf
00000180: f951 e5be 3562 60bf 96b4 f3bf 19e8 88bf
00000190: 8fca 66bf a2cf a9be 70c3 6cbf e21b bcbf
000001a0: 11da afbf 7809 083f d04f 3abe 2018 70bf
000001b0: 0750 c1be afcf 2dbf 4b0a 6bbf 8d3e 82bf
000001c0: 0c70 acbe 3047 cfbd 86bf 2ebf f3a0 1bbf
000001d0: 74f8 12be 7741 5ebe 854a e0bd 3af9 95bf
000001e0: bfa2 febe e581 87bf decd a3be ec51 28bf
000001f0: f91b 92be 80ed 2bbf 9604 48bf b353 3fbf
00000200: 57a9 e3be b619 01bf 4152 29be 6cb9 45bf
00000210: 2e1f 4d3e 397e 54bf 1f3f e2be 3f1b 42bf
00000220: 5901 69bf 38af 2dbf d736 4cbf 6af4 42bf
00000230: 7956 65bf 6deb 99bf 45c9 86bf adf5 51bf
00000240: be75 80bf f3bb 74bf 8101 4cbf 611d 16bf
00000250: 2609 63be 9568 87bf e67d f5be ecc6 92bf
00000260: 5009 4bbf bf5d 7cbf 39c7 06bf d8fa 6ebf
00000270: 8190 73bf 5e87 c4be f250 67bf 821e 0ebf
00000280: e609 63bf 5e96 0dbf 2b4f 59bf 9733 a4be
00000290: 1565 f8be 61db a7be ff0a 20bf 262d 46bf
000002a0: 64b4 a3be 84d8 c5be a000 3bbf afb9 37bf
000002b0: a268 39bf 9383 71bf 487c 69bf 0d6f 11bf
000002c0: fc71 34bf 68e7 27bf f238 4ebf 9327 f3be
000002d0: 22f8 12bf e0dc 20bf 5a63 12bf abf6 a5be
000002e0: 86db 6dbf 84f8 33bf 00a5 3abf 111f 3cbf
000002f0: 8113 1ebf 8b01 5abf 024d f7be 856b 3ebf
00000300: b505 8abd f9f3 1cbf 7cf6 33bf 9683 76bf
00000310: 065c 27bf fa6c 0fbf ea49 dabe 05d5 00be
00000320: 2bae 43bf 2df0 4abe 59b3 65bf 4995 35bf
00000330: 8a08 8fbf 22c0 64bf d2dc 98bf 8b5b adbf
00000340: 213f 34bf 2285 383e e0bc a5bf 1839 8abf
00000350: c8ad 7fbf c892 04bf 5a88 87be 179a 54bf
00000360: be6d 0ebf b5b8 c3be e493 a1be b301 48bf
00000370: b0c1 83be ab18 82be e391 35bf 3205 06bf
00000380: dfd3 2abf 7fbc c2be ebc9 30bf e3e2 c8be
00000390: 5869 52bf 32a4 69bf 7123 8cbe 85c3 6cbf
000003a0: 43b3 88bd d132 8ebf 7550 90bd e420 06be
000003b0: a441 0f3e d311 f83d 1efd 2bbf ab7e e9be
000003c0: 52a1 08bf 2327 0dbf f6c1 8dbf ac11 adbf
000003d0: 0367 5bbc 92ac 81bd 77a5 19bf edcc 4dbf
000003e0: 9828 6abf 4ccf 8ebf ad4f 50bf e3de 3fbf
000003f0: 8776 31bf fc87 bcbe bfbe dabe e913 273d
-0.7492422 -1.2048343 -0.08973775 -0.4066484 -0.187774 -1.1247371 -0.37844735 0.5504904
-0.3185479 -0.36294928 -0.29379794 0.2920201 -0.08748333 -0.23574077 -0.25593394 -0.5812094
-0.8354539 0.06493789 0.18779565 -0.27622995 -0.6267666 -0.4467279 -0.16783486 -0.3402049
-0.46509004 0.28503782 -0.5994101 -0.35837108 -0.99094194 -0.7942345 -1.3604369 -1.9542105
-0.6427381 -0.7782327 -0.7867428 -0.5103343 -1.1890576 -0.3495539 -0.6445163 -0.58708215
-0.69140786 -0.35491562 -0.5000813 -0.68105054 -0.7324405 -0.81706583 -1.0004784 -0.78140503
-0.51634306 -0.3286918 -0.5681468 -0.36203593 0.27306417 -0.30046198 -0.32576576 -0.36921042
-0.1987436 -0.3823422 -0.59466475 -0.46509436 -0.6350347 -0.36448288 -0.63573956 -0.6141982
-1.0840137 -1.3267806 -0.41245416 -0.065865576 0.010604687 -0.047181994 -1.2988509 -0.8372402
0.031900387 0.019394271 -1.3476315 -0.28231114 -0.22265844 -0.88906723 -0.67153203 -1.2727202
-0.10622433 -1.0221164 -0.3325409 -0.46244466 -0.518688 -0.65781295 -0.6681528 -0.7248198
-0.6467399 -1.0265553 -0.43878347 -0.45785418 -1.0547197 -0.40386456 -0.7013432 -0.8210023
-0.44789103 -0.8764985 -1.9039485 -1.069583 -0.9015283 -0.33166224 -0.92485714 -1.4696009
-1.3738424 0.5313945 -0.18194509 -0.9378681 -0.3775637 -0.67895025 -0.9181258 -1.0175339
-0.33679235 -0.10121 -0.6826099 -0.60792464 -0.1435259 -0.2170466 -0.109517135 -1.1716683
-0.4973354 -1.0586516 -0.31993002 -0.6575 -0.28536966 -0.6715927 -0.78132 -0.7473709
-0.44465134 -0.50429857 -0.16535284 -0.77236056 0.20031425 -0.830051 -0.44188783 -0.75822824
-0.9101768 -0.6784549 -0.7977118 -0.76154196 -0.8958507 -1.2024971 -1.0530173 -0.82015496
-1.0035932 -0.9559929 -0.79689795 -0.5863858 -0.22171459 -1.0578791 -0.47947615 -1.1466956
-0.79311085 -0.98580545 -0.5264774 -0.9335151 -0.9514237 -0.38384527 -0.9035789 -0.555153
-0.8868698 -0.5530757 -0.84886426 -0.3207061 -0.4851462 -0.3278456 -0.6251678 -0.7741264
-0.31973565 -0.3864175 -0.7304783 -0.71767706 -0.7242528 -0.9434139 -0.91205263 -0.56810075
-0.70486426 -0.6558747 -0.8055564 -0.4749113 -0.5740987 -0.6283703 -0.5718285 -0.32414755
-0.9291309 -0.7030108 -0.7290802 -0.73484904 -0.6174851 -0.85158604 -0.4830094 -0.7438281
-0.0673937 -0.6130977 -0.7029798 -0.96294534 -0.6537479 -0.5602566 -0.42634517 -0.1258126
-0.76437634 -0.19818182 -0.8972679 -0.70930916 -1.1174481 -0.8935567 -1.1942389 -1.3543562
-0.7040883 0.18019536 -1.2948265 -1.0798674 -0.99874544 -0.5178647 -0.26471215 -0.8304762
-0.55636203 -0.38226858 -0.31558144 -0.7812759 -0.2573371 -0.25409445 -0.7092573 -0.5235168
-0.6672954 -0.38034436 -0.690581 -0.392356 -0.8219199 -0.9126617 -0.2737079 -0.9248584
-0.066748165 -1.1109258 -0.07046596 -0.13098484 0.13989884 0.12112775 -0.671831 -0.45604452
-0.53371155 -0.5513784 -1.1074817 -1.3521018 -0.013391259 -0.06331743 -0.60018104 -0.80390817
-0.9146819 -1.1157012 -0.81371576 -0.74949473 -0.69321483 -0.36822498 -0.42723653 0.040790472

s4_layers.1.kernel.A_imag f4 [16, 32]
00000000: 3be2 c03e 2420 4340 89cd e040 81a2 1b41
00000010: ad8b 3c41 619a 7e41 102b 9341 9c58 b041
00000020: 8fd6 c941 ac88 e241 be54 fa41 7ea6 0942
00000030: 38cb 1742 d34e 2442 0fad 3042 f056 3b42
00000040: 031e 4842 e72b 5442 8a64 6142 71b4 6e42
00000050: ce2a 7b42 1470 8442 d28b 8942 0618 9042
00000060: 38a9 9742 a291 9c42 f8a7 a342 5348 aa42
00000070: 0052 af42 0ed3 b442 6bd0 bc42 b5da c342
00000080: 5ae8 a3be 2912 8240 5b92 cb40 eb02 1141
00000090: a41f 5441 1242 7141 71c8 9141 88b6 ad41
000000a0: 1060 c941 2607 de41 8f26 fe41 b805 0a42
000000b0: 7436 1842 d9fe 2042 31eb 2f42 8c26 3d42
000000c0: ae6a 4942 97cb 5342 3ab0 6142 6ab9 6f42
000000d0: c4d3 7c42 df6f 8342 9ea1 8a42 f477 9042
000000e0: ad7f 9642 67d0 9c42 2121 a342 e710 aa42
000000f0: d8df af42 e121 b642 80e7 bc42 becc c242
00000100: cb94 24bf f33b 7640 a2b3 dc40 5ea5 0c41
00000110: 5041 3e41 a4c5 8041 7e77 9b41 8a8a aa41
00000120: 0525 c941 f739 dd41 b422 ff41 306e 0742
00000130: f710 1442 9922 2642 38ff 2c42 9d0f 3a42
00000140: 942d 4a42 c674 5342 5793 6342 a3c1 6d42
00000150: eef7 7b42 3119 8442 256a 8a42 6e2c 9042
00000160: f03d 9642 c392 9d42 c993 a342 04f5 a842
00000170: a891 af42 fda0 b642 1db5 bb42 2547 c242
00000180: 1885 463e 5f25 8340 ba6e cc40 6051 1f41
00000190: b052 4241 bde0 8441 f7df 9f41 2391 a841
000001a0: 196c c741 57aa e541 9577 f841 fe96 0a42
000001b0: 040e 1442 cb3f 2442 e100 2e42 9d26 3b42
000001c0: 9e76 4942 d669 5542 4924 6342 41fb 6c42
000001d0: ebe6 7b42 06ec 8242 4a14 8b42 214c 9042
000001e0: 058e 9642 5c26 9d42 d13e a342 bae5 a842
000001f0: 9cf8 b042 cf0a b542 1bb3 bc42 d5ad c242
00000200: 125a eebd 1b6f 6e40 453f d240 ebe3 1d41
00000210: fdf5 4241 a244 7f41 0a06 9641 ef29 b441
00000220: 5295 ca41 0cce e541 cdba f741 4597 0942
00000230: bfab 1542 8b09 2142 95ea 2f42 ad57 3c42
00000240: 395e 4942 4b6b 5342 ac30 6342 2b51 7042
00000250: b4ad 7b42 440c 8342 587e 8842 6134 8f42
00000260: 9ff5 9642 49aa 9c42 425d a442 eba2 a842
00000270: 5e0b b042 feb3 b642 59e2 bc42 011e c242
00000280: b9bd 3cbe 3ace 3b40 a5ac c940 dd25 1941
00000290: aa01 4141 aa89 7141 df02 9b41 f29b b041
000002a0: d3ac cb41 9dc4 e341 dc82 fa41 01db 0b42
000002b0: ccae 1842 7cc7 2142 a5e3 2e42 50c4 3c42
000002c0: ef20 4942 135a 5542 7107 6342 c7a9 6d42
000002d0: cbeb 7942 50c0 8242 bd06 8b42 2d55 9042
000002e0: 682c 9742 2c94 9c42 d602 a342 f8ad a942
000002f0: 67f4 af42 1a08 b642 5d09 bd42 5271 c342
00000300: 3a20 95bd 99c6 5140 dfab c540 d914 1841
00000310: 325f 4b41 666b 7f41 c004 9741 6b45 af41
00000320: cf73 cb41 34c5 e041 ab79 fe41 eb90 0c42
00000330: bb79 1842 dfbc 2042 0895 3142 4ea1 3a42
00000340: 67a4 4542 22f1 5642 325d 6442 2550 6c42
00000350: 7d19 7942 8e29 8542 513d 8942 e8a5 9142
00000360: 0161 9542 23c2 9b42 2681 a242 14bb aa42
00000370: 4480 af42 171c b642 f2f3 bb42 7f4e c242
00000380: 8753 65a7 633d 4940 d127 d440 3d98 1941
00000390: 3a7f 4841 66a5 7b41 a894 9941 7037 aa41
000003a0: 556c c241 97dd da41 d8de fe41 f48e 0c42
000003b0: fcdf 1542 191d 2642 d5e6 3342 bf5a 4042
000003c0: bf2f 4642 e9aa 5642 eb6d 6242 a325 6f42
000003d0: e880 7b42 6a28 8442 c35d 8b42 647b 9142
000003e0: a326 9642 f503 9d42 8713 a342 450d a942
000003f0: 3cbe ae42 f566 b642 ab2d bd42 82a5 c342
0.376726 3.0488367 7.0250897 9.727174 11.784101 15.91269 18.396027 22.043266
25.229765 28.316734 31.291378 34.41259 37.948456 41.076977 44.169003 46.8349
50.02931 53.042873 56.348183 59.676212 62.7918 66.2189 68.77309 72.04692
75.830505 78.28444 81.828064 85.14126 87.66016 90.41222 94.40707 97.92716
-0.32013208 4.064717 6.3616157 9.063212 13.257725 15.07863 18.222872 21.714127
25.171906 27.75349 31.768827 34.505585 38.053177 40.248875 43.97968 47.287643
50.35418 52.94882 56.422096 59.93107 63.206802 65.7185 69.31566 72.23428
75.24937 78.407036 81.564705 85.03301 87.937195 91.06617 94.45215 97.39989
-0.6428954 3.847409 6.896928 8.790373 11.890945 16.096504 19.433346 21.317646
25.143076 27.653303 31.891945 33.857605 37.016567 41.533787 43.249237 46.515247
50.54451 52.864037 56.893887 59.4391 62.99212 66.0492 69.20731 72.08678
75.12097 78.786644 81.78864 84.478546 87.784485 91.31443 93.85374 97.138954
0.19386709 4.098312 6.3885164 9.957367 12.145187 16.609735 19.984358 21.070868
24.927782 28.708174 31.05839 34.647453 37.013687 41.062298 43.50086 46.78771
50.365837 53.353355 56.785435 59.245365 62.975506 65.46098 69.53963 72.14869
75.27738 78.57492 81.62269 84.448685 88.485565 90.52111 94.349815 97.339516
-0.11638273 3.7255313 6.5702233 9.868144 12.185056 15.954256 18.752949 22.520475
25.32291 28.725609 30.966211 34.397724 37.41772 40.25932 43.979084 47.08562
50.342014 52.85478 56.79753 60.079266 62.919632 65.52396 68.246765 71.6023
75.47973 78.33259 82.182144 84.3182 88.0222 91.35155 94.442085 97.0586
-0.18431748 2.934462 6.302325 9.571744 12.062906 15.096109 19.376402 22.076145
25.459387 28.471003 31.313896 34.96387 38.1707 40.44481 43.72231 47.19171
50.28216 53.337963 56.757267 59.4158 62.480267 65.37561 69.51316 72.16636
75.58673 78.2894 81.50554 84.83978 87.97735 91.01582 94.51829 97.72133
-0.07281537 3.2777464 6.1772304 9.50509 12.710741 15.96372 18.87732 21.908895
25.431547 28.09629 31.809408 35.14152 38.118877 40.184444 44.39554 46.657524
49.41055 53.73548 57.09101 59.078266 62.27489 66.58116 68.61976 72.824036
74.68946 77.87917 81.25224 85.36539 87.75052 91.05486 93.976456 97.15331
-3.1825414e-15 3.1443717 6.6298604 9.599668 12.531061 15.7278805 19.197586 21.27707
24.302896 27.358198 31.85881 35.139603 37.468735 41.528416 44.97542 48.08862
49.546627 53.666904 56.60734 59.786755 62.875885 66.07893 69.68313 72.741
75.07546 78.50773 81.53814 84.52592 87.37155 91.20109 94.589195 97.82326
