code/s4/timestep/models/best_model_lstm_seq88.pt (torch, 79100 bytes, 10 tensors)

lstm1.weight_ih_l0 f4 [200, 3]
0.15931098 -0.11662512 -0.073159374 -0.34577772 -0.012418465 -0.08776283 0.2423916 -0.22617882
-0.27461374 -0.037045777 -0.20006263 -0.15279369 -0.17170162 -0.102381855 -0.49791905 0.47321346
-0.0044653136 0.36078015 -0.019557998 0.3980209 0.08381387 0.379957 0.3116896 0.2259738
0.25416744 0.07695134 -0.78363883 -0.3530449 0.19821812 -0.06834972 -0.20981437 -0.2395103
0.4971335 -0.2841985 -0.19727741 -0.11061798 -0.14397179 -0.14311628 0.09168746 -0.18760033
0.12960441 -0.082741715 0.45082998 0.16166508 0.13131493 0.19140042 0.13879336 0.04712174
-0.28774738 0.1805676 -0.29926363 -0.005262268 0.06668241 0.27586654 -0.12468929 0.16288826
0.19875674 0.34482265 0.26101637 0.04037562 -0.090142146 -0.20588355 -0.16738337 0.06917553
-0.20154624 0.030787503 -0.122446164 0.1820534 -0.507256 0.21952766 0.0057974947 -0.23704337
0.1370393 0.1360791 0.20227952 0.3962017 -0.09466851 0.28399703 -0.2963005 -0.19516008
-0.09918678 -0.27602765 0.089740045 -0.12686364 0.05884281 0.37515163 0.123934165 -0.22118473
0.32479286 0.055170763 0.39547226 -0.17367873 -0.375826 0.06554691 -0.12310578 0.107271075
-0.06379521 -0.053351097 -0.25457123 -0.36788666 0.14322986 -0.022221826 -0.11401308 0.07797061
0.46010116 0.022192638 -0.069183335 0.28449252 -0.03700982 -0.3136162 0.25251317 -0.17799668
-0.14360298 -0.017057065 -0.34055772 -0.059636775 -0.15693864 0.07613728 -0.18543541 0.22517642
0.05919801 0.23567075 0.39876494 -0.14538454 0.11560638 0.029681003 0.20385826 0.10389383
-0.14480919 0.091720104 -0.19863755 0.20740701 -0.023469875 0.30569503 0.12690742 -0.13482496
0.06558553 -0.07083992 0.4327208 -0.2350825 -0.028950186 0.024986621 0.024199937 0.23886772
-0.0861595 0.06289499 0.25025997 0.016790623 -0.014151541 0.012634657 0.031438462 -0.3971223
-0.055844642 0.055984896 -0.054987427 -0.037487864 -0.07204079 0.34045964 -0.23937546 -0.0021190785
0.26114476 -0.046447184 0.1973436 -0.1328523 -0.5626278 0.43152866 0.026232595 0.15508713
-0.053186424 0.14041999 -0.14491802 0.30772552 -0.2800127 5.3362073e-05 0.04400839 0.2437993
-0.068202786 -0.10376281 0.02024053 0.17770323 0.15343732 0.07382312 0.44170395 -0.14502385
-0.09787321 0.20500147 0.14335075 0.031691894 -0.24118865 0.15717381 0.14069402 -0.12762873
-0.016496785 0.15614018 -0.13499095 0.6342805 -0.053662386 0.014888215 -0.061436806 0.011618327
0.009309124 -0.11043102 -0.2710429 0.062930845 0.2756999 0.12991923 0.2664596 -0.2436098
-0.12405741 0.19927531 0.51951873 -0.26356375 0.0024853027 -0.30438635 0.20033349 -0.3282132
-0.075016804 -0.25671417 -0.27833188 0.066449754 0.12617902 0.3258437 -0.23824295 0.14623207
-0.098833725 -0.36189967 -0.19083671 -0.1668463 0.43830037 0.094659545 -0.011907685 0.07193131
0.15536694 0.20315012 -0.01070603 0.18461058 0.13804708 0.06769414 0.031611416 -0.3852343
-0.16111593 0.19944084 -0.44143087 -0.411437 0.19900581 -0.24335821 0.20512037 0.14052898
0.35788178 -0.2506249 0.38811427 0.017407473 0.31419992 -0.04172719 -0.09966695 -0.2324797
00000000: 6b22 233e 27d9 eebd 95d4 95bd c709 b1be
00000010: d176 4bbc 00bd b3bd 8135 783e 6c9b 67be
00000020: 2c9a 8cbe 50bd 17bd 38dd 4cbe f375 1cbe
00000030: 8dd2 2fbe 94ad d1bd 3fef febe 0949 f23e
00000040: c451 92bb 2db8 b83e 1838 a0bc 65c9 cb3e
00000050: 9ba6 ab3d b989 c23e c795 9f3e ad65 673e
00000060: 3c22 823e aa98 9d3d 8e9c 48bf 4dc2 b4be
00000070: b1f9 4a3e f0fa 8bbd 94d9 56be 3042 75be
00000080: 4888 fe3e 7782 91be 1703 4abe ae8b e2bd
00000090: 576d 13be 138d 12be a3c6 bb3d 4d1a 40be
000000a0: 05b7 043e 7d74 a9bd 30d3 e63e 888b 253e
000000b0: 6c77 063e 79fe 433e d91f 0e3e ba02 413d
000000c0: a053 93be b7e6 383e 1539 99be 1a6f acbb
000000d0: ca90 883d 613e 8d3e 195d ffbd 2ecc 263e
000000e0: e386 4b3e 988c b03e f0a3 853e e860 253d
000000f0: 729c b8bd 23d3 52be 8c66 2bbe e6ab 8d3d
00000100: 2362 4ebe 1336 fc3c 0ec5 fabd 356c 3a3e
00000110: 87db 01bf dccb 603e e9f8 bd3b 7fbb 72be
00000120: 0854 0c3e 5258 0b3e 5d22 4f3e f3da ca3e
00000130: 90e1 c1bd 0f68 913e b3b4 97be 0bd8 47be
00000140: 7022 cbbd 7f53 8dbe a1c9 b73d 8be8 01be
00000150: 2905 713d e013 c03e 32d1 fd3d 407e 62be
00000160: 404b a63e bdfa 613d 577b ca3e d6d8 31be
00000170: 446c c0be 753d 863d e21e fcbd f0b0 db3d
00000180: 10a7 82bd ae86 5abd 2957 82be a45b bcbe
00000190: d9aa 123e 8c0a b6bc b17f e9bd 0eaf 9f3d
000001a0: 6192 eb3e 56cd b53c feaf 8dbd 01a9 913e
000001b0: 9c97 17bd 4d92 a0be 6849 813e c344 36be
000001c0: a90c 13be 42bb 8bbc 955d aebe b145 74bd
000001d0: 86b4 20be dded 9b3d c8e2 3dbe a694 663e
000001e0: 9d79 723d ac53 713e eb2a cc3e afdf 14be
000001f0: 0ac3 ec3d 9325 f33c 38c0 503e 4ac6 d43d
00000200: dc48 14be c0d7 bb3d a467 4bbe 8162 543e
00000210: e543 c0bc 0f84 9c3e 05f4 013e 8e0f 0abe
00000220: b551 863d 8514 91bd 958d dd3e 78b9 70be
00000230: f128 edbc beb0 cc3c f23e c63c bd99 743e
00000240: 6474 b0bd 17cf 803d 1322 803e 7d8c 893c
00000250: dddb 67bc 9801 4f3c 9ec5 003d 9d53 cbbe
00000260: 5abd 64bd 6b50 653d 7f3a 61bd e08c 19bd
00000270: 1f8a 93bd ba50 ae3e d71e 75be 3de0 0abb
00000280: c4b4 853e 673f 3ebd 7114 4a3e 6f0a 08be
00000290: 6008 10bf 53f1 dc3e bde5 d63c 29cf 1e3e
000002a0: 02da 59bd 42ca 0f3e 6465 14be 338e 9d3e
000002b0: d35d 8fbe 17d1 5f38 2442 343d 86a6 793e
000002c0: e7ad 8bbd 9981 d4bd 78cf a53c d6f7 353e
000002d0: ac1e 1d3e 9330 973d 0527 e23e 2281 14be
000002e0: c071 c8bd e8eb 513e 8aca 123e 5ccf 013d
000002f0: 28fa 76be 2cf2 203e 1812 103e 1bb1 02be
00000300: 4424 87bc 36e3 1f3e 113b 0abe 3560 223f
00000310: 17cd 5bbd b3ed 733c 29a5 7bbd cc5a 3e3c
00000320: 4c85 183c a929 e2bd 23c6 8abe e3e1 803d
00000330: 8a28 8d3e 8c09 053e 656d 883e d974 79be
00000340: d011 febd d40e 4c3e 2eff 043f d4f1 86be
00000350: 76e0 223b 87d8 9bbe 3924 4d3e 900b a8be
00000360: 69a2 99bd 0a70 83be 8481 8ebe cf16 883d
00000370: 1335 013e fcd4 a63e f6f5 73be dcbd 153e
00000380: 5669 cabd ea4a b9be b36a 43be c2d9 2abe
00000390: e868 e03e dddc c13d 7318 43bc b950 933d
000003a0: 8318 1f3e 9606 503e 5868 2fbc 8e0a 3d3e
000003b0: 375c 0d3e 3aa3 8a3d f97a 013d 6e3d c5be
000003c0: 93fb 24be 383a 4c3e 3a03 e2be dfa7 d2be
000003d0: 2ec8 4b3e e532 79be 130b 523e d4e6 0f3e
000003e0: 483c b73e e851 80be eab6 c63e 1e9a 8e3c
000003f0: d0de a03e 21ea 2abd 301e ccbd 290f 6ebe

lstm1.weight_hh_l0 f4 [200, 50]
-0.14442591 0.2036612 0.35387033 -0.31187543 0.12875602 -0.21689342 0.2462405 0.14563698
0.013312773 -0.05863864 -0.3858881 -0.11253704 -0.0030362739 0.07083621 -0.35278365 -0.13813496
0.14114211 0.2980573 0.6249787 -0.4645287 -0.20022467 0.34906292 -0.091418535 0.07285845
-0.40231472 0.0483034 0.084145375 -0.34917396 0.60049474 0.24499205 -0.19038257 0.020322729
-0.158158 0.044820715 0.2166827 0.1092978 0.052574035 -0.2386903 -0.009379518 0.053505592
-0.4589393 0.25779948 0.014684155 -0.092289776 0.32481903 -0.3292301 -0.49353588 -0.32437778
0.038847443 0.1311664 0.13756688 -0.14544031 -0.07356585 0.015208161 -0.0122590745 -0.25493354
-0.080791704 0.029506506 -0.06751532 0.2173192 0.07844042 -0.36359656 0.063532464 0.15845369
0.08659377 0.048945732 -0.24800155 0.13755083 -0.31878802 -0.22218424 0.14107634 0.10472032
-0.13601953 0.11320767 -0.12329526 0.049491215 0.20281076 -0.10584694 -0.2790223 -0.36880842
0.07387717 -0.109697506 0.17690231 -0.02667551 0.18864153 0.50009096 -0.060472757 0.063388646
-0.041394882 -0.0543513 0.35526463 -0.17580365 -0.108888134 -0.24848774 -0.103785254 0.18665895
-0.097693205 -0.35159415 0.0072951657 0.05047331 -0.34739852 0.07282803 -0.093467034 0.10704476
0.018273294 -0.35818738 -0.035902902 -0.2854441 -0.19981222 0.33964014 0.110195965 -0.2471882
-0.3042761 0.08914233 0.045878816 0.050387274 -0.021222573 -0.3900416 -0.04096227 -0.25046143
0.41019258 0.09412833 0.29985446 -0.30563805 0.055289533 -0.22781469 0.27225596 -0.109536216
-0.20923571 0.07956611 0.0556079 -0.051825456 0.05578906 0.037214726 0.29034117 0.0935693
-0.47014332 -0.030416204 -0.044072237 -0.19962361 0.096548475 -0.10983581 -0.10020332 -0.009183269
-0.07237007 -0.013376862 0.18718618 -0.07674626 0.085779525 -0.37205136 -0.23444921 0.057096153
0.029846832 -0.31531173 0.58386457 0.14577758 0.18505305 -0.31036004 0.3334792 -0.12489017
-0.09804669 0.16254506 0.30039993 -0.348732 0.017043088 -0.14952226 0.41779116 0.2657256
-0.12746951 -0.016509723 -0.41092202 0.40248016 -0.14576884 -0.022935046 -0.44094437 0.046652306
-0.8042191 -0.10128524 -2.8458478e-05 0.0046953354 -0.26648042 -0.34323496 -0.007180138 -0.0063750213
-0.31507626 0.21468884 0.1686211 -0.46053934 -0.09111719 0.29392874 0.061432082 0.2551963
0.1682816 0.12259489 0.021029623 -0.36536923 -0.06669973 -0.095680185 -0.15423839 -0.046516106
-0.15437493 0.122081436 0.06450849 -0.09889677 0.22188738 -0.2005996 0.22355866 -0.06733339
0.30279344 0.17656974 0.06536774 -0.08458219 0.053170662 -0.05160841 0.04651149 -0.30191568
0.20533536 -0.17573714 -0.15074432 -0.102769434 -0.18211772 0.11084631 -0.16739115 0.33675346
-0.07271174 -0.03800181 0.0020794487 -0.057842143 0.091134705 0.23418474 0.020974165 0.015661344
0.13815358 -0.0014491774 -0.43491468 0.43302172 0.5002565 0.16040403 0.2007398 0.102741756
0.24630754 -0.25238672 0.0050693057 0.49912608 -0.0077795302 -0.11618946 0.03663841 0.093902744
-0.16417937 0.037552644 0.14150624 0.07930443 0.44983074 0.2930616 -0.13051814 -0.3562295
00000000: 63e4 13be 908c 503e 7e2e b53e 23ae 9fbe
00000010: 9ed8 033e 4f19 5ebe 7826 7c3e dc21 153e
00000020: d11d 5a3c 122f 70bd 2093 c5be d279 e6bd
00000030: 39fc 46bb 9312 913d 0fa0 b4be 4073 0dbe
00000040: 8f87 103e f79a 983e 9bfe 1f3f b5d6 edbe
00000050: b207 4dbe 60b8 b23e a439 bbbd d036 953d
00000060: 32fc cdbe c9d9 453d 6954 ac3d eec6 b2be
00000070: 06ba 193f 32df 7a3e a6f3 42be da7b a63c
00000080: 2cf4 21be ed95 373d 12e2 5d3e 86d7 df3d
00000090: df57 573d 3b6b 74be 8dac 19bc ae28 5b3d
000000a0: 18fa eabe 4bfe 833e cf95 703c 6c02 bdbd
000000b0: ae4e a63e d990 a8be bcb0 fcbe d814 a6be
000000c0: 7f1e 1f3d 7c50 063e 55de 0c3e 4eee 14be
000000d0: b1a9 96bd a72b 793c 49da 48bc a686 82be
000000e0: 1f76 a5bd a1b7 f13c 7945 8abd ed88 5e3e
000000f0: 5fa5 a03d 5429 babe 4f1d 823d af41 223e
00000100: 1358 b13d 527b 483d 1ef4 7dbe 20da 0c3e
00000110: 2f38 a3be 4484 63be 5176 103e 9b77 d63d
00000120: b448 0bbe 6cd9 e73d 3a82 fcbd 4db7 4a3d
00000130: a0ad 4f3e 48c6 d8bd 03dc 8ebe 75d4 bcbe
00000140: ea4c 973d 16a9 e0bd e125 353e 9986 dabc
00000150: 3f2b 413e f605 003f 48b2 77bd e8d1 813d
00000160: ae8d 29bd 789f 5ebd 3fe5 b53e df05 34be
00000170: be00 dfbd 9273 7ebe 5d8d d4bd 8623 3f3e
00000180: 6013 c8bd 2604 b4be 490c ef3b 1abd 4e3d
00000190: 38de b1be dd26 953d a56b bfbd 483a db3d
000001a0: e0b1 953c 5664 b7be ec0e 13bd bb25 92be
000001b0: 939b 4cbe 50e5 ad3e 6cae e13d e71e 7dbe
000001c0: 14ca 9bbe 4190 b63d 6deb 3b3d e362 4e3d
000001d0: f6da adbc 88b3 c7be 0ec8 27bd 7b3c 80be
000001e0: c304 d23e 5bc6 c03d 8686 993e 977c 9cbe
000001f0: 4777 623d 4148 69be 2265 8b3e 8654 e0bd
00000200: e341 56be 8ff3 a23d 1cc5 633d ee46 54bd
00000210: 1283 643d 786e 183d 99a7 943e 43a1 bf3d
00000220: a0b6 f0be 672b f9bc 1785 34bd 226a 4cbe
00000230: 35bb c53d 99f1 e0bd 6637 cdbd 6c75 16bc
00000240: c236 94bd a02a 5bbc bcad 3f3e 252d 9dbd
00000250: 2dad af3d 847d bebe 7413 70be a8dd 693d
00000260: 5881 f43c 8a70 a1be 2678 153f b846 153e
00000270: 8c7e 3d3e 83e7 9ebe c9bd aa3e 6bc6 ffbd
00000280: b4cc c8bd 3672 263e 05ce 993e 008d b2be
00000290: f29d 8b3c 5d1c 19be b9e8 d53e 300d 883e
000002a0: 5e87 02be 663f 87bc 5f64 d2be e111 ce3e
000002b0: 6d44 15be 47e2 bbbc 76c3 e1be 7d16 3f3d
000002c0: 4ee1 4dbf a36e cfbd 1eba eeb7 54db 993b
000002d0: 1f70 88be 7ebc afbe 5d47 ebbb 8ee5 d0bb
000002e0: ad51 a1be 64d7 5b3e 02ab 2c3e d0cb ebbe
000002f0: a69b babd d47d 963e 35a0 7b3d 17a9 823e
00000300: 0352 2c3e 0813 fb3d 5146 ac3c ad11 bbbe
00000310: de99 88bd f9f3 c3bd abf0 1dbe ac87 3ebd
00000320: 7614 1ebe d505 fa3d 071d 843d 648a cabd
00000330: 7236 633e fb69 4dbe 90ec 643e 17e6 89bd
00000340: be07 9b3e b3ce 343e 86df 853d 6d39 adbd
00000350: 7bc9 593d 5763 53bd d582 3e3d b194 9abe
00000360: 6f43 523e 70f4 33be b85c 1abe c878 d2bd
00000370: 117d 3abe 6403 e33d 9668 2bbe f36a ac3e
00000380: e5e9 94bd c9a7 1bbd 5c47 083b e2eb 6cbd
00000390: d5a4 ba3d 20ce 6f3e 03d2 ab3c 384c 803c
000003a0: 2278 0d3e 53f2 bdba 23ad debe 06b5 dd3e
000003b0: cf10 003f f440 243e bc8e 4d3e 456a d23d
000003c0: 0b38 7c3e d538 81be 6b1c a63b 748d ff3e
000003d0: 6eeb febb bdf4 edbd 2812 163d 1550 c03d
000003e0: a31e 28be cdd0 193d 03e7 103e 5c6a a23d
000003f0: 3750 e63e 2c0c 963e 8ca6 05be b763 b6be

lstm1.bias_ih_l0 f4 [200]
0.10620215 0.14743742 -0.24377768 0.06945091 0.123996764 -0.067518935 0.025043156 -0.0935939
-0.5065123 0.07728645 -0.22666535 0.2013363 0.08307085 0.1356369 0.052008443 0.29679024
0.23852713 0.055305213 0.19649036 -0.065655254 0.3690186 0.012657 0.037484813 -0.06500439
-0.030224325 0.040904596 0.09565522 0.098748304 0.056868475 -0.23586117 0.023816178 -0.15083654
0.22141565 0.18742663 0.2756172 0.24459358 0.028730677 0.15068458 0.048179016 -0.3161261
0.27130368 -0.044958644 0.1363102 0.21619503 -0.14955749 0.061158072 0.21802409 0.13432114
0.22259808 -0.005659194 0.3742103 0.4098499 -0.028479977 0.08550237 0.16279632 -0.03244357
-0.14889172 0.031344045 0.0816256 0.14737205 0.025735771 0.030003153 -0.0049261036 0.13401741
0.19709198 0.055989325 0.038424384 0.2909215 0.11629663 0.3346463 0.008518544 0.060777266
0.13627826 0.1337258 -0.09030661 0.107810594 0.06594771 0.31327477 0.3039502 0.23558107
0.07661477 0.037025627 -0.051092427 0.200966 -0.22475654 0.06381265 -0.035830807 0.28001136
0.047988825 0.1236702 0.14716698 0.03566117 -0.0017126837 0.18665743 0.13182749 -0.062741235
0.15946783 0.06091272 0.013076422 0.35727307 0.16495726 -0.10693041 0.15597425 -0.048168994
0.2277957 0.12798472 -0.023212733 -0.011256581 -0.13800997 0.007961331 0.094264306 0.13387725
-0.017276509 0.014520232 0.033932727 0.13092601 -0.051716834 0.26540384 -0.024448803 -0.04580582
-0.13161674 -0.09961817 -0.38365546 0.061279327 -0.08847542 -0.073955595 0.0536337 -0.15484907
-0.18752885 -0.17546844 0.018486854 0.17197357 0.045646243 -0.008761559 -0.060652617 -0.263038
-0.07785114 0.1478333 -0.06937013 -0.034506638 0.09572214 0.11252907 -0.069797456 -0.12083033
-0.0097070355 0.056737203 0.020959146 -0.24449997 0.04721218 0.16065614 0.37824813 0.2476953
0.045741316 0.20632859 0.32455757 0.032570995 0.27501053 0.0928793 0.1606107 0.06872396
0.08919369 0.13979031 0.13027169 0.118833 0.098730296 0.2201808 0.17441224 0.28023088
0.10483844 0.21067648 0.39644402 0.23958428 0.10598655 0.11511545 0.04742686 -0.09458182
0.15654692 0.29414842 -0.014910081 0.2914838 0.18506369 0.20552188 0.080936715 0.33845666
0.2563659 0.009244743 0.091706425 0.34170142 0.14801441 0.124492526 0.15676504 0.12619661
0.25845206 0.15336028 0.050214168 -0.047942948 0.26882243 -0.0017424662 0.035833843 0.25074914
00000000: 8380 d93d d6f9 163e dba0 79be 473c 8e3d
00000010: 04f2 fd3d 5e47 8abd 4e27 cd3c 29ae bfbd
00000020: caaa 01bf 5c48 9e3d f61a 68be 1a2b 4e3e
00000030: 0d21 aa3d 66e4 0a3e ce06 553d e4f4 973e
00000040: 7540 743e b887 623d c534 493e 4376 86bd
00000050: 02f0 bc3e 4e5f 4f3c ad89 193d 0621 85bd
00000060: 0199 f7bc 948b 273d e2e6 c33d 8d3c ca3d
00000070: ebee 683d 9785 71be 251a c33c e574 1abe
00000080: c9ba 623e c4ec 3f3e b31d 8d3e bd76 7a3e
00000090: 995c eb3c 0f4d 1a3e 5c57 453d 48db a1be
000000a0: 51e8 8a3e 8e26 38bd e794 0b3e 3b62 5d3e
000000b0: 9925 19be e380 7a3d b541 5f3e 7b8b 093e
000000c0: c0f0 633e c370 b9bb 7e98 bf3e d9d7 d13e
000000d0: d74e e9bc de1b af3d 14b4 263e 8de3 04bd
000000e0: 1277 18be 9d62 003d 532b a73d b3e8 163e
000000f0: d3d3 d23c 2cc9 f53c 276b a1bb dc3b 093e
00000100: 7bd2 493e 1055 653d e362 1d3d aaf3 943e
00000110: ed2c ee3d c356 ab3e 5d91 0b3c 95f1 783d
00000120: 878c 0b3e 6bef 083e acf2 b8bd cdcb dc3d
00000130: 980f 873d 8d65 a03e 5c9f 9b3e 2a3c 713e
00000140: 34e8 9c3d 2fa8 173d 4b46 51bd 08ca 4d3e
00000150: 9426 66be 35b0 823d 53c3 12bd a65d 8f3e
00000160: ee8f 443d cd46 fd3d f1b2 163e 7211 123d
00000170: 217c e0ba 2023 3f3e c9fd 063e 7a7e 80bd
00000180: 894b 233e 9e7f 793d 7d3e 563c 7fec b63e
00000190: 8eea 283e 55fe dabd b7b7 1f3e da4c 45bd
000001a0: 4743 693e 6d0e 033e a128 bebc 866d 38bc
000001b0: 7c52 0dbe 3e70 023c a50d c13d 1e17 093e
000001c0: 7787 8dbc 44e6 6d3c 0bfd 0a3d 7811 063e
000001d0: 08d5 53bd 03e3 873e db48 c8bc e29e 3bbd
000001e0: 8ac6 06be 9c04 ccbd 7d6e c4be 0800 7b3d
000001f0: 9a32 b5bd 0876 97bd 03af 5b3d c190 1ebe
00000200: 9007 40be 00ae 33be be71 973c d719 303e
00000210: 8ef7 3a3d a48c 0fbc e16e 78bd ebac 86be
00000220: 6b70 9fbd 9d61 173e ed11 8ebd d556 0dbd
00000230: f809 c43d a475 e63d f8f1 8ebd e475 f7bd
00000240: 420a 1fbc 4565 683d 84b2 ab3c 335e 7abe
00000250: 8f61 413d 0b83 243e bda9 c13e d6a3 7d3e
00000260: 3f5b 3b3d cd47 533e 692c a63e 2a69 053d
00000270: 2ece 8c3e 8137 be3d 2277 243e 26bf 8c3d
00000280: 2eab b63d 3125 0f3e f165 053e b75e f33d
00000290: 1c33 ca3d 1377 613e 1f99 323e 6c7a 8f3e
000002a0: 89b5 d63d 93bb 573e b6fa ca3e 9555 753e
000002b0: 7a0f d93d a6c1 eb3d ab42 423d 1db4 c1bd
000002c0: d64d 203e 9f9a 963e 6a49 74bc 5d3d 953e
000002d0: 5681 3d3e 5474 523e 26c2 a53d 314a ad3e
000002e0: 6442 833e 4377 173c 94d0 bb3d 7df3 ae3e
000002f0: 1791 173e f0f5 fe3d 0487 203e af39 013e
00000300: d453 843e 7a0a 1d3e 5fad 4d3d d35f 44bd
00000310: 18a3 893e 7763 e4ba 82c6 123d 3162 803e

lstm1.bias_hh_l0 f4 [200]
0.30347455 0.089873515 -0.051512808 -0.14686504 0.03300146 0.14894713 0.0016192697 -0.015954453
-0.37638405 0.083413966 0.022810686 -0.010628778 0.2882424 0.051318847 -0.034605507 0.32006302
0.19068782 0.0924557 0.13522105 -0.1706279 0.23564628 0.11985457 0.06227932 -0.08872198
0.12357963 -0.07156705 0.071385324 0.08777722 0.04567038 -0.34853318 -0.06656961 -0.17501985
-0.02869721 0.06566975 0.10849175 0.041919433 -0.03908103 0.33379793 0.08648818 -0.31435347
0.2247305 -0.21857886 0.2008228 0.019898854 -0.28370178 0.07922311 0.10649968 0.111134924
0.25147834 -0.09141736 0.2527912 0.40988657 -0.05143988 0.003194318 0.19225225 0.043254584
-0.14112137 -0.026689181 0.10608918 0.041748486 0.0008716311 0.24248986 -0.04212037 0.2756148
0.3366799 0.06087496 -0.08319969 0.35343263 0.2936642 0.099056385 -0.0887669 -0.09698858
0.27060547 0.083656944 0.066537485 0.14266886 0.32718664 0.14300546 0.33353195 0.077036865
0.094802886 -0.050124653 0.16222547 0.34607032 -0.21548338 -0.074922085 0.17622001 0.29040748
-0.052585833 0.18446492 0.09759286 0.016035879 0.0033289907 0.20688584 -0.065465815 0.09916529
0.17168109 0.12662335 0.06446891 0.21673931 -0.021825252 -0.0110283 0.19506404 0.109940656
0.37105173 -0.027077166 0.1097589 -0.16154666 -0.19386612 -0.16296124 0.051396538 0.06985013
-0.2520969 -0.021501295 0.06961487 0.05143798 -0.014241355 0.08591385 0.16209559 -0.06373665
-0.19495133 0.058988247 -0.23305258 -0.038321897 -0.13436332 -0.10983929 0.10668636 -0.2432207
-0.07960362 -0.15285575 0.12407191 0.114960454 -0.058777243 0.034202922 0.07764964 -0.12111705
-0.0014235224 0.1316468 0.004563067 0.11975567 0.07587622 -0.057604603 -0.16922154 -0.15364234
-0.03738881 -0.014390705 0.14442286 -0.10212857 -0.068398684 0.055154875 0.37445092 0.34606665
0.20095539 -0.052182563 0.08905833 0.02647225 0.10676248 0.077753685 0.29502746 0.08565796
0.06340052 0.16268295 -0.07661765 0.05200002 0.12685375 0.19459264 0.13365918 0.25500375
0.24268474 0.4700501 0.52435136 0.222548 0.19181767 0.086267166 0.19597387 0.13415736
0.27735335 0.22632995 0.105033666 0.21941414 0.39670807 0.047980182 0.2777656 0.30167618
0.17619021 0.21535276 0.19236948 0.30278736 0.1417422 0.19854407 0.0793542 0.24477133
0.27000687 0.23074768 -0.13383079 0.14901485 0.18996483 0.007664326 0.08486018 0.13756275
00000000: 0461 9b3e 9b0f b83d 18ff 52bd ca63 16be
00000010: 8a2c 073d 9985 183e ad3d d43a eab2 82bc
00000020: 69b5 c0be f1d4 aa3d 7add ba3c 5324 2ebc
00000030: 8294 933e b633 523d 81be 0dbd 4ddf a33e
00000040: ab43 433e 6a59 bd3d 6377 0a3e 15b9 2ebe
00000050: 424d 713e 5076 f53d 9a18 7f3d dfb3 b5bd
00000060: 5117 fd3d bf91 92bd 7832 923d 8bc4 b33d
00000070: dd10 3b3d f172 b2be a655 88bd 6738 33be
00000080: 6916 ebbc dd7d 863d ec30 de3d b6b3 2b3d
00000090: 6e13 20bd 90e7 aa3e b720 b13d f0f2 a0be
000000a0: c11f 663e 23d3 5fbe 7ea4 4d3e ec02 a33c
000000b0: 5c41 91be ba3f a23d 811c da3d b59a e33d
000000c0: c5c1 803e 0639 bbbd d96d 813e a7dc d13e
000000d0: a0b2 52bd c357 513b c6dd 443e b82b 313d
000000e0: 1f82 10be 45a3 dabc 4945 d93d 7600 2b3d
000000f0: 2c7e 643a 434f 783e 6986 2cbd 621d 8d3e
00000100: 4f61 ac3e 0658 793d 9964 aabd 1ff5 b43e
00000110: 275b 963e 13de ca3d 6ccb b5bd f3a1 c6bd
00000120: cd8c 8a3e 5554 ab3d ce44 883d c917 123e
00000130: 0285 a73e 0670 123e b3c4 aa3e 81c5 9d3d
00000140: 0428 c23d 824f 4dbd 6f1e 263e 2130 b13e
00000150: ada7 5cbe c070 99bd 0573 343e 4ab0 943e
00000160: 3e64 57bd 5fe4 3c3e c4de c73d ad5d 833c
00000170: 322b 5a3b e2d9 533e f112 86bd 2c17 cb3d
00000180: 2bcd 2f3e 8da9 013e 4708 843d e9f0 5d3e
00000190: dfca b2bc 0bb0 34bc debe 473e 9128 e13d
000001a0: 7efa bd3e efd0 ddbc 46c9 e03d 7d6c 25be
000001b0: d784 46be 50df 26be 2d85 523d 960d 8f3d
000001c0: d812 81be 7c23 b0bc 3e92 8e3d a2b0 523d
000001d0: 9254 69bc 9af3 af3d 63fc 253e 5c88 82bd
000001e0: 52a1 47be a99d 713d 56a5 6ebe 6cf7 1cbd
000001f0: 8a96 09be 6cf3 e0bd 617e da3d d90e 79be
00000200: 3907 a3bd 3886 1cbe 6a19 fe3d 6370 eb3d
00000210: 68c0 70bd 5d18 0c3d c606 9f3d 370c f8bd
00000220: 7c95 baba 6bce 063e c885 953b 7642 f53d
00000230: fe64 9b3d cef2 6bbd 6948 2dbe 6b54 1dbe
00000240: 0225 19bd fec6 6bbc 96e3 133e c928 d1bd
00000250: 9c14 8cbd 14ea 613d 08b8 bf3e a62f b13e
00000260: 40c7 4d3e 62bd 55bd 3764 b63d 55dc d83c
00000270: 4aa6 da3d 533d 9f3d d70d 973e 716d af3d
00000280: 22d8 813d 5c96 263e b7e9 9cbd f9fd 543d
00000290: f3e5 013e 4b43 473e f4dd 083e da8f 823e
000002a0: 5982 783e 68aa f03e e43b 063f 9fe3 633e
000002b0: da6b 443e d7ac b03d 60ad 483e 8c60 093e
000002c0: 4201 8e3e 0ac3 673e e41b d73d 1aae 603e
000002d0: 521d cb3e de86 443d 4b37 8e3e 4d75 9a3e
000002e0: 356b 343e 6f85 5c3e 81fc 443e f206 9b3e
000002f0: de24 113e 234f 4b3e 7484 a23d 56a5 7a3e
00000300: 573e 8a3e 1f49 6c3e f00a 09be 5997 183e
00000310: 2486 423e 0725 fb3b 2dcb ad3d 40dd 0c3e

lstm2.weight_ih_l0 f4 [100, 50]
-0.18670756 -0.29969758 0.06663099 0.39358762 -0.010238096 0.3146114 -0.22728157 0.045467284
0.1243883 -0.090104535 -0.004757716 -0.39144453 -0.13555515 -0.29341924 0.17473707 0.1741113
-0.03602091 0.2846942 -0.11325334 0.22647583 0.06976976 -0.31535637 0.11481281 -0.019602885
0.14455153 0.4445588 0.19073638 0.18655439 -0.117968716 0.39641696 0.13883828 0.15927339
0.20768653 -0.17969799 0.12609376 0.020488987 -0.30295482 0.14869815 -0.38469142 0.032619454
0.08323994 -0.6039526 -0.068733424 -0.19860725 -0.044738796 -0.04581556 0.3946509 0.20975603
-0.0929985 -0.19331695 0.05954131 -0.15131758 -0.12178302 0.2884564 -0.14155637 0.38049147
-0.31429142 0.009864494 -0.15666242 0.30540672 -0.1125169 -0.0037075882 -0.48285326 -0.033699084
0.47298825 -0.087715134 -0.30912128 0.036931127 -0.015694773 -0.061808333 0.048857443 -0.20075767
0.37877083 0.16653134 0.30028945 -0.17717011 0.005385196 -0.07552864 -0.15456377 -0.027729856
0.10358068 -0.011619478 0.042056806 -0.35116145 0.23371269 0.17182943 -0.39054966 0.035081018
-0.059168708 -0.31883115 -0.22269377 -0.16657197 -0.02311202 -0.32486215 0.2183877 0.05501304
0.16996665 0.45447242 0.16307934 -0.08417268 0.2637467 -0.1882524 0.12411531 0.0035857398
-0.2471688 -0.14707771 -0.08944867 -0.12262042 -0.022788873 -0.052183542 0.03995212 -0.23568945
-0.09673193 -0.32901874 0.04235804 0.29963988 -0.12089241 0.12084265 -0.27823395 -0.16239136
0.04464743 -0.2757704 -0.08736932 0.34772736 -0.045792565 0.0034359125 -0.019498533 0.13077548
0.091030456 -0.09123245 8.3947685e-05 -0.13893282 0.15093793 -0.12337194 0.28157845 0.09836975
0.13403936 0.030419428 -0.2715477 -0.29896793 0.2032975 0.45455384 -0.2746735 0.28022787
0.051403143 0.34302375 0.008220449 0.09275116 0.24930994 -0.2101934 0.418936 0.0052027334
0.07567901 0.14980337 -0.38673928 -0.18421498 -0.5200103 -0.24484459 -0.13278624 -0.28730032
0.24987529 -0.08810498 -0.05168873 -0.0042508077 0.37922743 0.099680066 -0.373022 0.22322083
-0.002914971 -0.1321201 -0.005114729 -0.3593851 0.4278146 0.28188977 0.5719386 -0.28470212
0.258861 -0.11549605 -0.12288461 -0.40909892 -0.03574821 0.14518246 0.29664963 -0.09893013
0.592519 -0.5616889 -0.37333444 -0.16951823 -0.19600956 -0.24669302 0.3236332 0.1269897
-0.4015822 -0.4902999 0.23956801 0.10416404 0.14538136 0.1112548 0.3919561 -0.46402144
-0.036544085 0.20729382 0.026981195 -0.2721651 0.062862076 0.15328562 -0.49813357 -0.12128853
-0.03420674 -0.34838495 -0.10257256 0.21545316 0.37146607 0.12573805 0.055202954 0.10515311
0.06902332 0.35932767 -0.03519534 -0.052278366 -0.17183436 0.42425033 -0.11108183 0.14118436
-0.18922757 -0.0549005 0.285023 -0.24421798 -0.41104436 0.1055428 0.17303818 -0.26083142
0.032378644 -0.14061068 -0.0021620372 0.07149551 0.1790633 -0.29310563 -0.1026826 -0.11663611
0.21229532 0.09670194 -0.16727287 0.03746792 -0.18213044 -0.10507375 -0.15765537 0.011308824
-0.4687189 -0.07143803 -0.2667165 0.12180073 0.116113305 -0.37510458 -0.3967675 -0.18453196
00000000: 4430 3fbe f671 99be d475 883d 5184 c93e
00000010: b0bd 27bc bf14 a13e 80bc 68be e73b 3a3d
00000020: 4bbf fe3d ba88 b8bd 9de6 9bbb 6b6b c8be
00000030: f8ce 0abe 0c3b 96be 46ee 323e 3c4a 323e
00000040: a98a 13bd 70c3 913e 5ef1 e7bd 48e9 673e
00000050: 73e3 8e3d 6476 a1be fb22 eb3d 3b96 a0bc
00000060: 5105 143e 369d e33e 6650 433e 1d08 3f3e
00000070: 9599 f1bd 2af7 ca3e 9f2b 0e3e 9018 233e
00000080: c7ab 543e c002 38be b91e 013e 85d8 a73c
00000090: e51c 9bbe 5444 183e 46f6 c4be fa9b 053d
000000a0: b479 aa3d a39c 1abf 1cc4 8cbd b35f 4bbe
000000b0: 0740 37bd 19a9 3bbd af0f ca3e 49ca 563e
000000c0: ff75 bebd e1f4 45be 97e1 733d fff2 1abe
000000d0: 6069 f9bd 8fb0 933e 27f4 10be c7cf c23e
000000e0: ceea a0be b09e 213c 1d6c 20be 455e 9c3e
000000f0: 436f e6bd 02fb 72bb 8b38 f7be 0d08 0abd
00000100: 842b f23e fea3 b3bd 2545 9ebe 1845 173d
00000110: 5392 80bc bc2a 7dbd be1e 483d 6b93 4dbe
00000120: 40ee c13e 3187 2a3e 8abf 993e 156c 35be
00000130: 4c76 b03b c2ae 9abd f745 1ebe b929 e3bc
00000140: 1c22 d43d a05f 3ebc c243 2c3d 6fcb b3be
00000150: 6152 6f3e 0ef4 2f3e 20f6 c7be 1db1 0f3d
00000160: e35a 72bd d63d a3be d609 64be d891 2abe
00000170: 6b55 bdbc 5554 a6be 06a1 5f3e 5a55 613d
00000180: bd0b 2e3e 9cb0 e83e 45fe 263e ba62 acbd
00000190: cf09 873e 3dc5 40be 2b30 fe3d bbfe 6a3b
000001a0: d119 7dbe 8a9b 16be dd30 b7bd 6a20 fbbd
000001b0: bbaf babc 69be 55bd d6a4 233d 9358 71be
000001c0: 641b c6bd 2575 a8be a07f 2d3d 666a 993e
000001d0: 7196 f7bd 5a7c f73d ae74 8ebe ec49 26be
000001e0: 39e0 363d c731 8dbe b0ee b2bd 5209 b23e
000001f0: fc90 3bbd 0c2d 613b 63bb 9fbc 02ea 053e
00000200: 2d6e ba3d 14d8 babd 120d b038 6844 0ebe
00000210: 798f 1a3e 6daa fcbd 0d2b 903e 1476 c93d
00000220: 9d41 093e 2a32 f93c 4d08 8bbe 5312 99be
00000230: 382d 503e 48bb e83e 01a2 8cbe 077a 8f3e
00000240: 1a8c 523d cfa0 af3e 10af 063c 52f4 bd3d
00000250: 1b4b 7f3e f03c 57be c87e d63e b17b aa3b
00000260: 99fd 9a3d 0e66 193e b102 c6be daa2 3cbe
00000270: 651f 05bf 8ab8 7abe 1ef9 07be 0719 93be
00000280: 4fdf 7f3e 6270 b4bd 90b7 53bd 5c4a 8bbb
00000290: 192a c23e 1025 cc3d bdfc bebe 0094 643e
000002a0: 1909 3fbb 7e4a 07be 7599 a7bb 5301 b8be
000002b0: 840a db3e db53 903e 916a 123f 7ac4 91be
000002c0: 6e89 843e 3189 ecbd edaa fbbd 6a75 d1be
000002d0: b76c 12bd b6aa 143e 76e2 973e e19b cabd
000002e0: 53af 173f d8ca 0fbf b125 bfbe 3096 2dbe
000002f0: bbb6 48be 189d 7cbe 40b3 a53e 9709 023e
00000300: 2f9c cdbe 9708 fbbe 5151 753e f553 d53d
00000310: dade 143e 8ed9 e33d 78ae c83e 3894 edbe
00000320: 40af 15bd d544 543e ab07 dd3c 3959 8bbe
00000330: d5bd 803d e8f6 1c3e 5d0b ffbe 1f66 f8bd
00000340: 5e1c 0cbd 835f b2be 9011 d2bd c19f 5c3e
00000350: cd30 be3e 7ac1 003e 7e1c 623d 845a d73d
00000360: 195c 8d3d ccf9 b73e fd28 10bd d721 56bd
00000370: 59f5 2fbe 5737 d93e df7e e3bd a292 103e
00000380: dfc4 41be 59df 60bd 89ee 913e 4714 7abe
00000390: 6874 d2be d326 d83d ec30 313e b28b 85be
000003a0: 789f 043d 3ffc 0fbe f7b0 0dbb 3d6c 923d
000003b0: 5f5c 373e f111 96be 414b d2bd eade eebd
000003c0: f263 593e ab0b c63d 9449 2bbe f677 193d
000003d0: 6780 3abe e830 d7bd 6970 21be a548 393c
000003e0: ecfb efbe 1a4e 92bd 118f 88be a972 f93d
000003f0: d0cc ed3d b50d c0be 1c25 cbbe f2f5 3cbe

lstm2.weight_hh_l0 f4 [100, 25]
-0.51460886 -0.43863788 -0.07918445 -0.0061909626 0.014526053 0.20818673 -0.07579648 0.09106328
0.27741104 0.16670513 -0.12144264 0.028226152 -0.02662396 -0.1843202 0.06323641 0.32739738
0.13997734 0.1189083 0.32345366 -0.07489765 0.4713273 0.045168985 0.18376559 -0.018540835
-0.02616935 0.0054710726 0.07759027 -0.039439626 -0.037440438 0.039946623 0.10573125 -0.010141414
0.38481647 0.3990584 0.22250333 -0.11599549 0.1035504 -0.24960858 -0.09711224 -0.4068042
0.2998927 0.09775696 0.122300416 0.5008944 -0.09343392 -0.22243062 -0.49641764 -0.16078018
-0.1792383 -0.22844264 0.26038486 -0.42342165 -0.15659142 -0.17255533 0.10381151 -0.019811856
0.28610206 -0.09692639 0.19789857 0.062734 -0.21711591 -0.12918554 -0.07180015 0.1729623
-0.20146252 0.3141983 -0.12446684 0.19845563 0.33229312 0.24988613 -0.33816752 -0.30998078
-0.34116244 -0.3929726 -0.025683012 -0.026610687 0.031069856 0.0408368 -0.0023668716 0.17638572
0.21620975 0.112157956 0.29210746 0.010330153 0.22430187 -0.3726294 0.12439396 0.024344182
-0.25630796 -0.3164362 0.06123649 0.0317054 0.41979554 0.39211997 0.06571578 -0.07808483
-0.40419462 0.0407988 -0.045185145 0.14545351 0.32981303 0.05915182 0.09474513 -0.12785731
0.14902987 -0.12539111 0.07168699 0.24841341 0.12564443 0.033796582 -0.46688744 0.026027447
0.13313705 -0.18962242 -0.16946194 -0.023006732 0.38968658 0.4738701 -0.038177278 -0.4656184
-0.1903231 -0.25074065 -0.1062405 -0.26000267 0.007392924 0.44535542 -0.31691405 -0.37427428
0.16031018 0.12932585 0.034710776 0.011680633 0.30726698 0.077910885 0.5111781 -0.48169923
-0.034181155 -0.013190132 0.102298975 0.028325286 -0.043292247 -0.054903805 0.036787223 0.1690983
-0.18616146 -0.08815572 -0.09448116 -0.28866497 0.028243681 0.02856247 0.027181158 -0.49527588
-0.5063443 0.10781221 -0.10944129 -0.55017483 0.5076465 0.27335572 -0.4118283 0.18368404
-0.08759014 -0.47570878 -0.21224102 -0.36298454 -0.10108752 -0.04634357 -0.75851387 0.22871612
-0.519693 0.25984392 0.033673927 0.2714401 0.2032443 -0.30655104 -0.18131618 0.1650482
-0.59907943 0.17286956 0.39081487 0.29586673 0.37725654 -0.12759535 -0.075270176 0.011022093
0.08913123 -0.00018158981 -0.3455616 -0.34820515 0.25026765 0.020191004 -0.052245393 -0.0093978895
0.30882272 0.12999733 0.6407479 -0.18022107 -0.13762759 0.15264131 -0.01445618 -0.12034131
0.45385507 -0.11125814 0.21644688 0.08457638 0.35078067 0.031062048 0.35735333 -0.115664184
-0.013194153 -0.09199715 -0.0840376 -0.37461707 -0.4382436 0.32228827 -0.10664223 0.08824104
-0.15735073 0.3231488 0.34943512 0.073134966 -0.11685333 -0.23388472 -0.07007862 0.055696268
-0.27836528 0.3178264 -0.4092563 -0.07185818 0.09012032 -0.010654136 -0.13840005 0.34139916
0.047217976 -0.03657943 0.15021473 0.054829452 0.028621884 -0.35489398 0.36533195 -0.14566426
0.18359885 0.022600636 0.12895519 0.11066009 0.19424278 -0.37842354 0.09151904 -0.15351215
-0.19364916 -0.018663546 0.21566994 -0.12984732 -0.22643696 -0.058008283 -0.024716927 -0.15417507
00000000: 68bd 03bf 2595 e0be 752b a2bd 8fdd cabb
00000010: affe 6d3c e72e 553e 2f3b 9bbd 637f ba3d
00000020: d208 8e3e c0b4 2a3e ebb6 f8bd 883a e73c
00000030: 7e1a dabc 6fbe 3cbe 1782 813d a1a0 a73e
00000040: 3856 0f3e 3286 f33d b89b a53e f063 99bd
00000050: d051 f13e 1d03 393d 0c2d 3c3e f3e2 97bc
00000060: 1b61 d6bc af46 b33b a6e7 9e3d 728b 21bd
00000070: 255b 19bd 129f 233d a089 d83d 2c28 26bc
00000080: aa06 c53e 6251 cc3e ead7 633e 0b8f edbd
00000090: 3b12 d43d 6499 7fbe c8e2 c6bd a448 d0be
000000a0: 898b 993e cd34 c83d a478 fa3d 9e3a 003f
000000b0: 485a bfbd dac4 63be 742a febe 8fa3 24be
000000c0: 3f8a 37be deec 69be 2a51 853e b9ca d8be
000000d0: 8059 20be 58b2 30be 219b d43d 794c a2bc
000000e0: f87b 923e 5881 c6bd eca5 4a3e af7a 803d
000000f0: a253 5ebe 3749 04be f50b 93bd 071d 313e
00000100: 314c 4ebe 99de a03e 78e8 febd f437 4b3e
00000110: 5322 aa3e 26e2 7f3e 4b24 adbe cdb5 9ebe
00000120: d8ac aebe b433 c9be 2e65 d2bc a8fe d9bc
00000130: 3686 fe3c 7d44 273d 841d 1bbb 759e 343e
00000140: 1766 5d3e 12b3 e53d 1c8f 953e cd3f 293c
00000150: 64af 653e 48c9 bebe 43c2 fe3d 736d c73c
00000160: cc3a 83be ed03 a2be 1dd3 7a3d 86dd 013d
00000170: 71ef d63e f3c3 c83e ff95 863d f0ea 9fbd
00000180: 99f2 cebe a41c 273d 0f14 39bd c4f1 143e
00000190: 41dd a83e 2e49 723d bc09 c23d 07ed 02be
000001a0: 499b 183e 8766 00be a1d0 923d 1660 7e3e
000001b0: efa8 003e 496e 0a3d df0b efbe 8337 d53c
000001c0: 1455 083e 612c 42be 6e87 2dbe 9d78 bcbc
000001d0: 0085 c73e 1a9f f23e c75f 1cbd 8965 eebe
000001e0: 0fe4 42be 1461 80be 9f94 d9bd 121f 85be
000001f0: 5740 f23b a005 e43e 8f42 a2be e1a0 bfbe
00000200: 5a28 243e ff6d 043e e32c 0e3d 2060 3f3c
00000210: 1952 9d3e be8f 9f3d 91dc 023f 48a1 f6be
00000220: 8a01 0cbd 6c1b 58bc 2082 d13d 6e0a e83c
00000230: 3653 31bd d0e2 60bd 33ae 163d 1b28 2d3e
00000240: 1ca1 3ebe fc8a b4bd 577f c1bd e5cb 93be
00000250: 4b5f e73c d7fb e93c 05ab de3c cd94 fdbe
00000260: c89f 01bf a6cc dc3d c122 e0bd 42d8 0cbf
00000270: 1ff5 013f 48f5 8b3e 29db d2be ab17 3c3e
00000280: 7662 b3bd 1a90 f3be b655 59be 1cd9 b9be
00000290: f906 cfbd c1d2 3dbd f72d 42bf 8f34 6a3e
000002a0: 9a0a 05bf 430a 853e aced 093d 32fa 8a3e
000002b0: 461f 503e 42f4 9cbe f3aa 39be 6502 293e
000002c0: 455d 19bf b804 313e e318 c83e d87b 973e
000002d0: c527 c13e 5ba8 02be 4027 9abd 0296 343c
000002e0: 6f8a b63d 2569 3eb9 73ed b0be f247 b2be
000002f0: 1523 803e 9b67 a53c 44ff 55bd 9bf9 19bc
00000300: 031e 9e3e 051e 053e 0e08 243f df8b 38be
00000310: 3fee 0cbe 014e 1c3e 9dd9 6cbc 8175 f6bd
00000320: b15f e83e 4fdb e3bd 40a4 5d3e 6236 ad3d
00000330: 8699 b33e d675 fe3c 04f7 b63e 58e1 ecbd
00000340: 4a2c 58bc 0069 bcbd e81b acbd cfcd bfbe
00000350: 7761 e0be f802 a53e 3e67 dabd b8b7 b43d
00000360: 8d20 21be c273 a53e 29e9 b23e c9c7 953d
00000370: cc50 efbd 7a7f 6fbe 6185 8fbd c521 643d
00000380: e585 8ebe 24ba a23e 0b8a d1be 622a 93bd
00000390: 0191 b83d af8e 2ebc beb8 0dbe dfcb ae3e
000003a0: a367 413d 50d4 15bd e4d1 193e d994 603d
000003b0: 7178 ea3c aab4 b5be ca0c bb3e 0329 15be
000003c0: 5601 3c3e f824 b93c d40c 043e c2a1 e23d
000003d0: 94e7 463e bbc0 c1be 566e bb3d 4a32 1dbe
000003e0: f74b 46be 4be4 98bc 95d8 5c3e b2f6 04be
000003f0: 17df 67be 189a 6dbd 277b cabc 12e0 1dbe

lstm2.bias_ih_l0 f4 [100]
-0.11160337 -0.1279237 0.08300916 -0.4233338 0.021231407 -0.057681587 -0.04433277 -0.11134396
0.040879965 0.07823685 -0.22617418 -0.03159664 -0.26180756 -0.31899 0.101416364 0.11518638
-0.007341391 0.086824395 -0.06926441 -0.35460764 -0.08168852 0.3206512 -0.19941626 0.3028125
-0.028760377 0.39239842 0.4549813 0.2827365 0.31743804 0.35371524 0.3210262 0.21768951
0.37093648 0.36899137 0.08546428 0.22064653 0.058470126 0.106446974 0.117451936 0.45457605
0.10923832 0.17858069 0.539629 0.49247783 0.49469298 0.2694475 0.43637627 0.38576066
0.42950776 0.18671075 -0.123602845 -0.09178822 0.043062337 0.1893371 0.00042651282 -0.19839996
-0.035898343 0.018801043 -0.05491394 0.10729287 -0.016665783 -0.10032727 0.05746079 0.07526237
0.23339017 -0.037574768 -0.007160382 -0.22185047 -0.11893717 0.00047661221 0.15285346 0.30920705
-0.12256694 -0.03374038 0.06746345 0.24882902 0.29606628 0.191432 0.09342807 -0.039147962
0.5394372 0.098369494 0.3736325 0.33807594 0.009355933 0.2607318 -0.0495862 0.017724998
-0.030055393 0.3501609 0.336002 0.19323063 0.4226521 0.3704075 0.30190542 0.5011562
0.26054445 0.4570782 0.19716048 0.28631163
00000000: 4f90 e4bd 6efe 02be b500 aa3d 35bf d8be
00000010: 7ded ad3c 8743 6cbd 4796 35bd 4d08 e4bd
00000020: c071 273d a43a a03d 349a 67be 7a6b 01bd
00000030: a40b 86be a852 a3be 62b3 cf3d d6e6 eb3d
00000040: 0d90 f0bb fdd0 b13d 80da 8dbd 228f b5be
00000050: 504c a7bd 652c a43e c733 4cbe 3d0a 9b3e
00000060: e29a ebbc 72e8 c83e 4ff3 e83e d7c2 903e
00000070: 3d87 a23e 2a1a b53e 8c5d a43e 00ea 5e3e
00000080: 63eb bd3e 70ec bc3e e507 af3d 2af1 613e
00000090: 5f7e 6f3d df00 da3d a48a f03d 31be e83e
000000a0: 57b8 df3d dbdd 363e 2025 0a3f 0e26 fc3e
000000b0: 6648 fd3e 06f5 893e b66c df3e 6c82 c53e
000000c0: 71e8 db3e 1a31 3f3e 7d23 fdbd 76fb bbbd
000000d0: 2262 303d 96e1 413e 959d df39 5c29 4bbe
000000e0: 240a 13bd a504 9a3c 71ed 60bd 5dbc db3d
000000f0: ae86 88bc 6278 cdbd 015c 6b3d 2823 9a3d
00000100: d5fd 6e3e 00e8 19bd a3a1 eabb c52c 63be
00000110: 5595 f3bd cfe1 f939 9e85 1c3e 6350 9e3e
00000120: 6004 fbbd 5a33 0abd 472a 8a3d 09cd 7e3e
00000130: 0096 973e c006 443e 3757 bf3d 9d59 20bd
00000140: 8e18 0a3f f275 c93d c24c bf3e 4a18 ad3e
00000150: a149 193c a37e 853e e61a 4bbd 0434 913c
00000160: ba36 f6bc 4a48 b33e 7408 ac3e 40de 453e
00000170: db65 d83e 0da6 bd3e 5993 9a3e c64b 003f
00000180: 1566 853e 2706 ea3e 70e4 493e 7097 923e

lstm2.bias_hh_l0 f4 [100]
-0.14983909 -0.2497802 -0.025415292 -0.2509499 0.07066331 0.046306077 0.1437926 0.1062456
0.041518293 0.09849716 -0.2856772 -0.042459987 -0.33651635 -0.24043079 -0.0040963576 0.32841292
-0.03905358 0.0066211666 -0.045562822 -0.17511155 -0.38820213 0.15957297 -0.26202413 0.1836147
0.027364584 0.4414416 0.3285443 0.08763929 0.15622461 0.23248005 0.22783868 0.23859194
0.18758713 0.44680262 0.06743785 0.35531682 -0.11473257 0.0706628 0.3113644 0.57823026
0.29132974 0.5327108 0.4427732 0.3951001 0.21655132 0.5345359 0.28154913 0.5553453
0.36104172 0.17662762 -0.08548936 -0.050266474 -0.044853367 -0.0315768 -0.064930074 -0.11077231
-0.054831468 -0.018477201 -0.1128482 -0.06771921 0.21258862 -0.104484715 0.05382423 0.024371333
0.00898867 -0.2286648 -0.1741314 -0.11616863 0.0075109135 -0.030469326 0.24184768 0.30098638
0.037397828 0.10852369 -0.07993008 0.18124017 0.14801192 0.27163556 0.34415087 -0.044305105
0.8006648 0.24320182 0.17808206 0.40615144 0.13748555 0.28483644 0.2094061 0.08498039
-0.050649546 0.21267706 0.40522227 0.061249718 0.3960674 0.07560711 0.18100043 0.2016196
0.35302615 0.11640876 0.13263601 0.06958431
00000000: 6b6f 19be 61c6 7fbe bb33 d0bc 817c 80be
00000010: edb7 903d 71ab 3d3d 5e3e 133e 4b97 d93d
00000020: 160f 2a3d e1b8 c93d 4844 92be 86ea 2dbd
00000030: df4b acbe 7d33 76be bd3a 86bb bd25 a83e
00000040: a6f6 1fbd 5ff6 d83b 15a0 3abd 7150 33be
00000050: 6ec2 c6be 1967 233e 0728 86be 7e05 3c3e
00000060: b12b e03c a204 e23e f536 a83e 3a7c b33d
00000070: 58f9 1f3e 400f 6e3e 8b4e 693e 7251 743e
00000080: d716 403e 50c3 e43e db1c 8a3d 16ec b53e
00000090: e9f8 eabd a8b7 903d 286b 9f3e e606 143f
000000a0: 2c29 953e bc5f 083f 2bb3 e23e 8f4a ca3e
000000b0: a1bf 5d3e 58d7 083f 3527 903e 1c2b 0e3f
000000c0: 76da b83e dfdd 343e 0c15 afbd 38e4 4dbd
000000d0: 2ab8 37bd ad56 01bd 0ffa 84bd 98dc e2bd
000000e0: f696 60bd 805d 97bc f51c e7bd 5fb0 8abd
000000f0: d5b0 593e 15fc d5bd cc76 5c3d 64a6 c73c
00000100: 3745 133c 1b27 6abe 804f 32be d2e9 edbd
00000110: 1c1e f63b cf9a f9bc eba6 773e e31a 9a3e
00000120: 772e 193d ab41 de3d 62b2 a3bd 0697 393e
00000130: 7090 173e d113 8b3e 8b34 b03e 4579 35bd
00000140: 5ef8 4c3f e609 793e 255b 363e 15f3 cf3e
00000150: 03c9 0c3e 15d6 913e 8d6e 563e 330a ae3d
00000160: e675 4fbd 04c8 593e 4b79 cf3e fce0 7a3d
00000170: 59c9 ca3e e7d7 9a3d 2d58 393e 5e75 4e3e
00000180: d8bf b43e b767 ee3d bcd1 073e 3882 8e3d

fc.weight f4 [6, 25]
-0.25236094 0.80821943 -0.95488715 -0.64114034 -0.6398468 -0.61450714 -0.44338048 0.8749306
-0.15383515 0.8341798 -0.19461015 0.030078514 0.56812066 -0.76581794 0.008604491 -0.23689422
0.43882075 -0.30515274 -0.07143952 -0.96786696 0.18780546 0.33555788 0.23580417 0.06989396
-0.015077439 0.6041899 -0.27441376 0.64638597 -0.39906204 0.7087586 -0.39083573 0.106769964
-0.27960497 -0.33992362 -0.68286157 -0.7601113 -0.81385034 -0.81276304 -0.73249304 -0.9052277
-0.12689945 -0.65655655 -0.06583543 -0.5280625 0.66763824 -0.98680496 0.38193053 -0.8015188
0.03574655 -0.6161307 0.93040836 -0.4495025 -1.270949 0.3753927 0.16395012 0.8015073
1.01868 0.9227143 0.9472115 0.009945599 0.24715942 0.6286445 0.4361809 0.03864343
-0.43637753 0.9948144 -0.5120842 0.2673874 -0.6898912 -1.1588825 0.08802067 0.036651317
-0.10944977 -0.86868334 0.63899755 0.43202057 0.8114318 0.24932122 0.52768344 0.27847576
0.64050007 0.14688711 0.3750458 0.9027509 0.08548072 0.3619775 0.062360805 -0.66732955
0.3639682 0.27871183 0.99058235 0.9552722 -0.30018398 0.7471984 -0.004749628 -0.7612136
-1.1962364 -1.0198163 0.095948845 0.50059015 -0.23237939 0.1775817 -0.4092479 1.0561421
0.4756457 0.43386465 -0.58781636 -0.5767735 -0.34656453 0.44162968 0.51275647 -0.092176765
0.572385 0.4609159 0.31513202 -0.25189266 -0.27521572 -0.26034346 -0.2801693 0.6884614
0.21677421 0.12214381 0.41799048 0.052632015 0.32080665 -0.19695045 -0.78395027 0.41623786
-0.47815415 -0.5772641 -0.15974826 0.4678361 -0.53236425 -0.23188435 -0.7122447 0.2311761
0.7859552 -0.5873813 1.0412948 -0.04432115 -0.05804933 0.35345933 0.47550496 0.70664614
-0.10797479 0.2644514 0.030109731 0.39690033 0.049943294 -0.5611238
00000000: 7435 81be 78e7 4e3f 7c73 74bf c621 24bf
00000010: 00cd 23bf 5750 1dbf c402 e3be 74fb 5f3f
00000020: f686 1dbe cf8c 553f e247 47be 3767 f63c
00000030: 5b70 113f a50c 44bf daf9 0c3c 6694 72be
00000040: 1dad e03e fb3c 9cbe e24e 92bd 21c6 77bf
00000050: 1350 403e 3ece ab3e a676 713e 9124 8f3d
00000060: 5d07 77bc 30ac 1a3f f67f 8cbe 8d79 253f
00000070: dc51 ccbe 3471 353f 9f1b c8be 36aa da3d
00000080: 6228 8fbe 780a aebe 04d0 2ebf a796 42bf
00000090: 7f58 50bf 3d11 50bf aa84 3bbf 01bd 67bf
000000a0: eef1 01be 1714 28bf bad4 86bd 1b2f 07bf
000000b0: 57ea 2a3f 409f 7cbf 668c c33e 5630 4dbf
000000c0: f96a 123d beba 1dbf 3e2f 6e3f 3125 e6be
000000d0: 75ae a2bf 7933 c03e 8ae2 273e 952f 4d3f
000000e0: 1b64 823f 0137 6c3f 747c 723f def2 223c
000000f0: 5c17 7d3e d9ee 203f 1a53 df3e 9348 1e3d
00000100: e06c dfbe 28ac 7e3f f317 03bf 00e7 883e
00000110: b69c 30bf 4356 94bf 2e44 b43d b11f 163d
00000120: 3327 e0bd 0862 5ebf 5895 233f cd31 dd3e
00000130: ffb9 4f3f 104e 7f3e 4316 073f 6094 8e3e
00000140: d0f7 233f 9369 163e 0106 c03e af1a 673f
00000150: 8410 af3d 1d55 b93e 0b6e 7f3d 1cd6 2abf
00000160: 0a5a ba3e 51b3 8e3e ce96 7d3f b88c 743f
00000170: b7b1 99be 6548 3f3f c4a2 9bbb e5de 42bf
00000180: 461e 99bf 5789 82bf d480 c43d ad26 003f
00000190: ddf4 6dbe fad7 353e f188 d1be aa2f 873f
000001a0: d587 f33e 8223 de3e 227b 16bf 6ea7 13bf
000001b0: e870 b1be 491d e23e 0244 033f 2cc7 bcbd
000001c0: d387 123f 2bfd eb3e fc58 a13e 13f8 80be
000001d0: 13e9 8cbe bd4b 85be 5a72 8fbe 023f 303f
000001e0: 0ffa 5d3e 8926 fa3d d902 d63e ab94 573d
000001f0: c540 a43e 61ad 49be f7b0 48bf 211d d53e
00000200: 9fd0 f4be 94c7 13bf 0c95 23be 3788 ef3e
00000210: 0649 08bf 1773 6dbe ab55 36bf 6db9 6c3e
00000220: 5c34 493f 9f5e 16bf 2649 853f 188a 35bd
00000230: 22c5 6dbd 9ff8 b43e 6375 f33e c3e6 343f
00000240: e321 ddbd 2d66 873e afa8 f63c 8536 cb3e
00000250: 5791 4c3d cfa5 0fbf

fc.bias f4 [6]
-0.053863466 -0.039577816 0.43298048 -0.22409636 -0.108079456 -0.13084912
00000000: f09f 5cbd 591c 22bd 9eaf dd3e 8479 65be
00000010: c358 ddbd 50fd 05be
