code/s4/timestep/models/best_model_gru_seq112.pt (torch, 60348 bytes, 10 tensors)

gru1.weight_ih_l0 f4 [150, 3]
-0.5652824 0.061117027 0.10407061 0.106375806 0.018101266 -0.14963168 0.13967939 -0.051453568
-0.31041035 0.17506677 -0.083950356 -0.22268444 0.1855714 -0.16525261 -0.40536085 -0.28224504
0.39855787 -0.010640126 -0.10068401 0.15285537 0.37269223 -0.20694084 0.02392165 0.252175
-0.018200126 0.34980142 0.20149049 0.030404989 0.2652364 0.08082483 0.21618928 -0.07837267
-0.08176256 -0.057568695 0.08932855 0.266741 0.24727131 -0.13773637 0.28605515 0.0017934483
-0.072852165 -0.276247 0.115702085 -0.14876042 -0.4195504 -0.253133 -0.07787185 0.22296841
0.0572905 0.38302132 0.5721892 0.32105756 0.4262708 0.12944257 0.1918914 -0.121312454
-0.108088546 0.32321087 -0.029642025 -0.44278166 -0.0768406 -0.17672783 -0.08703661 0.09175359
-0.10732002 -0.33207285 0.027551502 0.16678898 -0.3034639 0.113860704 -0.34892592 -0.43263033
-0.3114368 -0.23175216 -0.038450748 0.22614065 -0.093452685 -0.08104126 0.1418784 0.15560687
0.20140415 -0.16674742 0.09761278 -0.21772812 0.34654012 0.18175459 -0.2271478 0.16169456
0.07003379 -0.1273727 -0.06528182 -0.022167297 -0.17127112 0.46850377 0.00897134 0.06952226
0.21597914 -0.062020786 -0.035173994 0.13572538 -0.0082494235 -0.20852746 -0.13191794 -0.1679761
-0.36703452 -0.047985498 0.06581382 -0.13389236 0.08303805 0.05634065 -0.31682858 0.09771339
-0.020711018 0.42082763 0.2343314 -0.09090483 0.29137194 0.09453266 0.026679354 -0.26116917
-0.3423313 0.14357583 0.24164143 0.26074788 -0.025422016 0.3227257 -0.20551379 -0.044988602
0.25655127 -0.07588506 -0.010471066 -0.35320416 0.14963934 -0.0053517483 -0.16968794 -0.08357186
0.19900787 -0.1919948 0.03161708 -0.07765798 -0.048928875 -0.45704195 -0.105920516 0.057617415
0.059024733 0.031571396 0.18404326 -0.12874946 0.6508034 0.046837848 -0.474162 0.28571808
-0.16709858 0.100799665 0.29260764 0.4251713 -0.15038764 0.28581834 -0.25102404 -0.039498575
-0.2882896 0.33926618 0.23043875 -0.29339826 -0.03104297 -0.15787858 0.34338295 -0.22672959
0.27064228 0.36140743 0.2068328 0.25812328 0.075990975 0.46246028 0.094467044 -0.0046851393
0.55567306 -0.24388461 0.03442294 -0.07649361 0.1899062 0.18605272 -0.02047689 0.19762446
-0.27674955 -0.14195322 -0.1817036 -0.2693038 -0.28040743 -0.014265163 0.36290988 0.057608932
-0.1595801 -0.21353884 -0.3451332 -0.14252947 -0.24447301 -0.10450461 0.41712 -0.2850454
0.471504 -0.58584523 0.101760246 -0.23295665 -0.15168768 0.27493966 0.24106705 -0.23571321
-0.067155 0.46361378 -0.064611115 -0.1422232 -0.038002305 -0.22597012 0.02813344 0.20604682
0.52864933 -0.09819739 0.13917667 0.10552391 0.1443688 -0.28001755 0.1340464 0.1985828
-0.0068248375 0.1802148 -0.1541775 0.3532297 -0.1264656 -0.7414115 0.06424553 0.3894672
0.052356154 0.0153813 -0.022026997 0.3672125 -0.036960315 -0.5270184 -0.16600677 0.34894776
-0.09578486 0.17241122 -0.31383145 0.094965555 -0.10116193 0.3060951 -0.033745963 -0.0894618
0.13049224 -0.17762321 0.06348878 -0.09228088 -0.10838314 0.23816445 0.72127634 0.22439794
00000000: 59b6 10bf d955 7a3d f922 d53d 8fdb d93d
00000010: 1b49 943c 0c39 19be 1d08 0f3e fac0 52bd
00000020: 1bee 9ebe b444 333e 2aee abbd 6407 64be
00000030: 6e06 3e3e fb37 29be 758b cfbe 6c82 90be
00000040: c70f cc3e ec53 2ebc 6b33 cebd 1e86 1c3e
00000050: 84d1 be3e 4de8 53be 56f7 c33c 151d 813e
00000060: 6e18 95bc 2c19 b33e 8653 4e3e e213 f93c
00000070: 11cd 873e 7d87 a53d b960 5d3e da81 a0bd
00000080: 2173 a7bd 27cd 6bbd e3f1 b63d 4792 883e
00000090: b134 7d3e c30a 0dbe d275 923e 2412 eb3a
000000a0: 8433 95bd 3f70 8dbe 37f5 ec3d a754 18be
000000b0: 4fcf d6be a69a 81be 477b 9fbd d551 643e
000000c0: 71a9 6a3d 5f1b c43e fe7a 123f a861 a43e
000000d0: 2b40 da3e 988c 043e 2e7f 443e aa72 f8bd
000000e0: 875d ddbd e57b a53e d5d3 f2bc 47b4 e2be
000000f0: 9b5e 9dbd 24f8 34be 4040 b2bd 4ee9 bb3d
00000100: 99ca dbbd 7405 aabe b0b3 e13c bbca 2a3e
00000110: 9f5f 9bbe cd2f e93d 6ba6 b2be b981 ddbe
00000120: a574 9fbe 7050 6dbe 887e 1dbd 6a91 673e
00000130: 1f64 bfbd f6f8 a5bd 9248 113e 6857 1f3e
00000140: e43c 4e3e d6bf 2abe 36e9 c73d 1ff4 5ebe
00000150: b56d b13e e01d 3a3e 6f99 68be 4293 253e
00000160: e06d 8f3d fd6d 02be 7ab2 85bd 3198 b5bc
00000170: b261 2fbe badf ef3e 87fc 123c b061 8e3d
00000180: a329 5d3e 8209 7ebd 9b12 10bd 98fb 0a3e
00000190: 9728 07bc 3988 55be 7f15 07be ed01 2cbe
000001a0: f3eb bbbe 718c 44bd 65c9 863d 141b 09be
000001b0: da0f aa3d 74c5 663d 5b37 a2be f51d c83d
000001c0: 27aa a9bc b876 d73e 92f4 6f3e 502c babd
000001d0: b42e 953e 579a c13d a98e da3c f7b7 85be
000001e0: 0c46 afbe 8b05 133e da70 773e bf80 853e
000001f0: d541 d0bc 4e3c a53e 3572 52be f845 38bd
00000200: b05a 833e a069 9bbd d68e 2bbc 2dd7 b4be
00000210: 0e3b 193e b85d afbb adc2 2dbe b927 abbd
00000220: b8c8 4b3e 499a 44be e980 013d 260b 9fbd
00000230: a569 48bd 6701 eabe dbec d8bd 3d00 6c3d
00000240: ebc3 713d 0251 013d d675 3c3e e6d6 03be
00000250: 0d9b 263f 0bd9 3f3d 5dc5 f2be a449 923e
00000260: e41b 2bbe 0e70 ce3d abd0 953e 0db0 d93e
00000270: 38ff 19be c856 923e 3986 80be 42c9 21bd
00000280: b29a 93be 4cb4 ad3e 23f8 6b3e 4c38 96be
00000290: d44d febc ecaa 21be e4cf af3e cd2b 68be
000002a0: a091 8a3e 650a b93e facb 533e bc28 843e
000002b0: 28a1 9b3d 98c7 ec3e f077 c13d cc85 99bb
000002c0: 9740 0e3f e3bc 79be 12ff 0c3d afa8 9cbd
000002d0: c576 423e 9b84 3e3e 27bf a7bc 115e 4a3e
000002e0: 1eb2 8dbe 2f5c 11be 8210 3abe 30e2 89be
000002f0: 9091 8fbe 6eb8 69bc 53cf b93e 58f7 6b3d
00000300: f768 23be eda9 5abe 4cb5 b0be 3ff3 11be
00000310: 2257 7abe 8306 d6bd c190 d53e 78f1 91be
00000320: f968 f13e f4f9 15bf ad67 d03d 308c 6ebe
00000330: 0454 1bbe e4c4 8c3e 48da 763e ce5e 71be
00000340: 9088 89bd c95e ed3e d552 84bd f5a2 11be
00000350: 4ea8 1bbd b664 67be 1a78 e63c f0fd 523e
00000360: 9055 073f b71b c9bd 5484 0e3e eb1c d83d
00000370: 6ad5 133e 765e 8fbe 7643 093e 4a59 4b3e
00000380: e3a2 dfbb 3b8a 383e b5e0 1dbe 86da b43e
00000390: 3380 01be 25cd 3dbf 2993 833d 3f68 c73e
000003a0: 6873 563d d901 7c3c f671 b4bc 4703 bc3e
000003b0: b363 17bd aeea 06bf aefd 29be 48a9 b23e
000003c0: da2a c4bd 918c 303e 84ae a0be 4d7d c23d
000003d0: fc2d cfbd 7fb8 9c3e 3539 0abd c037 b7bd
000003e0: c29f 053e dce2 35be 6806 823d c2fd bcbd
000003f0: fbf7 ddbd 62e1 733e 91a5 383f 93c8 653e

gru1.weight_hh_l0 f4 [150, 50]
0.7988232 0.21815595 0.18546398 -0.16321567 -0.023874694 0.0867583 -0.22266828 0.012156101
-0.11348381 -0.050359946 0.023652855 0.33718297 0.28398058 0.25024006 -0.29648894 0.24833219
-0.40397254 -0.09765656 0.026851015 0.22496721 0.06570019 0.03028157 0.2825733 0.010197217
0.18452701 -0.038654845 -0.1410622 0.2266791 -0.1642168 -0.15955184 0.09793339 0.14703915
0.091853745 -0.24930793 0.16852723 0.04254876 -0.0727199 -0.09342183 -0.25685024 -0.10613426
0.23894347 0.17278554 -0.027754199 0.24772178 -0.08089814 0.031373676 -0.0110084945 0.13028617
0.11814082 0.13945264 0.48649678 0.33859804 0.41260487 0.105996974 0.18295816 -0.061932456
0.13608022 0.10852129 0.17198896 0.2624094 -0.05137756 -0.19061707 0.37821653 0.41626093
-0.055171147 -0.19125403 -0.30358332 0.1495138 -0.09839834 0.09281229 -0.28335625 0.06700658
0.10829143 0.26206583 -0.1207785 -0.34047908 0.4128383 -0.11765291 0.15591098 0.05508824
-0.11324995 0.018346397 0.17116097 -0.18422419 -0.16754183 0.24258651 0.46884373 -0.032128967
0.376459 0.6081114 -0.37421823 -0.009213819 0.40098634 0.11641091 0.0047942135 -0.22148602
0.03765073 0.0023938299 0.12484294 -0.06699845 -0.114750035 0.14034483 -0.26708457 -0.33805627
-0.22630188 0.061453503 0.20349693 0.03930484 0.08245204 0.10783105 -0.19543147 0.1377303
-0.32704654 -0.23908667 -0.1841583 -0.15267657 0.04424717 -0.0012408266 -0.011228583 -0.26875967
0.051033944 0.1383231 0.13359386 -0.06035933 -0.266877 -0.10554396 -0.18569082 0.09161562
0.16640267 -0.19437882 -0.11603351 -0.3770396 -0.20326991 0.3354966 -0.18677993 -0.21675447
-0.09891214 -0.33816692 -0.18339583 -0.18333426 -0.1084072 0.005269323 0.004591784 0.2660045
-0.115445204 0.14131096 -0.0031001198 -0.43308204 0.24829979 0.00866688 -0.08318295 0.14215042
-0.06568048 -0.06865482 -0.0953199 0.05171585 0.28885818 0.53209805 0.11920051 0.1001668
-0.269877 0.34268287 0.019777374 0.13387454 -0.07614245 -0.22864327 -0.15054975 0.07911396
-0.1891608 -0.02049705 0.4417156 -0.19362098 -0.110592425 0.16915014 -0.12546729 0.203648
0.1467946 0.262649 0.021280795 -0.1917492 0.27968618 0.0026499932 0.1368863 0.004932847
-0.2854151 -0.1927675 -0.001379252 -0.02250883 0.03367528 -0.031540412 0.031175664 -0.11563397
0.13001616 0.029298665 -0.27849245 -0.084171265 0.22868684 -0.16266453 0.023316434 -0.25974107
-0.07614812 -0.14946604 0.059017844 -0.25952053 -0.08755434 0.46587864 -0.18357366 -0.26863262
0.032964375 -0.106891304 0.21674109 -0.41801754 0.017837552 -0.23028742 0.14412545 -0.058515817
-0.054936215 0.38548118 -0.15278946 -0.51494557 0.15664124 0.037186105 -0.037350338 -0.36625904
0.051679306 -0.25854486 0.14694048 0.18139923 0.33013684 -0.058161948 0.45526162 -0.3123649
-0.43126708 -0.20236036 -0.137234 -0.39177412 -0.29292247 -0.32335782 -0.08148902 0.17393985
-0.058061928 0.101854175 0.096922 -0.60752034 -0.15688464 -0.37648037 0.0943618 -0.21402875
-0.12487004 0.5113962 -0.12859103 -0.14193505 0.1166982 0.24960847 -0.11708947 0.51374245
00000000: ad7f 4c3f 4664 5f3e 45ea 3d3e 0222 27be
00000010: dd94 c3bc 56ae b13d 2703 64be 622a 473c
00000020: 336a e8bd 3b46 4ebd a2c3 c13c 3fa3 ac3e
00000030: e765 913e 771f 803e 66cd 97be cb4a 7e3e
00000040: 7dd5 cebe 2a00 c8bd a9f6 db3c ce5d 663e
00000050: d28d 863d 0e11 f83c 73ad 903e 3a12 273c
00000060: a6f4 3c3e 8b54 1ebd 9c72 10be 911e 683e
00000070: 7328 28be 8f61 23be 4d91 c83d 6e91 163e
00000080: d11d bc3d 944a 7fbe 6792 2c3e 9c47 2e3d
00000090: 2cee 94bd f253 bfbd e081 83be eb5c d9bd
000000a0: 99ad 743e b1ee 303e c65c e3bc c7aa 7d3e
000000b0: edad a5bd af81 003d f95c 34bc bd69 053e
000000c0: d0f3 f13d accc 0e3e 1b16 f93e b95c ad3e
000000d0: f240 d33e f114 d93d 6259 3b3e e3ac 7dbd
000000e0: 9d58 0b3e 6940 de3d e01d 303e 865a 863e
000000f0: 4771 52bd 1f31 43be 99a5 c13e 2720 d53e
00000100: 24fb 61bd 19d8 43be 466f 9bbe 251a 193e
00000110: 1285 c9bd 5f14 be3d 1214 91be bf3a 893d
00000120: e6c7 dd3d 7e2d 863e b85a f7bd 4653 aebe
00000130: 8b5f d33e 02f4 f0bd 21a7 1f3e 35a4 613d
00000140: 97ef e7bd 2f4b 963c d244 2f3e 44a5 3cbe
00000150: 1690 2bbe 9968 783e 490c f03e aa99 03bd
00000160: 3cbf c03e 30ad 1b3f 8899 bfbe 8ff5 16bc
00000170: 154e cd3e d868 ee3d c718 9d3b 3bcd 62be
00000180: a737 1a3d cde1 1c3b a8ad ff3d 7c36 89bd
00000190: 1102 ebbd 8eb6 0f3e 4fbf 88be b615 adbe
000001a0: aebb 67be abb6 7b3d 8061 503e 1dfe 203d
000001b0: 9ddc a83d 87d6 dc3d 301f 48be 2c09 0d3e
000001c0: a572 a7be 23d3 74be fe93 3cbe 3f57 1cbe
000001d0: 853c 353d 3ba3 a2ba 17f8 37bc de9a 89be
000001e0: f808 513d 92a4 0d3e d4cc 083e 583b 77bd
000001f0: 1aa4 88be 6f27 d8bd bc25 3ebe f8a0 bb3d
00000200: 7665 2a3e 3e0b 47be faa2 edbd 560b c1be
00000210: fd25 50be 36c6 ab3e 3d43 3fbe e2f4 5dbe
00000220: 7392 cabd 3724 adbe 1ecc 3bbe fabb 3bbe
00000230: 9804 debd 49aa ac3b ad76 963b be31 883e
00000240: 896e ecbd d2b3 103e 612b 4bbb eebc ddbe
00000250: 4d42 7e3e 88ff 0d3c d35b aabd e18f 113e
00000260: 7d83 86bd e69a 8cbd 1437 c3bd 00d4 533d
00000270: 38e5 933e 9437 083f 661f f43d 4024 cd3d
00000280: 512d 8abe 2174 af3e 2904 a23c 6816 093e
00000290: 93f0 9bbd 7621 6abe b729 1abe 8006 a23d
000002a0: 5eb3 41be 6ee9 a7bc 8c28 e23e 9444 46be
000002b0: 487e e2bd b235 2d3e 7f7a 00be 1a89 503e
000002c0: 5351 163e ee79 863e 1055 ae3c e759 44be
000002d0: 0733 8f3e 82ab 2d3b ec2b 0c3e b8a3 a13b
000002e0: ee21 92be d864 45be 04c8 b4ba 7064 b8bc
000002f0: 17ef 093d 8530 01bd 1b64 ff3c 81d1 ecbd
00000300: f522 053e c103 f03c 9096 8ebe fc61 acbd
00000310: e22c 6a3e 8891 26be 1b02 bf3c c8fc 84be
00000320: 8cf3 9bbd a00d 19be b2bc 713d e0df 84be
00000330: b14f b3bd a587 ee3e bcfa 3bbe 378a 89be
00000340: a705 073d d4e9 dabd 60f1 5d3e 6506 d6be
00000350: 0f20 923c 77d0 6bbe 9f95 133e 48ae 6fbd
00000360: cc04 61bd ca5d c53e d774 1cbe 79d3 03bf
00000370: 9066 203e 7550 183d abfc 18bd 4e86 bbbe
00000380: aead 533d fe5f 84be 9177 163e b8c0 393e
00000390: b207 a93e 393b 6ebd 0d18 e93e 4bee 9fbe
000003a0: 0acf dcbe 8e37 4fbe 1287 0cbe 9e96 c8be
000003b0: eff9 95be 288f a5be b7e3 a6bd 4a1d 323e
000003c0: 58d2 6dbd ec98 d03d 0b7f c63d 7486 1bbf
000003d0: 5ea6 20be 09c2 c0be c240 c13d 5a2a 5bbe
000003e0: ddbb ffbd ddea 023f 5ead 03be 6c57 11be
000003f0: 77ff ee3d 5d99 7f3e 9bcc efbd a084 033f

gru1.bias_ih_l0 f4 [150]
0.07842691 -0.024127288 0.205406 0.1366724 -0.04690671 0.16520375 0.180995 0.10960812
0.09340695 -0.017202847 0.26323783 0.20036066 0.23789038 0.19076516 0.13589045 0.09952323
0.031721745 -0.26725215 0.21634015 0.045212053 0.31261617 0.2147374 -0.033247482 -0.20285112
0.21607043 0.008333032 0.4161843 0.037992895 0.11757802 0.25718156 0.2004744 -0.053145327
-0.09376279 0.006624691 0.2201438 0.19989108 0.17338434 0.14849064 0.043906443 0.1622525
0.16622514 0.037467185 0.26879975 0.097929865 -0.0005005408 0.22881287 -0.2015566 -0.039803937
0.24597432 0.1694659 -0.037022263 0.18950467 0.05160487 0.028726907 0.2299654 0.24242765
-0.07068198 0.13020173 0.2388489 -0.06493068 0.14668114 0.35838607 0.07986981 0.08565192
0.37062645 -0.21707791 0.13390876 -0.13132973 0.20060211 0.3541231 0.011388907 -0.078473866
0.38358843 0.41505593 -0.03518137 0.29633263 -0.116230674 0.19074522 0.049128525 0.3318873
-0.0019929835 0.08895393 -0.2142202 0.09848982 -0.034181967 -0.11364829 -0.129847 0.27570835
0.115741394 0.14969751 0.0050866595 -0.12558435 -0.09318903 0.46569815 -0.14266261 -0.058055215
0.08901858 -0.30299804 0.053814527 0.12484284 0.0475147 0.07417597 -0.06991643 -0.1010431
0.07555857 -0.11528825 0.23665841 -0.056474496 0.08998077 -0.20221984 0.054991007 0.12225352
0.011231592 -0.013689261 -0.120667696 0.2950555 0.16855684 0.042523753 0.024700519 0.18946676
0.12083073 -0.4708106 0.034387924 0.1295559 0.2648935 0.11623842 -0.1532318 0.0045428355
-0.15198652 0.035826843 -0.037621092 -0.03269829 -0.0025920728 0.106398754 -0.0011410953 -0.17039593
0.1866799 0.09586823 0.26263168 0.124766745 0.028642517 -0.0083216345 0.04568843 0.113318555
0.17067279 0.13293183 -0.11915949 0.30486327 0.0605984 -0.21176045
00000000: 4a9e a03d 97a6 c5bc f355 523e daf3 0b3e
00000010: 4021 40bd 2c2b 293e c156 393e 397a e03d
00000020: 254c bf3d fcec 8cbc 1cc7 863e 582b 4d3e
00000030: 8999 733e f157 433e de26 0b3e d6d2 cb3d
00000040: a9ee 013d 46d5 88be 4688 5d3e 4630 393d
00000050: 3a0f a03e 1fe4 5b3e 832e 08bd 34b8 4fbe
00000060: 9141 5d3e 4587 083c 1c16 d53e 709e 1b3d
00000070: bfcc f03d 4dad 833e 2949 4d3e eaae 59bd
00000080: b506 c0bd f013 d93b 606d 613e 3fb0 4c3e
00000090: aa8b 313e ee0d 183e 3ed7 333d 8525 263e
000000a0: ec36 2a3e 3177 193d 1fa0 893e 748f c83d
000000b0: b936 03ba ec4d 6a3e da64 4ebe 7409 23bd
000000c0: b1e0 7b3e 7888 2d3e a8a4 17bd 830d 423e
000000d0: a15f 533d b154 eb3c 0d7c 6b3e f43e 783e
000000e0: b7c1 90bd 9a53 053e ce94 743e 60fa 84bd
000000f0: 9533 163e 617e b73e c892 a33d 466a af3d
00000100: c0c2 bd3e ac49 5ebe 611f 093e 4d7b 06be
00000110: a46a 4d3e 9f4f b53e 8a98 3a3c e8b6 a0bd
00000120: b465 c43e 3682 d43e 571a 10bd e9b8 973e
00000130: 590a eebd b752 433e fe3a 493d 22ed a93e
00000140: b79c 02bb 7a2d b63d 8a5c 5bbe 08b5 c93d
00000150: 6402 0cbd 6fc0 e8bd 9df6 04be a529 8d3e
00000160: d309 ed3d 4e4a 193e fead a63b 2f99 00be
00000170: e4d9 bebd fd6f ee3e 2616 12be 4ecb 6dbd
00000180: 604f b63d 8f22 9bbe 9f6c 5c3d 9aad ff3d
00000190: c69e 423d 92e9 973d 5830 8fbd afef cebd
000001a0: 74be 9a3d 3f1c ecbd 9556 723e cd51 67bd
000001b0: d747 b83d b812 4fbe 403e 613d 0e60 fa3d
000001c0: b604 383c ec48 60bc a020 f7bd 8411 973e
000001d0: 2a9a 2c3e 632d 2e3d be58 ca3c 9303 423e
000001e0: 1a76 f73d 160e f1be 5ada 0c3d 4daa 043e
000001f0: 1fa0 873e 690e ee3d cce8 1cbe 11dc 943b
00000200: 5ba2 1bbe 2bbf 123d 9318 1abd a4ee 05bd
00000210: c4df 29bb 97e7 d93d ce90 95ba 457c 2ebe
00000220: 0429 3f3e 9056 c43d a977 863e b585 ff3d
00000230: b6a3 ea3c 7757 08bc cb23 3b3d 8f13 e83d
00000240: d9c4 2e3e 481f 083e e409 f4bd 0a17 9c3e
00000250: 0736 783d bbd7 58be

gru1.bias_hh_l0 f4 [150]
0.1131793 0.031850122 0.14706707 0.048571408 0.03473123 0.092819266 0.093347624 0.04836297
0.027106496 0.1004765 0.03682627 0.017191349 0.20796797 0.06464721 0.164144 0.086644866
-0.13069002 -0.079062015 0.07400989 -0.03956575 0.095136166 -0.029380446 0.08659285 -0.1058773
0.18730602 0.014110554 0.34508157 -0.026866334 0.01816277 0.13009349 0.105173014 -0.11450056
0.13935949 0.011986343 -0.00046942063 -0.0074775717 0.1616464 -0.0051097064 0.090303175 0.18981653
0.01057523 0.2477084 0.09267148 0.065168604 -0.043175012 0.130545 -0.096120864 0.13168436
0.08090011 0.35207474 -0.18165742 0.10663032 0.12331031 0.15766722 0.19313194 0.1365776
-0.0074281073 -0.0040519987 0.09498922 0.11543515 0.08851945 0.26962784 0.04610498 0.085350595
0.23530889 0.033172455 0.041066375 -0.10133959 0.34398332 0.23430756 -0.13117503 -0.20541398
0.43422228 0.39808303 -0.13320161 0.13377509 -0.27704448 0.16693334 0.12452119 0.23771429
0.17870675 0.2419545 0.049305037 0.05502519 -0.027931193 -0.06575938 -0.083719596 0.30079493
0.3114211 0.36858252 -0.06974317 0.059116688 -0.15716727 0.45298022 0.065965556 -0.013040396
0.17329562 -0.18413019 0.087388024 -0.039618604 0.25504163 0.009769693 -0.15683812 -0.20519464
-0.010923803 -0.08258829 -0.0035789153 -0.04611176 0.19233489 -0.20144545 0.090978 -0.06333952
-0.21514761 0.023530185 0.069993995 -0.035019316 0.12796316 -0.21870004 0.077306256 0.100900024
0.124625325 -0.19043706 -0.090412915 0.12264636 0.13953662 0.011104911 -0.021786457 -0.0875985
-0.16806634 -0.1947649 0.07240956 -0.107227325 -0.07236129 0.07220894 -0.09843354 -0.03002571
0.20371164 -0.02750283 0.1759853 -0.03946492 0.083190426 -0.15161932 0.05984793 -0.14043446
0.13068776 0.0499436 -0.034582056 0.08469403 0.1963676 -0.16518478
00000000: 8dca e73d 4675 023d c098 163e d0f2 463d
00000010: 5642 0e3d 0718 be3d 0a2d bf3d 4018 463d
00000020: 710e de3c a0c6 cd3d 25d7 163d dfd4 8c3c
00000030: 8ef5 543e c265 843d 5d15 283e dd72 b13d
00000040: 9bd3 05be 44eb a1bd 7f92 973d b20f 22bd
00000050: c0d6 c23d 43af f0bc 9857 b13d 33d6 d8bd
00000060: 26cd 3f3e f42f 673c 88ae b03e c916 dcbc
00000070: 17ca 943c 3a37 053e f364 d73d 457f eabd
00000080: 41b4 0e3e 5e62 443c 921c f6b9 6b06 f5bb
00000090: a286 253e 536f a7bb dff0 b83d 445f 423e
000000a0: bb43 2d3c 45a7 7d3e 8bca bd3d 1e77 853d
000000b0: 48d8 30bd 97ad 053e 04db c4bd 44d8 063e
000000c0: f5ae a53d 2443 b43e 6704 3abe ff60 da3d
000000d0: 1e8a fc3d 8473 213e 61c4 453e 00db 0b3e
000000e0: 7b67 f3bb a1c6 84bb b589 c23d 4469 ec3d
000000f0: af49 b53d a90c 8a3e 93d8 3c3d 4bcc ae3d
00000100: d0f4 703e d7df 073d 3735 283d 228b cfbd
00000110: 951e b03e 52ee 6f3e bf52 06be 0b58 52be
00000120: 6252 de3e 8ad1 cb3e 0166 08be 56fc 083e
00000130: c6d8 8dbe 93f0 2a3e f704 ff3d 606b 733e
00000140: e7fe 363e ecc2 773e 14f4 493d 1862 613d
00000150: f5cf e4bc dbac 86bd 2e75 abbd cb01 9a3e
00000160: 9672 9f3e d9b6 bc3e 82d5 8ebd 5724 723d
00000170: 75f0 20be 06ed e73e f318 873d 63a7 55bc
00000180: 6874 313e a08c 3cbe 7ef8 b23d 1e47 22bd
00000190: d194 823e 1011 203c 2c9a 20be 8b1e 52be
000001a0: c0f9 32bc 0d24 a9bd 3c8c 6abb afdf 3cbd
000001b0: 70f3 443e b747 4ebe ac52 ba3d 26b8 81bd
000001c0: a84f 5cbe 60c2 c03c 0359 8f3d 6a70 0fbd
000001d0: c608 033e e7f2 5fbe be52 9e3d aca4 ce3d
000001e0: 903b ff3d ef01 43be 682a b9bd 042e fb3d
000001f0: b0e2 0e3e 5ff1 353c 8379 b2bc d866 b3bd
00000200: 9519 2cbe 7370 47be 774b 943d 009a dbbd
00000210: 2832 94bd 48e2 933d 8697 c9bd 7af8 f5bc
00000220: c999 503e 9d4d e1bc 7e35 343e f8a5 21bd
00000230: be5f aa3d 1842 1bbe 1a23 753d 0dce 0fbe
00000240: 03d3 053e a991 4c3d eaa5 0dbd 1074 ad3d
00000250: 9714 493e 3326 29be

gru2.weight_ih_l0 f4 [75, 50]
-0.101976596 -0.01603657 0.39113107 0.109154016 -0.14424434 -0.022121659 0.0759681 0.09608011
-0.1886527 0.14997414 -0.044659104 0.0021878676 0.20109959 -0.39567167 0.025046831 0.03793877
0.05920229 0.13514234 -0.19321899 -0.34382764 0.10807768 0.07176838 -0.23529945 -0.272484
-0.31474423 -0.0030406034 0.042995017 0.3232762 0.05807025 -0.0478209 0.59576106 -0.14302684
-0.38059896 -0.15230384 0.534884 -0.13367501 -0.41960564 -0.037177186 -0.35514647 0.06695295
0.11389442 0.13723312 -0.16320974 -0.16837202 -0.33345827 -0.28691715 0.24272352 -0.16489524
-0.12609625 0.42856178 -0.15560125 -0.0622593 -0.11789711 0.042826567 -0.060241073 -0.08486186
-0.28598332 0.20736876 -0.10679288 -0.0023303677 -0.05122523 0.022575382 -0.089689806 -0.376929
-0.10708938 0.12229579 -0.23470752 -0.16894256 -0.21868601 0.21299705 -0.30590567 -0.065195024
0.0505417 0.059047222 0.19768782 -0.45448872 -0.09607107 -0.03510706 0.040953647 -0.36840564
-0.1576656 -0.018650917 0.12620421 0.18912083 -0.664885 -0.05214294 -0.06888689 -0.009365274
-0.06518744 -0.17495571 -0.26939037 0.37824827 -0.36484766 0.19475934 0.13560103 0.27601126
0.12027224 -0.48598006 0.14496623 0.04210136 -0.009465357 0.128323 0.27068543 -0.28002676
-0.11834498 -0.23503141 0.0039857663 -0.10947287 0.1191538 0.051440768 -0.20108315 0.07345872
0.44551405 0.054228637 -0.22342025 -0.14837505 0.11127574 0.03819278 0.077349484 0.22253905
0.043272372 -0.24667904 0.4566626 0.4484725 0.21401651 -0.00377341 0.21506946 0.013624353
-0.041948035 -0.31064436 0.032197956 0.01565278 -0.0029982075 -0.078997985 0.048476312 0.08527931
-0.07469943 -0.24368359 0.037172616 -0.22620974 0.0818772 0.26294625 0.075473756 0.15140533
-0.13740541 -0.08052322 -0.071255304 -0.24090584 0.25301406 -0.1135713 -0.017215457 -0.06965591
-0.21879488 -0.07366001 -0.12818763 0.10769936 0.3481484 0.28974327 0.049340658 -0.036557358
-0.30908918 0.072884314 -0.4460247 -0.044777032 -0.17247204 -0.06292428 0.044625964 -0.012305911
0.16843355 0.15093477 -0.10023279 -0.26262996 -0.13454574 0.04024733 0.25913942 0.05257876
0.06133123 -0.26403564 -0.11448616 -0.16817382 -0.22723702 0.10836092 -0.111113176 -0.013643086
-0.1511316 -0.21591863 0.06479911 0.0790894 0.009538329 -0.06860763 -0.06343953 -0.52706367
-0.76368284 0.08762852 -0.20062596 -0.24547671 0.0731867 -0.008850942 0.2198835 -0.034757115
-0.16407117 0.001990885 -0.0005425272 -0.11845408 0.20555812 -0.39619356 -0.070745066 0.049561415
-0.03925787 0.3441612 -0.13455251 0.0834074 0.060689833 0.17703004 -0.102443926 0.13981214
0.123176254 -0.015885409 0.041026935 -0.09260302 0.15671767 0.052241795 -0.09912946 0.14209984
0.28026816 0.0003802236 -0.13522843 -0.29877242 -0.13335706 0.10606657 -0.31621274 0.17340025
0.044757314 0.15949143 -0.4135123 -0.20858684 0.29056498 0.04135958 0.018081091 0.14750475
0.1585035 -0.112986565 0.29437643 -0.0007310439 0.23411791 0.11230317 -0.18383957 -0.119775526
-0.23437732 -0.43837935 -0.012045487 -0.18214324 -0.026836194 -0.4182416 0.22099331 -0.19421639
00000000: 1bd9 d0bd 205f 83bc 5542 c83e 248c df3d
00000010: cab4 13be 7b38 b5bc 2a95 9b3d a6c5 c43d
00000020: 2c2e 41be d292 193e 77ec 36bd 5462 0f3b
00000030: 0ded 4d3e 7a95 cabe 032f cd3c af65 1b3d
00000040: 1a7e 723d c162 0a3e 33db 45be 2d0a b0be
00000050: d557 dd3d 4dfb 923d 57f2 70be 0683 8bbe
00000060: 2826 a1be dc44 47bb 8b1b 303d 7584 a53e
00000070: 12db 6d3d d9df 43bd cc83 183f a175 12be
00000080: dedd c2be 8af5 1bbe 28ee 083f 1ae2 08be
00000090: 8dd6 d6be 1b47 18bd c2d5 b5be a11e 893d
000000a0: 7a41 e93d d786 0c3e 7420 27be b769 2cbe
000000b0: 0bbb aabe cee6 92be 848c 783e 4cda 28be
000000c0: 601f 01be 736c db3e ef55 1fbe 9c03 7fbd
000000d0: 0a74 f1bd e96a 2f3d 58bf 76bd 0ecc adbd
000000e0: 686c 92be 7a58 543e 3ab6 dabd 15b9 18bb
000000f0: 8cd1 51bd 02f0 b83c 4aaf b7bd d6fc c0be
00000100: ad51 dbbd 3776 fa3d 2b57 70be 47ff 2cbe
00000110: 3aef 5fbe e61b 5a3e ab9f 9cbe f884 85bd
00000120: d004 4f3d 80db 713d ad6e 4a3e bfb2 e8be
00000130: e9c0 c4bd 6ccc 0fbd 03bf 273d aa9f bcbe
00000140: 1773 21be cfc9 98bc ad3b 013e e4a8 413e
00000150: e735 2abf d693 55bd 9214 8dbd ce70 19bc
00000160: fe80 85bd 9727 33be 89ed 89be c2a9 c13e
00000170: 50cd babe fe6e 473e ffda 0a3e 5951 8d3e
00000180: 4b51 f63d 61d2 f8be 0772 143e 7a72 2c3d
00000190: 9614 1bbc 1b67 033e 4897 8a3e ab5f 8fbe
000001a0: da5e f2bd 13ac 70be 089b 823b 5033 e0bd
000001b0: e806 f43d 8eb3 523d bee8 4dbe 8771 963d
000001c0: 6b1a e43e d91e 5e3d 47c8 64be a1ef 17be
000001d0: 89e4 e33d 0870 1c3d 6869 9e3d 47e1 633e
000001e0: 5f3e 313d 6e99 7cbe aecf e93e 309e e53e
000001f0: 2527 5b3e 514b 77bb 2b3b 5c3e ae38 5f3c
00000200: b4d1 2bbd c70c 9fbe 01e2 033d 423a 803c
00000210: 937d 44bb b2c9 a1bd 198f 463d eba6 ae3d
00000220: 04fc 98bd 3188 79be 5042 183d 87a3 67be
00000230: 3caf a73d e4a0 863e fc91 9a3d 000a 1b3e
00000240: 01b4 0cbe 5ce9 a4bd 4dee 91bd 05b0 76be
00000250: 0f8b 813e 1298 e8bd 6e07 8dbc c2a7 8ebd
00000260: c40b 60be 0fdb 96bd 9e43 03be 7b91 dc3d
00000270: 8240 b23e 3b59 943e 6e19 4a3d 2bbd 15bd
00000280: f040 9ebe 5f44 953d 595d e4be 1f68 37bd
00000290: 839c 30be 72de 80bd b7c9 363d bb9e 49bc
000002a0: d879 2c3e a58e 1a3e d946 cdbd 6f77 86be
000002b0: 5cc6 09be 62da 243d ecad 843e d35c 573d
000002c0: 7536 7b3d ae2f 87be b877 eabd c235 2cbe
000002d0: d2b0 68be 54ec dd3d 4e8f e3bd 4087 5fbc
000002e0: 3ec2 1abe c619 5dbe 65b5 843d a0f9 a13d
000002f0: a746 1c3c 2882 8cbd 96ec 81bd a5ed 06bf
00000300: b880 43bf 9576 b33d e470 4dbe 3f5e 7bbe
00000310: e9e2 953d 8b03 11bc 2429 613e 7a5d 0ebd
00000320: 4602 28be 8279 023b 6238 0eba 0d98 f2bd
00000330: d47d 523e e2d9 cabe cae2 90bd e900 4b3d
00000340: dccc 20bd e635 b03e 22c8 09be 80d1 aa3d
00000350: e795 783d 5d47 353e 1fce d1bd ea2a 0f3e
00000360: d543 fc3d 1e22 82bc dc0b 283d a7a6 bdbd
00000370: 997a 203e 7efb 553d 6304 cbbd 9f82 113e
00000380: 4f7f 8f3e bf58 c739 5279 0abe b3f8 98be
00000390: c18e 08be 6e39 d93d a3e6 a1be d68f 313e
000003a0: 7253 373d b951 233e e2b7 d3be ca97 55be
000003b0: efc4 943e aa68 293d cc1e 943c 7c0b 173e
000003c0: be4e 223e 8065 e7bd 82b8 963e 87a3 3fba
000003d0: 9bbc 6f3e 34ff e53d 7140 3cbe df4c f5bd
000003e0: 9c00 70be 4273 e0be 6f5a 45bc c283 3abe
000003f0: 94d7 dbbc c323 d6be 124c 623e a9e0 46be

gru2.weight_hh_l0 f4 [75, 25]
0.08159018 0.02174327 0.26227647 0.10925244 -0.12953052 -0.12041163 0.032478143 -0.14508505
0.36965978 -0.4261559 -0.06888296 0.047374032 -0.32241485 -0.14968483 0.00082896964 0.023237824
-0.22123376 0.06140899 -0.043053694 -0.23400351 0.13947546 0.119590566 0.048335664 -0.23368387
-0.16102915 0.019686976 0.3192567 -0.20591703 0.20962511 0.22737302 0.017399186 0.032063242
-0.020052517 0.47701126 -0.07973768 0.34246394 0.052691456 -0.032282535 -0.1117485 -0.016512554
-0.18432665 0.47119635 0.2772925 -0.1817521 0.048071183 0.39258614 0.18977864 -0.36645946
-0.07689526 0.44512826 0.1947829 -0.43748125 -0.22180234 -0.21542217 -0.08569011 -0.11525649
0.0046616923 -0.048124805 -0.07638487 0.3787524 -0.07931444 -0.0044883694 0.23517153 0.07681508
0.08307862 -0.15163848 0.19831897 0.37586147 0.34520984 0.5390046 -0.0050063445 0.14173923
0.22983997 0.20588867 0.33345538 -0.23531401 -0.39255655 0.051863715 0.53553975 0.5440496
0.00481899 -0.23242341 -0.5092366 0.3076495 0.3587794 0.09822055 -0.24176781 0.04053379
-0.18291484 0.1695413 0.3913572 -0.015418073 0.008222608 -0.066009864 0.028592966 -0.25232905
0.028895343 -0.0018463852 -0.11282649 -0.18509969 0.30573437 -0.0041577574 -0.104090326 -0.29769084
0.040443406 0.44709158 0.16028354 0.16069321 -0.12563324 0.2804202 -0.0076696873 -0.05787704
-0.16831636 0.4137609 0.0016416876 -0.33156812 0.065281056 0.29167086 -0.035069704 0.12929659
-0.06340262 0.041673593 0.050307915 0.19128217 -0.071610324 0.18124656 -0.27346143 0.023647903
0.2065802 -0.08509738 -0.27489778 -0.042500284 -0.19217998 -0.18033232 0.040627245 0.012771636
0.004077828 0.33128408 -0.315229 0.20954199 0.06416763 -0.09434289 0.2307937 -0.6402957
0.19059666 -0.14865746 0.3823084 -0.18431856 -0.09049479 -0.0033646224 -0.09520684 -0.011261609
0.059000086 0.061374743 0.26318485 -0.001834775 -0.29407898 -0.65381765 0.47785878 -0.07714475
0.05732656 -0.14946991 -0.14726053 -0.072977655 -0.2726119 0.18591288 -0.035182994 -0.19966438
-0.4806205 -0.12513153 0.5037931 -0.29354638 0.030261325 -0.21386798 -0.17781578 -0.6242262
-0.13078189 0.105136424 0.17130981 -0.24254194 -0.60053325 -0.23385645 -0.1557889 0.49235377
0.029757703 -0.22056434 0.02585619 -0.1390141 -0.17364675 0.18258418 0.8293841 -0.24599457
0.15498632 -0.28206968 0.19998048 -0.0319263 0.18849975 0.08674432 0.26703095 0.0074725146
0.17370085 -0.3230784 -0.13366848 0.22695658 -0.015327173 -0.02927095 0.08438043 -0.33904764
-0.3551603 -0.23058745 0.15113145 0.51616436 -0.056489974 -0.14580517 0.15421775 0.1017366
-0.45734435 0.3633357 -0.5253584 0.24984998 -0.34213638 0.19044897 -0.14039047 -0.0048347507
-0.31579933 0.18573728 -0.08917206 -0.2595713 0.27283204 0.13673197 -0.099925034 0.12655187
0.39505324 -0.71502435 0.46726277 0.23731185 0.15432502 0.106121935 -0.14300446 0.027403038
-0.3269321 0.10128971 0.4177027 0.0931936 0.3952301 -0.5119637 0.4495704 -0.08581701
-0.113573976 0.4594913 -0.22282049 -0.2090122 -0.026915744 -0.34241012 0.4608607 0.14252138
00000000: c118 a73d f11e b23c 1a49 863e bebf df3d
00000010: a6a3 04be 5f9a f6bd cd07 053d 2d91 14be
00000020: 0c44 bd3e 1b31 dabe 8212 8dbd 460b 423d
00000030: 8f13 a5be fb46 19be 364f 593a 405d be3c
00000040: 1a8b 62be fe87 7b3d 1259 30bd 9e9e 6fbe
00000050: a8d2 0e3e e6eb f43d 9efb 453d d34a 6fbe
00000060: d3e4 24be 9546 a13c 9d75 a33e eadb 52be
00000070: f7a7 563e 79d4 683e bd88 8e3c bf54 033d
00000080: 2d45 a4bc d23a f43e 824d a3bd 6f57 af3e
00000090: ffd2 573d b13a 04bd 66dc e4bd 5645 87bc
000000a0: 20c0 3cbe a640 f13e 48f9 8d3e 391d 3abe
000000b0: 4ae6 443d 0d01 c93e 5555 423e 93a0 bbbe
000000c0: 437b 9dbd dae7 e33e 2b75 473e 8bfd dfbe
000000d0: 2720 63be a197 5cbe 4c7e afbd 980b ecbd
000000e0: 1cc1 983b 841e 45bd ac6f 9cbd d6eb c13e
000000f0: 9c6f a2bd 2c13 93bb ced0 703e 3a51 9d3d
00000100: 2025 aa3d 1e47 1bbe 2114 4b3e ea70 c03e
00000110: 58bf b03e 35fc 093f 430c a4bb 1724 113e
00000120: 2b5b 6b3e 7bd4 523e aaba aa3e 28f6 70be
00000130: 2cfd c8be 0c6f 543d 2219 093f d646 0b3f
00000140: 9ee8 9d3b 6700 6ebe 545d 02bf 3c84 9d3e
00000150: efb1 b73e db27 c93d fb91 77be c206 263d
00000160: 074e 3bbe 3c9c 2d3e f95f c83e 169c 7cbc
00000170: 1eb8 063c 2e30 87bd cc3b ea3c 4631 81be
00000180: edb5 ec3c 6802 f2ba 9311 e7bd c68a 3dbe
00000190: 3789 9c3e cc3d 88bb 4f2d d5bd ef6a 98be
000001a0: fca7 253d 30e9 e43e 5e21 243e c38c 243e
000001b0: 00a6 00be 3d93 8f3e 0052 fbbb 7a10 6dbd
000001c0: 205b 2cbe 78d8 d33e e52d d73a 4cc3 a9be
000001d0: 13b2 853d e255 953e 40a5 0fbd 5366 043e
000001e0: 3cd9 81bd eeb1 2a3d ac0f 4e3d 79df 433e
000001f0: 6fa8 92bd b398 393e 2303 8cbe 3fb9 c13c
00000200: c389 533e 8947 aebd 67bf 8cbe c714 2ebd
00000210: d4ca 44be 09a9 38be c168 263d 2040 513c
00000220: 4d9f 853b 119e a93e b265 a1be 2d92 563e
00000230: 526a 833d d836 c1bd 2f55 6c3e 6bea 23bf
00000240: c52b 433e a939 18be edbd c33e 01be 3cbe
00000250: 5555 b9bd ff80 5cbb cefb c2bd 9d82 38bc
00000260: 13aa 713d 1564 7b3d 2ac0 863e d57c f0ba
00000270: 8591 96be 9860 27bf e8a9 f43e 11fe 9dbd
00000280: 41cf 6a3d a40e 19be 77cb 16be 4f75 95bd
00000290: c993 8bbe f25f 3e3e 0b1c 10bd d274 4cbe
000002a0: e413 f6be 7b22 00be 96f8 003f b64b 96be
000002b0: 99e6 f73c 3500 5bbe 5715 36be 4acd 1fbf
000002c0: b0eb 05be c451 d73d d76b 2f3e ea5c 78be
000002d0: 8cbc 19bf 1178 6fbe 2087 1fbe cb15 fc3e
000002e0: 6dc6 f33c 9edb 61be 5cd0 d33c b659 0ebe
000002f0: 74d0 31be 59f7 3a3e 8452 543f 00e6 7bbe
00000300: bcb4 1e3e 706b 90be afc7 4c3e 27c5 02bd
00000310: 1406 413e 02a7 b13d 48b8 883e ffdb f43b
00000320: a3de 313e 886a a5be 64e0 08be 4e67 683e
00000330: d31e 7bbc a2c9 efbc a6cf ac3d a797 adbe
00000340: 92d7 b5be 1e1f 6cbe 34c2 1a3e 5923 043f
00000350: 0862 67bd f34d 15be 42eb 1d3e 475b d03d
00000360: 0a29 eabe 2307 ba3e e37d 06bf acd8 7f3e
00000370: 802c afbe 0e05 433e 85c2 0fbe d46c 9ebb
00000380: 73b0 a1be ea31 3e3e d79f b6bd 88e6 84be
00000390: a4b0 8b3e 7703 0c3e 7fa5 ccbd d096 013e
000003a0: 6b44 ca3e d60b 37bf 113d ef3e e101 733e
000003b0: 6107 1e3e 7556 d93d c36f 12be 567c e03c
000003c0: a563 a7be fb70 cf3d 21dd d53e 49dc be3d
000003d0: 9a5b ca3e 0e10 03bf 172e e63e d4c0 afbd
000003e0: 7999 e8bd 7242 eb3e 0e2b 64be 4b07 56be
000003f0: 687e dcbc 6150 afbe eff5 eb3e 20f1 113e

gru2.bias_ih_l0 f4 [75]
-0.063483685 0.20798253 0.047060356 0.47426885 0.080473505 0.26955906 0.015527134 -0.28235275
-0.025399614 0.092863664 0.2044083 0.19885959 0.4272242 0.36536995 0.18535608 0.03957538
0.18253481 0.1446792 -0.16031747 0.17802227 0.07123192 0.48061147 -0.047414098 0.13220872
0.01691402 0.24318804 0.1729329 0.034733478 0.41278532 0.19457182 0.35172606 0.41657147
0.46112615 0.36274973 0.3369405 0.49701878 0.1629452 0.2488714 0.48943073 0.42777145
-0.0049412437 0.18566316 0.52173954 0.18440555 0.47027418 0.37584135 0.37292805 0.11050381
0.3956112 0.43105888 0.10511997 -0.16022556 -0.020660758 -0.29437542 0.13887747 -0.013309894
0.026587708 -0.15699323 -0.015608722 -0.015679969 0.13437955 -0.07123248 0.10555785 -0.0061344826
0.11869653 -0.23352025 0.05661613 -0.103445426 0.06922194 0.097295344 0.15493898 -0.04111816
0.30988806 0.02439216 0.08720262
00000000: bc03 82bd 5ff9 543e 5cc2 403d 5ed3 f23e
00000010: 4bcf a43d a503 8a3e 8565 7e3c 8a90 90be
00000020: da12 d0bc 4e2f be3d 6950 513e d9a1 4b3e
00000030: 21bd da3e c511 bb3e fccd 3d3e cb19 223d
00000040: 68ea 3a3e c926 143e 432a 24be 784b 363e
00000050: 0ae2 913d b512 f63e 4935 42bd b961 073e
00000060: 458f 8a3c 4906 793e 5215 313e b144 0e3d
00000070: 9958 d33e d63d 473e 7015 b43e db48 d53e
00000080: ba18 ec3e 55ba b93e 7783 ac3e 3f79 fe3e
00000090: 1bdb 263e 25d8 7e3e aa96 fa3e dc04 db3e
000000a0: 28ea a1bb 7c1e 3e3e b990 053f cfd4 3c3e
000000b0: c7c7 f03e 476e c03e 6df0 be3e d24f e23d
000000c0: 8d8d ca3e c0b3 dc3e 2449 d73d 2b12 24be
000000d0: c040 a9bc 60b8 96be e535 0e3e be11 5abc
000000e0: 77ce d93c d5c2 20be babb 7fbc 4773 80bc
000000f0: cb9a 093e 56e2 91bd b72e d83d c503 c9bb
00000100: 2b17 f33d ef1f 6fbe 51e6 673d 32db d3bd
00000110: 3cc4 8d3d c842 c73d 53a8 1e3e 846b 28bd
00000120: a6a9 9e3e 11d2 c73c 4a97 b23d

gru2.bias_hh_l0 f4 [75]
0.03162638 0.2011938 0.08258395 0.49617976 0.24169073 0.25641334 -0.12909187 -0.029496195
-0.115081295 0.29464895 0.43059126 0.18108734 0.087717205 0.23044427 0.26899868 -0.028118633
0.07772961 0.37286004 0.0681881 0.43734884 0.1929328 0.42607623 0.20664674 0.11457464
-0.14757164 0.35764408 -0.10113572 0.23388918 0.05596122 0.32650757 0.5904049 0.39173046
0.3359241 0.13238381 0.1408803 0.44029775 0.3628612 0.07620313 0.65903604 0.24777026
0.27986076 0.19546475 0.52023625 0.359501 0.29279646 0.2611091 0.4431355 0.20232333
0.5062733 0.68262535 0.15608434 0.02658705 -0.03049391 -0.20099367 0.2107056 0.02158792
0.09762963 0.1372722 -0.13362093 0.11676309 -0.083299324 -0.08987259 0.072457395 0.21473691
0.096530214 0.03506381 0.2875237 -0.021582393 0.09205802 0.1940375 -0.2609491 -0.026598413
-0.12919372 0.122169904 -0.12086997
00000000: aa8a 013d bf05 4e3e c621 a93d 460b fe3e
00000010: c67d 773e 9c48 833e a930 04be 01a2 f1bc
00000020: beaf ebbd 3adc 963e 7576 dc3e f66e 393e
00000030: 14a5 b33d 95f9 6b3e 32ba 893e 0c59 e6bc
00000040: b430 9f3d 83e7 be3e 34a6 8b3d 30ec df3e
00000050: 2d90 453e aa26 da3e 349b 533e 1ca6 ea3d
00000060: 051d 17be 201d b73e 3f20 cfbd a580 6f3e
00000070: 9837 653d 002c a73e c724 173f e590 c83e
00000080: 3efe ab3e 9f8f 073e ed42 103e b56e e13e
00000090: f1c8 b93e 6310 9c3d 96b6 283f 7db7 7d3e
000000a0: e949 8f3e e927 483e 342e 053f 8410 b83e
000000b0: 6be9 953e 18b0 853e a8e2 e23e d92d 4f3e
000000c0: 219b 013f 89c0 2e3f 93d4 1f3e 16cd d93c
000000d0: 5dce f9bc 49d1 4dbe 35c3 573e 26d9 b03c
000000e0: 0bf2 c73d 1591 0c3e edd3 08be 7d21 ef3d
000000f0: d698 aabd 1f0f b8bd 8b64 943d fee3 5b3e
00000100: a2b1 c53d 129f 0f3d 4e36 933e 8fcd b0bc
00000110: ea88 bc3d c4b1 463e 1f9b 85be eae4 d9bc
00000120: 5c4b 04be 3734 fa3d ad8a f7bd

fc.weight f4 [6, 25]
0.41953543 0.6983214 -0.40600717 -0.41567877 0.13970415 0.48059088 -0.3103401 0.20501281
-0.37461942 -0.7110402 0.10869611 0.38723573 -0.20582828 0.36361188 0.28630805 -0.48472345
0.03706835 0.22637253 -1.0236082 0.20756562 0.5466122 -0.074052215 -0.7465572 -0.24973339
-0.64917684 -0.03513895 -0.27582476 -0.62100047 -0.7450621 -0.6285529 -0.9895429 -0.17740496
1.0831937 -0.19693701 0.7118851 -1.049261 -0.28697363 0.69044554 -0.89054847 0.2124201
0.28203645 0.19990869 0.2729228 0.7347489 0.3551352 -0.28621775 0.39045766 0.83419806
0.65139145 0.6831904 0.5034815 -0.1849244 0.50220585 -0.5456703 0.0949868 0.32740092
0.5933056 -0.40083256 -0.3058693 0.39071104 -0.1546523 -0.45800295 -0.0068773236 0.38931
-0.8776869 -0.2130715 -0.9993746 -0.88550884 0.38796565 -0.8632766 -0.51757735 -0.91876066
0.6926232 0.32768273 -1.030913 0.25614697 0.94139963 0.37603098 0.37895834 -0.12105783
0.14995657 0.45151022 0.22117281 0.9173722 -0.6100882 -0.12937269 -0.82759696 -0.19921821
0.17034627 -0.95124376 -0.19401938 0.13972156 -0.8038149 0.14608957 -0.8886568 0.86159253
-0.8054296 0.49340042 -0.08367218 0.109958306 0.33383682 -0.56258833 0.6363558 0.17771402
0.10338605 0.35402134 0.6718114 0.07501962 -0.48284754 0.7113089 0.13146575 0.2740599
0.047558263 0.3191534 0.3089479 -0.3552158 0.087538704 0.3902639 0.6656872 0.2969439
-0.8815801 0.4636621 -0.3720116 -0.091985926 0.317917 -0.80666256 -0.5547298 -0.32147422
0.8596509 0.049347024 -1.016203 -0.5933556 -1.115269 0.7985666 -0.22196674 0.15892178
0.29876402 -0.4040774 -0.8896049 0.17565013 0.87502843 -0.012069291 0.20711173 -0.6174362
0.23598751 0.4307842 0.2894108 0.141505 -0.33487976 0.3320804
00000000: 59cd d63e 31c5 323f 2ce0 cfbe d9d3 d4be
00000010: 9b0e 0f3e 0210 f63e e6e4 9ebe e1ee 513e
00000020: 1ece bfbe bb06 36bf 119c de3d c343 c63e
00000030: a6c4 52be 562b ba3e f896 923e ac2d f8be
00000040: fbd4 173d 33ce 673e 9805 83bf 158c 543e
00000050: c7ee 0b3f b0a8 97bd 5f1e 3fbf 1cba 7fbe
00000060: 7430 26bf dced 0fbd e738 8dbe e3f9 1ebf
00000070: 64bc 3ebf d8e8 20bf af52 7dbf a5a9 35be
00000080: 17a6 8a3f dba9 49be 1a3e 363f 2f4e 86bf
00000090: 35ee 92be 0ac1 303f fcfa 63bf a884 593e
000000a0: 1567 903e ddb4 4c3e 8abc 8b3e 8118 3c3f
000000b0: 48d4 b53e 228b 92be 11ea c73e 018e 553f
000000c0: 97c1 263f 91e5 2e3f 2ae4 003f d25c 3dbe
000000d0: 9090 003f 0cb1 0bbf 7088 c23d 18a1 a73e
000000e0: e0e2 173f ed39 cdbe e79a 9cbe 470b c83e
000000f0: 2c5d 1ebe 5d7f eabe 2c5b e1bb a453 c73e
00000100: 17b0 60bf 6a2f 5abe 04d7 7fbf b5b0 62bf
00000110: 6fa3 c63e b2ff 5cbf f37f 04bf e633 6bbf
00000120: c14f 313f 08c6 a73e f5f4 83bf b225 833e
00000130: 91ff 703f 2287 c03e d406 c23e 2bed f7bd
00000140: 378e 193e 592c e73e 207b 623e e8d8 6a3f
00000150: be2e 1cbf 467a 04be 65dd 53bf dcff 4bbe
00000160: 416f 2e3e b684 73bf 04ad 46be 2b13 0f3e
00000170: d0c6 4dbf 8198 153e 037f 63bf 5491 5c3f
00000180: a230 4ebf fb9e fc3e 525c abbd d231 e13d
00000190: a9ec aa3e ca05 10bf 37e8 223f aafa 353e
000001a0: 11bc d33d 4942 b53e d5fb 2b3f e3a3 993d
000001b0: cb37 f7be 5718 363f f59e 063e 9451 8c3e
000001c0: 74cc 423d 1368 a33e 6b2e 9e3e d8de b5be
000001d0: 7e47 b33d abd0 c73e 7a6a 2a3f 0809 983e
000001e0: 3caf 61bf 1e65 ed3e 4e78 bebe 1e63 bcbd
000001f0: 04c6 a23e 7081 4ebf c602 0ebf 4598 a4be
00000200: 1512 5c3f 1b20 4a3d f112 82bf 27e6 17bf
00000210: 22c1 8ebf dc6e 4c3f 404b 63be 64bc 223e
00000220: 99f7 983e 3ce3 cebe 26bd 63bf a1dd 333e
00000230: dd01 603f 47be 45bc 1915 543e 4c10 1ebf
00000240: b6a6 713e bf8f dc3e a72d 943e b0e6 103e
00000250: 5c75 abbe 7106 aa3e

fc.bias f4 [6]
-0.17341647 0.13124365 0.055104688 -0.16519865 -0.09348981 0.2095085
00000000: 1694 31be bc64 063e 74b5 613d d629 29be
00000010: 9677 bfbd 6589 563e
