code/s4/timestep/models/best_model_long_range_seq180.pt (torch, 60702 bytes, 10 tensors)

gru1.weight_ih_l0 f4 [150, 3]
00000000: b1f3 af3e 58e3 f3bd c757 d73e e28c 6d3e
00000010: 3010 273e f72d 2a3e 2782 56be ae6c 01be
00000020: 0c03 76bd 0750 66be df63 45be b850 3fbe
00000030: 3523 233e d65e 103e 76ac 693e e4a7 54be
00000040: caba 8a3d 5a70 19bd 20a4 9ebd 4cb7 e5bd
00000050: 9053 20bd 2887 263c 8e4a 973c 1ab2 1cbe
00000060: a8cf 25bd 7dbc 50be e37b 0ebe 04f5 ddbe
00000070: 23c8 053e 1c48 1bbd e293 d53d 499a 233d
00000080: 366a 063f 9073 953d 0af3 7c3c 45b7 e3be
00000090: 5413 e1be 1f62 1bbe b44b 0a3e 461d e63d
000000a0: 1d8e c5bd 196a 21be 9cea e7bc 851e 52bd
000000b0: b27f 30be ecf6 b1bd be6b 413e 4721 033e
000000c0: 52e7 aebc 0da4 903e 5985 a0bd 70cd 2dbe
000000d0: 1ed2 643e eeac aabc 001b 2abe 1806 02bd
000000e0: 1895 3dbd 13d8 fcbd 5d1c b3bd 8868 05be
000000f0: 2306 e13d 73cb 323e acd3 6dbb 55e7 9d3a
00000100: a9b6 6a3e 820a b9bd ed2a 073e 6fed b53d
00000110: dbbf dc3d d4b5 71be 1404 8cbc 9a74 093e
00000120: 9234 0e3d 0984 a43e 4d5e 6b3d dc1a 80be
00000130: 4a39 123d 784a 903e 6b93 ea3c 070b e13e
00000140: e797 6f3e bcbd 89bc ceb4 5d3d a68e 15be
00000150: 1e27 21be a247 673d 6616 7d3a 89d5 e5bd
00000160: c86e 053d bd29 ac3c e36e 013c cd85 6a3e
00000170: 0baa 2a3e f0f8 9f3c 2b72 d3bb 7ceb 803d
00000180: d4b7 603d f295 ea3c bf6d 12be 6b9a 97be
00000190: bd12 fa3e 2ae8 813e 8bd5 d43d 0680 253c
000001a0: c0e9 a33e a55a cebe c7e0 5fbd 07f2 353e
000001b0: c3be 5b3e e335 27bc ad9f 62be 2202 bd3d
000001c0: 824b 1cbe 0eee 2c3e b127 5f3c d3c7 54be
000001d0: e5fe 0f3c 57cc bf3d c658 fdbd 0f07 d53d
000001e0: d039 343e a5e2 ab3c 71be 4e3e 6161 38be
000001f0: 4e8e ce3d f845 bdbe f45c 113e d78e b43e
00000200: 8e6c b93e 86c7 cb3d 678b 123e f3f2 f6be
00000210: 4659 0ebd cd34 153e d3c4 12be b129 163e
00000220: 5d2b cabd 66e9 693c aa20 b2bd 049c 433e
00000230: 9ae6 753e efc3 c9bd 00ec adbd ba4c 5137
00000240: 5104 e13b 9aa2 52be b914 75be e9ad 8a3e
00000250: 5dad 903d c4fe c43d ecc3 bd3d 5efc 933e
00000260: f98b 4c3e e7d5 a03e 88e5 17be 177d d13e
00000270: b69b 5a37 7ad6 16be bf50 1dbe 13a9 a5bd
00000280: e957 d9bd 8661 113f d282 52be a600 50be
00000290: 01a8 56be 9a86 a43d 1ac1 c73d 5248 be3e
000002a0: 0a89 fb3c a148 b938 7e97 073e e724 1abe
000002b0: f3d8 2c3e 9c75 c3bc a371 233e 4243 a03e
000002c0: 167c eabc f543 363e b481 bebe 180d a7bd
000002d0: 018b 543e 4957 cb3d 7ed5 e53c 7a82 52be
000002e0: 4216 1b3e cc1c 24be f69d 96be 5240 1dbd
000002f0: bd74 983e 1ee5 36be fc18 4a3e 7bf7 bebc
00000300: 1e63 113d ba51 bd3c 208c 18be 252d 83bd
00000310: cae7 a7be b7d1 f1bd b0d1 8bbc d670 273e
00000320: 6867 b43e cc9e 853e 4021 4c3d 2e21 523e
00000330: 717f e1bd 150b 0f3e 44bf 20bd 0c76 ed3c
00000340: d925 f13d ee0a bebd cefe 19be 097d 3c3e
00000350: 1b3d c73e 56f8 3f3e ff22 dcbb 2500 1dbd
00000360: 0031 aabd 3847 48be 942f 063e c469 e53d
00000370: b2e5 1cbf b532 d13d 332a 9e3e e92e 993d
00000380: a9ed 6abd bdde ce3c af24 a03e 62e1 25be
00000390: b8f8 253e 1d4c 9dbe 3659 dc3d bbc0 b2be
000003a0: 539b 673e 88b3 863c affa 4cbc b6fb 98be
000003b0: 70d4 51bc fb31 00be 12eb 5b3e 572c a0bd
000003c0: 3a68 0d3e e337 4ebe e794 a93e ef07 58be
000003d0: 54f9 323d 6683 e0bd bb97 8abd ed3f 1f3e
000003e0: 946b 20be 7d75 ae3e 85fe 6d3e dffe 93bc
000003f0: c10c 2a3e ea74 fd3d 5081 ad3d 7d4d bb3e
0.3436561 -0.11908597 0.42059156 0.23198274 0.16314769 0.16619097 -0.20948087 -0.12639114
-0.0600615 -0.22491466 -0.19276379 -0.18683136 0.15931399 0.14098677 0.22819695 -0.2076717
0.067739084 -0.037460662 -0.07746148 -0.11216602 -0.03914219 0.01016406 0.018468168 -0.15302315
-0.04048124 -0.20384403 -0.13914447 -0.43350995 0.13064627 -0.037910566 0.10428597 0.03994206
0.52505815 0.072974324 0.015438804 -0.4447576 -0.4396006 -0.15174149 0.13505441 0.11236052
-0.096462466 -0.1576313 -0.028310113 -0.051298637 -0.17236212 -0.08689675 0.18888757 0.12805663
-0.021350536 0.2825016 -0.07837934 -0.169729 0.22345778 -0.020834412 -0.16611862 -0.031744093
-0.046284765 -0.123459004 -0.08745644 -0.13028157 0.109874986 0.17460422 -0.0036289496 0.0012047092
0.22921242 -0.09035207 0.13199969 0.088831775 0.10778781 -0.23604518 -0.017091788 0.13423386
0.034718104 0.32131985 0.05746298 -0.25020492 0.035699166 0.28181815 0.028634747 0.43953726
0.2339779 -0.016814105 0.054127507 -0.14605197 -0.15737578 0.0564648 0.0009654522 -0.11222369
0.032576352 0.021015996 0.007899973 0.22902603 0.16666429 0.019527882 -0.006452819 0.06294915
0.054862812 0.028635953 -0.14299677 -0.2961 0.4884242 0.2537244 0.103922926 0.010101324
0.32014275 -0.4030353 -0.054657724 0.17768107 0.21459489 -0.010205719 -0.22131224 0.092289224
-0.15263179 0.16887686 0.013620303 -0.20779352 0.008788799 0.093651466 -0.12370448 0.10401737
0.17600179 0.020982096 0.20189835 -0.18005897 0.10085736 -0.36967444 0.14195615 0.35265228
0.36215633 0.099501655 0.1431099 -0.4823223 -0.034753107 0.14570923 -0.14332895 0.14664342
-0.09871552 0.014276838 -0.086976364 0.19102484 0.24013749 -0.098518245 -0.08492279 1.2475235e-05
0.0068669696 -0.2056984 -0.23933686 0.27085808 0.070643164 0.09618905 0.09265885 0.28903478
0.1997527 0.31413195 -0.14833653 0.40915748 1.3030067e-05 -0.14730254 -0.15362833 -0.08088889
-0.10612471 0.56789434 -0.20557716 -0.20312747 -0.20962526 0.08033486 0.09753628 0.3716455
0.030704994 8.8350156e-05 0.13241383 -0.1505314 0.16879635 -0.023859791 0.15961318 0.31301314
-0.028623622 0.17799361 -0.3720833 -0.08156794 0.20756151 0.09928758 0.028055903 -0.20557585
0.1514521 -0.1602661 -0.2941739 -0.03839142 0.29776564 -0.17860839 0.19736093 -0.023311367
0.035494916 0.02311026 -0.14897203 -0.06405095 -0.3279403 -0.11807578 -0.01706776 0.16351637
0.35235143 0.26097715 0.049836397 0.2052047 -0.11010636 0.13969071 -0.039244905 0.028986953
0.11774797 -0.092794284 -0.15038607 0.18407072 0.38913807 0.18747076 -0.006718039 -0.038330216
-0.08310127 -0.19558418 0.13104087 0.11201814 -0.6128799 0.1021475 0.3089157 0.074796505
-0.057355557 0.025252694 0.31277987 -0.16199258 0.1620816 -0.30722132 0.10759203 -0.34912667
0.22617845 0.016443029 -0.0125109395 -0.2987954 -0.012806997 -0.12519066 0.21476391 -0.07820957
0.1380929 -0.20138507 0.33121416 -0.21096776 0.04369481 -0.10962562 -0.067672215 0.1555173
-0.15666038 0.3407401 0.23241623 -0.018065868 0.16606428 0.12375815 0.0847193 0.36582556

gru1.weight_hh_l0 f4 [150, 50]
00000000: c7da 803d 91c7 95be b533 7bbd d592 423e
00000010: fd8d fcbd a2c6 023e bafc 4abe 2171 72bd
00000020: bc97 713c fa55 aebe 250d d1bd c79f 5bbe
00000030: 1f29 8dbe 2021 2d3e 42e1 483e a7b4 34be
00000040: b993 b7bd d49f 48bd 1570 01bc 6c0e b63d
00000050: 42ba 9abd c211 28be d203 04be c418 8abd
00000060: f9c7 e63b cc97 d4bc 4753 22bb 2f6b 0cbe
00000070: 87be 72bd 963a 1cbe e348 2abe 4f4e 953d
00000080: e2a1 ee3d 5dac 713e e169 bebc d8b9 56be
00000090: 1330 ce3d 22c1 803d 4e9c 2ebe ca72 a63d
000000a0: 7aea 1dbe 202c b33d def0 9b3e fee5 57be
000000b0: 3d7e 61bc e2ae 14be 7c82 2d3d 9825 023e
000000c0: 4664 19be b454 97bd 7142 4fbe 95d8 7a3e
000000d0: ab5a 94be 9fec 08bb 3304 39bd 8480 af3d
000000e0: 48d3 dbbd d682 27bd fe84 dbbd eb19 95be
000000f0: f5a1 7fbd 14ae 673e 9516 a93c c04d 56bd
00000100: 5d39 b2be 13d8 a83b e95f d53c ae79 9d3d
00000110: 7526 ebbd 6327 81bd fd9b 263d 118e b03e
00000120: f257 ebbd a717 3f3c 18fc 61bd 6a91 1f3e
00000130: d8df 363e 1d87 af3d 3058 95bd e432 21bd
00000140: 1edb b2bd 0c17 ee3d 3d61 093e 1cbb 86bd
00000150: 6381 2dbe 5056 14be 4faa 02be aea3 c53e
00000160: 9b80 bbbd 831a 09be 4088 d83e f481 ab3d
00000170: cea8 d73d 3665 8cbd 4183 293e b0fd d53e
00000180: 84ad 0f3e 1bb1 71be 26d2 543e cd8e febd
00000190: 5390 05be 9dd1 61be feb1 bf3d 4b9d 023e
000001a0: 2263 5ebd 00c7 31bd efa9 37be 9c6a 94be
000001b0: 4d51 bbbe e2d9 353e bc50 dcbd 70e5 813d
000001c0: 1e10 56be 68d2 1cbe cf25 633e dce4 a13c
000001d0: a502 123c cdce 0cbe b334 d73a bf70 de3d
000001e0: dab3 73bc 4df3 13bf 2fbb 9abd 679e 1fbe
000001f0: 05ab 263e 5844 a03d 9580 cb3d 046b 7b3d
00000200: 2142 6dbc ee3f 743d 7498 79bd baaf 1ebd
00000210: 2c04 4fbd 644e ee3d a071 d2be 0fba 983e
00000220: e3af 953e 6aec cabe 726c 9cbe c39c 323e
00000230: eafa ee3d 5582 083e 9fec cebe 5d5c 913d
00000240: 0808 b0be 988d a0be aecf 40bd 54f4 f43e
00000250: ed09 f33d e15e 9b3e 33e7 10bd e458 e03d
00000260: 606b cb3d 1bad 413e b063 c0be 4ba3 ab3e
00000270: fe90 d8bd 4214 323e 1a86 43be a7be ce3d
00000280: 1752 16bd bff5 a9be 967a 50be 67ec 5bbe
00000290: 5ab8 5c3e 3c21 e1bb 227d 103e 39c4 c7bd
000002a0: a554 21bd 4e7e 253e c1fb 1abf a41e 35be
000002b0: ea62 8e3c ac89 603e 37e8 093e 28fd 82bc
000002c0: c3ca dc3d fd88 3c3e aed5 83bd bcdb 073d
000002d0: 1088 03bf e43b 193e 77ca 423e 683c 7bbe
000002e0: 785e ad3d 0f2d 973a 0d5b bf3e 9ed3 ac3e
000002f0: 1712 093e a624 80be d2a2 083f fb6c f03d
00000300: 4e62 fc3d b6da 123e c60d fd3d b3a5 2a3e
00000310: bd27 bbbe 628c f83d ece9 01bc 24d4 6ebd
00000320: 5216 8b3d eab8 673e 8c01 00be 7417 eabc
00000330: 8490 b2bd e3e4 0e3d 609c 44be 3327 943e
00000340: fb54 8fbd f901 98be c3b9 5abe 534d 85be
00000350: 4e61 ce3d 932e 1ebd adf3 babe ef0c 84bd
00000360: a640 953d ea90 96bd b4cc d93c cd98 6ebe
00000370: 7a20 88be 9c35 c03e 1f73 49be fcce ad3e
00000380: 9204 36be c564 0abe e386 8b3e 7cf3 5fbe
00000390: 5938 4bbe 01b1 593d 1c9f 32be 0d88 26be
000003a0: 9ab2 d1bc 3edb 863c 77ef d4be 2860 b4bd
000003b0: 83d2 bbbb b525 4b3e 4ce4 4abb 23cc 26be
000003c0: 6209 403e bc33 32be a7d9 47bd 57d1 d4be
000003d0: 54ae d53d 1237 e1ba 864f 043e bf37 dd3c
000003e0: 8ff6 e73d 2caf b9be f846 903d 0950 70be
000003f0: 1456 cebd db2f 863e 31ff 61bc 072d 0dbe
0.062917285 -0.2925382 -0.06132861 0.19001324 -0.123317696 0.12771085 -0.1982297 -0.05918992
0.014745649 -0.3404997 -0.10207585 -0.21447669 -0.27570435 0.16907167 0.19617179 -0.17647038
-0.08963723 -0.04898055 -0.007900258 0.088894695 -0.07555057 -0.16413024 -0.12892082 -0.06743005
0.0070428816 -0.025951289 -0.0024768875 -0.13712762 -0.059263732 -0.15256724 -0.16629367 0.07290327
0.116519704 0.23600908 -0.023243846 -0.20969331 0.10067763 0.06286837 -0.17051813 0.08127363
-0.15421477 0.087486506 0.30457205 -0.21083829 -0.013763008 -0.14519837 0.042360768 0.12709653
-0.14979658 -0.07389203 -0.20240189 0.24496682 -0.28975424 -0.002089299 -0.04517002 0.08569434
-0.10733658 -0.04089626 -0.107187256 -0.29121336 -0.062410314 0.22625 0.02064065 -0.052320242
-0.3480939 0.005152711 0.02604671 0.07689224 -0.114819445 -0.063063405 0.040676106 0.34483388
-0.114913836 0.011663354 -0.055172056 0.15582815 0.17858827 0.08570693 -0.07292211 -0.039355174
-0.087331995 0.116254896 0.13416 -0.06578657 -0.16943888 -0.1448605 -0.1276028 0.3860144
-0.09155389 -0.1338902 0.4229145 0.08374396 0.10530244 -0.06855242 0.16553976 0.4179511
0.14031035 -0.23602717 0.2078329 -0.12429581 -0.13043337 -0.22052617 0.09360121 0.12755315
-0.05429376 -0.04340267 -0.17935918 -0.28987586 -0.36585465 0.17758897 -0.10757586 0.0634259
-0.20904586 -0.15314639 0.22182392 0.019762449 0.008911763 -0.13750763 0.0016418904 0.10861348
-0.014874423 -0.5779312 -0.07555234 -0.1558777 0.16276176 0.078255355 0.099366345 0.061381355
-0.014481098 0.05963128 -0.060936406 -0.038741805 -0.050541088 0.116360456 -0.41102314 0.2982945
0.29235753 -0.39633495 -0.30551487 0.17442612 0.11668952 0.13330968 -0.40414903 0.07097695
-0.34381127 -0.31358027 -0.04707306 0.47842658 0.118671276 0.30345824 -0.03537674 0.109544545
0.099325895 0.18913691 -0.37576056 0.3352302 -0.1057453 0.1739054 -0.19094124 0.10094958
-0.03669938 -0.33195302 -0.20359263 -0.21476899 0.215547 -0.006870417 0.14110234 -0.097542234
-0.039387364 0.16161463 -0.60540396 -0.1768747 0.01738115 0.21927518 0.13467489 -0.015989855
0.10780861 0.18411632 -0.064372405 0.03316854 -0.5137949 0.14964253 0.19022547 -0.24534762
0.08465284 0.0011533814 0.37374154 0.337552 0.13385807 -0.2502796 0.53373444 0.117395364
0.12323438 0.14341244 0.12356143 0.16664772 -0.36553755 0.12136151 -0.0079293065 -0.05830778
0.06791367 0.22629133 -0.1250059 -0.028575636 -0.087189704 0.034886252 -0.19200277 0.28936157
-0.069986306 -0.29689005 -0.21359925 -0.26035556 0.10077153 -0.038618635 -0.36514035 -0.064477794
0.07287721 -0.07351859 0.026586868 -0.23300476 -0.26587278 0.375409 -0.19672821 0.3394698
-0.17775181 -0.13515003 0.27251348 -0.21870226 -0.19845714 0.05314732 -0.17443508 -0.16262837
-0.02559786 0.016461965 -0.41588947 -0.08807403 -0.005731882 0.19838603 -0.003095883 -0.1628881
0.1875358 -0.17402548 -0.048791554 -0.41565964 0.10433641 -0.001718255 0.12920961 0.02700412
0.11326324 -0.36266458 0.07044786 -0.23468031 -0.10075012 0.26208386 -0.0137937525 -0.13786708

gru1.bias_ih_l0 f4 [150]
00000000: dcfb e13d 239b 393e d3d3 263e a69c a63e
00000010: a9df 763e fcb8 483c 6836 ed3d aa2b 153d
00000020: ee7c 08bd bae3 263e 2cfb c6bd a0c9 5f3e
00000030: 42fe 253e dca9 dfbc c1b6 9dbb 2e9b 91be
00000040: 6881 043e 0941 a93d dc0b ab3d f1dd 673d
00000050: 7571 283e ab9a be3e e45f 703e 6526 113e
00000060: 474c 1f3e f87c 3f3d ab63 963e 7de8 233e
00000070: 3e7c b8bc 8ea2 94bd 22a7 b13e 6f53 903d
00000080: f569 5b3d 397c b53d e606 103d 6385 0ebd
00000090: 384c 0e3d 75bc 763e 8941 983d 848b 92bc
000000a0: 94be 453e 0624 e6bb d048 2b3d ae87 98bd
000000b0: 427c 8fbd 359d f33d 14a7 3b3e 2241 a33c
000000c0: 13b2 a73c 70f7 3d3d 55a9 ea3d 8a32 333c
000000d0: 693b b1bd 559f 423e a5d6 2fbe 9cb8 f03a
000000e0: 7e8d f13d 7be5 963e 06e4 983d 72fb cfbe
000000f0: 3dda 183c 2c16 613c b642 e6bd c5a4 baba
00000100: 8ed5 6c3e 9e9c c73c d2d5 153e 14e3 133e
00000110: 09c6 6cbd 60ae a23e 77ff ef3c b469 aa3b
00000120: a8a1 0d3e c599 f03d cb1d 2c3e a537 893e
00000130: bb1d b33e 433d 8d3d 8688 68be 4d76 873d
00000140: 9856 863e 1ae1 403e 828b 283e 10a2 12be
00000150: b92f 7fbe 22c7 283e fb78 003e c722 67be
00000160: d380 c9bd a86b 12bd ca84 f63d 0ccb c33d
00000170: e3bd 6abe 78b1 c93d 7aee a83d 5575 47bd
00000180: c6a2 9a3c 2084 983e bbe4 67bd 5512 2e3c
00000190: fed2 26ba 16d3 203e 059a 19be b6a6 d33d
000001a0: 0955 de3c 71d4 ec3d 16c0 6dbe f84f 6f3d
000001b0: 7ca6 193e 3da0 63be 466d 4bbe 6a3b 9fbd
000001c0: 0308 42be 2f62 0b3e 9b83 bdbd 43a3 5bbe
000001d0: 87d2 3f3e 9768 963a dbba 463e 4b38 22be
000001e0: c828 d73d 5232 5c3e 3658 05be f5a0 5fbd
000001f0: a4d5 ecbc fef7 e13d cd5c 463e 5826 b03d
00000200: 94f8 f93c fcb0 263d d6c7 96be 3e70 ddbc
00000210: 6b0c a13d 7681 6c3d 8e2a 79bd b672 42bc
00000220: 632d a73d 138d ef3d c4cc 62bd b6b2 233e
00000230: 6cb2 173e 3ae6 dc3d 0b76 aa3d b138 16be
00000240: 2567 0fbe e94b 9a3c 3d2b 2b3c 7f57 e63c
00000250: 723e df3c f655 d8bb
0.110343665 0.18125586 0.16291742 0.32541388 0.24108757 0.012251135 0.11582643 0.036418594
-0.033322267 0.16297808 -0.09715876 0.21854258 0.16210273 -0.027302675 -0.0048130457 -0.28438705
0.1293999 0.082643576 0.08351871 0.056608144 0.1644953 0.37227377 0.2347408 0.14174803
0.15556441 0.04675004 0.29372916 0.16006656 -0.02252018 -0.07257567 0.34697825 0.07047164
0.053567845 0.08861584 0.03516283 -0.034795176 0.034740657 0.24095328 0.07434375 -0.017888792
0.19310981 -0.0070233373 0.041817486 -0.07447754 -0.07006122 0.11895219 0.18325454 0.019928519
0.020470655 0.046378553 0.11458079 0.010937342 -0.0865391 0.19006093 -0.17171724 0.0018365565
0.117945656 0.29471955 0.07465367 -0.40621525 0.009329376 0.013738196 -0.11243193 -0.0014239779
0.2312834 0.024366673 0.14632347 0.14442092 -0.05780605 0.31773663 0.02929662 0.005200589
0.13831198 0.11748079 0.1680824 0.26800266 0.3498362 0.0689645 -0.2270833 0.06614361
0.2623794 0.1883587 0.16459468 -0.14319634 -0.24920548 0.16482213 0.1254615 -0.2257186
-0.098390244 -0.0357472 0.12037046 0.095602125 -0.22923999 0.098483026 0.08248611 -0.04869588
0.018876445 0.29788303 -0.05661462 0.010624488 -0.0006363838 0.15705523 -0.1500016 0.10334532
0.027140157 0.115639575 -0.23217806 0.058425874 0.15004915 -0.22229095 -0.19865903 -0.07775004
-0.18948369 0.13611673 -0.092536174 -0.21448998 0.18732654 0.0011475262 0.19407217 -0.15841787
0.10505825 0.2150357 -0.13021931 -0.05459686 -0.028910466 0.11033629 0.19371338 0.086010635
0.03051404 0.04069613 -0.29449338 -0.02703106 0.07863697 0.05774065 -0.0608316 -0.0118681695
0.08162954 0.1169683 -0.05537106 0.15986142 0.14814156 0.107861 0.08323296 -0.14670064
-0.1400419 0.018835025 0.0104473205 0.028117893 0.027251456 -0.006602044

gru1.bias_hh_l0 f4 [150]
00000000: 2a9e dfbb d01e 5c3e 29d8 e13d af7a 683d
00000010: 4b23 b43e 80e0 ff3d 88b9 d73c fa6b 173e
00000020: deb8 ea3c fc80 573e 1098 0ebe 6898 5a3c
00000030: 534f a13c 4753 803d 61ad 8c3d eeee 62bd
00000040: 1c5e 6abc 8ba1 7c3e 416d 1f3e 4c3a 3c3e
00000050: 7c49 313e 6098 7e3e 6e98 873e ba17 453e
00000060: 9288 513d 0f7c f23c 4e1a 983e 7137 af3d
00000070: cc10 07bd e74f 1b3e af79 c53e ed9c 1cbd
00000080: 026c 6f3e f058 1cbc bfdd 9d3d 96dd e03d
00000090: e4a2 f0bc 98d5 603e 9a99 d73d 698f b0bc
000000a0: 269c 323e 2d50 e93d e5c6 173d 5e37 f3bd
000000b0: 293d 1a3e 53ee 2e3e 8ae3 253e e564 733d
000000c0: 3368 e43d a5e6 6a3e 17af bd3b bcbd 133e
000000d0: 4213 7c3d 3e08 103e e356 d13c c332 a83c
000000e0: 0a66 1b3e 802a b53e 6515 0a3e 9b44 cdbe
000000f0: 058a a5bd 3201 5cbd cdbd 753d dd8d c1bd
00000100: 63a3 a83d b2cb 273d e871 473e 406d 14bd
00000110: 1810 8b3d 842b 653e 5336 6b3e b011 0ebd
00000120: 725c 05bc a599 003d 47b8 933e 098a e13d
00000130: af16 e13d d60d 643d 8ad8 08be 6751 053d
00000140: 6d95 9b3e d295 8d3e bdfd d63c 4f9f 5bbe
00000150: 0d72 36be b317 d13d cf1f 0d3e 3b3f 9fbe
00000160: e2f6 e639 1873 a23d f51f af3d 406f 3c3e
00000170: 4113 d7bd 8cc5 b33d 8092 06be 667a 073e
00000180: 3b8a 91bd a63b c33e 600c 1a3e b88c 353e
00000190: dbc4 01be f3da bd3c b2f3 c33d 1527 f93b
000001a0: 8484 043c 5a51 81bd 1c25 0abe e053 1a3c
000001b0: 66ae dd3d 7cae a7bd b276 46be be31 95bd
000001c0: 119e 83be 5d56 f93d f91c 21be 4ce2 69be
000001d0: 8ac5 1f3e 7c01 f1bd ba11 433e 7365 f93d
000001e0: a782 333d a1ee 773e 731b e9bd 1642 4fbe
000001f0: 4ecf 1dbd 9eec 0bbd cc10 823e ee27 823d
00000200: 08fa 443d d85a 4a3b b6d7 82be 1fa2 ddbb
00000210: 7e34 4d3c cece f83d 7d3c b83d b3bf 81bd
00000220: 5f29 b4bd e1e8 a13e d78e 3bbe 94bc b5bd
00000230: 3b6a 283e 75e6 d73d 7a08 0abe 2143 d83d
00000240: 8d52 a53d 6ded d43c 6ba5 8cbb 1d71 c0bd
00000250: 4d84 0e3e 6420 6cbb
-0.0068242745 0.21496129 0.110275574 0.056757625 0.35183176 0.12493992 0.026333585 0.14787284
0.028652605 0.21045297 -0.13925195 0.013342001 0.019691145 0.06265884 0.06869007 -0.055403642
-0.014304664 0.24670999 0.15569021 0.18381613 0.17313188 0.24862814 0.26483482 0.19247332
0.051155634 0.029600171 0.2970757 0.085554965 -0.032975003 0.15167199 0.385694 -0.038235594
0.23381045 -0.009542689 0.0770831 0.10979764 -0.029374547 0.2195648 0.10527344 -0.021552758
0.17442378 0.113922454 0.037054915 -0.11875795 0.15062393 0.17083101 0.1620008 0.059422392
0.11152687 0.22939546 0.0057886946 0.14427847 0.061541803 0.14065644 0.025554126 0.020532018
0.15175644 0.35383987 0.13484724 -0.40091404 -0.08082966 -0.053712077 0.05999546 -0.094508864
0.082342885 0.040965743 0.19477046 -0.036237 0.06790179 0.22379881 0.22969942 -0.034684837
-0.008139716 0.031396527 0.2885153 0.11012656 0.10990655 0.055677257 -0.13363853 0.032548334
0.3038744 0.27653366 0.026244039 -0.2144749 -0.17816944 0.102095984 0.13781665 -0.3110293
0.0004405296 0.07932109 0.08551017 0.18401814 -0.10501719 0.087779135 -0.13141823 0.13230285
-0.071064435 0.38131446 0.15043783 0.17729461 -0.1267275 0.023175692 0.095679656 0.007603536
0.008088235 -0.06314345 -0.13490719 0.009419411 0.108242795 -0.08187577 -0.19381216 -0.07284878
-0.25706533 0.121746756 -0.15733708 -0.22840232 0.15602699 -0.11767861 0.19049731 0.12177553
0.04382577 0.24212123 -0.11382189 -0.20240054 -0.03852778 -0.034161203 0.2540344 0.06355272
0.04809001 0.00308769 -0.255552 -0.006763711 0.012524722 0.1214882 0.08995912 -0.06335392
-0.087969534 0.31622985 -0.18316208 -0.08873859 0.16446774 0.10542003 -0.13479796 0.10559679
0.08072386 0.02599212 -0.0042921803 -0.09396575 0.13917656 -0.0036030049

gru2.weight_ih_l0 f4 [75, 50]
00000000: 3971 dd3e d281 87be bbd9 efbd 6e32 02be
00000010: 7646 11be 98fa 71be 750c 013e 3f19 853d
00000020: 02fd a03e 4975 9f3d a464 fcba 79dd 97bb
00000030: 533f 07bd d79f 48bd cd71 88bd f114 2f3e
00000040: 87e6 023e 3d5e 7abe 1f27 963d a7c6 153e
00000050: 20fb 8abd 7e88 05bd 2dfc 44bd cca3 763e
00000060: d4a4 0dbd 7d98 3f3e 4fb1 4cbe 37fd 043e
00000070: c6b3 74be 7cef a93d 611d c9bd 7835 39be
00000080: 8004 05be 93c9 c6be a9e0 8c3c 786e 563e
00000090: 0570 77be d91a 333e abdf 503d c688 b9bd
000000a0: cb38 a6bd a060 bd3c a626 483e 38ac ba3d
000000b0: 9e2a 2e3e 0fc6 3dbe 2e6a 8d3d 177c 543e
000000c0: 639e 123d a32e 9dbe 9788 70be 7be0 8fbe
000000d0: 52cb 66be 30e1 943e 54c0 0b3e d578 5a3d
000000e0: deb9 80be d95a 8a3d 025c c73d 075d 2b3e
000000f0: fd6f f5bd bec4 c9bd dc25 02be a474 053d
00000100: c747 343d d946 aebe 6823 95bc e27e 633e
00000110: 71a1 1f3e 9928 943c de58 fb3d 420c cdbd
00000120: d923 efbe 709d f73d 360e ba3d e4d9 e2bd
00000130: e7c0 273e 6ccd 4fbe 5325 d63d 9754 03bd
00000140: cd93 003e 5eeb 813e 2834 493e 034f a73e
00000150: 25b8 04bf cf8e 2e3d 472c 093e 351a 31bc
00000160: a0f9 c2be c160 453e b67b 38be 0ca5 b53c
00000170: d0fe c2be e28e 71be 43a9 24be 1d3e 66be
00000180: 89b3 ff3d de4f 5e3e 6328 0e3e 384f 0ebe
00000190: 5912 e53d 5049 873e 5fea bcbc 540f ba3d
000001a0: 58e8 f73d d87c fa3b 6a7a 2dbe 4fad 543e
000001b0: 8c95 363d 6108 abbd 7d84 4e3e d3cd 35be
000001c0: 4866 b3be 48b5 d53d a2f3 d63e d456 eabc
000001d0: ce00 5f3d 860c 293e b35d fc3d 9ffa 0abd
000001e0: edb7 503e 21eb ae3e 1ea0 8f3e 68bd 203e
000001f0: 805b 6b3d 52f9 fcbd 6929 04bd 86df b0be
00000200: 46e4 6b3e 3f59 2bbd 09e9 3e3e d795 82bd
00000210: 9ebf 683c c32d 243e a97d f4bd 2c98 9c3b
00000220: 1388 19be 7c8b 923d 19c2 403b 9a6a c2bd
00000230: 8e21 10be cda0 6c3e d124 453e 43de e33d
00000240: 1dae b2be 612b 14be 3257 b2be 47e2 8a3e
00000250: d6a4 9ebd 525e 98bd b265 44be 1b85 273d
00000260: 77b6 a1be 4e44 013e c75e 163e 5adc acbd
00000270: 60fc a1ba fcd9 c9bd cf97 013e dad2 50be
00000280: 87cb 21bd b242 4fbe 64c9 dabd d479 903d
00000290: 7427 463e ad58 50be e8cb 843d 94a9 173e
000002a0: ffe0 f2bd 95e6 0c3e 3517 74bd 6900 303e
000002b0: b435 4f3d 1d7b e3bd 922f 623d b763 4ebd
000002c0: 20c8 113d 4d38 00be d533 43be 52ac c83c
000002d0: e9ca 2d3c 7150 833e a68b 883e fe51 fcbc
000002e0: 6770 a8bc b3a6 233d b316 213f 844f 153e
000002f0: 9c49 59be 5888 a7bd f59a 15bd 8f27 2b3e
00000300: cf92 393e 2078 72be 0968 0cbe 3a9e 17be
00000310: dd89 a63d 4240 1b3e 7ab9 d43d 97d5 383d
00000320: 7773 7e3d 334a 973e b0aa 18be 245d 3dbd
00000330: 9be1 9f3e 1c8d 0bbe 3ca3 aebc 85a1 cd3c
00000340: 9f84 6cbe 5e22 8dbe ba21 fc3c c1b4 e83e
00000350: 0ee8 153e a431 ad3c 7464 02bd 985d 9f3e
00000360: 8606 12be 6c40 9d3e 796b d13d feda 9dbd
00000370: 185d b23e f438 1e3e 1c18 7abd abdc bfbd
00000380: 885b 033e ee39 ab3e 0f87 d1be 72ed 4fbd
00000390: 7d24 f7bb faa1 7f3d 967b 713e ac34 e73d
000003a0: 1082 7dbd d116 99bd 3ec9 813e d934 1b3e
000003b0: f022 aebe bb1f 293e cf33 fd3d a477 983e
000003c0: 719c 673e 626b 6b3e d925 953e 1734 043f
000003d0: 98ec 113e 29be cf3e 6594 c13c 3d84 d7bc
000003e0: 8fae 83be c02f 323e a087 9f3d d16f e83d
000003f0: e3b3 abbd 6671 b23e df67 babd f66f 553e
0.43250445 -0.26466233 -0.11711451 -0.1271455 -0.14187035 -0.2363075 0.12602408 0.06498956
0.3144303 0.07786042 -0.0019256067 -0.004634556 -0.033019375 -0.04898056 -0.06662331 0.17097832
0.12783252 -0.24450012 0.073316805 0.14626561 -0.067861795 -0.032600872 -0.048092056 0.24085921
-0.03458102 0.18710513 -0.19989513 0.12987219 -0.23896703 0.08297631 -0.09820057 -0.18086803
-0.12989998 -0.38825664 0.01719697 0.20940578 -0.24163826 0.1749071 0.050994556 -0.090592906
-0.08116301 0.023117363 0.19545993 0.09114879 0.17008445 -0.18532585 0.06905018 0.20750462
0.03579558 -0.30699643 -0.23489605 -0.28100953 -0.22538498 0.29078054 0.13647586 0.05333789
-0.25141805 0.06755609 0.09734346 0.16734706 -0.11984251 -0.09851979 -0.12709755 0.03258194
0.044013765 -0.34038427 -0.01820536 0.2221637 0.15588929 0.018085765 0.122728094 -0.100121036
-0.46707037 0.12090576 0.09084742 -0.110767156 0.1638218 -0.20293206 0.10456338 -0.032063093
0.12556382 0.25374883 0.19648802 0.3267747 -0.5184348 0.04261666 0.13395797 -0.010809471
-0.38081074 0.1927519 -0.18015942 0.022173427 -0.38085032 -0.23589662 -0.16080193 -0.22484632
0.124854155 0.21710154 0.13882594 -0.13897407 0.1118514 0.2642312 -0.023060976 0.09084955
0.12104863 0.007644277 -0.16941229 0.20769237 0.044576213 -0.083512075 0.20167728 -0.17754297
-0.35038972 0.10434967 0.41982752 -0.028605856 0.054444127 0.16508684 0.12322559 -0.033930417
0.20382662 0.34163764 0.28051847 0.15697253 0.057460308 -0.123522416 -0.032266054 -0.34545535
0.23036298 -0.04183316 0.18643583 -0.06376236 0.014205841 0.16033082 -0.1193803 0.0047788825
-0.14993314 0.07155511 0.0029412566 -0.09492989 -0.140753 0.23108216 0.19252326 0.111263774
-0.34898463 -0.14469673 -0.3483215 0.2712576 -0.07746284 -0.07439865 -0.19179419 0.040898424
-0.31584522 0.12623712 0.14684592 -0.08440466 -0.0012358539 -0.0985603 0.12655567 -0.20392933
-0.03950074 -0.20240286 -0.106829435 0.07054487 0.19350988 -0.20346327 0.064842045 0.14810783
-0.11859321 0.13759835 -0.059592444 0.17187656 0.050588325 -0.11107466 0.055221148 -0.050388064
0.035591245 -0.12521477 -0.19062741 0.024496231 0.01060746 0.2564731 0.26669043 -0.030800816
-0.02056141 0.0399539 0.6292526 0.14581114 -0.21219486 -0.081803024 -0.03652473 0.16714309
0.1812241 -0.23678637 -0.13711561 -0.14806452 0.08131764 0.15161231 0.10386939 0.04512557
0.062121835 0.29548797 -0.14908862 -0.046231404 0.3122681 -0.13628048 -0.02131807 0.025101433
-0.23097466 -0.27565283 0.0307778 0.45450404 0.14639303 0.021141835 -0.03183408 0.31126094
-0.14260301 0.30713212 0.10225577 -0.07707785 0.3483665 0.15451413 -0.06105815 -0.09368261
0.12827885 0.33442634 -0.40923354 -0.050763555 -0.0075421915 0.062410332 0.235823 0.11289343
-0.061891615 -0.07475055 0.25348848 0.15156879 -0.3401103 0.1651601 0.12363397 0.2977878
0.22618271 0.22990182 0.29130438 0.5164198 0.1425041 0.40574768 0.02363033 -0.026308173
-0.25719115 0.17401028 0.0778954 0.11349452 -0.0838392 0.3485214 -0.09101843 0.20843491

gru2.weight_hh_l0 f4 [75, 25]
00000000: 7903 f53d 81a2 3d3e 4cea e13e 2184 e73d
00000010: e2fb 333e bb16 8fbe beed 9abd d9bd b43e
00000020: 99c9 d5bd 1a70 c8be d0da cebe c88f fdbd
00000030: d9fa 883e 3478 953e 49da 8dbd f2a4 6b3d
00000040: b335 9f3d 3d06 27be e761 3c3e 56be 4dbe
00000050: 6e8c e63c 3308 433e b210 533e e550 65be
00000060: cb5b 13bf c172 933e 2ff9 85bd 31a5 0e3e
00000070: 692e a43e f297 babe 0f81 ad3e aea6 e4bc
00000080: abd2 813e 4093 0bbe 417a b53e 071e eebe
00000090: 344a 97bc 802b cc3d 7228 d7be 62b3 ad3d
000000a0: b658 d53c a526 cc3d 513b cbbd ea0e 2bbf
000000b0: 43e4 653e f022 ef3b 10af 2c3e c778 f23d
000000c0: a2de ac3b b10c 45be 4345 8e3d b52c 84bd
000000d0: 4ac7 443e e62c 71be e943 a0bc 8cc5 613e
000000e0: da20 713e 63ce 7c3d 756b 543d 67f6 8c3e
000000f0: 6083 c53d b964 3d3e 47f4 753e 6903 3dbe
00000100: d610 863d 0a8a b43c 8336 6abd 7287 a43e
00000110: 3f5c 4239 9d66 683d 7cdf b63b 67a8 d5bd
00000120: f0f7 52be d12b 3d3e 9f6d 76be 69dc 0c3e
00000130: 9a3f 783e ffab 00be 2143 8fbe 544a 88be
00000140: 4fcb 4dbc 3012 10be 1e1e 583e 3956 41be
00000150: bd87 06be 7ed0 cbbe 8e10 813e 0851 ab3e
00000160: b902 053f b39a 39be 2e25 013e a609 a53e
00000170: 5e04 0b3e 2f33 de3e a567 9d3c 0680 c7bc
00000180: 739e 76bd 5cd4 2d3e 6ce2 003f 5bd0 c2be
00000190: 1e50 263e 1833 a6bd 3387 04be 215e 0abd
000001a0: 1d74 d6be b83e a0be 55fd 873d accf d9bd
000001b0: 90b0 dbbd 8913 843d 95ad f33c b821 05be
000001c0: 7109 03bd d382 803e 731a cb3e 612b e9bc
000001d0: 7f43 31be 99c8 47be 8851 7ebe f2be a9bd
000001e0: eb7e 8fbd fe13 a2be 62a1 80be ce5c f2be
000001f0: 4592 873d cd3d 62be 96f2 8e3d 9f1d 193e
00000200: a22a 283d 881e bbbd a01e 6d3f 6bc8 e33b
00000210: 6e2e 3dbd 6bc8 00bf 4ff8 e1bd 3d6d 1ebf
00000220: fdde c73e 385f a93e 7f5a acbe df95 b1bc
00000230: 9ed4 bb3d 83f4 8f3d ce10 ce3c df56 b5be
00000240: fae9 0bbd c246 863e 10b6 d43e aa35 d53c
00000250: 736f efbb 1fda a1be 8015 d1bd 7676 d5bd
00000260: 7a2e 2fbd f6c6 9fbe ffda 8bbd 0783 343e
00000270: a6aa a73e 6d32 bdbc 91c3 a23e b448 fd3d
00000280: a59e 50be e420 313f 956d ef3e b0f3 de3e
00000290: 74ac 09bf 8ea1 4dbe 6092 70be 71b5 e63d
000002a0: 72f0 953e faeb 85be 3a0b a4be 9862 133e
000002b0: b3e7 75bd f330 a03e b8c9 7cbe 8918 8cbd
000002c0: f7ec 613d a6dc 883d 9c6a 71bd 4857 b2be
000002d0: 1369 54be eb0a 35be 6f3e bcbd 2e64 3ebe
000002e0: ce55 0d3e fc25 8cbd 845c 903c 38e5 83be
000002f0: f483 673e 01cd 46be 20c7 ce3c 6909 28be
00000300: 60b8 2fbe e63e f13d 72fb bc3d 2e0a ff3c
00000310: 78d6 41bd 8aa7 ff3b 2c92 93bc 790a c1bd
00000320: 1f8e 303e f43e 61be ec26 603e f3a8 1fbe
00000330: 23ce 56bd d510 383f d872 4d3e 3914 b13b
00000340: 58c4 1c3e 209d 193e 1c66 edbe 615f 533c
00000350: 5aa7 b03e 6252 9dbe 421e 5abd 8735 6cbe
00000360: 9956 06bd 68ab b83c dfaf d2be a177 663e
00000370: c9d2 8b3d ba57 213e 8321 d9bd 6512 ec3d
00000380: 98e6 7cbe 1418 1d3d 6c41 a83d d370 5e3e
00000390: 6101 d03d b302 e6be b740 663c 1f7b 94bd
000003a0: f24d 6d3e 8e43 563e 4730 06bd 293d c33c
000003b0: db3d c13e c686 613d 7092 3e3e 64df 34bd
000003c0: 328f 043e d23e 9bbe be44 663d b17d 09bd
000003d0: 4dc1 0d3e d253 86be 3db3 513e bc1e d53c
000003e0: 1d56 a03b b5b8 1a3e 19e2 88bb a266 f53d
000003f0: 25af 9ebe 5325 eabd a4b6 a3be 85ae 13be
0.11963553 0.18519022 0.44124067 0.113044985 0.17576554 -0.2794703 -0.07564877 0.35301092
-0.10438842 -0.39148027 -0.40401316 -0.1238094 0.26753882 0.2919327 -0.069264 0.05753035
0.07773914 -0.16310973 0.18396722 -0.20092139 0.028143134 0.19046097 0.20611838 -0.2239414
-0.5756194 0.28798488 -0.065416686 0.13930203 0.32066658 -0.3644405 0.33887526 -0.02791151
0.2535604 -0.1363039 0.35444835 -0.46507284 -0.018468 0.099692345 -0.42023045 0.0848148
0.026043277 0.09968308 -0.09923423 -0.6681963 0.22450356 0.007297866 0.16863656 0.11839443
0.0052755633 -0.19243123 0.069468044 -0.0645384 0.19216648 -0.23552284 -0.019563632 0.22048014
0.23547688 0.061720263 0.05186029 0.2753174 0.096441984 0.18495454 0.24018966 -0.18458332
0.0654618 0.022038478 -0.057180893 0.32134587 0.00018535646 0.056738485 0.0055808406 -0.10432511
-0.20602393 0.18473746 -0.24065255 0.13755955 0.24243012 -0.12565611 -0.27980903 -0.26619208
-0.01256068 -0.14069438 0.21105239 -0.18880548 -0.13137718 -0.39807504 0.25207943 0.3346026
0.5195728 -0.1812542 0.12611839 0.32233924 0.13575885 0.43398425 0.01921446 -0.024353039
-0.060209703 0.1697554 0.5034549 -0.38049588 0.162415 -0.08115214 -0.129422 -0.033781175
-0.41885462 -0.3129785 0.06640116 -0.106353134 -0.10727036 0.064490385 0.029745856 -0.13001144
-0.031991426 0.2509981 0.39668617 -0.028463067 -0.17310904 -0.19510116 -0.24835789 -0.08288373
-0.070066296 -0.31655878 -0.25123125 -0.4733643 0.066196956 -0.22093888 0.06979863 0.14952706
0.041056283 -0.09136683 0.92624855 0.006951382 -0.046186857 -0.50305814 -0.11033689 -0.61885434
0.39037314 0.3308046 -0.33662793 -0.02167791 0.09171413 0.07029059 0.025154497 -0.3541784
-0.034158684 0.2622586 0.41545153 0.026026566 -0.007306987 -0.31611726 -0.10209179 -0.10422985
-0.042768933 -0.31206483 -0.068288796 0.17628108 0.32747382 -0.023095334 0.3178983 0.12367383
-0.20373018 0.6919081 0.46763292 0.43545294 -0.5377877 -0.2008116 -0.23493338 0.11265076
0.29285008 -0.26156598 -0.32039815 0.1439308 -0.06003542 0.31287345 -0.24686325 -0.06840617
0.055157628 0.0668271 -0.05893956 -0.34832215 -0.20743208 -0.17679946 -0.09191596 -0.18592903
0.13802263 -0.068431824 0.01762224 -0.25760818 0.2260893 -0.1941414 0.025241435 -0.1640984
-0.17160177 0.11779575 0.09227647 0.031132784 -0.047323674 0.0078019546 -0.018014036 -0.094258256
0.17241715 -0.21996671 0.21889848 -0.15591793 -0.05244268 0.71900684 0.2006334 0.005404022
0.15309274 0.15001345 -0.46366966 0.012901158 0.3450268 -0.30726916 -0.053251512 -0.23067294
-0.03279743 0.02254267 -0.41149804 0.22506572 0.068273135 0.15756121 -0.10602095 0.11526946
-0.2469734 0.03835304 0.08215603 0.21722727 0.10156513 -0.44923934 0.014053515 -0.07250046
0.23174265 0.20924208 -0.032760885 0.023832874 0.37742504 0.05506017 0.18610549 -0.044158354
0.1294525 -0.30321366 0.0562179 -0.033567134 0.1384327 -0.26235825 0.2047853 0.026015632
0.004893078 0.15109523 -0.0041773436 0.11982466 -0.30993 -0.114329 -0.3197528 -0.14422043

gru2.bias_ih_l0 f4 [75]
00000000: 3c8a 50be 286c 143e 9cd4 9b3c a475 8b3e
00000010: 7870 98be b7fa 993e 3c35 7e3c 3622 a23e
00000020: 8827 2f3e 7bab 8d3d d398 c53e 6876 db3e
00000030: 662d 873d da53 193e 01c1 d9bd b047 e63e
00000040: d6e7 a5bd 3a8d e63e 0d4d 8b3e 7002 c23e
00000050: 3898 d83d 9863 a03c 57f5 2e3e 6cdf fd3e
00000060: b142 893e 7ae6 1a3f c836 aa3e 1250 9e3e
00000070: 09e5 c13e fcac 683e eb26 0e3e 8666 ff3e
00000080: 4fc0 e33d f921 af3e 50d7 e43e d355 943e
00000090: 3a04 9c3e cb00 003f 28c7 323e 2b53 0d3e
000000a0: 21a3 a93e 29ea e33e 963f 843e 4d59 67bd
000000b0: a13c 903e ec2d cb3e a40f 263e d616 143e
000000c0: b86f e1bd 2535 293e 5362 19bd 3d5a af3c
000000d0: b6bd c73d b731 4c3e cf9e 81be 3e99 3ebe
000000e0: fc8a 393e 0eed 55be 6111 cc3d 7f6c 86bd
000000f0: 54bb 25be cc91 0dbe fae0 22bd f7d3 9f3d
00000100: 87c0 a5be aacb 393d 6ca5 9f3d 2c14 da3b
00000110: 3c55 ff3d 9927 31be 80d0 993c 4f93 763d
00000120: 5762 1a3e 22e2 653e 84b9 663d
-0.20365232 0.14494383 0.019022278 0.2723819 -0.29773307 0.30074093 0.015515622 0.31666726
0.17104924 0.06917473 0.38593158 0.42863774 0.06600456 0.14973393 -0.10632516 0.44976568
-0.0810086 0.45029622 0.27207223 0.37892485 0.105759084 0.01957874 0.17085777 0.4958452
0.26808694 0.6050793 0.3324492 0.30920464 0.37870052 0.22722238 0.13882034 0.49882907
0.11120664 0.34205607 0.4469552 0.2897173 0.30471975 0.5000121 0.17458785 0.13801257
0.3313227 0.44514588 0.25829762 -0.05648165 0.28171256 0.39683473 0.16216904 0.14461836
-0.11007637 0.1652418 -0.037447285 0.021405334 0.09752981 0.1994084 -0.25316474 -0.18613145
0.18119425 -0.2089121 0.09964252 -0.06563663 -0.16184741 -0.13825148 -0.039765336 0.07804101
-0.3237345 0.045360245 0.077952236 0.0066552367 0.12467429 -0.17300262 0.018776178 0.06019908
0.15076576 0.22449544 0.056329265

gru2.bias_hh_l0 f4 [75]
00000000: 2c88 84be dcf9 da3e 5393 a7bc bafd 883e
00000010: b195 9ebe 78b1 90bc 0e2c 123e 73ed c13d
00000020: c2e1 8a3e ad58 573e 2678 313e bf7d 9c3e
00000030: 3a2a b3bd f920 8b3e 005e 03be 15aa 9b3e
00000040: b7a8 ba3d 3161 533e 130b bd3d adc1 c73e
00000050: c591 843e b6cf b93d 5685 f13e a74c e23e
00000060: 0013 d63e 4e7c e73e 59cf c43e 5708 cb3e
00000070: 029c 2e3e 480d 903e a57f 163e a9ec 9a3e
00000080: 72f2 093e 30e5 c63e 70a3 123f 870c 013f
00000090: 1ae3 d23e c268 033f 86ba 8a3d 92c7 823e
000000a0: 5cc8 183e 3c83 aa3d 911b 233e 6ebe 85bc
000000b0: 4d0b a83e de31 d23e 4d8b af3b 7285 f73e
000000c0: 3f62 bb3d 8c73 ca3e a2a5 643e 57c0 ff3d
000000d0: a268 68be 61a5 0c3e bce8 6cbe 5387 50be
000000e0: 8f75 c4bd a9d9 003e 7e64 013e d1a1 173e
000000f0: 4ced 54be 20ec 2a3e bd1f 123e 61e3 3a3d
00000100: 14b1 ff3d 319b 2dbe 49fd 183e ae45 703e
00000110: a7f5 f6bd fc7e 193e 23c2 f73d 1282 bd3d
00000120: 8ef9 24bd c71c bf3d f2af fc3c
-0.2588514 0.42768753 -0.020455992 0.26756078 -0.3097358 -0.017662749 0.14274618 0.09469118
0.27125365 0.21029921 0.17330989 0.30564687 -0.087482885 0.27173594 -0.12828827 0.304032
0.09114211 0.20642544 0.09230628 0.3901495 0.25892463 0.09072821 0.4717204 0.44199106
0.4181137 0.45212024 0.38439444 0.396548 0.170517 0.28135133 0.1469713 0.30258682
0.13471392 0.3884673 0.57280636 0.5040974 0.4118889 0.5133172 0.06773858 0.25542885
0.14920181 0.08325812 0.15928484 -0.016326156 0.32821122 0.4105367 0.005357182 0.48343998
0.09149598 0.3954128 0.22328809 0.12487858 -0.22696164 0.13734962 -0.23135656 -0.20364122
-0.09592735 0.12583031 0.12635991 0.14807822 -0.20793647 0.16691637 0.1426992 0.045627
0.12484947 -0.16953732 0.1494037 0.2346408 -0.12058573 0.14989847 0.120975755 0.092533246
-0.040277056 0.09331661 0.030845616

fc.weight f4 [6, 25]
00000000: e629 0bbf 61b0 d7be 4c02 bbbe 9a56 603d
00000010: e1ef 123d 7635 3f3f 8ab6 ed3e 5ff4 83be
00000020: f1e8 be3e d66d 933e a600 1b3d 566c 303e
00000030: 0e17 f2ba 655b 71bf de07 2dbd 7e90 403d
00000040: c102 27be ae99 b43e 1e15 4fbf 86ff c33e
00000050: bfa1 28be a4a5 01be bda3 15be cba4 163e
00000060: 795e a03e 694b 49bf fa07 153f 5b88 7a3e
00000070: 25f1 ec3e 7006 d13e f054 f0be 93cc 77bf
00000080: 9681 1e3f 9641 0cbf f8f5 61bf 2e20 1cbf
00000090: d718 993e 1b7e 9b3e 1764 123f e146 b9be
000000a0: a098 cdbe a3b8 d03e 4456 a1be caee 9a3e
000000b0: 78d3 f5be 1f15 343f 2c50 113f 5ee0 e03e
000000c0: 3210 573e 2adf ffbe 5ba3 463f 97c8 9b3e
000000d0: f483 e7be 35bb 623f 2507 11be ebcd 15bf
000000e0: a2e4 d83e 5018 67be ee27 5fbe 2aca 173f
000000f0: b793 bebe 9768 86bf 25e6 28bf 041b e33d
00000100: 0523 083f a425 34bf e432 a63e 26a8 56bf
00000110: 7516 fc3d 6108 dd3e cacf cd3e f17d a2be
00000120: 81bb 30be 59c9 4fbf f327 bdbc ce07 34be
00000130: edf6 c7be 16b1 1fbd 864d 333f 2863 8a3d
00000140: 4f25 84be 215a 6cbf c53f b0bc b366 ccbe
00000150: 5281 a2be ed24 0f3f 79e9 67bf d24e 3dbf
00000160: 8352 29bf ae16 953f d617 2b3e 3397 38be
00000170: 6c23 25bf f482 60bf 4675 ef3e 4516 e1bc
00000180: b9dd 9dbd 1d26 013f f976 3fbf da76 9c3e
00000190: 05fe 5dbe 5e4d a13e 3809 d2be 4bb2 c6be
000001a0: ff1a 0c3e 78c8 33bf edbf 26bd 63bf 81be
000001b0: ceb9 d3be e2ef f4bd 2e16 463f 2c53 d13e
000001c0: ee57 44be e7db d13e af9b 5bbe a213 f63c
000001d0: c0b1 e9bd 3d4f ad3e db8d 203f ce99 843e
000001e0: 45a2 a33e 3bdc 19bf 8517 57be 07f9 153e
000001f0: 3b17 ca3e 1d9a 7c3f 8b1e 9fbe 9c70 443f
00000200: ebb0 c1be 5050 f7bd 1a98 693e 7516 d63d
00000210: eb30 3f3f bd25 cc3e c3d7 583e 385c f4be
00000220: 9d0e 203e 64ec 0a3f 3a89 483f 712e ccbd
00000230: 8ab1 1a3e ec45 9cbe 0a86 453e bf16 003f
00000240: 834e 2dbf 14a8 85be 24ce f63e bc80 5bbe
00000250: a016 a43c 401c 5bbf
-0.54360807 -0.42126754 -0.3652519 0.05477009 0.035873298 0.7469095 0.4642833 -0.25772378
0.37287095 0.28794736 0.037842415 0.17228827 -0.0018470006 -0.9428008 -0.04224383 0.0470128
-0.16309644 0.35273498 -0.808916 0.38280886 -0.16467951 -0.12660843 -0.14613242 0.14711301
0.31322077 -0.7863069 0.58215296 0.24466078 0.4627773 0.40825224 -0.46939802 -0.9679653
0.6191648 -0.54787576 -0.88265944 -0.609866 0.29901764 0.30369648 0.57183975 -0.3618689
-0.40155506 0.40765867 -0.31511128 0.30260307 -0.480129 0.7034473 0.5676296 0.4392118
0.21002272 -0.49974948 0.7759301 0.30426475 -0.4521786 0.88566905 -0.14162882 -0.5851733
0.42361933 -0.22567868 -0.21792576 0.5929285 -0.37222072 -1.0500668 -0.6597617 0.11089137
0.53178436 -0.70369935 0.324607 -0.83850324 0.12308971 0.43170455 0.40197593 -0.3173671
-0.17259027 -0.8116661 -0.023090338 -0.17581102 -0.39055577 -0.03898724 0.70040166 0.06757194
-0.25809714 -0.92325026 -0.021514783 -0.39922103 -0.3173929 0.5591572 -0.90590626 -0.73948395
-0.6614153 1.1647546 0.16708311 -0.18026428 -0.64507174 -0.8769982 0.4676916 -0.02747644
-0.07708306 0.5044878 -0.7479091 0.30559427 -0.21678932 0.3150434 -0.41022658 -0.38807902
0.13682173 -0.70227766 -0.04071038 -0.2534133 -0.41352695 -0.119598165 0.77377594 0.40883768
-0.19174168 0.40988085 -0.21446107 0.030038659 -0.11410856 0.33849517 0.62716454 0.25898594
0.3195974 -0.6010167 -0.21005066 0.14645778 0.39470848 0.9867266 -0.3107799 0.7673433
-0.3783029 -0.12075865 0.22811928 0.10453502 0.7468402 0.39872542 0.21176057 -0.47726607
0.15630575 0.54266953 0.7833439 -0.099697955 0.15106788 -0.30522096 0.19289413 0.5003471
-0.67697924 -0.26104796 0.48204148 -0.21435827 0.02003032 -0.8558998

fc.bias f4 [6]
00000000: 7660 74be 30a4 9f3e f3ad c53d f5d6 45be
00000010: a677 443e 8e27 27be
-0.23864922 0.31179953 0.09652319 -0.19320281 0.19186267 -0.16323683
