code/mamba/models/mamba_base.pt (torch, 56994 bytes, 42 tensors)

encoders.0.A_log f4 [6, 16]
0.0 0.6931472 1.0986123 1.3862944 1.609438 1.7917595 1.9459102 2.0794415
2.1972246 2.3025851 2.3978953 2.4849067 2.5649493 2.6390574 2.7080503 2.7725887
0.0 0.6931472 1.0986123 1.3862944 1.609438 1.7917595 1.9459102 2.0794415
2.1972246 2.3025851 2.3978953 2.4849067 2.5649493 2.6390574 2.7080503 2.7725887
0.0 0.6931472 1.0986123 1.3862944 1.609438 1.7917595 1.9459102 2.0794415
2.1972246 2.3025851 2.3978953 2.4849067 2.5649493 2.6390574 2.7080503 2.7725887
0.0 0.6931472 1.0986123 1.3862944 1.609438 1.7917595 1.9459102 2.0794415
2.1972246 2.3025851 2.3978953 2.4849067 2.5649493 2.6390574 2.7080503 2.7725887
0.0 0.6931472 1.0986123 1.3862944 1.609438 1.7917595 1.9459102 2.0794415
2.1972246 2.3025851 2.3978953 2.4849067 2.5649493 2.6390574 2.7080503 2.7725887
0.0 0.6931472 1.0986123 1.3862944 1.609438 1.7917595 1.9459102 2.0794415
2.1972246 2.3025851 2.3978953 2.4849067 2.5649493 2.6390574 2.7080503 2.7725887
00000000: 0000 0000 1872 313f 549f 8c3f 1872 b13f
00000010: 1002 ce3f 6058 e53f 9613 f93f 9215 0540
00000020: 549f 0c40 8e5d 1340 1e77 1940 b608 1f40
00000030: 2128 2440 51e6 2840 b250 2d40 1872 3140
00000040: 0000 0000 1872 313f 549f 8c3f 1872 b13f
00000050: 1002 ce3f 6058 e53f 9613 f93f 9215 0540
00000060: 549f 0c40 8e5d 1340 1e77 1940 b608 1f40
00000070: 2128 2440 51e6 2840 b250 2d40 1872 3140
00000080: 0000 0000 1872 313f 549f 8c3f 1872 b13f
00000090: 1002 ce3f 6058 e53f 9613 f93f 9215 0540
000000a0: 549f 0c40 8e5d 1340 1e77 1940 b608 1f40
000000b0: 2128 2440 51e6 2840 b250 2d40 1872 3140
000000c0: 0000 0000 1872 313f 549f 8c3f 1872 b13f
000000d0: 1002 ce3f 6058 e53f 9613 f93f 9215 0540
000000e0: 549f 0c40 8e5d 1340 1e77 1940 b608 1f40
000000f0: 2128 2440 51e6 2840 b250 2d40 1872 3140
00000100: 0000 0000 1872 313f 549f 8c3f 1872 b13f
00000110: 1002 ce3f 6058 e53f 9613 f93f 9215 0540
00000120: 549f 0c40 8e5d 1340 1e77 1940 b608 1f40
00000130: 2128 2440 51e6 2840 b250 2d40 1872 3140
00000140: 0000 0000 1872 313f 549f 8c3f 1872 b13f
00000150: 1002 ce3f 6058 e53f 9613 f93f 9215 0540
00000160: 549f 0c40 8e5d 1340 1e77 1940 b608 1f40
00000170: 2128 2440 51e6 2840 b250 2d40 1872 3140

encoders.0.D f4 [6]
1.0 1.0 1.0 1.0 1.0 1.0
00000000: 0000 803f 0000 803f 0000 803f 0000 803f
00000010: 0000 803f 0000 803f

encoders.0.in_proj.weight f4 [12, 3]
0.11655491 -0.2909183 0.27683192 0.490021 -0.3109801 0.40478253 -0.03505538 -0.45236793
-0.29999527 0.14286993 0.57077134 -0.37172803 -0.40900725 0.2344961 -0.5048242 -0.5358442
-0.56749886 0.030337254 0.25067478 -0.41352406 0.5434647 -0.46784034 -0.016349569 -0.054422125
0.12825476 0.17943741 -0.5610713 -0.23189875 0.512074 0.32337102 0.2034966 -0.3221412
0.031029226 0.0006414538 -0.31837127 -0.031993747
00000000: 57b4 ee3d 3ef3 94be eabc 8d3e 08e4 fa3e
00000010: c938 9fbe a83f cf3e 3b96 0fbd c59c e7be
00000020: fb98 99be 7f4c 123e 121e 123f 2353 bebe
00000030: 6669 d1be bf1f 703e 293c 01bf 162d 09bf
00000040: 9b47 11bf d585 f83c 7258 803e 6db9 d3be
00000050: 8120 0b3f c588 efbe 88ef 85bc bce9 5ebd
00000060: 3755 033e 71be 373e 5ea2 0fbf de76 6dbe
00000070: 4817 033f e390 a53e 6a61 503e b1ef a4be
00000080: 0131 fe3c 3c27 283a 8f01 a3be e00b 03bd

encoders.0.conv1d.weight f4 [6, 1, 4]
-0.40513295 0.1988365 0.21780479 -0.24150646 -0.4706096 0.36906976 -0.4736305 -0.0312168
0.13671607 -0.0070101023 -0.087484956 -0.25051028 0.28255206 0.28961074 0.0893268 -0.16623783
0.17291099 0.16752851 0.19568938 0.030846417 -0.07480973 0.1949994 0.41105998 0.0027549863
00000000: 966d cfbe cc9b 4b3e 3808 5f3e 784d 77be
00000010: bef3 f0be b6f6 bc3e b27f f2be 60ba ffbc
00000020: 4cff 0b3e 00b5 e5bb 502b b3bd e242 80be
00000030: aaaa 903e dc47 943e f8f0 b63d 403a 2abe
00000040: 940f 313e 988c 2b3e cc62 483e a0b1 fc3c
00000050: d835 99bd ecad 473e 7476 d23e 008d 343b

encoders.0.conv1d.bias f4 [6]
-0.07546818 -0.35056037 -0.4185769 -0.26992851 0.14511275 0.13460076
00000000: 108f 9abd a67c b3be b64f d6be 1234 8abe
00000010: 7098 143e c8d4 093e

encoders.0.x_proj.weight f4 [33, 6]
-0.25228262 0.0725125 -0.35618213 -0.18842262 -0.27840948 -0.2207361 -0.22365455 -0.11774414
0.011470177 -0.2502408 0.14901945 -0.29581267 0.07939343 -0.28497106 0.23689042 0.098023884
-0.17754945 0.3215747 0.050248034 -0.19460635 -0.1972495 0.39444396 0.121901125 -0.12003484
-0.2892058 -0.021682847 0.32465068 -0.21449552 -0.2290032 -0.015064818 -0.13900787 -0.1260474
-0.24152629 0.19453034 0.1849277 -0.2833477 -0.13250898 -0.27097425 1.8347455e-05 0.17483105
-0.018842641 -0.36701748 0.17789167 -0.17124479 0.29423857 -0.031215543 -0.2538042 -0.18090668
-0.046938337 0.26113397 -0.3748771 0.28161144 0.026593104 0.030416286 0.19460334 0.38863668
0.3372261 -0.29291847 0.34888363 -0.15709457 0.13253005 0.20519064 -0.38824788 -0.28042495
-0.005738033 -0.3160745 0.1832612 0.20605366 -0.21971437 -0.21563764 0.22056065 -0.30160162
0.3108334 0.02789699 0.32180312 0.3908957 0.18890764 -0.38571715 -0.15067296 0.30590755
-0.055965044 0.35266885 -0.12287943 0.001090384 0.24655573 0.21112451 0.0755428 0.105420925
0.2001848 -0.16253762 0.36189553 0.38334793 0.34257302 -0.038167283 -0.1468466 0.08729919
0.06729715 0.124225706 0.33548424 0.08695083 -0.17139556 0.1858223 0.20333375 -0.07666365
-0.27371454 -0.3695234 -0.10623245 -0.018217027 0.24577798 0.11979356 -0.104389675 0.11594137
-0.31326884 0.123530105 -0.13420448 0.12544155 0.038966686 -0.06688952 0.27449536 -0.38687888
0.10986977 -0.010192425 0.2789911 0.1823153 -0.1306895 0.36735368 -0.09525128 0.2798755
-0.3861002 0.042072564 -0.03513377 0.14261603 0.08108451 0.38331845 -0.059974182 0.028963575
0.12909864 0.10828483 -0.23945338 -0.15313643 -0.23346329 -0.16580634 -0.35338664 0.3874951
0.024137318 0.35983405 0.15755841 0.27888623 0.2116801 0.20495641 0.19246744 -0.1733546
0.36713785 -0.0790603 0.11579118 0.27217862 -0.0917401 0.31293923 0.06319983 0.011369923
0.2004259 -0.20439367 0.14276803 0.28136426 -0.15798527 -0.17657864 0.087143406 -0.23870176
0.00999435 -0.04876822 -0.12774938 -0.39329848 -0.096406534 0.34017023 0.34115225 -0.09007053
0.1886572 0.019427473 0.3160447 -0.017834652 0.093288004 0.22809172 -0.26437655 -0.07628667
0.2174666 0.13766621 0.07227335 -0.3409808 0.34600192 0.11033659 0.08326231 0.2956546
-0.06811447 -0.36797753 -0.17644733 0.23047641 0.14928171 -0.18437855
00000000: 302b 81be 6f81 943d 815d b6be dcf1 40be
00000010: b08b 8ebe a508 62be b305 65be d723 f1bd
00000020: 69ed 3b3c 901f 80be 8e98 183e c274 97be
00000030: 0699 a23d bae7 91be 6793 723e bfc0 c83d
00000040: 86cf 35be 70a5 a43e e2d0 4d3d e346 47be
00000050: c6fb 49be 8ff4 c93e 4ca7 f93d d4d4 f5bd
00000060: c812 94be 3aa0 b1bc 9d38 a63e b7a4 5bbe
00000070: d17f 6abe 6dd2 76bc 1458 0ebe 9212 01be
00000080: ab52 77be f632 473e b05d 3d3e f312 91be
00000090: 6fb0 07be 23bd 8abe dce8 9937 e906 333e
000000a0: e25b 9abc b7e9 bbbe 3c29 363e cb5a 2fbe
000000b0: 70a6 963e bdb7 ffbc a0f2 81be 9a3f 39be
000000c0: 6a42 40bd 5ab3 853e e4ef bfbe 602f 903e
000000d0: c8d9 d93c 932b f93c 1946 473e 63fb c63e
000000e0: e6a8 ac3e 69f9 95be e0a0 b23e 66dd 20be
000000f0: f5b5 073e 7f1d 523e 6dc8 c6be dc93 8fbe
00000100: 1c06 bcbb 84d4 a1be d3a8 3b3e bbff 523e
00000110: cefc 60be 1dd0 5cbe a7da 613e 876b 9abe
00000120: 8e25 9f3e 3a88 e43c 61c3 a43e 7b23 c83e
00000130: 0171 413e b87c c5be 034a 1abe ea9f 9c3e
00000140: 9a3b 65bd 0391 b43e 36a8 fbbd 37eb 8e3a
00000150: 1b79 7c3e 0631 583e 2fb6 9a3d ede6 d73d
00000160: 3ffd 4c3e 4370 26be 5f4a b93e 2e46 c43e
00000170: bb65 af3e 4c55 1cbd f55e 16be ebc9 b23d
00000180: 17d3 893d 0c6a fe3d 97c4 ab3e 4713 b23d
00000190: 5182 2fbe 3348 3e3e b936 503e d501 9dbd
000001a0: 5024 8cbe 2c32 bdbe 6690 d9bd e03b 95bc
000001b0: 39ad 7b3e 5356 f53d 41ca d5bd ab72 ed3d
000001c0: c664 a0be 5afd fc3d e66c 09be c073 003e
000001d0: 889b 1f3d 5ffd 88bd a88a 8c3e fd14 c6be
000001e0: 6703 e13d 21fe 26bc ecd7 8e3e ddb0 3a3e
000001f0: 78d3 05be c815 bc3e 1a13 c3bd d74b 8f3e
00000200: edae c5be 4854 2c3d 6ee8 0fbd f009 123e
00000210: a30f a63d 5142 c43e 7da7 75bd 0545 ed3c
00000220: 6f32 043e 70c4 dd3d 4433 75be cccf 1cbe
00000230: 0011 6fbe 23c9 29be 18ef b4be c265 c63e
00000240: a0bb c53c 2b3c b83e fe56 213e 2dca 8e3e
00000250: abc2 583e 18e0 513e 2f16 453e de83 31be
00000260: 7ef9 bb3e 5eea a1bd ed23 ed3d ff5a 8b3e
00000270: 3ce2 bbbd 9239 a03e ea6e 813d ea48 3a3c
00000280: 723c 4d3e 934c 51be c831 123e fa0e 903e
00000290: e4c6 21be 08d1 34be 3e78 b23d 3c6e 74be
000002a0: 58bf 233c 2fc1 47bd bcd0 02be 6b5e c9be
000002b0: ca70 c5bd cb2a ae3e 82ab ae3e e676 b8bd
000002c0: 5a2f 413e 5d26 9f3c 9cd0 a13e fa19 92bc
000002d0: c80d bf3d e090 693e 5d5c 87be 303c 9cbd
000002e0: 90af 5e3e 5ff8 0c3e 0d04 943d 0995 aebe
000002f0: 2a27 b13e 26f8 e13d 6e85 aa3d 0a60 973e
00000300: 997f 8bbd 8d67 bcbe 9cae 34be 0202 6c3e
00000310: 4edd 183e bbcd 3cbe

encoders.0.dt_proj.weight f4 [6, 1]
-0.7289456 0.9144788 -0.935158 0.48965645 -0.91559637 -0.871685
00000000: 2e9c 3abf 481b 6a3f 8466 6fbf 40b4 fa3e
00000010: 8664 6abf c026 5fbf

encoders.0.dt_proj.bias f4 [6]
-5.7485085 -3.3596053 -6.092336 -4.5601187 -4.60795 -2.532363
00000000: c8f3 b7c0 c603 57c0 6bf4 c2c0 7eec 91c0
00000010: 5474 93c0 3c12 22c0

encoders.0.out_proj.weight f4 [3, 6]
0.29629806 -0.18921809 -0.22516975 -0.33693385 -0.30653375 -0.16780666 -0.3752296 0.34740713
-0.07263125 -0.020195974 0.14938751 0.27184504 0.15491949 0.13928722 0.34836188 0.19435285
-0.10630024 0.05438142
00000000: 61b4 973e 63c2 41be e692 66be 9882 acbe
00000010: fef1 9cbe 82d5 2bbe 181e c0be 59df b13e
00000020: b1bf 94bd 0772 a5bc 0af9 183e 462f 8b3e
00000030: 37a3 1e3e 4fa1 0e3e 7d5c b23e 6f04 473e
00000040: f1b3 d9bd 0dbf 5e3d

encoders.1.A_log f4 [6, 16]
0.0 0.6931472 1.0986123 1.3862944 1.609438 1.7917595 1.9459102 2.0794415
2.1972246 2.3025851 2.3978953 2.4849067 2.5649493 2.6390574 2.7080503 2.7725887
0.0 0.6931472 1.0986123 1.3862944 1.609438 1.7917595 1.9459102 2.0794415
2.1972246 2.3025851 2.3978953 2.4849067 2.5649493 2.6390574 2.7080503 2.7725887
0.0 0.6931472 1.0986123 1.3862944 1.609438 1.7917595 1.9459102 2.0794415
2.1972246 2.3025851 2.3978953 2.4849067 2.5649493 2.6390574 2.7080503 2.7725887
0.0 0.6931472 1.0986123 1.3862944 1.609438 1.7917595 1.9459102 2.0794415
2.1972246 2.3025851 2.3978953 2.4849067 2.5649493 2.6390574 2.7080503 2.7725887
0.0 0.6931472 1.0986123 1.3862944 1.609438 1.7917595 1.9459102 2.0794415
2.1972246 2.3025851 2.3978953 2.4849067 2.5649493 2.6390574 2.7080503 2.7725887
0.0 0.6931472 1.0986123 1.3862944 1.609438 1.7917595 1.9459102 2.0794415
2.1972246 2.3025851 2.3978953 2.4849067 2.5649493 2.6390574 2.7080503 2.7725887
00000000: 0000 0000 1872 313f 549f 8c3f 1872 b13f
00000010: 1002 ce3f 6058 e53f 9613 f93f 9215 0540
00000020: 549f 0c40 8e5d 1340 1e77 1940 b608 1f40
00000030: 2128 2440 51e6 2840 b250 2d40 1872 3140
00000040: 0000 0000 1872 313f 549f 8c3f 1872 b13f
00000050: 1002 ce3f 6058 e53f 9613 f93f 9215 0540
00000060: 549f 0c40 8e5d 1340 1e77 1940 b608 1f40
00000070: 2128 2440 51e6 2840 b250 2d40 1872 3140
00000080: 0000 0000 1872 313f 549f 8c3f 1872 b13f
00000090: 1002 ce3f 6058 e53f 9613 f93f 9215 0540
000000a0: 549f 0c40 8e5d 1340 1e77 1940 b608 1f40
000000b0: 2128 2440 51e6 2840 b250 2d40 1872 3140
000000c0: 0000 0000 1872 313f 549f 8c3f 1872 b13f
000000d0: 1002 ce3f 6058 e53f 9613 f93f 9215 0540
000000e0: 549f 0c40 8e5d 1340 1e77 1940 b608 1f40
000000f0: 2128 2440 51e6 2840 b250 2d40 1872 3140
00000100: 0000 0000 1872 313f 549f 8c3f 1872 b13f
00000110: 1002 ce3f 6058 e53f 9613 f93f 9215 0540
00000120: 549f 0c40 8e5d 1340 1e77 1940 b608 1f40
00000130: 2128 2440 51e6 2840 b250 2d40 1872 3140
00000140: 0000 0000 1872 313f 549f 8c3f 1872 b13f
00000150: 1002 ce3f 6058 e53f 9613 f93f 9215 0540
00000160: 549f 0c40 8e5d 1340 1e77 1940 b608 1f40
00000170: 2128 2440 51e6 2840 b250 2d40 1872 3140

encoders.1.D f4 [6]
1.0 1.0 1.0 1.0 1.0 1.0
00000000: 0000 803f 0000 803f 0000 803f 0000 803f
00000010: 0000 803f 0000 803f

encoders.1.in_proj.weight f4 [12, 3]
-0.18911579 0.0022128779 -0.14171642 -0.20076884 -0.048455983 0.51339185 -0.52653384 -0.21865343
0.5187027 0.10757146 0.020719646 0.27582225 0.06214469 0.4862298 0.35884845 -0.5653132
-0.22725531 -0.2865158 -0.4374659 0.43783852 0.02960681 0.53788143 0.5543971 0.2849701
0.13653646 -0.18944842 -0.03905607 0.31664342 -0.04973256 0.35098004 0.3066295 0.057494357
0.34368226 0.45844552 -0.2858053 0.41371718
00000000: 92a7 41be ee05 113b 1c1e 11be 5996 4dbe
00000010: c879 46bd a66d 033f ecca 06bf afe6 5fbe
00000020: b3c9 043f 6d4e dc3d 3fbc a93c 9338 8d3e
00000030: 6e8b 7e3d 1df3 f83e fcba b73e 5eb8 10bf
00000040: 9eb5 68be 33b2 92be 88fb dfbe 5f2c e03e
00000050: fb89 f23c 99b2 093f f8ec 0d3f 9ae7 913e
00000060: 37d0 0b3e c4fe 41be 42f9 1fbd 161f a23e
00000070: 5eb4 4bbd a8b3 b33e 8bfe 9c3e 347f 6b3d
00000080: 1ff7 af3e 5fb9 ea3e 1355 92be bdd2 d33e

encoders.1.conv1d.weight f4 [6, 1, 4]
0.13922691 0.06369537 -0.12476736 -0.37432593 -0.0705989 0.38474375 -0.059953272 0.22573996
0.3495562 0.448735 -0.37883514 -0.41080302 -0.4435255 -0.02990061 0.034238517 -0.37667787
-0.04597807 0.49707055 -0.1295588 0.19381082 -0.1735043 0.06510937 -0.29103905 0.12670636
00000000: 8091 0e3e b872 823d 0886 ffbd a6a7 bfbe
00000010: 2896 90bd 22fd c43e 9091 75bd 6028 673e
00000020: 08f9 b23e 98c0 e53e aef6 c1be c654 d2be
00000030: c615 e3be 20f2 f4bc b03d 0c3d ecdb c0be
00000040: 8053 3cbd 0880 fe3e 10ab 04be 5876 463e
00000050: 1cab 31be 1058 853d 1203 95be 50bf 013e

encoders.1.conv1d.bias f4 [6]
0.072520375 -0.20900387 0.06737918 0.12585163 -0.023503482 0.06252909
00000000: 9085 943d 1c05 56be 18fe 893d 40df 003e
00000010: 608a c0bc 400f 803d

encoders.1.x_proj.weight f4 [33, 6]
-0.053507894 0.19053335 -0.329097 -0.070271924 0.3000669 0.15631185 0.14756294 -0.3535083
0.026103368 0.12923124 0.12790546 0.03143065 0.29018384 0.40243465 0.08648455 0.08506479
0.3919527 -0.045524318 0.029228227 0.0045429175 -0.0639073 0.4028619 0.3090112 0.26606682
-0.09676122 -0.32439497 0.16066526 -0.006631315 0.34054366 -0.3987213 0.11321587 0.08214545
-0.113901734 0.16425236 0.16111854 0.21727212 -0.09008518 -0.17855145 0.32332465 0.015026323
-0.23027824 0.16963099 0.01730204 0.31650665 -0.23688316 0.3584715 -0.00038203588 0.04576498
0.03982736 -0.08492925 -0.14019227 0.22784264 -0.17591652 0.21522038 -0.4074248 -0.15055868
0.16457468 0.38096273 0.028835045 -0.015476541 -0.31278655 0.14444324 -0.2201536 -0.20903222
-0.015095186 -0.08518612 -0.13337052 0.0067482623 0.29742336 -0.1404706 -0.39126801 0.3504828
0.21019556 0.38343865 0.30640382 -0.10364039 0.27928072 -0.28673822 -0.19408903 0.21927448
-0.2726165 0.0523796 0.33989558 -0.059550975 -0.28353733 -0.055110842 0.3491803 0.39182684
-0.20556942 -0.39766532 -0.38779557 -0.0032189807 0.064471155 0.20814283 -0.35884392 -0.38797548
-0.10426791 -0.3511377 0.14588179 -0.16546296 -0.29575557 -0.18728508 0.22634171 -0.008249152
-0.013521442 -0.30908504 0.032780286 0.062436927 -0.18581456 -0.15256883 -0.08443913 0.35786498
-0.37770495 0.12805107 -0.30423298 0.004638305 0.2040618 0.087859586 -0.042110085 0.26889953
0.17372972 0.27701947 0.2662688 0.14302751 0.27777964 0.06797854 -0.3975821 0.29804993
-0.38351122 -0.13051985 0.27014658 0.11340635 -0.28859365 -0.27468657 -0.25757232 0.08440326
-0.020233935 -0.20794189 0.09750315 -0.20283628 0.20637801 0.30132023 -0.26728705 -0.021496162
-0.32915306 0.11687426 -0.23822959 -0.2913719 -0.11801589 -0.020036444 0.039737474 0.3184472
0.105387636 -0.3532617 0.40086704 -0.01814208 0.06916349 0.40425858 -0.06873915 0.0673227
0.32537308 -0.39492548 -0.20192148 -0.06961034 -0.30603662 0.04594378 0.3701678 -0.08313714
-0.28356698 0.27623487 0.006951398 0.27904558 -0.28697938 -0.19156364 0.058337852 0.06508753
0.3274567 -0.23275553 0.06169996 0.37442893 -0.11344105 -0.37932658 0.21006669 0.30737808
-0.18927683 -0.164793 -0.15382482 0.089072324 -0.36062765 0.16120449 -0.05480103 -0.17197658
-0.14659218 -0.3639558 -0.277952 0.023917295 -0.35693398 -0.21443518
00000000: 182b 5bbd 2d1b 433e 677f a8be baea 8fbd
00000010: 5ea2 993e 3710 203e bd1a 173e 0aff b4be
00000020: bbd6 d53c 3255 043e a6f9 023e 6dbd 003d
00000030: fa92 943e ea0b ce3e d01e b13d 7336 ae3d
00000040: 06ae c83e b577 3abd 0970 ef3c c1dc 943b
00000050: d5e1 82bd ea43 ce3e b736 9e3e e939 883e
00000060: bf2a c6bd 1917 a6be 6f85 243e 814b d9bb
00000070: bd5b ae3e 3325 ccbe b9dd e73d e03b a83d
00000080: 5045 e9bd c531 283e 42fc 243e 957c 5e3e
00000090: 947e b8bd 31d6 36be cf8a a53e f730 763c
000000a0: 0fce 6bbe bfb3 2d3e 02bd 8d3c 290d a23e
000000b0: 8091 72be 9489 b73e fd4b c8b9 0f74 3b3d
000000c0: 0422 233d 63ef adbd 908e 0fbe 954f 693e
000000d0: 7623 34be bb62 5c3e fc99 d0be 0e2c 1abe
000000e0: 4486 283e 8c0d c33e 7937 ec3c 5191 7dbc
000000f0: 8f25 a0be eee8 133e f26f 61be 8b0c 56be
00000100: cd51 77bc 0f76 aebd 4892 08be 8720 dd3b
00000110: e047 983e 86d7 0fbe 4854 c8be 7b72 b33e
00000120: 813d 573e 1252 c43e f6e0 9c3e 6a41 d4bd
00000130: e2fd 8e3e 5acf 92be 46bf 46be 7d89 603e
00000140: 6494 8bbe fe8b 563d cb06 ae3e b9eb 73bd
00000150: ce2b 91be e8bb 61bd c3c7 b23e 879d c83e
00000160: ca80 52be ca9a cbbe 248d c6be 89f5 52bb
00000170: 7409 843d 6523 553e 64ba b7be b9a4 c6be
00000180: 6a8a d5bd 52c8 b3be 0962 153e 1f6f 29be
00000190: 466d 97be a9c7 3fbe 1fc6 673e 7427 07bc
000001a0: 0a89 5dbc 6540 9ebe 9f44 063d ddbd 7f3d
000001b0: 2c46 3ebe 013b 1cbe 6cee acbd 143a b73e
000001c0: 8b62 c1be d21f 033e 6dc4 9bbe ecfc 973b
000001d0: 94f5 503e baef b33d a07b 2cbd 33ad 893e
000001e0: 34e6 313e 7fd5 8d3e 6254 883e ce75 123e
000001f0: 2239 8e3e 5538 8b3d e28f cbbe 009a 983e
00000200: 955b c4be ffa6 05be a750 8a3e 9741 e83d
00000210: 8cc2 93be b8a3 8cbe 85e0 83be 9edb ac3d
00000220: a3c1 a5bc b8ee 54be bbaf c73d 50b4 4fbe
00000230: c254 533e a546 9a3e d9d9 88be b818 b0bc
00000240: c086 a8be c65b ef3d 75f2 73be b32e 95be
00000250: 51b2 f1bd 7823 a4bc c3c3 223d 830b a33e
00000260: 79d5 d73d b8de b4be 723e cd3e b39e 94bc
00000270: 96a5 8d3d fbfa ce3e 1dc7 8cbd 7ce0 893d
00000280: 4d97 a63e ac33 cabe 81c4 4ebe de8f 8ebd
00000290: d5b0 9cbe 8c2f 3c3d a286 bd3e ce43 aabd
000002a0: b12f 91be a86e 8d3e 8ec8 e33b 10df 8e3e
000002b0: f6ee 92be 4229 44be acf3 6e3d 9c4c 853d
000002c0: 68a8 a73e 7757 6ebe 19b9 7c3d 26b5 bf3e
000002d0: c853 e8bd 1837 c2be b91b 573e a960 9d3e
000002e0: c9d1 41be 7fbf 28be 4184 1dbe 8d6b b63d
000002f0: 30a4 b8be ca12 253e 0b77 60bd a11a 30be
00000300: 431c 16be 6a58 babe b94f 8ebe 34ee c33c
00000310: 0dc0 b6be e594 5bbe

encoders.1.dt_proj.weight f4 [6, 1]
-0.60673285 0.5134336 -0.7312927 -0.70630455 -0.80149007 -0.56382525
00000000: d852 1bbf 6270 033f 0036 3bbf 60d0 34bf
00000010: 742e 4dbf da56 10bf

encoders.1.dt_proj.bias f4 [6]
-6.651937 -2.6170895 -5.925851 -3.0013125 -4.5525246 -5.4503703
00000000: abdc d4c0 657e 27c0 92a0 bdc0 8115 40c0
00000010: 48ae 91c0 6f69 aec0

encoders.1.out_proj.weight f4 [3, 6]
0.25584605 -0.23520829 -0.19640961 -0.12174126 -0.07530506 0.018117163 -0.017735906 0.24785864
0.29526526 -0.2046741 -0.056009818 -0.21189408 -0.1842469 -0.29506272 -0.11665628 -0.15901521
-0.15368257 0.03472424
00000000: 41fe 823e 71da 70be 9a1f 49be 7b53 f9bd
00000010: 8a39 9abd 726a 943c e44a 91bc a8ce 7d3e
00000020: 022d 973e 1696 51be 8d6a 65bd c3fa 58be
00000030: 38ab 3cbe 7612 97be 7de9 eebd e2d4 22be
00000040: f75e 1dbe 013b 0e3d

encoders.2.A_log f4 [6, 16]
0.0 0.6931472 1.0986123 1.3862944 1.609438 1.7917595 1.9459102 2.0794415
2.1972246 2.3025851 2.3978953 2.4849067 2.5649493 2.6390574 2.7080503 2.7725887
0.0 0.6931472 1.0986123 1.3862944 1.609438 1.7917595 1.9459102 2.0794415
2.1972246 2.3025851 2.3978953 2.4849067 2.5649493 2.6390574 2.7080503 2.7725887
0.0 0.6931472 1.0986123 1.3862944 1.609438 1.7917595 1.9459102 2.0794415
2.1972246 2.3025851 2.3978953 2.4849067 2.5649493 2.6390574 2.7080503 2.7725887
0.0 0.6931472 1.0986123 1.3862944 1.609438 1.7917595 1.9459102 2.0794415
2.1972246 2.3025851 2.3978953 2.4849067 2.5649493 2.6390574 2.7080503 2.7725887
0.0 0.6931472 1.0986123 1.3862944 1.609438 1.7917595 1.9459102 2.0794415
2.1972246 2.3025851 2.3978953 2.4849067 2.5649493 2.6390574 2.7080503 2.7725887
0.0 0.6931472 1.0986123 1.3862944 1.609438 1.7917595 1.9459102 2.0794415
2.1972246 2.3025851 2.3978953 2.4849067 2.5649493 2.6390574 2.7080503 2.7725887
00000000: 0000 0000 1872 313f 549f 8c3f 1872 b13f
00000010: 1002 ce3f 6058 e53f 9613 f93f 9215 0540
00000020: 549f 0c40 8e5d 1340 1e77 1940 b608 1f40
00000030: 2128 2440 51e6 2840 b250 2d40 1872 3140
00000040: 0000 0000 1872 313f 549f 8c3f 1872 b13f
00000050: 1002 ce3f 6058 e53f 9613 f93f 9215 0540
00000060: 549f 0c40 8e5d 1340 1e77 1940 b608 1f40
00000070: 2128 2440 51e6 2840 b250 2d40 1872 3140
00000080: 0000 0000 1872 313f 549f 8c3f 1872 b13f
00000090: 1002 ce3f 6058 e53f 9613 f93f 9215 0540
000000a0: 549f 0c40 8e5d 1340 1e77 1940 b608 1f40
000000b0: 2128 2440 51e6 2840 b250 2d40 1872 3140
000000c0: 0000 0000 1872 313f 549f 8c3f 1872 b13f
000000d0: 1002 ce3f 6058 e53f 9613 f93f 9215 0540
000000e0: 549f 0c40 8e5d 1340 1e77 1940 b608 1f40
000000f0: 2128 2440 51e6 2840 b250 2d40 1872 3140
00000100: 0000 0000 1872 313f 549f 8c3f 1872 b13f
00000110: 1002 ce3f 6058 e53f 9613 f93f 9215 0540
00000120: 549f 0c40 8e5d 1340 1e77 1940 b608 1f40
00000130: 2128 2440 51e6 2840 b250 2d40 1872 3140
00000140: 0000 0000 1872 313f 549f 8c3f 1872 b13f
00000150: 1002 ce3f 6058 e53f 9613 f93f 9215 0540
00000160: 549f 0c40 8e5d 1340 1e77 1940 b608 1f40
00000170: 2128 2440 51e6 2840 b250 2d40 1872 3140

encoders.2.D f4 [6]
1.0 1.0 1.0 1.0 1.0 1.0
00000000: 0000 803f 0000 803f 0000 803f 0000 803f
00000010: 0000 803f 0000 803f

encoders.2.in_proj.weight f4 [12, 3]
0.36206597 0.3262253 -0.39332157 0.19198863 0.14022814 0.49285048 -0.1858421 -0.07059929
0.044603337 -0.11454245 -0.33308232 0.5527506 0.50074476 -0.5525534 -0.46447924 0.2621102
-0.07332471 0.13942783 0.049924307 -0.34872738 -0.52947706 0.14497991 0.4651299 0.16762145
-0.26045722 0.075864986 -0.42008588 -0.5197482 0.567352 0.14352584 -0.22872776 0.17035079
-0.43094125 0.120578445 -0.17395367 0.2003976
00000000: b660 b93e 0107 a73e 7261 c9be ab98 443e
00000010: f797 0f3e e656 fc3e 644d 3ebe 5c96 90bd
00000020: fdb1 363d 3b95 eabd c489 aabe 1081 0d3f
00000030: cf30 003f 2474 0dbf 39d0 edbe 4f33 863e
00000040: 442b 96bd 2bc6 0e3e 6e7d 4c3d 658c b2be
00000050: cf8b 07bf 9d75 143e 8225 ee3e f5a4 2b3e
00000060: a65a 85be 1a5f 9b3d 7f15 d7be 380e 05bf
00000070: fb3d 113f 70f8 123e 9c37 6abe 7070 2e3e
00000080: 55a4 dcbe d5f1 f63d e920 32be 0735 4d3e

encoders.2.conv1d.weight f4 [6, 1, 4]
-0.10880709 0.4506346 0.2332772 0.005188048 0.3850218 0.27492112 0.39928454 0.022512853
-0.4040683 0.034126222 0.41438442 0.39780408 0.20641088 0.2245459 0.49471748 -0.18400425
0.24440223 0.17227775 -0.15599579 -0.15464818 0.37919068 0.05959326 0.4700861 0.37039793
00000000: 40d6 debd 94b9 e63e 38e0 6e3e 8000 aa3b
00000010: 9421 c53e 76c2 8c3e 066f cc3e e06c b83c
00000020: 0ae2 cebe f0c7 0b3d 322a d43e faac cb3e
00000030: 605d 533e 5cef 653e 9c4b fd3e 9c6b 3cbe
00000040: 9444 7a3e 9469 303e 5cbd 1fbe 185c 1ebe
00000050: 4825 c23e 1018 743d 20af f03e cca4 bd3e

encoders.2.conv1d.bias f4 [6]
-0.4691801 -0.073310316 0.4549852 -0.11388749 -0.070863545 -0.2295481
00000000: 6038 f0be b823 96bd d2f3 e83e d83d e9bd
00000010: e820 91bd a80e 6bbe

encoders.2.x_proj.weight f4 [33, 6]
0.05661256 0.343812 0.095556565 -0.21760997 -0.26789582 -0.23696823 -0.062122684 0.23832469
0.29403675 -0.018149868 0.08834124 0.010863056 -0.2950093 0.39031506 0.37413847 -0.29202375
-0.1942651 0.19158709 -0.07996955 0.14498928 0.27891636 -0.053250935 -0.29652044 0.2927042
0.3611534 -0.3102676 0.200249 -0.19296725 -0.2918028 0.0034844105 -0.39839888 0.20246339
0.1709393 -0.008727402 0.12692298 -0.18962197 -0.15527427 -0.12023647 0.07213981 0.31557712
-0.15494825 -0.37481028 0.2235925 -0.13155116 -0.34237942 -0.22641836 0.2699616 0.4021309
-0.30389154 0.34426883 -0.18098202 -0.3737471 0.09517176 0.31286782 -0.3778058 -0.09294076
-0.3924335 -0.035942715 0.044161253 -0.26481077 -0.16017635 -0.3059902 -0.39971358 -0.09962128
-0.15067728 0.17510222 -0.24559753 0.10356087 0.3814521 0.15893447 0.37222403 -0.059164897
0.40304187 -0.36591443 -0.37939852 0.1338074 0.39762518 -0.28701508 -0.017970432 -0.058430173
-0.33369446 0.37666994 0.16494042 0.13282132 -0.27849942 -0.072663225 -0.026879897 0.107260875
-0.3728965 -0.29926682 0.030506855 -0.11130715 -0.110050954 0.3201944 0.093786694 -0.37139192
-0.40379497 -0.0018747984 -0.16639988 0.3376438 0.036965888 -0.2435632 0.1864174 0.3738746
-0.21274006 -0.15683186 0.011743053 -0.38167953 -0.3135564 0.32458034 0.119820274 -0.22709648
-0.1983426 -0.35849842 -0.06231112 0.09895449 0.26478326 0.32147 0.22659443 0.40475324
-0.3033369 -0.14340167 -0.04578717 0.15009606 -0.32443455 -0.38352007 0.1709885 -0.2772885
-0.07799119 0.30762482 -0.014577224 -0.3050469 -0.32289517 0.3920638 -0.37230414 -0.24889185
0.34788522 0.25875834 -0.39365336 -0.052753653 0.067127496 0.24637552 -0.24761 -0.15624405
0.40526158 0.29229984 -0.3408765 -0.3025992 -0.14301628 0.14557363 0.28959885 0.2967229
-0.34549868 0.008771106 -0.13834614 0.006943125 -0.16457595 -0.32370114 -0.28642973 -0.09840431
0.36386293 -0.028079588 -0.04451803 0.07428092 -0.28185263 0.0177726 0.23872867 0.0965974
-0.11474352 -0.35965383 -0.029360795 0.018879872 -0.16807364 0.060644228 0.33688 0.2133426
0.39670417 0.068954796 -0.1046769 -0.36190376 -0.4016629 -0.112756744 -0.08229486 -0.15227361
-0.32492337 -0.2526352 -0.28909394 -0.29715422 -0.14729619 -0.17132191 0.33093706 -0.15139985
-0.07509297 0.39188597 0.32421657 0.36838114 -0.12191563 -0.012302383
00000000: 92e2 673d 2008 b03e 29b3 c33d 26d5 5ebe
00000010: a429 89be cda7 72be 5b74 7ebd 630b 743e
00000020: fc8b 963e 08af 94bc 41ec b43d f6fa 313c
00000030: 750b 97be 60d7 c73e 148f bf3e 2384 95be
00000040: 6eed 46be 682f 443e 13c7 a3bd 1278 143e
00000050: 20ce 8e3e a71d 5abd 87d1 97be 53dd 953e
00000060: 19e9 b83e 65db 9ebe 130e 4d3e 3599 45be
00000070: 2d67 95be b55a 643b f0fa cbbe 9052 4f3e
00000080: b60a 2f3e 61fd 0ebc 19f8 013e 432c 42be
00000090: 3800 1fbe 8a3e f6bd 09be 933d 5393 a13e
000000a0: c1aa 1ebe 22e7 bfbe 6ff5 643e 59b5 06be
000000b0: 5b4c afbe 37da 67be 6838 8a3e 1ae4 cd3e
000000c0: ac97 9bbe 0144 b03e 5a53 39be c85b bfbe
000000d0: 69e9 c23d 3630 a03e c36f c1be ba57 bebd
000000e0: 0bed c8be ab38 13bd 6ee2 343d 4795 87be
000000f0: 4505 24be bfaa 9cbe 42a7 ccbe 3e06 ccbd
00000100: 254b 1abe ff4d 333e eb7d 7bbe b917 d43d
00000110: b14d c33e b8bf 223e 2694 be3e e456 72bd
00000120: 815b ce3e 2359 bbbe 8640 c2be cf04 093e
00000130: 8795 cb3e a4f3 92be ba36 93bc 7a54 6fbd
00000140: 00da aabe e2da c03e 24e6 283e 5002 083e
00000150: 7a97 8ebe 75d0 94bd 3b33 dcbc 97ab db3d
00000160: 4aec bebe 8039 99be 83e9 f93c 01f5 e3bd
00000170: 6562 e1bd 85f0 a33e 3d13 c03d 1527 bebe
00000180: 37be cebe ccbb f5ba bb64 2abe a6df ac3e
00000190: 8b69 173d a268 79be 34e4 3e3e 7e6c bf3e
000001a0: 88d8 59be 8898 20be ef65 403c 806b c3be
000001b0: 778a a0be 652f a63e 5564 f53d fb8b 68be
000001c0: 531a 4bbe 1b8d b7be f239 7fbd a7a8 ca3d
000001d0: ac91 873e b797 a43e 5f08 683e d13b cf3e
000001e0: f94e 9bbe e3d7 12be 548b 3bbd c8b2 193e
000001f0: 491c a6be be5c c4be 9c17 2f3e c2f8 8dbe
00000200: d8b9 9fbd 0081 9d3e 4fd5 6ebc 1b2f 9cbe
00000210: 8452 a5be 96bc c83e a69e bebe 81dd 7ebe
00000220: 031e b23e f97b 843e ef8c c9be 3714 58bd
00000230: 247a 893d dd49 7c3e 7a8d 7dbe 71fe 1fbe
00000240: 727e cf3e 53a8 953e 5d87 aebe 48ee 9abe
00000250: dc72 12be 4111 153e 4d46 943e 10ec 973e
00000260: 34e5 b0be afb4 0f3c 9caa 0dbe 2783 e33b
00000270: 9986 28be 28bc a5be eba6 92be 3388 c9bd
00000280: 3e4c ba3e 2a07 e6bc 8a58 36bd 9820 983d
00000290: fd4e 90be d897 913c 4a75 743e dcd4 c53d
000002a0: a7fe eabd 8c24 b8be 0d86 f0bc f6a9 9a3c
000002b0: 7f1b 2cbe 1566 783d 897b ac3e 7c76 5a3e
000002c0: cf1c cb3e 2c38 8d3d d860 d6bd 734b b9be
000002d0: c2a6 cdbe 02ed e6bd 358a a8bd 9ded 1bbe
000002e0: 5b5c a6be 6759 81be 1f04 94be 9924 98be
000002f0: d0d4 16be 036f 2fbe 9570 a93e 9008 1bbe
00000300: 58ca 99bd 47a5 c83e b7ff a53e 749c bc3e
00000310: e7ae f9bd ef8f 49bc

encoders.2.dt_proj.weight f4 [6, 1]
0.20712578 0.1849798 0.24749959 -0.08245003 0.9610667 0.3300389
00000000: c818 543e 586b 3d3e 8870 7d3e 90db a8bd
00000010: 7808 763f dcfa a83e

encoders.2.dt_proj.bias f4 [6]
-4.6608796 -2.3115945 -3.4046462 -4.592631 -3.7331693 -6.500759
00000000: ed25 95c0 2af1 13c0 b9e5 59c0 d5f6 92c0
00000010: 3fec 6ec0 3806 d0c0

encoders.2.out_proj.weight f4 [3, 6]
0.14115743 -0.16943817 0.32352346 0.04950815 0.32624853 -0.1211338 -0.17670886 -0.018855149
0.2944603 -0.2031571 -0.3199499 -0.15037999 -0.23658884 0.3491511 0.36695465 -0.27644014
-0.06396181 -0.31870076
00000000: 938b 103e 3381 2dbe dea4 a53e 0fc9 4a3d
00000010: 0c0a a73e ff14 f8bd 2bf3 34be 1d76 9abc
00000020: 80c3 963e 6a08 50be 79d0 a3be 36fd 19be
00000030: 5844 72be efc3 b23e 7be1 bb3e 9089 8dbe
00000040: 69fe 82bd bf2c a3be

encoders.3.A_log f4 [6, 16]
-6.2864575 8.260651 -1.6738632 -6.711505 3.954336 -6.7523756 3.2980413 5.35531
3.3736482 8.326947 8.888599 -1.5843009 9.914894 -10.14015 1.6804447 -0.60688263
5.3498793 -13.884991 4.625524 3.736124 4.113074 3.7462287 2.5760636 1.7063835
4.066903 6.7996926 8.9833555 6.7927647 7.663161 3.8654294 8.923981 4.1683884
-16.11811 -5.0728235 0.7627969 0.6379731 1.8592371 2.483829 6.3510666 1.5256494
3.1289837 9.497101 5.3647795 2.9008183 2.2635636 2.5989835 9.630066 3.12095
-13.000085 -3.838573 3.918979 4.419908 5.165331 8.503451 2.9216883 2.1308007
1.5515577 3.0042078 5.4719615 4.021169 8.094928 -3.1625319 7.4264417 5.955249
-5.850862 0.89106715 5.6636996 8.775278 2.1981952 4.3081284 1.5541608 3.3962595
2.918555 -0.094225496 7.469896 1.4423817 2.3309524 5.563255 3.6396167 3.1858337
4.1864734 11.565616 1.2415258 1.4811885 2.2101023 0.40486705 -0.15585327 1.0947309
5.123296 0.4230275 2.342101 2.688564 2.235848 8.067174 0.90778935 3.8414063
00000000: a92a c9c0 a02b 0441 2641 d6bf a6c4 d6c0
00000010: d713 7d40 7613 d8c0 1c13 5340 b35e ab40
00000020: dae9 5740 2d3b 0541 b437 0e41 5fca cabf
00000030: 68a3 1e41 0e3e 22c1 d018 d73f a95c 1bbf
00000040: 3632 ab40 ec28 5ec1 4b04 9440 a81c 6f40
00000050: 4d9e 8340 36c2 6f40 3ade 2440 c66a da3f
00000060: 1224 8240 1597 d940 d3bb 0f41 545e d940
00000070: 9d38 f540 3263 7740 a0c8 0e41 7063 8540
00000080: e4f1 80c1 9254 a2c0 a846 433f 3552 233f
00000090: 7bfb ed3f 0ef7 1e40 f03b cb40 7b48 c33f
000000a0: 4541 4840 20f4 1741 46ac ab40 02a7 3940
000000b0: 3ade 1040 bf55 2640 c014 1a41 a5bd 4740
000000c0: 5900 50c1 2eab 75c0 8dd0 7a40 e36f 8d40
000000d0: 644a a540 230e 0841 f1fc 3a40 0a5f 0840
000000e0: 7199 c63f f144 4040 4f1a af40 6bad 8040
000000f0: d384 0141 ec66 4ac0 69a5 ed40 6691 be40
00000100: 433a bbc0 fa1c 643f 073d b540 8a67 0c41
00000110: 3baf 0c40 30dc 8940 beee c63f 515c 5940
00000120: 9bc9 3a40 4cf9 c0bd 6309 ef40 f79f b83f
00000130: 532e 1540 2f06 b240 7bef 6840 b3e4 4b40
00000140: 97f7 8540 c30c 3941 51ea 9e3f 9697 bd3f
00000150: 5172 0d40 bc4a cf3e 0098 1fbe 2420 8c3f
00000160: 0af2 a340 0f97 d83e fce4 1540 6f11 2c40
00000170: 2218 0f40 2513 0141 e264 683f 9ad9 7540

encoders.3.D f4 [6]
0.7978455 0.041394953 -0.72328264 0.13497747 -0.044432987 -0.070419155
00000000: 9a3f 4c3f c18d 293d 0d29 39bf 8937 0a3e
00000010: 5dff 35bd eb37 90bd

encoders.3.in_proj.weight f4 [12, 3]
0.059998512 -0.23368996 -0.091197014 -0.21757583 -0.07701934 -0.5189181 0.2072968 0.26605046
-0.123333186 -0.43397537 -0.11341525 -0.22762075 0.1500282 -0.23367068 -0.16996805 0.08421835
0.32129943 -0.07107272 -0.053337142 -0.4131749 -0.036991302 -0.71496767 0.39243513 -0.9607893
-0.056435652 -0.15102302 -0.007919226 0.13099732 0.534055 0.40045765 -0.00379572 0.32908714
-0.46296212 0.025142023 -0.12403122 0.10501817
00000000: 00c1 753d 6c4c 6fbe 80c5 babd 33cc 5ebe
00000010: 51bc 9dbd d1d7 04bf 9d45 543e c437 883e
00000020: 1c96 fcbd 0532 debe 4146 e8bd 6a15 69be
00000030: fea0 193e 5e47 6fbe 1b0c 2ebe ac7a ac3d
00000040: 5c81 a43e 938e 91bd 0c78 5abd a98b d3be
00000050: 3184 17bd 1f08 37bf 42ed c83e 4af6 75bf
00000060: 1229 67bd c7a5 1abe a4bf 01bc 2924 063e
00000070: d4b7 083f c908 cd3e 9dc1 78bb 1c7e a83e
00000080: 5f09 edbe a5f6 cd3c 1504 febd c413 d73d

encoders.3.conv1d.weight f4 [6, 1, 4]
-0.111905016 -0.29335007 -0.3434276 0.2649598 0.0026847457 -0.18902014 -0.10918101 -0.33771878
0.40049943 0.097004876 0.0703577 0.104643755 0.32234037 0.10206216 0.79694414 -0.99233633
0.25968513 0.26232103 0.35500693 -0.4680271 0.96198076 0.3191797 -0.46634308 -0.74196655
00000000: 752e e5bd fb31 96be bed5 afbe d0a8 873e
00000010: 8ff2 2f3b 7f8e 41be 4b9a dfbd 7ae9 acbe
00000020: 430e cd3e 7eaa c63d b317 903d 774f d63d
00000030: cc09 a53e f705 d13d 8804 4c3f c109 7ebf
00000040: 73f5 843e f14e 863e 78c3 b53e 40a1 efbe
00000050: 5f44 763f 866b a33e 85c4 eebe 85f1 3dbf

encoders.3.conv1d.bias f4 [6]
1.0837622 0.7161957 0.4808208 0.17391267 0.882444 0.6965308
00000000: b8b8 8a3f 9a58 373f 252e f63e 2a16 323e
00000010: dae7 613f d84f 323f

encoders.3.x_proj.weight f4 [33, 6]
0.27227196 0.27429816 -0.14761336 -0.29975432 -0.9802959 -0.57118326 -0.41716954 0.80792356
-0.4430277 -0.17244226 -0.08486521 -0.46281767 -1.0084116 0.5076443 0.7339101 0.29188126
0.14501484 -0.1309285 -0.8158166 2.0002809 -1.2342087 0.66686195 -0.5304886 -0.3310347
0.44066167 -0.16050838 -0.047180984 1.0034741 2.0949483 -0.8050205 1.0048223 1.3184042
0.45420733 -0.45210716 -1.1890137 -1.4836513 1.2186444 -1.6138153 0.9466825 0.9709799
0.5427888 -0.84818226 0.74612325 0.5373983 -0.6933646 -0.15337683 1.4423202 0.01413142
0.5820809 1.0774609 0.3235791 -0.35207826 -0.7768866 -0.18909505 -1.0385833 1.1327131
-0.91693455 -0.04494342 -1.3393509 0.08063049 0.8798196 0.43503332 -0.9649747 0.07424195
1.425442 0.5729003 0.026881296 1.5233105 -1.9730847 2.1184053 -1.1761593 -1.6117047
0.9168551 -1.3152481 -0.033778306 0.4023428 0.451047 2.4321842 -0.7288782 0.05901603
0.819194 0.43697396 -2.1607282 -1.7927426 1.3886204 0.22623132 -1.4546615 -0.16757992
-0.13520595 0.3329945 0.97316706 -0.2362534 -1.1770042 0.25125423 -2.4736593 0.4252749
1.4253577 -0.029327087 0.052038256 -0.7932302 -2.4663792 -0.46617758 0.12594385 -0.30596083
-0.056686025 0.36490119 -2.2315712 0.73776877 -0.23540603 -0.47163555 1.0583314 0.14458895
-1.5806935 -0.85601664 -0.24555378 0.63391656 -0.94536823 -0.111402795 3.6310349 -0.02266995
0.6149227 0.29242575 -0.6959537 0.8461138 -1.0629545 0.9714939 -0.064337924 0.34891054
-1.2555848 0.90000135 0.29278508 1.65564 -1.5316128 0.66197467 1.357989 -0.20499383
0.099224694 -0.7880096 -0.80484194 -0.2637993 0.66109836 0.72046 0.2119163 -1.0133631
-0.5724812 1.4700869 -0.4986018 -1.0802828 -0.74347943 -0.14174624 -0.67065 0.40397292
-1.026673 0.8799675 -0.74650586 -0.10040289 -0.44564584 0.48050824 -0.23075567 -0.21038228
3.2444592 0.35387385 0.19595915 -2.3928714 1.3760136 0.72488654 -1.48241 -0.43822813
-0.3892717 -1.2779576 -0.592414 0.80865204 1.8539134 1.2572037 -1.2621284 0.60869795
0.5940272 -0.8995598 2.7836955 -0.100002654 -0.024513982 -0.92045677 1.5668836 0.2688659
-1.334262 -0.21986656 -0.54508376 1.7258006 1.1783361 -0.51240265 -1.807262 -0.053851645
1.0614716 -1.5969448 0.16344778 1.2794013 0.56984454 -1.5631801
00000000: 3b67 8b3e cf70 8c3e f527 17be 6679 99be
00000010: acf4 7abf 1139 12bf 3f97 d5be 14d4 4e3f
00000020: 87d4 e2be b494 30be d0cd adbd 70f6 ecbe
00000030: a213 81bf faf4 013f 88e1 3b3f 7671 953e
00000040: c57e 143e 1f12 06be 5bd9 50bf 9a04 0040
00000050: 8dfa 9dbf 77b7 2a3f 1ace 07bf 617d a9be
00000060: 689e e13e 4f5c 24be d940 41bd d771 803f
00000070: a213 0640 d315 4ebf 049e 803f 78c1 a83f
00000080: dd8d e83e 977a e7be 9a31 98bf 49e8 bdbf
00000090: 8afc 9b3f 8091 cebf c959 723f 2492 783f
000000a0: 35f4 0a3f 7922 59bf ef01 3f3f ef92 093f
000000b0: 5880 31bf d10e 1dbe f39d b83f 7987 673c
000000c0: 4103 153f 3dea 893f 29ac a53e 9a43 b4be
000000d0: 0ae2 46bf 22a2 41be 4cf0 84bf befc 903f
000000e0: 39bc 6abf 9716 38bd da6f abbf 9921 a53d
000000f0: db3b 613f b0bc de3e 9508 77bf 2a0c 983d
00000100: e274 b63f 98a9 123f 2a36 dc3c d7fb c23f
00000110: 0a8e fcbf f493 0740 638c 96bf 574c cebf
00000120: 04b7 6a3f 0d5a a8bf 1f5b 0abd e0ff cd3e
00000130: a2ef e63e e8a8 1b40 c397 3abf cbba 713d
00000140: b3b6 513f 0dbb df3e 5f49 0ac0 9778 e5bf
00000150: 50be b13f 2fa9 673e 5932 babf 129a 2bbe
00000160: 6e73 0abe 417e aa3e 7a21 793f 69ec 71be
00000170: 13a8 96bf 65a4 803e 6f50 1ec0 a2bd d93e
00000180: 1f72 b63f 5c3f f0bc 1126 553d 2211 4bbf
00000190: 28d9 1dc0 d4ae eebe 6df7 003e e6a6 9cbe
000001a0: 9b2f 68bd 54d4 ba3e 10d2 0ec0 6ade 3c3f
000001b0: 470e 71be 377a f1be 6777 873f 200f 143e
000001c0: 2a54 cabf e823 5bbf 7372 7bbe 5b48 223f
000001d0: a703 72bf 2627 e4bd e062 6840 55b6 b9bc
000001e0: 936b 1d3f d4b8 953e 062a 32bf ea9a 583f
000001f0: e50e 88bf d3b3 783f 9ac3 83bd 67a4 b23e
00000200: 01b7 a0bf 7d66 663f ede7 953e 03ec d33f
00000210: e30b c4bf 2c77 293f 95d2 ad3f e7e9 51be
00000220: 5136 cb3d ffba 49bf 1f0a 4ebf b410 87be
00000230: be3d 293f 1170 383f 9600 593e e2b5 81bf
00000240: 218e 12bf cf2b bc3f bc48 ffbe b546 8abf
00000250: ab54 3ebf ed25 11be b8af 2bbf 8ad5 ce3e
00000260: 056a 83bf 8d45 613f 021b 3fbf 08a0 cdbd
00000270: b12b e4be 2d05 f63e 374b 6cbe 746e 57be
00000280: 38a5 4f40 f42e b53e 84a9 483e ce24 19c0
00000290: 3721 b03f 2a92 393f 9cbf bdbf 705f e0be
000002a0: 9f4e c7be 1d94 a3bf 72a8 17bf d203 4f3f
000002b0: 094d ed3f 0dec a03f 6c8d a1bf a1d3 1b3f
000002c0: 2b12 183f 8d49 66bf 1128 3240 31ce ccbd
000002d0: 8cd1 c8bc 0ea3 6bbf a48f c83f cba8 893e
000002e0: 19c9 aabf b324 61be 9c8a 0bbf 09e7 dc3f
000002f0: b8d3 963f d22c 03bf 5c54 e7bf 8b93 5cbd
00000300: 4dde 873f b068 ccbf db5e 273e 6cc3 a33f
00000310: 55e1 113f 4916 c8bf

encoders.3.dt_proj.weight f4 [6, 1]
-0.041590877 -0.25362986 0.9358397 0.119772166 0.29936552 0.6004999
00000000: 325b 2abd c6db 81be 3193 6f3f 1c4b f53d
00000010: 7046 993e 5dba 193f

encoders.3.dt_proj.bias f4 [6]
-5.483997 -5.1042438 -2.5231552 -4.9025936 -3.2481472 -2.3802915
00000000: e77c afc0 f755 a3c0 607b 21c0 0ce2 9cc0
00000010: a5e1 4fc0 b256 18c0

encoders.3.out_proj.weight f4 [3, 6]
0.62452173 0.18630987 0.118368424 -0.19886406 0.093229175 0.93694574 -1.009398 0.1516554
0.61458665 -0.10768381 -0.31543502 -0.36965904 -0.7894395 0.10045369 -0.52290565 -0.43292585
0.07548443 -0.7504298
00000000: a8e0 1f3f 04c8 3e3e 256b f23d 05a3 4bbe
00000010: f0ee be3d addb 6f3f f433 81bf 8e4b 1b3e
00000020: 8d55 1d3f 5489 dcbd b380 a1be f343 bdbe
00000030: b518 4abf aaba cd3d 25dd 05bf 75a8 ddbe
00000040: 9597 9a3d 2b1c 40bf

mlp.0.weight f4 [128, 3]
-1.3656031 -0.56550276 0.5472673 -0.9648474 1.0346397 -0.10875977 0.526223 -0.25096354
-0.17734782 -0.33055186 1.1665313 1.7856987 -0.7154434 1.3424828 -0.09767464 1.1026354
-0.020997418 1.2015697 -0.09335015 1.2269962 0.80982906 -1.3563238 -0.15850283 0.9984143
0.06822542 -0.7094327 0.13466415 0.8100735 1.3756225 0.9083346 0.13678789 0.29060197
-0.6935921 -0.45684427 -0.33138612 -0.25624657 0.9076215 -0.7685337 1.1341822 -0.10058931
1.1317445 -0.5324375 0.9381898 1.2620349 1.391397 1.866319 0.8992562 1.0735371
-0.003058108 1.2336568 -0.58825314 2.683331 0.73661 2.379883 -0.2588553 -0.5405204
-0.44618347 1.3000691 -0.12849581 0.8001843 0.36236063 0.17328519 1.37394 -0.33536562
1.441343 0.63076794 1.2572936 0.32167247 0.992926 0.53311217 -0.12914294 -0.14329857
-0.01643835 -0.969519 0.14696328 -0.33187628 -0.1694236 -0.59724593 -0.6034907 1.7441242
0.090654485 1.466547 0.2508434 1.1602923 0.4400054 1.2202235 0.60025716 -0.47499153
0.27813298 -0.37767327 -0.993946 1.4987897 0.09407674 -1.207002 -0.58636457 1.0916523
-0.88733137 0.9909975 -0.16578263 -0.9385252 -0.79060173 0.86727655 -0.24593556 -0.55622643
0.7044006 -0.6323481 1.5738097 0.25877333 -0.41995165 -0.6802054 -0.61346656 0.27312875
-0.7508273 0.33807075 0.048542935 0.055812843 0.06239972 1.7423792 0.23119417 1.4970143
0.7757913 -0.50217354 0.8425166 -0.33545002 -0.96208304 0.20102221 -1.329455 -0.8392848
0.5122946 -1.0717343 0.8593116 0.0609799 -0.44224492 1.2458707 -0.32885128 1.3658859
1.4849713 0.6986335 0.8841243 1.2010021 0.18235599 -1.0406303 1.1641257 -0.14720449
0.90771085 0.7817013 -0.6191122 1.7048329 0.17833686 2.0083137 -0.46096623 1.6231141
0.12010076 0.16857168 0.07959054 3.5007539 -1.4494126 -0.8219746 0.6591148 -0.5789714
1.5975039 -0.18673383 -1.2350596 -0.020162037 1.028735 -0.060702868 0.13429631 -1.0906414
-0.9987442 1.1717149 -0.10161133 -0.48597425 2.3049107 -0.44752973 -0.21954422 1.2347525
0.73810434 -0.3030394 -0.14769042 2.2395892 -0.3413867 -1.3240244 0.29332733 -0.8620882
1.5419819 -0.13671048 -1.2889882 -0.21536769 0.6299857 0.0072413394 -0.6774451 0.16644044
-0.8789222 0.51308984 -0.23354249 -0.3147508 -0.9465288 0.20167938 0.5053389 -0.3714232
0.9295801 0.71902645 0.6340054 -0.23857479 -0.20810884 -0.36092925 -0.8842531 0.27791744
0.79015017 0.45301765 -0.99392617 1.0082656 0.08870443 0.7428418 -0.34829813 0.7985233
-1.2330457 2.5764687 -0.36947668 0.4047253 0.75358206 -0.038493726 -0.4114207 1.3301541
-0.27589273 0.685059 1.6469386 0.4189375 0.7497632 -0.1586419 0.6788332 0.7613484
1.0416088 -0.26133835 -0.2870465 -0.494219 1.1646526 -0.40581292 -0.82112074 0.2754471
-0.7442892 -1.1598747 0.51454663 1.1721776 -0.14307836 1.3684239 -0.13210298 0.9847255
-0.41165474 -0.25036612 0.9512649 -0.056873217 -0.00611192 0.7982178 0.84954643 1.9073037
00000000: 15cc aebf cac4 10bf b619 0c3f 3d00 77bf
00000010: 136f 843f 71bd debd 8db6 063f 4b7e 80be
00000020: ab9a 35be 183e a9be e650 953f c691 e43f
00000030: 4c27 37bf 7ad6 ab3f a409 c8bd 2823 8d3f
00000040: c702 acbc 09cd 993f 5d2e bfbd 360e 9d3f
00000050: f550 4f3f 059c adbf 914e 22be 1498 7f3f
00000060: c5b9 8b3d 629d 35bf 66e5 093e fa60 4f3f
00000070: 6614 b03f 9e88 683f 2012 0c3e c8c9 943e
00000080: 408f 31bf 7ee7 e9be 71ab a9be c032 83be
00000090: e259 683f a0be 44bf e22c 913f c501 cebd
000000a0: 01dd 903f d34d 08bf 352d 703f 5c8a a13f
000000b0: 4c19 b23f 8ae3 ee3f a835 663f aa69 893f
000000c0: 8a6a 48bb 77e8 9d3f c297 16bf b2bb 2b40
000000d0: 7992 3c3f 0150 1840 af88 84be 8c5f 0abf
000000e0: 2972 e4be aa68 a63f 6894 03be e1d8 4c3f
000000f0: 5587 b93e ac71 313e 44dd af3f 0bb5 abbe
00000100: ed7d b83f 027a 213f ffee a03f 41b2 a43e
00000110: 6630 7e3f 0a7a 083f 0c3e 04be dcbc 12be
00000120: b8a9 86bc 6632 78bf 8b7d 163e b0eb a9be
00000130: 617d 2dbe 1ce5 18bf 5e7e 1abf 763f df3f
00000140: 0fa9 b93d d0b7 bb3f 8c6e 803e 7584 943f
00000150: 6348 e13e 4930 9c3f 74aa 193f 1732 f3be
00000160: 7267 8e3e 645e c1be 3f73 7ebf 57d8 bf3f
00000170: 4eab c03d 0b7f 9abf fd1b 16bf 43bb 8b3f
00000180: 2628 63bf 03b2 7d3f ecc2 29be 3043 70bf
00000190: e064 4abf d605 5e3f 88d6 7bbe db64 0ebf
000001a0: 9953 343f 91e1 21bf 9972 c93f f07d 843e
000001b0: e703 d7be f121 2ebf 250c 1dbf 88d7 8b3e
000001c0: 3836 40bf 9c17 ad3e f5d4 463d 029c 643d
000001d0: d996 7f3d 4806 df3f 2abe 6c3e 2a9e bf3f
000001e0: 429a 463f 728e 00bf 2baf 573f 1bc0 abbe
000001f0: 134b 76bf c4d8 4d3e 952b aabf 5edb 56bf
00000200: bd25 033f 972e 89bf d8fb 5b3f 0fc6 793d
00000210: ed6d e2be b178 9f3f 325f a8be 59d5 ae3f
00000220: 8a13 be3f a5d9 323f f855 623f 70ba 993f
00000230: 87bb 3a3e 6033 85bf 1202 953f c6bc 16be
00000240: bd5f 683f 941d 483f 237e 1ebf f737 da3f
00000250: f09d 363e 3688 0040 c403 ecbe 34c2 cf3f
00000260: 63f7 f53d 0e9e 2c3e 5d00 a33d 5a0c 6040
00000270: 5a86 b9bf ed6c 52bf bfbb 283f 7837 14bf
00000280: 027b cc3f 2737 3fbe 6f16 9ebf db2a a5bc
00000290: 97ad 833f 92a3 78bd f984 093e 239a 8bbf
000002a0: b3ad 7fbf c1fa 953f 9a19 d0bd 9ed1 f8be
000002b0: a883 1340 9e22 e5be 33d0 60be 5f0c 9e3f
000002c0: 68f4 3c3f fb27 9bbe 283c 17be 6e55 0f40
000002d0: 3dca aebe a279 a9bf 002f 963e d0b1 5cbf
000002e0: aa5f c53f d5fd 0bbe 91fd a4bf 5989 5cbe
000002f0: be46 213f c248 ed3b 0b6d 2dbf 5d6f 2a3e
00000300: 0c01 61bf db59 033f c325 6fbe 0427 a1be
00000310: b64f 72bf 0a85 4e3e e45d 013f 2f2b bebe
00000320: f6f8 6d3f 1e12 383f 2e4e 223f f34c 74be
00000330: 7c1a 55be b8cb b8be 695e 62bf 324b 8e3e
00000340: 4847 4a3f eef1 e73e f271 7ebf d90e 813f
00000350: abaa b53d e12a 3e3f 2254 b2be 066c 4c3f
00000360: 71d4 9dbf dde4 2440 0c2c bdbe 2838 cf3e
00000370: c1ea 403f 99ab 1dbd bca5 d2be 7d42 aa3f
00000380: d041 8dbe 0760 2f3f e2ce d23f fa7e d63e
00000390: 7bf0 3f3f 0673 22be 03c8 2d3f bbe7 423f
000003a0: 7053 853f 24ce 85be c2f7 92be 460a fdbe
000003b0: 5613 953f b6c6 cfbe f834 52bf 6707 8d3e
000003c0: bd89 3ebf c676 94bf 54b9 033f ea09 963f
000003d0: 2283 12be 8428 af3f 0146 07be f816 7c3f
000003e0: 69c4 d2be fd2f 80be 1986 733f e4f3 68bd
000003f0: 8046 c8bb 0058 4c3f e07b 593f 8722 f43f

mlp.0.bias f4 [128]
-0.40887243 -0.5087702 -0.053768866 -0.7226397 -0.58514607 -0.5591183 -0.24593514 -0.20472798
0.0644752 -0.08138342 -0.4779711 -0.33516508 -0.60972077 -0.5414246 0.07283938 0.022356385
-1.4994581 0.28370315 -0.7197197 0.41884023 0.366884 -0.120406784 -0.04416599 0.02508962
-0.24322653 -1.6016647 -0.4596384 -0.045626093 -0.3406042 -0.7556733 -0.69547224 -0.040348254
-0.47922075 0.24276239 0.1392088 -0.5398665 -1.7876652 -1.1431601 -0.2600822 -0.0578559
-0.12882479 -0.5788313 -0.9511566 -0.19020785 -0.48049983 -0.06020291 -0.53626275 -0.54747903
-0.6170026 0.3777371 -0.44041914 -0.124903314 -0.2561306 -0.5479274 -0.4990899 -3.0345564
-0.5854335 -1.5810212 -0.022313263 0.22456774 -0.21433417 -0.53526604 -0.09431498 0.015704423
-0.27330592 -0.36412507 0.1349559 -0.14688843 -4.0341744 -0.61585367 -0.17255682 0.53956276
-2.3989577 -0.27291718 -0.52143884 -0.23219958 -0.11872233 -0.54157615 0.18263194 -0.99255466
0.18378161 0.38413987 -0.30096456 -0.80118 -0.08230339 -0.14944369 -0.14981508 0.108789854
0.047836855 -0.65617824 -0.49746382 -0.35695437 -3.2072868 -1.4283602 -0.38175052 -1.192261
-0.73861575 -0.44804668 0.17858602 -3.8623266 -0.43934923 -0.49078527 0.19482285 0.24934055
0.08603566 -0.2920166 -1.9765456 0.21938187 0.4659896 -0.13124454 -0.5531605 -0.75389755
0.033519547 -0.35808256 -0.2134599 -0.05223027 -0.014450565 -0.27301553 -0.113041125 -1.7050291
-0.29554796 0.15345173 -3.0776684 0.1396646 -0.07539252 -0.58802545 -0.09562199 0.053670794
00000000: ba57 d1be c43e 02bf be3c 5cbd eafe 38bf
00000010: 22cc 15bf 6022 0fbf 6cd6 7bbe 36a4 51be
00000020: 930b 843d 5aac a6bd a1b8 f4be c29a abbe
00000030: a916 1cbf cd9a 0abf d02c 953d bd24 b73c
00000040: 3eee bfbf 8a41 913e 8d3f 38bf 3a72 d63e
00000050: 38d8 bb3e d597 f6bd 66e7 34bd bf88 cd3c
00000060: 6010 79be 5903 cdbf b955 ebbe 6de2 3abd
00000070: ac63 aebe ce73 41bf 780a 32bf 3644 25bd
00000080: 6c5c f5be b496 783e c08c 0e3e b134 0abf
00000090: 37d2 e4bf 1253 92bf 7e29 85be 4ffa 6cbd
000000a0: a5ea 03be 4a2e 14bf 007f 73bf d9c5 42be
000000b0: 1304 f6be 5497 76bd 8448 09bf 9627 0cbf
000000c0: e2f3 1dbf c266 c13e 9e7e e1be 4fcd ffbd
000000d0: 8d23 83be f844 0cbf b688 ffbe 2c36 42c0
000000e0: f8de 15bf e75e cabf 4eca b6bc 16f5 653e
000000f0: 6b7a 5bbe 3207 09bf 3628 c1bd 90a6 803c
00000100: c1ee 8bbe 9a6e babe e131 0a3e ec69 16be
00000110: f517 81c0 96a8 1dbf bcb2 30be c920 0a3f
00000120: 8688 19c0 cdbb 8bbe 047d 05bf bac5 6dbe
00000130: b124 f3bd bca4 0abf de03 3b3e 1018 7ebf
00000140: 3f31 3c3e fbad c43e 0718 9abe 221a 4dbf
00000150: ae8e a8bd c407 19be 2069 19be 37cd de3d
00000160: 94f0 433d 4cfb 27bf 94b3 febe b9c2 b6be
00000170: 3044 4dc0 82d4 b6bf ce74 c3be 029c 98bf
00000180: ec15 3dbf 6066 e5be 41df 363e 5c30 77c0
00000190: 62f2 e0be 3548 fbbe a47f 473e 2153 7f3e
000001a0: 7733 b03d 3383 95be 72ff fcbf a4a5 603e
000001b0: 3096 ee3e f864 06be ed9b 0dbf 6eff 40bf
000001c0: cb4b 093d 9956 b7be 3b95 5abe 68ef 55bd
000001d0: 10c2 6cbc b1c8 8bbe 1b82 e7bd 653e dabf
000001e0: 1052 97be 7322 1d3e 85f8 44c0 3d04 0f3e
000001f0: 6567 9abd d688 16bf 76d5 c3bd e8d5 5b3d
