code/conjugate_gradient/mamba/models/mamba_cg_base.pt (torch, 57132 bytes, 42 tensors)

encoders.0.A_log f4 [6, 16]
0.0 0.6931472 1.0986123 1.3862944 1.609438 1.7917595 1.9459102 2.0794415
2.1972246 2.3025851 2.3978953 2.4849067 2.5649493 2.6390574 2.7080503 2.7725887
0.0 0.6931472 1.0986123 1.3862944 1.609438 1.7917595 1.9459102 2.0794415
2.1972246 2.3025851 2.3978953 2.4849067 2.5649493 2.6390574 2.7080503 2.7725887
0.0 0.6931472 1.0986123 1.3862944 1.609438 1.7917595 1.9459102 2.0794415
2.1972246 2.3025851 2.3978953 2.4849067 2.5649493 2.6390574 2.7080503 2.7725887
0.0 0.6931472 1.0986123 1.3862944 1.609438 1.7917595 1.9459102 2.0794415
2.1972246 2.3025851 2.3978953 2.4849067 2.5649493 2.6390574 2.7080503 2.7725887
0.0 0.6931472 1.0986123 1.3862944 1.609438 1.7917595 1.9459102 2.0794415
2.1972246 2.3025851 2.3978953 2.4849067 2.5649493 2.6390574 2.7080503 2.7725887
0.0 0.6931472 1.0986123 1.3862944 1.609438 1.7917595 1.9459102 2.0794415
2.1972246 2.3025851 2.3978953 2.4849067 2.5649493 2.6390574 2.7080503 2.7725887
00000000: 0000 0000 1872 313f 549f 8c3f 1872 b13f
00000010: 1002 ce3f 6058 e53f 9613 f93f 9215 0540
00000020: 549f 0c40 8e5d 1340 1e77 1940 b608 1f40
00000030: 2128 2440 51e6 2840 b250 2d40 1872 3140
00000040: 0000 0000 1872 313f 549f 8c3f 1872 b13f
00000050: 1002 ce3f 6058 e53f 9613 f93f 9215 0540
00000060: 549f 0c40 8e5d 1340 1e77 1940 b608 1f40
00000070: 2128 2440 51e6 2840 b250 2d40 1872 3140
00000080: 0000 0000 1872 313f 549f 8c3f 1872 b13f
00000090: 1002 ce3f 6058 e53f 9613 f93f 9215 0540
000000a0: 549f 0c40 8e5d 1340 1e77 1940 b608 1f40
000000b0: 2128 2440 51e6 2840 b250 2d40 1872 3140
000000c0: 0000 0000 1872 313f 549f 8c3f 1872 b13f
000000d0: 1002 ce3f 6058 e53f 9613 f93f 9215 0540
000000e0: 549f 0c40 8e5d 1340 1e77 1940 b608 1f40
000000f0: 2128 2440 51e6 2840 b250 2d40 1872 3140
00000100: 0000 0000 1872 313f 549f 8c3f 1872 b13f
00000110: 1002 ce3f 6058 e53f 9613 f93f 9215 0540
00000120: 549f 0c40 8e5d 1340 1e77 1940 b608 1f40
00000130: 2128 2440 51e6 2840 b250 2d40 1872 3140
00000140: 0000 0000 1872 313f 549f 8c3f 1872 b13f
00000150: 1002 ce3f 6058 e53f 9613 f93f 9215 0540
00000160: 549f 0c40 8e5d 1340 1e77 1940 b608 1f40
00000170: 2128 2440 51e6 2840 b250 2d40 1872 3140

encoders.0.D f4 [6]
1.0 1.0 1.0 1.0 1.0 1.0
00000000: 0000 803f 0000 803f 0000 803f 0000 803f
00000010: 0000 803f 0000 803f

encoders.0.in_proj.weight f4 [12, 3]
0.27282545 0.44584763 -0.32520896 0.3786832 -0.46491718 -0.40014437 0.09735528 0.22428556
0.05372547 0.056415036 -0.4853203 -0.29204628 0.46429437 0.24660602 0.30589822 -0.17507312
-0.0895731 -0.288127 0.02478166 0.52497464 0.3668585 -0.45872825 -0.4580534 0.3490472
-0.47480753 -0.33195674 -0.029642805 0.5648068 -0.2656212 0.31248194 -0.509157 0.54497087
-0.53553915 0.52436 -0.42593724 -0.30827546
00000000: c7af 8b3e 2446 e43e ca81 a6be c4e2 c13e
00000010: a009 eebe b9df ccbe 3462 c73d 1dab 653e
00000020: 3d0f 5c3d 7413 673d e77b f8be 1787 95be
00000030: feb7 ed3e 4a86 7c3e b19e 9c3e 5e46 33be
00000040: 1a72 b7bd 6285 93be e802 cb3c bd64 063f
00000050: e1d4 bb3e 6ede eabe fa85 eabe 51b6 b23e
00000060: f919 f3be 3cf6 a9be 78d5 f2bc 2e97 103f
00000070: 80ff 87be a2fd 9f3e 1d58 02bf 3683 0b3f
00000080: 1819 09bf 753c 063f 7214 dabe 48d6 9dbe

encoders.0.conv1d.weight f4 [6, 1, 4]
0.40413588 -0.095124066 -0.45141745 0.3424014 0.055836797 0.11307484 -0.49917918 -0.13503647
0.37236714 -0.055152893 0.41883492 -0.24565667 0.29475486 0.099123895 -0.2745942 -0.37954283
0.29286855 0.19616842 -0.39447176 0.45841545 0.3718716 -0.05874467 0.36050034 -0.46563125
00000000: e6ea ce3e 68d0 c2bd 3020 e7be 3c4f af3e
00000010: 20b5 643d c893 e73d 6a94 ffbe 0047 0abe
00000020: e8a6 be3e 00e8 61bd 8871 d63e 6c8d 7bbe
00000030: 1cea 963e 7801 cb3d 9c97 8cbe 7053 c2be
00000040: def2 953e 60e0 483e 34f8 c9be 6eb5 ea3e
00000050: f465 be3e 409e 70bd 8093 b83e 3867 eebe

encoders.0.conv1d.bias f4 [6]
0.052726448 -0.21539068 0.13293028 -0.0674032 -0.49417335 -0.4554519
00000000: b0f7 573d 608f 5cbe e01e 083e b00a 8abd
00000010: 4a04 fdbe fe30 e9be

encoders.0.x_proj.weight f4 [33, 6]
0.25854382 -0.08602221 -0.1246438 -0.23365772 -0.18789312 0.055324584 -0.25351074 -0.37962142
0.19460785 -0.17291562 -0.27070785 0.3962569 -0.3422165 0.1806598 0.07743181 -0.3131459
-0.08871788 0.25186288 -0.3851008 -0.29246706 0.13072197 -0.39383343 0.28308824 -0.16938551
0.20990048 -0.2628317 0.2936248 0.063225865 -0.4077703 -0.15722659 0.3701854 0.36014572
0.20056567 -0.31270927 -0.030253591 -0.22580588 0.12615103 0.3873287 0.1331287 0.16671701
-0.040860366 0.06219169 0.28430715 0.2558728 0.3620945 -0.36553767 -0.045272566 0.09623299
-0.2499575 0.08815466 -0.26716694 -0.39102787 0.32183024 0.4080411 0.013394032 0.08194012
0.15679507 -0.13460024 -0.16378297 -0.06897631 -0.14344181 0.26990035 0.16374764 -0.35555068
-0.10721956 -0.35848153 0.26380673 -0.2790529 0.07777399 -0.3352036 0.11869572 0.38392663
0.36376157 -0.31201205 -0.2516209 0.29798025 0.33090535 0.30429628 0.25218675 0.087132014
0.3746721 -0.030296078 -0.14199807 0.23653428 0.03742404 -0.25314003 0.39505756 0.02756839
0.025122825 0.12067696 0.11810408 -0.38778603 0.07394774 0.40053156 0.3752624 0.046524327
0.36962023 -0.24517812 -0.013840892 0.38711885 -0.19412863 0.3622914 0.17981105 0.13881354
0.28750175 -0.24437389 0.005694184 -0.048354793 -0.22096074 -0.34106547 -0.0777316 0.3495896
-0.052451238 0.02993677 -0.2158746 0.3875007 0.08100796 0.11229801 -0.12531 0.23880775
-0.2843443 -0.30032697 -0.34522587 0.23282318 0.046472352 -0.3542315 -0.18653454 -0.24466385
-0.23225781 -0.2957039 -0.037481222 0.40612584 0.16693586 0.109915905 0.021987893 -0.08023439
-0.28647918 -0.22556065 0.39149746 -0.029130504 0.3254165 -0.2999389 -0.15856382 0.3880558
-0.29863033 0.051164433 0.2997452 -0.16717729 -0.19313213 -0.08837278 -0.30341503 -0.060668223
0.041820955 0.06784987 -0.3468506 0.27508676 0.14573695 -0.27709988 0.059741262 -0.3375185
-0.16093555 -0.17657553 0.10065205 -0.100015774 0.13594832 -0.025449576 -0.37211648 -0.13714708
0.27398542 0.026241096 0.13796571 -0.30143973 -0.02838366 0.37135187 0.15325752 0.08217932
-0.12718831 -0.34885564 -0.2609642 0.2851421 -0.29091686 0.10589791 0.30196044 -0.10739428
0.13851847 -0.18572336 -0.14761029 0.014831606 0.22168209 0.27810383 -0.32677567 -0.22914678
-0.28853208 -0.16686198 -0.06616944 -0.22746056 0.11139042 0.30466038
00000000: db5f 843e 6a2c b0bd 4045 ffbd f843 6fbe
00000010: 0e67 40be 089c 623d 29cc 81be bd5d c2be
00000020: 4847 473e cb10 31be 389a 8abe 2fe2 ca3e
00000030: 0037 afbe e2fe 383e 9294 9e3d a954 a0be
00000040: b8b1 b5bd 2cf4 803e ef2b c5be 3ebe 95be
00000050: fbdb 053e 89a4 c9be f1f0 903e 6573 2dbe
00000060: 27f0 563e e091 86be fd55 963e 907c 813d
00000070: 45c7 d0be 0200 21be f188 bd3e 0565 b83e
00000080: 1661 4d3e 6e1b a0be 61d6 f7bc a839 67be
00000090: bc2d 013e f34f c63e e452 083e ddb7 2a3e
000000a0: 335d 27bd b7bc 7e3d b590 913e c201 833e
000000b0: 7364 b93e c127 bbbe ba6f 39bd cd15 c53d
000000c0: dcf4 7fbe 6e8a b43d 1bca 88be ce34 c8be
000000d0: efc6 a43e c3ea d03e a472 5b3c 39d0 a73d
000000e0: e38e 203e a5d4 09be b9b6 27be 7443 8dbd
000000f0: 69e2 12be 6130 8a3e 76ad 273e bd0a b6be
00000100: ee95 dbbd e48a b7be ad11 873e 06e0 8ebe
00000110: f847 9f3d ce9f abbe be16 f33d 0892 c43e
00000120: f53e ba3e 0bc0 9fbe 74d4 80be de90 983e
00000130: 6d6c a93e b9cc 9b3e 9f1e 813e 4572 b23d
00000140: 06d5 bf3e 7b2f f8bc f167 11be 0b36 723e
00000150: f349 193d 929b 81be fc44 ca3e 1bd7 e13c
00000160: 62ce cd3c 7b25 f73d 8de0 f13d e48b c6be
00000170: ea71 973d 7912 cd3e 6522 c03e 4b90 3e3d
00000180: dd3e bd3e f90f 7bbe e9c4 62bc 7134 c63e
00000190: a8c9 46be 427e b93e 6320 383e 2325 0e3e
000001a0: 6e33 933e 263d 7abe 4796 ba3b ad0f 46bd
000001b0: 8843 62be 22a0 aebe bf31 9fbd 68fd b23e
000001c0: 1cd7 56bd f53d f53c 3b0e 5dbe 7e66 c63e
000001d0: 80e7 a53d 80fc e53d 4451 00be 058a 743e
000001e0: 9395 91be 75c4 99be 72c1 b0be 3369 6e3e
000001f0: cb59 3e3d d55d b5be e902 3fbe 2989 7abe
00000200: fed4 6dbe 8066 97be e985 19bd baef cf3e
00000210: 3cf1 2a3e 971b e13d f41f b43c ee51 a4bd
00000220: 66ad 92be 5ff9 66be 5b72 c83e 18a3 eebc
00000230: fe9c a63e 9791 99be 8e5e 22be 40af c63e
00000240: 13e6 98be cc91 513d 3478 993e 8630 2bbe
00000250: 6ec4 45be cafc b4bd 3759 9bbe 3e7f 78bd
00000260: 734c 2b3d dff4 8a3d 6796 b1be 2cd8 8c3e
00000270: 113c 153e 09e0 8dbe 41b3 743d 3acf acbe
00000280: 4acc 24be 37d0 34be a922 ce3d 12d5 ccbd
00000290: 0936 0b3e a17b d0bc 0d86 bebe 4970 0cbe
000002a0: d147 8c3e 91f7 d63c e246 0d3e 4f56 9abe
000002b0: d984 e8bc d521 be3e 8aef 1c3e a24d a83d
000002c0: a73d 02be 359d b2be 1a9d 85be 25fe 913e
000002d0: 0ef3 94be 01e1 d83d 8f9a 9a3e 88f1 dbbd
000002e0: c9d7 0d3e 442e 3ebe 2727 17be 4400 733c
000002f0: a100 633e a063 8e3e 244f a7be 74a5 6abe
00000300: 7aba 93be dedd 2abe d883 87bd 6ceb 68be
00000310: a920 e43d 72fc 9b3e

encoders.0.dt_proj.weight f4 [6, 1]
-0.5320469 -0.64848113 0.30566502 -0.90503156 -0.12886918 0.050275803
00000000: 3a34 08bf dc02 26bf 2080 9c3e 26b0 67bf
00000010: 48f6 03be 00ee 4d3d

encoders.0.dt_proj.bias f4 [6]
-5.624112 -5.9684916 -2.6296163 -3.4080932 -5.448729 -5.863837
00000000: baf8 b3c0 e2fd bec0 a24b 28c0 331e 5ac0
00000010: fd5b aec0 8da4 bbc0

encoders.0.out_proj.weight f4 [3, 6]
-0.3901802 -0.014642583 0.2942436 -0.052367482 -0.38102558 -0.30227643 -0.34547403 -0.24374561
-0.14966643 0.14504968 0.075030535 -0.075802825 0.4000191 0.12387189 0.26687834 0.045587637
-0.30039433 -0.23095728
00000000: b3c5 c7be 72e7 6fbc 19a7 963e 497f 56bd
00000010: c915 c3be fac3 9abe f9e1 b0be 7398 79be
00000020: 2842 19be e787 143e 9ca9 993d 833e 9bbd
00000030: 4ecf cc3e 8cb0 fd3d 47a4 883e 1aba 3a3d
00000040: 49cd 99be 1180 6cbe

encoders.1.A_log f4 [6, 16]
0.0 0.6931472 1.0986123 1.3862944 1.609438 1.7917595 1.9459102 2.0794415
2.1972246 2.3025851 2.3978953 2.4849067 2.5649493 2.6390574 2.7080503 2.7725887
0.0 0.6931472 1.0986123 1.3862944 1.609438 1.7917595 1.9459102 2.0794415
2.1972246 2.3025851 2.3978953 2.4849067 2.5649493 2.6390574 2.7080503 2.7725887
0.0 0.6931472 1.0986123 1.3862944 1.609438 1.7917595 1.9459102 2.0794415
2.1972246 2.3025851 2.3978953 2.4849067 2.5649493 2.6390574 2.7080503 2.7725887
0.0 0.6931472 1.0986123 1.3862944 1.609438 1.7917595 1.9459102 2.0794415
2.1972246 2.3025851 2.3978953 2.4849067 2.5649493 2.6390574 2.7080503 2.7725887
0.0 0.6931472 1.0986123 1.3862944 1.609438 1.7917595 1.9459102 2.0794415
2.1972246 2.3025851 2.3978953 2.4849067 2.5649493 2.6390574 2.7080503 2.7725887
0.0 0.6931472 1.0986123 1.3862944 1.609438 1.7917595 1.9459102 2.0794415
2.1972246 2.3025851 2.3978953 2.4849067 2.5649493 2.6390574 2.7080503 2.7725887
00000000: 0000 0000 1872 313f 549f 8c3f 1872 b13f
00000010: 1002 ce3f 6058 e53f 9613 f93f 9215 0540
00000020: 549f 0c40 8e5d 1340 1e77 1940 b608 1f40
00000030: 2128 2440 51e6 2840 b250 2d40 1872 3140
00000040: 0000 0000 1872 313f 549f 8c3f 1872 b13f
00000050: 1002 ce3f 6058 e53f 9613 f93f 9215 0540
00000060: 549f 0c40 8e5d 1340 1e77 1940 b608 1f40
00000070: 2128 2440 51e6 2840 b250 2d40 1872 3140
00000080: 0000 0000 1872 313f 549f 8c3f 1872 b13f
00000090: 1002 ce3f 6058 e53f 9613 f93f 9215 0540
000000a0: 549f 0c40 8e5d 1340 1e77 1940 b608 1f40
000000b0: 2128 2440 51e6 2840 b250 2d40 1872 3140
000000c0: 0000 0000 1872 313f 549f 8c3f 1872 b13f
000000d0: 1002 ce3f 6058 e53f 9613 f93f 9215 0540
000000e0: 549f 0c40 8e5d 1340 1e77 1940 b608 1f40
000000f0: 2128 2440 51e6 2840 b250 2d40 1872 3140
00000100: 0000 0000 1872 313f 549f 8c3f 1872 b13f
00000110: 1002 ce3f 6058 e53f 9613 f93f 9215 0540
00000120: 549f 0c40 8e5d 1340 1e77 1940 b608 1f40
00000130: 2128 2440 51e6 2840 b250 2d40 1872 3140
00000140: 0000 0000 1872 313f 549f 8c3f 1872 b13f
00000150: 1002 ce3f 6058 e53f 9613 f93f 9215 0540
00000160: 549f 0c40 8e5d 1340 1e77 1940 b608 1f40
00000170: 2128 2440 51e6 2840 b250 2d40 1872 3140

encoders.1.D f4 [6]
1.0 1.0 1.0 1.0 1.0 1.0
00000000: 0000 803f 0000 803f 0000 803f 0000 803f
00000010: 0000 803f 0000 803f

encoders.1.in_proj.weight f4 [12, 3]
0.14995745 0.48247126 0.3749281 0.42352262 -0.18359116 0.36633652 0.21822272 0.5526979
-0.11121625 -0.5084293 -0.11165997 -0.38051754 0.2642429 0.49761984 0.37010556 -0.20396344
0.3094797 -0.44829264 -0.5002385 -0.4423631 0.48709214 0.25537845 -0.3963733 -0.15165462
0.36995524 0.27277994 -0.37664294 -0.2037565 0.24007048 -0.26713303 0.5535907 0.23805603
0.5296458 0.11006996 0.38397664 -0.54135007
00000000: 728e 193e 7906 f73e 93f6 bf3e f5d7 d83e
00000010: 52ff 3bbe 7690 bb3e c775 5f3e 9c7d 0d3f
00000020: 58c5 e3bd 6c28 02bf fbad e4bd 32d3 c2be
00000030: d84a 873e 07c8 fe3e 7a7e bd3e cbdb 50be
00000040: 2074 9e3e 9d86 e5be a10f 00bf 6b7d e2be
00000050: 2464 f93e f7c0 823e 71f1 cabe 594b 1bbe
00000060: c66a bd3e d0a9 8b3e 58d7 c0be 8ba5 50be
00000070: 09d5 753e a9c5 88be 1fb8 0d3f f6c4 733e
00000080: de96 073f 5c6c e13d 9698 c43e eb95 0abf

encoders.1.conv1d.weight f4 [6, 1, 4]
-0.2690462 -0.11897606 -0.46824938 -0.07079548 -0.19476336 0.3694539 -0.013474345 0.16928905
-0.39780658 -0.2145884 0.22286433 -0.47541964 0.32277006 0.4306026 0.2653945 -0.12933779
-0.09815848 -0.041951537 0.42237973 -0.05405909 -0.20226157 0.41757 -0.46383047 0.28538907
00000000: 6cc0 89be b8a9 f3bd 62be efbe 38fd 90bd
00000010: 0c70 47be 1029 bd3e 80c3 5cbc 1c5a 2d3e
00000020: 4ead cbbe 10bd 5bbe 8c36 643e 346a f3be
00000030: 1e42 a53e f277 dc3e cae1 873e 2071 04be
00000040: 5007 c9bd 60d5 2bbd 2842 d83e 106d 5dbd
00000050: a81d 4fbe bccb d53e 307b edbe 841e 923e

encoders.1.conv1d.bias f4 [6]
-0.40627873 0.30224466 0.3358119 -0.19777447 -0.3911968 -0.41519362
00000000: c403 d0be d0bf 9a3e 8aef ab3e 6485 4abe
00000010: f24a c8be 4294 d4be

encoders.1.x_proj.weight f4 [33, 6]
-0.18119675 -0.29516575 -0.089535244 -0.28793854 -0.393687 -0.086883426 -0.0780656 0.14154147
-0.37576586 0.118600726 0.17027709 -0.1058089 -0.10792494 0.00041405874 -0.3886924 0.25340798
0.3981709 -0.30918738 -0.39935732 0.07645039 -0.18113722 -0.2381891 0.3665071 -0.0896646
-0.39157864 0.10067176 0.058784615 -0.041541025 0.12219639 -0.20234036 -0.020479945 0.38048947
0.04363458 -0.25010735 0.3430502 0.1482364 -0.08055044 -0.10200007 0.064915195 -0.013541201
-0.2677923 0.22054508 0.33157444 0.40803656 -0.24467364 -0.20524685 -0.34394735 -0.23166505
0.112631574 0.3798694 -0.23107053 -0.12171152 0.14150229 -0.14258148 -0.31247196 -0.37075424
0.11607515 0.34127182 -0.28060973 -0.18416494 0.28171268 0.0155322645 0.33373126 -0.36893094
0.07446341 -0.23514327 -0.27873546 0.26272753 0.35084802 -0.14448874 0.02230452 -0.28620517
-0.047554366 -0.15207632 -0.20242582 0.18346025 0.34288454 0.007122949 0.18220906 -0.06471094
-0.10871695 -0.35055348 -0.14044179 0.19166555 -0.010196075 0.3193783 0.2874759 -0.26780087
0.39303467 -0.19043928 -0.15305325 -0.27700347 -0.096491165 -0.089718714 -0.26624042 -0.16209626
0.09307898 0.003998626 0.017830271 0.023151228 -0.2766074 -0.16082752 -0.32153094 0.26057908
0.29692772 0.007957199 0.22424601 -0.12081979 0.12920234 -0.13219623 0.11701944 -0.33627945
0.38131228 0.30384842 0.35408685 0.040324688 0.029077262 -0.36482295 0.007064646 -0.0008375589
-0.3509492 -0.084236816 -0.3634338 -0.30126542 0.20105483 0.2543152 -0.29047602 0.14769736
0.2509853 -0.13598564 0.07743084 0.29466915 -0.09155244 -0.20676857 -0.21778153 -0.015938245
0.35185567 -0.06325862 0.042269375 0.17136635 -0.28460622 -0.0019712078 -0.31861734 0.06334067
0.25599325 0.27270466 -0.038922302 -0.025318418 -0.3660538 -0.2906396 -0.10869164 0.38935572
-0.11704635 0.21654339 -0.40419415 -0.38815662 -0.05793338 0.34681568 -0.2980926 -0.05197518
-0.33015707 0.29960397 0.17965843 -0.21395454 -0.36988547 -0.19818722 -0.34288007 0.101024255
-0.10170359 -0.13744117 -0.074126445 -0.24628744 0.39614186 -0.08832183 0.34793818 -0.052584928
-0.339379 0.2805104 -0.12057495 -0.31424227 -0.16070838 -0.0063948426 0.14122659 -0.30818728
-0.053087655 -0.24736312 -0.10842003 -0.061934974 -0.025024908 -0.20354457 0.32525635 -0.28924063
0.3439397 -0.016497137 -0.037789382 -0.31972048 -0.4060638 -0.14367683
00000000: a48b 39be f71f 97be 415e b7bd ae6c 93be
00000010: 5891 c9be f0ef b1bd dbe0 9fbd 3ff0 103e
00000020: 6264 c0be f0e4 f23d 1e5d 2e3e 56b2 d8bd
00000030: c007 ddbd 0616 d939 b102 c7be b1be 813e
00000040: 0edd cb3e cf4d 9ebe 9078 ccbe 0692 9c3d
00000050: 097c 39be d8e7 73be d2a6 bb3e 13a2 b7bd
00000060: ff7c c8be ff2c ce3d 23c8 703d ec26 2abd
00000070: 1a42 fa3d 5032 4fbe 8fc5 a7bc 84cf c23e
00000080: 2cba 323d 120e 80be 47a4 af3e 48cb 173e
00000090: a1f7 a4bd 6ae5 d0bd 42f2 843d eadb 5dbc
000000a0: 131c 89be 92d6 613e 20c4 a93e 2bea d03e
000000b0: ba8b 7abe 3b2c 52be de19 b0be 9a39 6dbe
000000c0: 62ab e63d 3e7e c23e c19d 6cbe e443 f9bd
000000d0: fae5 103e e100 12be 53fc 9fbe 80d3 bdbe
000000e0: cfb8 ed3d 2ebb ae3e 14ac 8fbe bc95 3cbe
000000f0: a53c 903e 0a7b 7e3c d3de aa3e 84e4 bcbe
00000100: 4680 983d 66c9 70be 6ab6 8ebe 3984 863e
00000110: 5aa2 b33e dbf4 13be f8b7 b63c 7c89 92be
00000120: 5ec8 42bd e5b9 1bbe b748 4fbe 01dd 3b3e
00000130: 908e af3e a167 e93b 0395 3a3e 2b87 84bd
00000140: fea6 debd bf7b b3be f9cf 0fbe f943 443e
00000150: 700d 27bc 8d85 a33e 0b30 933e 321d 89be
00000160: d73b c93e 8402 43be feb9 1cbe 66d3 8dbe
00000170: 299d c5bd 72be b7bd aa50 88be 90fc 25be
00000180: 31a0 be3d e806 833b ca10 923c a5a7 bd3c
00000190: 7c9f 8dbe f8af 24be b49f a4be 9f6a 853e
000001a0: e906 983e e95e 023c bfa0 653e 5e70 f7bd
000001b0: 9e4d 043e 735e 07be e3a7 ef3d d22c acbe
000001c0: 5d3b c33e 0592 9b3e df4a b53e 802b 253d
000001d0: 7033 ee3c 13ca babe 8c7e e73b a08f 5bba
000001e0: 9daf b3be 5a84 acbd ff13 babe 763f 9abe
000001f0: 51e1 4d3e 9a35 823e 46b9 94be fa3d 173e
00000200: 2581 803e d23f 0bbe 0f94 9e3d e0de 963e
00000210: d87f bbbd 24bb 53be 1f02 5fbe ec90 82bc
00000220: 6d26 b43e bc8d 81bd a722 2d3d a97a 2f3e
00000230: e8b7 91be 612f 01bb d021 a3be c1b8 813d
00000240: 8c11 833e f29f 8b3e fe6c 1fbd 9268 cfbc
00000250: 676b bbbe b7ce 94be b999 debd a259 c73e
00000260: ffb5 efbd 8dbd 5d3e 89f2 cebe 77bc c6be
00000270: 8d4b 6dbd d391 b13e 989f 98be ede3 54bd
00000280: 590a a9be b165 993e 61f8 373e e616 5bbe
00000290: a161 bdbe 97f1 4abe fa8d afbe cee5 ce3d
000002a0: f949 d0bd 61bd 0cbe 9bcf 97bd c632 7cbe
000002b0: 1bd3 ca3e 13e2 b4bd f424 b23e 4b63 57bd
000002c0: 16c3 adbe 0f9f 8f3e 00f0 f6bd 5de4 a0be
000002d0: bd90 24be d48b d1bb b49d 103e b9ca 9dbe
000002e0: 7172 59bd c24c 7dbe 520b debd 87af 7dbd
000002f0: 0901 cdbc fd6d 50be 0088 a63e 5917 94be
00000300: dd18 b03e 0125 87bc 0ac9 1abd 67b2 a3be
00000310: 98e7 cfbe 0520 13be

encoders.1.dt_proj.weight f4 [6, 1]
-0.51807296 -0.38528216 -0.37516868 0.11674166 0.9534255 -0.03950548
00000000: 6ea0 04bf b443 c5be 1c16 c0be 4016 ef3d
00000010: b213 743f 80d0 21bd

encoders.1.dt_proj.bias f4 [6]
-4.733149 -4.163424 -5.529794 -3.1786454 -5.078823 -3.3062549
00000000: f575 97c0 c53a 85c0 13f4 b0c0 ed6e 4bc0
00000010: b885 a2c0 ae99 53c0

encoders.1.out_proj.weight f4 [3, 6]
-0.26112294 -0.31452098 0.14544958 0.11884158 -0.4065986 0.0053498163 -0.12550624 -0.044066597
-0.20634478 0.2225323 -0.10834844 0.031561323 -0.097879685 -0.09194708 -0.18101853 -0.35379106
0.29333955 -0.056758996
00000000: e8b1 85be e508 a1be bcf0 143e 3763 f33d
00000010: b12d d0be 834d af3b b584 00be 2d7f 34bd
00000020: 0c4c 53be 82df 633e c9e5 ddbd 7246 013d
00000030: 2575 c8bd c04e bcbd ec5c 39be 1a24 b5be
00000040: 9a30 963e 1f7c 68bd

encoders.2.A_log f4 [6, 16]
0.0 0.6931472 1.0986123 1.3862944 1.609438 1.7917595 1.9459102 2.0794415
2.1972246 2.3025851 2.3978953 2.4849067 2.5649493 2.6390574 2.7080503 2.7725887
0.0 0.6931472 1.0986123 1.3862944 1.609438 1.7917595 1.9459102 2.0794415
2.1972246 2.3025851 2.3978953 2.4849067 2.5649493 2.6390574 2.7080503 2.7725887
0.0 0.6931472 1.0986123 1.3862944 1.609438 1.7917595 1.9459102 2.0794415
2.1972246 2.3025851 2.3978953 2.4849067 2.5649493 2.6390574 2.7080503 2.7725887
0.0 0.6931472 1.0986123 1.3862944 1.609438 1.7917595 1.9459102 2.0794415
2.1972246 2.3025851 2.3978953 2.4849067 2.5649493 2.6390574 2.7080503 2.7725887
0.0 0.6931472 1.0986123 1.3862944 1.609438 1.7917595 1.9459102 2.0794415
2.1972246 2.3025851 2.3978953 2.4849067 2.5649493 2.6390574 2.7080503 2.7725887
0.0 0.6931472 1.0986123 1.3862944 1.609438 1.7917595 1.9459102 2.0794415
2.1972246 2.3025851 2.3978953 2.4849067 2.5649493 2.6390574 2.7080503 2.7725887
00000000: 0000 0000 1872 313f 549f 8c3f 1872 b13f
00000010: 1002 ce3f 6058 e53f 9613 f93f 9215 0540
00000020: 549f 0c40 8e5d 1340 1e77 1940 b608 1f40
00000030: 2128 2440 51e6 2840 b250 2d40 1872 3140
00000040: 0000 0000 1872 313f 549f 8c3f 1872 b13f
00000050: 1002 ce3f 6058 e53f 9613 f93f 9215 0540
00000060: 549f 0c40 8e5d 1340 1e77 1940 b608 1f40
00000070: 2128 2440 51e6 2840 b250 2d40 1872 3140
00000080: 0000 0000 1872 313f 549f 8c3f 1872 b13f
00000090: 1002 ce3f 6058 e53f 9613 f93f 9215 0540
000000a0: 549f 0c40 8e5d 1340 1e77 1940 b608 1f40
000000b0: 2128 2440 51e6 2840 b250 2d40 1872 3140
000000c0: 0000 0000 1872 313f 549f 8c3f 1872 b13f
000000d0: 1002 ce3f 6058 e53f 9613 f93f 9215 0540
000000e0: 549f 0c40 8e5d 1340 1e77 1940 b608 1f40
000000f0: 2128 2440 51e6 2840 b250 2d40 1872 3140
00000100: 0000 0000 1872 313f 549f 8c3f 1872 b13f
00000110: 1002 ce3f 6058 e53f 9613 f93f 9215 0540
00000120: 549f 0c40 8e5d 1340 1e77 1940 b608 1f40
00000130: 2128 2440 51e6 2840 b250 2d40 1872 3140
00000140: 0000 0000 1872 313f 549f 8c3f 1872 b13f
00000150: 1002 ce3f 6058 e53f 9613 f93f 9215 0540
00000160: 549f 0c40 8e5d 1340 1e77 1940 b608 1f40
00000170: 2128 2440 51e6 2840 b250 2d40 1872 3140

encoders.2.D f4 [6]
1.0 1.0 1.0 1.0 1.0 1.0
00000000: 0000 803f 0000 803f 0000 803f 0000 803f
00000010: 0000 803f 0000 803f

encoders.2.in_proj.weight f4 [12, 3]
0.5444279 0.3703439 0.05798453 -0.40441948 -0.32165784 -0.5254061 -0.48349643 -0.51335573
0.43945608 0.056544703 0.16537958 0.27023128 0.530275 0.38654825 -0.30256736 0.48855948
0.42134774 0.42401856 0.2788297 0.12091817 -0.1343216 -0.045431927 -0.4571103 -0.1281602
0.04801853 0.08018234 0.09646612 -0.27445832 0.33325052 0.032005515 0.27526835 -0.2249582
-0.36712995 -0.3351729 -0.49620423 -0.17102514
00000000: a05f 0b3f b79d bd3e 3081 6d3d 1210 cfbe
00000010: 56b0 a4be 0481 06bf d88c f7be 486b 03bf
00000020: 6300 e13e 6b9b 673d 4459 293e c15b 8a3e
00000030: 1ac0 073f a7e9 c53e 1cea 9abe 7824 fa3e
00000040: e4ba d73e f618 d93e c4c2 8e3e f2a3 f73d
00000050: 9a8b 09be d416 3abd 5c0a eabe 6d3c 03be
00000060: 14af 443d a436 a43d 0790 c53d cd85 8cbe
00000070: d09f aa3e 3718 033d f9ef 8c3e 715b 66be
00000080: 75f8 bbbe c89b abbe 7b0e febe 3721 2fbe

encoders.2.conv1d.weight f4 [6, 1, 4]
0.45188713 0.4284646 0.05225122 -0.025476038 0.11207831 -0.4424219 0.0020225048 0.046723068
-0.005029142 0.3795101 -0.32584077 -0.108859956 -0.06497973 -0.27587616 0.18839437 0.263865
-0.33271027 -0.09651506 -0.27455938 -0.09998059 -0.09676921 -0.2637775 -0.44353497 0.013697386
00000000: c05d e73e b65f db3e 6005 563d 20b3 d0bc
00000010: 5089 e53d 2085 e2be 008c 043b b060 3f3d
00000020: 80cb a4bb 264f c23e 9ad4 a6be f8f1 debd
00000030: 1814 85bd a43f 8dbe 74ea 403e 5019 873e
00000040: 0059 aabe b0a9 c5bd 0c93 8cbe a0c2 ccbd
00000050: f02e c6bd d80d 87be 0417 e3be 006b 603c

encoders.2.conv1d.bias f4 [6]
-0.3559568 -0.23663622 -0.24838483 0.09997201 0.36782956 0.074902415
00000000: f83f b6be c450 72be 9858 7ebe 20be cc3d
00000010: 2854 bc3e 7066 993d

encoders.2.x_proj.weight f4 [33, 6]
0.3611822 0.17491364 -0.36490822 0.21271805 0.3273014 -0.2176726 -0.26829317 0.16996902
0.18754365 -0.35787052 -0.26789466 -0.23767056 0.1837904 -0.062087253 0.19419701 0.058700763
-0.020363193 -0.15681842 -0.058545318 0.021189852 0.14104433 0.18901758 -0.30252808 0.14516303
-0.26988882 -0.3424139 -0.28175676 0.115471244 0.121318 -0.0077803917 0.004175433 0.27204126
0.20746538 0.08052168 0.38779372 -0.12246362 0.37729606 0.35564318 -0.06580347 -0.009472008
0.33353585 -0.224898 0.15906022 0.024174841 0.05418198 0.39146224 0.15915084 -0.30477917
-0.32781306 -0.36167258 0.07458922 0.0080731725 0.3049341 -0.03413342 -0.15894303 0.37548894
-0.18515712 0.2138397 0.4081393 -0.32890925 0.0850153 -0.104658365 -0.28552115 0.14536344
0.40235236 -0.030881152 -0.33260792 0.2360295 0.23222788 0.12423135 0.2549464 -0.036345482
0.19834164 -0.052755844 -0.19182172 0.2764781 0.1510332 0.34435293 -0.20003359 0.035084616
-0.014800995 -0.03667238 0.047893282 0.18815471 -0.18376261 -0.015672086 -0.15911444 -0.097330675
0.267833 -0.0034056187 0.29557794 0.24610499 -0.01069754 0.0792338 0.36994365 -0.38962916
0.14822675 0.3571907 0.18711539 -0.024802402 -0.40520224 0.12603475 -0.22177416 0.2257193
0.28645322 0.1915562 0.031808455 -0.12211044 -0.28267506 -0.28416768 -0.18751411 -0.40035272
0.005772635 0.04779215 -0.37281445 0.08240815 -0.33705717 -0.23105812 -0.30226094 -0.37103948
0.07388622 -0.30901557 0.054928146 -0.1457698 0.27419683 0.26597717 0.20432632 -0.11802344
0.26407063 -0.17435241 -0.12008945 0.13455541 -0.24139236 -0.033470333 0.3902833 0.37946928
-0.32978052 0.3784728 -0.018032532 -0.34916762 -0.1511493 0.14685206 0.26485005 -0.33902156
0.044723894 -0.35986465 0.34915096 0.10733378 -0.2633363 -0.31276974 -0.032057434 -0.122900695
-0.055318795 -0.37670538 -0.30493796 -0.14784418 0.16956027 -0.2909017 -0.13600186 -0.39993322
-0.105666354 -0.3514131 0.03713486 -0.22941492 -0.23174126 0.09915194 0.08707819 -0.16374943
0.33912927 -0.2587568 0.34392115 0.009293059 -0.120992176 -0.33448365 0.09227719 0.0054757665
0.40634468 -0.0010113 -0.14847457 -0.05146223 0.06468218 -0.09788153 0.18239702 0.37003118
-0.18279794 -0.2283191 -0.24502604 -0.21494833 -0.12808535 0.019378563 -0.407915 0.066613674
-0.16853875 -0.39172125 -0.36461937 0.2678893 0.3806865 0.361162
00000000: e0ec b83e 901c 333e 40d5 babe c3d2 593e
00000010: 0d94 a73e 91e5 5ebe b95d 89be 5c0c 2e3e
00000020: 710b 403e ce3a b7be 7d29 89be e95f 73be
00000030: 8d33 3c3e 344f 7ebd 95db 463e 3670 703d
00000040: b6d0 a6bc 0295 20be 37cd 6fbd 5796 ad3c
00000050: ed6d 103e d38d 413e f6e4 9abe 9ea5 143e
00000060: de2e 8abe e050 afbe 6c42 90be 307c ec3d
00000070: 9275 f83d a8f2 febb 12d2 883b fe48 8b3e
00000080: ce71 543e 8de8 a43d e68c c63e 35ce fabd
00000090: f32c c13e dd16 b63e f8c3 86bd 7b30 1bbc
000000a0: 36c5 aa3e a94b 66be afe0 223e 510a c63c
000000b0: eded 5d3d bd6d c83e 70f8 223e 040c 9cbe
000000c0: 1dd7 a7be 262d b9be 3cc2 983d 5745 043c
000000d0: 5320 9c3e 7ccf 0bbd f6c1 22be 1640 c03e
000000e0: d499 3dbe cbf8 5a3e a2f7 d03e cb66 a8be
000000f0: 801c ae3d 2057 d6bd d42f 92be 27da 143e
00000100: 2101 ce3e 78fa fcbc 964b aabe b8b1 713e
00000110: 25cd 6d3e 026d fe3d 5688 823e 00df 14bd
00000120: 121a 4b3e 8316 58bd ea6c 44be 8a8e 8d3e
00000130: 72a8 1a3e 074f b03e 9bd5 4cbe e3b4 0f3d
00000140: df7f 72bc c735 16bd bf2b 443d a1ab 403e
00000150: 442c 3cbe bf62 80bc e5ee 22be 4e55 c7bd
00000160: 6821 893e cd30 5fbb fe55 973e f202 7c3e
00000170: bc44 2fbc 5545 a23d 4169 bd3e 797d c7be
00000180: c1c8 173e b3e1 b63e 2d9b 3f3e 682e cbbc
00000190: ab76 cfbe 410f 013e c418 63be f622 673e
000001a0: ffa9 923e 4f27 443e 9549 023d 0a15 fabd
000001b0: c9ba 90be 6d7e 91be b303 40be 08fb ccbe
000001c0: 5f28 bd3b b4c1 433d 89e1 bebe 9bc5 a83d
000001d0: c292 acbe 809a 6cbe f2c1 9abe e3f8 bdbe
000001e0: a951 973d 4a37 9ebe 56fc 603d ae44 15be
000001f0: 8763 8c3e 292e 883e eb3a 513e 46b6 f1bd
00000200: 4434 873e 7089 32be 75f1 f5bd e5c8 093e
00000210: 8f2f 77be 3018 09bd 36d3 c73e cc49 c23e
00000220: fed8 a8be 30c7 c13e f6b8 93bc 19c6 b2be
00000230: e2c6 1abe 6360 163e 6d9a 873e 3c94 adbe
00000240: 6730 373d 2e40 b8be eac3 b23e d0d1 db3d
00000250: 04d4 86be 5b23 a0be a84e 03bd 5cb3 fbbd
00000260: f695 62bd 87df c0be d420 9cbe 7764 17be
00000270: 35a1 2d3e 11f1 94be 1244 0bbe 0cc4 ccbe
00000280: 9a67 d8bd 6bec b3be b91a 183d bfeb 6abe
00000290: 954d 6dbe 2c10 cb3d 0d56 b23d eead 27be
000002a0: 5aa2 ad3e c57b 84be 6f16 b03e ea41 183c
000002b0: bfca f7bd 7141 abbe d3fb bc3d 0f6e b33b
000002c0: 690c d03e 998d 84ba b809 18be 0fca 52bd
000002d0: 1778 843d 1d76 c8bd 49c6 3a3e ba74 bd3e
000002e0: 622f 3bbe 7bcc 69be 1be8 7abe 6a1b 5cbe
000002f0: ce28 03be cbbf 9e3c 3cda d0be c06c 883d
00000300: 6c95 2cbe b08f c8be 64af babe c928 893e
00000310: 57e9 c23e 3aea b83e

encoders.2.dt_proj.weight f4 [6, 1]
-0.4636798 0.89248693 0.07967293 0.7655097 0.55147266 -0.82406926
00000000: 7067 edbe 067a 643f 902b a33d 72f8 433f
00000010: 502d 0d3f 34f6 52bf

encoders.2.dt_proj.bias f4 [6]
-3.5036721 -6.681821 -3.1247826 -2.642381 -6.787086 -3.6215625
00000000: 2a3c 60c0 7ad1 d5c0 70fc 47c0 c51c 29c0
00000010: cf2f d9c0 aec7 67c0

encoders.2.out_proj.weight f4 [3, 6]
-0.17390229 0.090333134 0.24028012 -0.02249218 -0.088421546 0.15113708 -0.26089883 0.079780675
-0.4067769 -0.39678037 0.03477276 -0.22410136 0.06776772 -0.4002463 0.083976835 -0.3024832
0.22385564 0.20707327
00000000: 7113 32be 9400 b93d fe0b 763e 8541 b8bc
00000010: 5b16 b5bd aec3 1a3e 8894 85be 0d64 a33d
00000020: 1045 d0be cc26 cbbe e26d 0e3d d47a 65be
00000030: cdc9 8a3d 15ed ccbe 0cfc ab3d 14df 9abe
00000040: 6a3a 653e 040b 543e

encoders.3.A_log f4 [6, 16]
0.004794479 0.7065085 1.0934324 1.3940465 1.587784 1.7816242 1.9221867 2.0836246
2.2010086 2.2920299 2.398922 2.4919097 2.586877 2.6419988 2.707556 2.7642066
4.246217e-05 0.6931671 1.099334 1.3861599 1.6098709 1.7920463 1.9475483 2.07959
2.196534 2.2992692 2.3969991 2.4869556 2.5642848 2.640911 2.7078722 2.773363
-0.00017404079 0.69380885 1.100908 1.385297 1.6161267 1.7831783 1.9438764 2.078875
2.1943238 2.2880557 2.4035985 2.4840438 2.571201 2.6348255 2.7058213 2.7714083
-2.9621977e-05 0.69326615 1.0986813 1.38633 1.6094416 1.7917582 1.9459041 2.079403
2.1972842 2.3033872 2.3980184 2.4846067 2.5658216 2.639074 2.7084706 2.772977
0.00012845069 0.67458314 1.0691955 1.3997576 1.5797443 1.7720209 1.9403522 2.062649
2.1979158 2.305736 2.3942866 2.4834871 2.5621338 2.6379943 2.6994808 2.771455
2.054394e-05 0.69317997 1.0986694 1.386355 1.609268 1.7917306 1.9459693 2.0793178
2.1973622 2.3029594 2.3980281 2.4844046 2.563707 2.6392677 2.7075536 2.7727377
00000000: 011b 9d3b bedd 343f 98f5 8b3f 1e70 b23f
00000010: 823c cb3f 430c e43f 370a f63f 1b5a 0540
00000020: 53dd 0c40 9eb0 1240 f087 1940 737b 1f40
00000030: 658f 2540 8216 2940 9948 2d40 c3e8 3040
00000040: 6819 3238 6673 313f fab6 8c3f b06d b13f
00000050: 4010 ce3f c661 e53f 4349 f93f 0118 0540
00000060: 0394 0c40 3a27 1340 6f68 1940 482a 1f40
00000070: 3e1d 2440 b004 2940 c74d 2d40 c87e 3140
00000080: b87e 36b9 759d 313f 8eea 8c3f 6951 b13f
00000090: 3ddd ce3f 303f e43f f1d0 f83f 4a0c 0540
000000a0: cd6f 0c40 816f 1240 8fd4 1940 93fa 1e40
000000b0: 8f8e 2440 fba0 2840 2d2c 2d40 c15e 3140
000000c0: b67c f8b7 e479 313f 97a1 8c3f 4373 b13f
000000d0: 2f02 ce3f 5558 e53f 6313 f93f f014 0540
000000e0: 4ea0 0c40 b26a 1340 2279 1940 cc03 1f40
000000f0: 6c36 2440 97e6 2840 9557 2d40 7578 3140
00000100: b8b0 0639 7bb1 2c3f 66db 883f 422b b33f
00000110: 1035 ca3f 95d1 e23f 765d f83f 7102 0440
00000120: a7aa 0c40 2e91 1340 fe3b 1940 74f1 1e40
00000130: 00fa 2340 e6d4 2840 4bc4 2c40 855f 3140
00000140: c655 ac37 3e74 313f 33a1 8c3f 1574 b13f
00000150: 7efc cd3f 6e57 e53f 8615 f93f 8b13 0540
00000160: 95a1 0c40 b063 1340 4b79 1940 7c00 1f40
00000170: c713 2440 c3e9 2840 8f48 2d40 8974 3140

encoders.3.D f4 [6]
1.2913723 1.0850681 1.0289124 1.0532252 0.9962752 1.0841389
00000000: b04b a53f 83e3 8a3f 67b3 833f 15d0 863f
00000010: e40b 7f3f 10c5 8a3f

encoders.3.in_proj.weight f4 [12, 3]
-0.07399707 -0.4422168 0.08906957 -0.018744145 0.62301797 0.6799831 0.13117836 -0.5788656
0.056283668 -0.06781494 0.613497 -0.49866986 0.32770017 0.48117977 0.28287286 -0.55282855
0.45408604 0.19150127 -0.39751372 0.9384084 -0.6730457 -0.08498571 -0.44122198 -0.20126297
-0.24044655 0.63977957 -0.0005412764 -0.23598036 -0.44807094 0.687042 0.38715065 0.4648995
0.7871381 -0.31440517 0.49930382 0.23025106
00000000: c78b 97bd 3e6a e2be 1b6a b63d 528d 99bc
00000010: 1b7e 1f3f 5f13 2e3f 9f53 063e 8930 14bf
00000020: b489 663d 8fe2 8abd 240e 1d3f a851 ffbe
00000030: 51c8 a73e 325d f63e b6d4 903e 2c86 0dbf
00000040: f77d e83e e918 443e eb86 cbbe 883b 703f
00000050: b94c 2cbf fd0c aebd d9e7 e1be e117 4ebe
00000060: 9f37 76be 98c8 233f 72e4 0dba d6a4 71be
00000070: 8e69 e5be fce1 2f3f 9c38 c63e 4f07 ee3e
00000080: e281 493f b7f9 a0be c0a4 ff3e efc6 6b3e

encoders.3.conv1d.weight f4 [6, 1, 4]
0.063072726 0.1461147 0.15695919 0.0010054653 0.10755053 0.44890803 0.39447817 -0.29736707
0.31565717 0.17017396 -0.15063486 -0.5602982 0.3794584 -0.25469235 0.051982686 -0.48799768
-0.25424007 -0.021095159 -0.23801315 0.5094678 0.49691698 -0.4250533 0.22904557 -0.55476433
00000000: 462c 813d 189f 153e e9b9 203e d1c9 833a
00000010: 7443 dc3d 46d7 e53e 0bf9 c93e 7f40 98be
00000020: d19d a13e 1542 2e3e 0640 1abe b46f 0fbf
00000030: 5f48 c23e 0967 82be cceb 543d d5da f9be
00000040: c12b 82be c1cf acbc b8b9 73be 7b6c 023f
00000050: e76b fe3e 96a0 d9be ec8a 6a3e 0905 0ebf

encoders.3.conv1d.bias f4 [6]
0.21500066 0.3590522 -0.4854615 0.6541808 -0.35799083 0.061294626
00000000: 2229 5c3e b1d5 b73e 698e f8be 6578 273f
00000010: 934a b7be 1310 7b3d

encoders.3.x_proj.weight f4 [33, 6]
0.1557181 0.18588664 0.02630451 0.22025286 -0.15624136 -0.27687573 0.19031608 0.12005358
-0.21119069 -0.16200516 0.20330498 -0.01527494 -0.2582252 0.117380284 0.28666323 -0.28946623
-0.36000147 -0.05869329 0.26347858 0.29759994 0.0052194623 -0.019850016 -0.3303358 -0.13705431
-0.22140512 0.19459136 -0.042267743 -0.026055349 -0.36433467 0.16987039 0.2409413 -0.3772464
-0.4044994 0.13605532 -0.49702108 -0.40184173 0.28398925 -0.40394932 0.37566212 -0.118028045
0.20865111 0.19038437 0.40043116 -0.24554871 0.13366686 0.099579126 0.15910693 -0.21140413
0.10981665 0.17989756 -0.21268488 -0.18680766 -0.4091863 0.2663734 0.21817097 0.27439874
-0.013062611 -0.28990456 0.18666166 0.1572496 0.32746166 -0.389876 -0.39182526 -0.3143116
0.3302178 -0.27862245 0.3285547 0.27105325 -0.37201932 0.2352741 0.3506572 -0.34729183
-0.1157995 0.1751439 -0.37284684 0.33161694 -0.12416989 0.3606135 -0.26694188 0.120229214
0.11723663 0.049083505 -0.11950345 0.37348744 -0.2383085 0.1912198 -0.16933846 0.00024071826
-0.24629527 -0.11445723 -0.09828619 0.0029428084 0.33443257 -0.10157469 -0.024788722 0.43461883
0.30720598 -0.054201968 -0.08647766 -0.13814597 -0.2273583 -0.045111805 0.23215331 0.24302457
0.29040465 0.37646756 0.37985805 0.06699975 -0.2954921 0.18333825 0.04690708 0.20857775
-0.003261613 -0.39803335 -0.16342299 0.38161877 -0.054730825 0.17845963 0.21256758 0.077074915
-0.14209032 -0.10269103 0.13021761 0.11504314 -0.45561755 0.16212647 -0.218286 -0.1347515
0.12394469 -0.40874043 -0.14783463 -0.40914592 -0.3594702 -0.21358107 0.32188478 -0.12983394
0.2308611 0.42695233 -0.42260447 -0.3626677 0.0051820776 0.28486067 0.21950537 -0.2679001
0.1072076 0.27180725 0.117600374 0.083526574 0.04386152 -0.21948983 0.033780016 -0.051079005
-0.112768196 0.33075026 -0.18024172 0.026451707 -0.42747173 0.16836168 0.17661324 -0.4174274
0.30573294 -0.119334616 0.06459245 -0.2515911 0.021620033 -0.0768999 0.2538417 0.17405666
-0.23554525 0.13683027 0.1854737 -0.33726713 0.22264414 -0.030169182 -0.12252623 -0.35340795
0.3390748 0.008330409 0.39595088 0.23422253 -0.009011713 0.41605234 -0.14587405 -0.09794121
0.28873968 0.038103703 0.31638944 -0.34363115 -0.2806821 0.24112386 0.39824787 0.07032853
-0.39825797 -0.027202815 -0.17567885 0.28059682 0.32143873 -0.18184467
00000000: 9174 1f3e 1159 3e3e 8e7c d73c f789 613e
00000010: bcfd 1fbe a8c2 8dbe 38e2 423e a7de f53d
00000020: 5f42 58be aee4 25be 2e2f 503e be43 7abc
00000030: 1836 84be 1365 f03d 86c5 923e eb34 94be
00000040: 1d52 b8be 6068 70bd aae6 863e 055f 983e
00000050: 0608 ab3b 809c a2bc c621 a9be f757 0cbe
00000060: 06b8 62be f542 473e f120 2dbd 0772 d5bc
00000070: 138a babe 81f2 2d3e 51b9 763e 7126 c1be
00000080: 8c1a cfbe 1652 0b3e 8c79 febe 33be cdbe
00000090: 0a67 913e 72d2 cebe c956 c03e b0b8 f1bd
000000a0: a3a8 553e 1ff4 423e 5005 cd3e 1f71 7bbe
000000b0: f7df 083e 24f0 cb3d edec 223e 537a 58be
000000c0: 8de7 e03d 1137 383e 11ca 59be 824a 3fbe
000000d0: de80 d1be 1862 883e 3668 5f3e fe7d 8c3e
000000e0: 9004 56bc 5f6e 94be 3c24 3f3e 0a06 213e
000000f0: 0ea9 a73e d49d c7be 529d c8be 73ed a0be
00000100: 4f12 a93e 9aa7 8ebe 5238 a83e 7ec7 8a3e
00000110: 5179 bebe b2eb 703e 5789 b33e 3cd0 b1be
00000120: 4a28 edbd ec58 333e c8e5 bebe b2c9 a93e
00000130: c94c febd 55a2 b83e 9bac 88be bc3a f63d
00000140: c219 f03d c90b 493d 3abe f4bd bf39 bf3e
00000150: 2507 74be 20cf 433e 1067 2dbe 5169 7c39
00000160: d434 7cbe 8d68 eabd 454a c9bd 22dc 403b
00000170: bf3a ab3e 6406 d0bd b811 cbbc 5c86 de3e
00000180: 1a4a 9d3e e202 5ebd 331b b1bd 2376 0dbe
00000190: 9dd0 68be 28c7 38bd 99b9 6d3e 6fdb 783e
000001a0: ebaf 943e 5bc0 c03e c17c c23e 2a37 893d
000001b0: be4a 97be 06bd 3b3e a321 403d 6895 553e
000001c0: c9c0 55bb 07cb cbbe 5b58 27be 8963 c33e
000001d0: 6e2d 60bd 1fbe 363e 51ab 593e 74d9 9d3d
000001e0: 2080 11be ad4f d2bd c457 053e bd9b eb3d
000001f0: b446 e9be 7b04 263e 5d86 5fbe 4cfc 09be
00000200: b7d6 fd3d 6d46 d1be f661 17be 937b d1be
00000210: 7a0c b8be ffb4 5abe 15ce a43e 30f3 04be
00000220: da66 6c3e 7f99 da3e 9d5f d8be 95af b9be
00000230: 6bce a93b 42d9 913e 04c6 603e 342a 89be
00000240: a88f db3d 522a 8b3e 77d8 f03d fb0f ab3d
00000250: 23a8 333d f1c1 60be ea5c 0a3d 3838 51bd
00000260: 03f3 e6bd 1958 a93e 4991 38be 40b1 d83c
00000270: 93dd dabe 0167 2c3e 1ada 343e 0bb9 d5be
00000280: 0789 9c3e b565 f4bd 0c49 843d 8cd0 80be
00000290: 7f1c b13c b27d 9dbd 8af7 813e e93b 323e
000002a0: c632 71be 3c1d 0c3e d1ec 3d3e 47ae acbe
000002b0: d3fc 633e 5c25 f7bc 08ef fabd e3f1 b4be
000002c0: 369b ad3e 457c 083c 13ba ca3e 08d8 6f3e
000002d0: dda5 13bc d004 d53e 0260 15be 6795 c8bd
000002e0: b0d5 933e a112 1c3d ccfd a13e 6cf0 afbe
000002f0: 90b5 8fbe 2ce9 763e 25e7 cb3e 6808 903d
00000300: 78e8 cbbe 70d8 debc 28e5 33be 63aa 8f3e
00000310: 9e93 a43e 7d35 3abe

encoders.3.dt_proj.weight f4 [6, 1]
0.19881424 0.38856512 0.60874724 -0.64804894 0.011720785 -0.2767833
00000000: f695 4b3e 02f2 c63e dcd6 1b3f 89e6 25bf
00000010: 8908 403c 8ab6 8dbe

encoders.3.dt_proj.bias f4 [6]
-3.7223601 -5.5832586 -4.958792 -5.1280212 -3.031403 -6.331294
00000000: 263b 6ec0 0eaa b2c0 6dae 9ec0 c018 a4c0
00000010: 8202 42c0 f699 cac0

encoders.3.out_proj.weight f4 [3, 6]
-0.48228273 -0.1122247 -0.37772357 -0.047345802 -0.43705896 -0.35405374 0.66525733 0.14733474
-0.046470396 0.443536 -0.3563744 -0.06275494 -0.53259397 -0.3646413 -0.23499835 -0.16660625
-0.45799616 -0.47528586
00000000: c3ed f6be 10d6 e5bd fc64 c1be aced 41bd
00000010: 31c6 dfbe 8846 b5be 4e4e 2a3f ebde 163e
00000020: be57 3ebd 2717 e33e b576 b6be a985 80bd
00000030: 1458 08bf 44b2 babe 68a3 70be d49a 2abe
00000040: 797e eabe ab58 f3be

mlp.0.weight f4 [128, 3]
0.11880044 -0.21188453 -0.5079558 -0.0027577307 -0.24160072 0.3155305 -0.3835153 0.32161433
0.36787373 -0.5223339 0.06819224 -0.06671753 -0.38663855 0.059407238 0.33670253 -0.32289407
-0.16835612 0.016909178 0.55505335 0.017328242 0.37023565 -0.47131133 0.15660623 0.4449006
0.19536014 0.088841245 0.057407673 -0.27167416 0.14847435 0.17918809 -0.2342208 -0.17651747
-0.260222 0.44005823 -0.18360607 0.0917625 0.57701397 0.28946775 -0.45171434 -0.1967938
-0.5457022 -0.38219842 0.34290853 0.47427762 0.47704086 0.54423344 -0.38574567 -0.5226198
0.547668 -0.018549176 0.26320133 0.22425267 -0.08101285 -0.32125014 0.109123856 0.31257516
0.020326592 -0.03595241 -0.5360933 -0.53874296 -0.47365 0.4010074 0.17274 0.06411234
-0.420576 -0.31947184 0.23608659 0.2818317 0.4481208 0.5081717 -0.0023718055 0.2620213
0.4222396 -0.5151528 -0.25905576 0.21530607 0.34592962 0.47715545 -0.037340328 -0.34495077
-0.21019524 -0.12998955 -0.58655137 0.38572043 -0.017672407 -0.44833025 -0.44252908 0.54476637
-0.37628788 -0.5653307 -0.17038962 -0.51936036 0.119911306 -0.3124997 -0.013032086 0.23712552
0.478862 0.27963617 0.5880863 -0.08949978 -0.08953698 -0.32036394 0.53301877 0.5536405
-0.19144611 0.4560868 0.2562581 -0.44135535 0.0698538 0.26806393 -0.55017656 -0.20975372
-0.49096423 -0.1264495 0.32793912 0.18655917 0.0557382 0.11411904 0.27018058 -0.5245878
-0.48317263 0.07120903 0.15104544 0.34565502 -0.25554895 0.56099725 0.52996355 -0.45464996
-0.14346986 -0.56279063 -0.005571763 -0.055876512 -0.028824363 0.55010515 -0.14464173 0.23703618
-0.306641 0.0022065649 0.20381747 0.18013641 -0.2112822 0.2790581 0.5407544 0.20500438
-0.35059565 0.28047416 -0.0008292125 0.10033159 -0.22228624 0.56649834 -0.51577586 0.5492089
0.3957617 -0.10386543 0.59010077 -0.5389625 -0.30667 0.53597254 0.4302596 -0.2437576
-0.41441298 -0.21648958 0.5861584 -0.09278279 0.3719218 0.2536844 0.4991342 0.012863071
-0.33130234 -0.3128592 0.45256194 -0.061030354 0.47694448 0.21784861 -0.107107736 -0.28331327
-0.35168993 0.063503906 0.17746997 -0.33260828 -0.4702802 -0.31372502 0.47226772 -0.37948808
0.44431663 -0.2532864 -0.32342204 -0.20709133 -0.5128698 0.2996687 -0.31510174 -0.1480637
0.6045604 0.2968036 0.22828002 -0.4204237 -0.0366369 -0.2413602 0.3688082 -0.6139716
-0.06704958 -0.4007857 -0.3354339 0.03255449 -0.28026202 -0.30941266 0.18735102 0.16891846
-0.17658247 -0.44626522 0.012534068 -0.36025593 0.23202793 0.4467234 -0.25366867 0.303604
-0.16074023 -0.05050342 0.60363346 -0.41322476 -0.0709351 0.33768755 -0.41966745 0.29941964
-0.06875839 0.16329044 -0.32154828 -0.14835972 0.08914439 0.4307892 -0.3020282 0.41894513
0.0154646505 -0.18685378 -0.20419934 -0.11522563 -0.49521944 0.27516454 0.19348091 -0.640997
-0.44758227 0.5467086 -0.084633544 -0.52776253 -0.44929412 0.0128595065 -0.4943471 0.015680952
0.4959684 -0.13531603 0.13830613 -0.27230284 -0.5621391 0.08950499 -0.3291896 0.15328571
00000000: a54d f33d 42f8 58be 6409 02bf 0bbb 34bb
00000010: 2e66 77be 378d a13e 1e5c c4be a2aa a43e
00000020: f259 bc3e adb7 05bf 60a8 8b3d 33a3 88bd
00000030: 7df5 c5be 0155 733d 4664 ac3e 5f52 a5be
00000040: 8c65 2cbe 1e85 8a3c fa17 0e3f f5f3 8d3c
00000050: 878f bd3e b84f f1be 625d 203e 03ca e33e
00000060: 7d0c 483e 66f2 b53d 4f24 6b3d e018 8bbe
00000070: a909 183e 157d 373e 94d7 6fbe ffc0 34be
00000080: d13b 85be 504f e13e 3b03 3cbe faed bb3d
00000090: 30b7 133f 1e35 943e 1a47 e7be 5084 49be
000000a0: 24b3 0bbf 83af c3be b591 af3e 84d4 f23e
000000b0: b33e f43e e252 0b3f 7580 c5be 69ca 05bf
000000c0: f833 0c3f 71f4 97bc 53c2 863e 7ea2 653e
000000d0: 11ea a5bd e67a a4be 547c df3d da09 a03e
000000e0: f483 a63c d642 13bd 693d 09bf 0feb 09bf
000000f0: 4182 f2be d850 cd3e c1e2 303e 554d 833d
00000100: bd55 d7be d091 a3be afc0 713e 3f4c 903e
00000110: 1770 e53e 8a17 023f 4b70 1bbb a827 863e
00000120: ca2f d83e 0ee1 03bf f5a2 84be 3279 5c3e
00000130: b01d b13e b84d f43e 2cf2 18bd 639d b0be
00000140: 6c3d 57be fb1b 05be 3b28 16bf 267d c53e
00000150: b9c5 90bc 8b8b e5be 2c93 e2be cf75 0b3f
00000160: cea8 c0be 83b9 10bf 9e7a 2ebe cdf4 04bf
00000170: 0f94 f53d f6ff 9fbe 8884 55bc 08d1 723e
00000180: 662d f53e 792c 8f3e d38c 163f a94b b7bd
00000190: 2a5f b7bd be06 a4be eb73 083f 62bb 0d3f
000001a0: 730a 44be 3684 e93e 4334 833e 54f9 e1be
000001b0: 820f 8f3d ad3f 893e 5fd8 0cbf aec9 56be
000001c0: aa5f fbbe fa7b 01be a3e7 a73e 5e09 3f3e
000001d0: bd4d 643d 3eb7 e93d 1c55 8a3e 634b 06bf
000001e0: 6762 f7be 0ad6 913d a8ab 1a3e b2f9 b03e
000001f0: 50d7 82be 849d 0f3f b1ab 073f e1c7 e8be
00000200: c3e9 12be 0c13 10bf 5693 b6bb c5de 64bd
00000210: 1221 ecbc b1d3 0c3f f61c 14be 9db9 723e
00000220: 0d00 9dbe 049c 103b 87b5 503e ae75 383e
00000230: 5c5a 58be b4e0 8e3e e16e 0a3f abec 513e
00000240: 4681 b3be 4f9a 8f3e 825f 59ba a67a cd3d
00000250: 019f 63be 0906 113f e309 04bf f498 0c3f
00000260: 47a1 ca3e 66b7 d4bd d810 173f 72f9 09bf
00000270: da03 9dbe 7f35 093f fc4a dc3e 989b 79be
00000280: f02d d4be 72af 5dbe 7a0e 163f e704 bebd
00000290: 896c be3e ece2 813e 858e ff3e a1bf 523c
000002a0: 76a0 a9be 152f a0be 33b6 e73e f7fa 79bd
000002b0: 1132 f43e b513 5f3e 4d5b dbbd 700e 91be
000002c0: b410 b4be 560e 823d b0ba 353e a24b aabe
000002d0: 91c8 f0be 91a0 a0be 13cd f13e 434c c2be
000002e0: 787d e33e c1ae 81be 9397 a5be c00f 54be
000002f0: 6f4b 03bf 2d6e 993e 0455 a1be 039e 17be
00000300: 78c4 1a3f a4f6 973e 3dc2 693e c641 d7be
00000310: 9310 16bd 2127 77be 6ed4 bc3e 3e2d 1dbf
00000320: 4a51 89bd c933 cdbe febd abbe db57 053d
00000330: 817e 8fbe 566b 9ebe f2d8 3f3e f6f8 2c3e
00000340: 09d2 34be e07c e4be b15b 4d3c 7773 b8be
00000350: bb98 6d3e eeb8 e43e dce0 81be fc71 9b3e
00000360: 1699 24be addc 4ebd b987 1a3f 3292 d3be
00000370: 6c46 91bd 62e5 ac3e a7de d6be 884d 993e
00000380: 33d1 8cbd 9c35 273e faa1 a4be 9ceb 17be
00000390: 5591 b63d 6790 dc3e 71a3 9abe fa7f d63e
000003a0: 725f 7d3c 9956 3fbe a219 51be 6afb ebbd
000003b0: 678d fdbe 5ee2 8c3e dc1f 463e 6118 24bf
000003c0: 8129 e5be 18f5 0b3f 5a54 adbd 721b 07bf
000003d0: e109 e6be aeb0 523c 101b fdbe 5775 803c
000003e0: 92ef fd3e 4990 0abe 1fa0 0d3e 476b 8bbe
000003f0: 59e8 0fbf 644e b73d 8a8b a8be eef6 1c3e

mlp.0.bias f4 [128]
0.2043853 -0.53481 -0.57165533 0.069985084 0.41296366 0.43126464 -0.3865082 -0.3891273
-0.35176477 0.15210208 0.5911467 0.38603196 0.51071227 -0.31495267 0.19589964 0.17470908
-0.2796498 -0.054900065 0.3305006 -0.37755054 -0.04709867 -0.4433567 0.49433056 -0.2657261
-0.5761963 -0.38159648 -0.15047216 -0.24682477 0.34645405 -0.25668636 0.5873976 -0.28692552
0.6231372 -0.4461488 0.5816176 -0.18621308 -0.41120884 0.30089775 -0.09298925 -0.5967659
-0.44456628 -0.119968414 0.1626996 0.1546922 0.47983813 -0.38825738 0.5775731 0.1633536
0.26511967 -0.17460747 -0.32286987 -0.524883 -0.18350774 0.5073171 -0.07574923 0.12367879
-0.40205303 -0.029658653 0.27562082 -0.04777611 -0.15486684 -0.42497814 0.10940927 0.44018483
0.13790888 0.087978005 0.43390247 -0.24344195 0.55968255 0.17008148 0.38924757 0.41187438
0.1507151 0.15460773 -0.6227328 0.3176473 -0.18705015 -0.4354227 -0.22833982 -0.53819424
-0.43594578 0.17944077 0.25740698 -0.5887796 0.077962406 -0.41255656 -0.20927171 -0.18270293
0.1371768 -0.26164496 -0.3942128 -0.59089947 -0.35291678 -0.41304615 -0.3992011 -0.18201408
-0.34887207 0.086378396 0.43815663 -0.32704216 -0.045194693 0.10817897 0.5715648 0.06945903
-0.13970168 0.10960677 0.5589353 -0.30652183 0.2574152 0.3623903 -0.49662125 -0.49617243
-0.256001 0.3284846 -0.4320597 0.5260864 0.36564574 -0.3327998 -0.12459182 -0.3916256
-0.5471321 0.551275 0.46951202 0.4295391 -0.09724832 -0.03334184 0.4468402 0.61626524
00000000: 614a 513e 4fe9 08bf 0158 12bf 5754 8f3d
00000010: f96f d33e b8ce dc3e 67e4 c5be b23b c7be
00000020: 831a b4be a6c0 1b3e 6455 173f fba5 c53e
00000030: 0abe 023f 7a41 a1be ea99 483e f0e6 323e
00000040: 422e 8fbe e4de 60bd 6037 a93e 4e4e c1be
00000050: 89ea 40bd a6ff e2be e518 fd3e 400d 88be
00000060: 9a81 13bf 9d60 c3be 6015 1abe a2bf 7cbe
00000070: 6d62 b13e 656c 83be b05f 163f e7e7 92be
00000080: eb85 1f3f 9e6d e4be e4e4 143f a4ae 3ebe
00000090: f789 d2be 450f 9a3e 2671 bebd a6c5 18bf
000000a0: 319e e3be 00b2 f5bd b99a 263e a267 1e3e
000000b0: 58ad f53e acc9 c6be d5db 133f 2b46 273e
000000c0: c4bd 873e 4dcc 32be 334f a5be bb5e 06bf
000000d0: 74e9 3bbe 89df 013f 6a22 9bbd 4e4b fd3d
000000e0: e5d9 cdbe b4f6 f2bc 2c1e 8d3e e2b0 43bd
000000f0: 6a95 1ebe bc96 d9be f811 e03d e85f e13e
00000100: fc37 0d3e d02d b43d 7728 de3e d948 79be
00000110: 5b47 0f3f d729 2e3e 754b c73e 33e1 d23e
00000120: 0f55 1a3e 7d51 1e3e 6b6b 1fbf aba2 a23e
00000130: 138a 3fbe b9ef debe ead1 69be 19c7 09bf
00000140: 4934 dfbe 52bf 373e d9ca 833e 43ba 16bf
00000150: c1aa 9f3d 9d3a d3be 534b 56be 7a16 3bbe
00000160: 1378 0c3e 54f6 85be 43d6 c9be 3045 17bf
00000170: 82b1 b4be c97a d3be 1664 ccbe e661 3abe
00000180: 5c9f b2be 28e7 b03d 1156 e03e 1272 a7be
00000190: 121e 39bd f08c dd3d 1252 123f 8940 8e3d
000001a0: f50d 0fbe 8479 e03d 6216 0f3f 6ef0 9cbe
000001b0: edcb 833e 398b b93e 2445 febe 500a febe
000001c0: 9012 83be 222f a83e ee36 ddbe 99ad 063f
000001d0: eb35 bb3e bc64 aabe ff29 ffbd 2783 c8be
000001e0: d910 0cbf 5c20 0d3f e163 f03e 8dec db3e
000001f0: 212a c7bd 7491 08bd 3dc8 e43e 8fc3 1d3f
