code/conjugate_gradient/mamba/models/mamba_quantized.pt (torch, 41286 bytes, 23 tensors)

encoders.0.A_log f4 [6, 16]
000000 00 00 00 00 18 72 31 3f 54 9f 8c 3f 18 72 b1 3f
       0.0 0.6931472 1.0986123 1.3862944
000010 10 02 ce 3f 60 58 e5 3f 96 13 f9 3f 92 15 05 40
       1.609438 1.7917595 1.9459102 2.0794415
000020 54 9f 0c 40 8e 5d 13 40 1e 77 19 40 b6 08 1f 40
       2.1972246 2.3025851 2.3978953 2.4849067
000030 21 28 24 40 51 e6 28 40 b2 50 2d 40 18 72 31 40
       2.5649493 2.6390574 2.7080503 2.7725887
000040 00 00 00 00 18 72 31 3f 54 9f 8c 3f 18 72 b1 3f
       0.0 0.6931472 1.0986123 1.3862944
000050 10 02 ce 3f 60 58 e5 3f 96 13 f9 3f 92 15 05 40
       1.609438 1.7917595 1.9459102 2.0794415
000060 54 9f 0c 40 8e 5d 13 40 1e 77 19 40 b6 08 1f 40
       2.1972246 2.3025851 2.3978953 2.4849067
000070 21 28 24 40 51 e6 28 40 b2 50 2d 40 18 72 31 40
       2.5649493 2.6390574 2.7080503 2.7725887
000080 00 00 00 00 18 72 31 3f 54 9f 8c 3f 18 72 b1 3f
       0.0 0.6931472 1.0986123 1.3862944
000090 10 02 ce 3f 60 58 e5 3f 96 13 f9 3f 92 15 05 40
       1.609438 1.7917595 1.9459102 2.0794415
0000a0 54 9f 0c 40 8e 5d 13 40 1e 77 19 40 b6 08 1f 40
       2.1972246 2.3025851 2.3978953 2.4849067
0000b0 21 28 24 40 51 e6 28 40 b2 50 2d 40 18 72 31 40
       2.5649493 2.6390574 2.7080503 2.7725887
0000c0 00 00 00 00 18 72 31 3f 54 9f 8c 3f 18 72 b1 3f
       0.0 0.6931472 1.0986123 1.3862944
0000d0 10 02 ce 3f 60 58 e5 3f 96 13 f9 3f 92 15 05 40
       1.609438 1.7917595 1.9459102 2.0794415
0000e0 54 9f 0c 40 8e 5d 13 40 1e 77 19 40 b6 08 1f 40
       2.1972246 2.3025851 2.3978953 2.4849067
0000f0 21 28 24 40 51 e6 28 40 b2 50 2d 40 18 72 31 40
       2.5649493 2.6390574 2.7080503 2.7725887
000100 00 00 00 00 18 72 31 3f 54 9f 8c 3f 18 72 b1 3f
       0.0 0.6931472 1.0986123 1.3862944
000110 10 02 ce 3f 60 58 e5 3f 96 13 f9 3f 92 15 05 40
       1.609438 1.7917595 1.9459102 2.0794415
000120 54 9f 0c 40 8e 5d 13 40 1e 77 19 40 b6 08 1f 40
       2.1972246 2.3025851 2.3978953 2.4849067
000130 21 28 24 40 51 e6 28 40 b2 50 2d 40 18 72 31 40
       2.5649493 2.6390574 2.7080503 2.7725887
000140 00 00 00 00 18 72 31 3f 54 9f 8c 3f 18 72 b1 3f
       0.0 0.6931472 1.0986123 1.3862944
000150 10 02 ce 3f 60 58 e5 3f 96 13 f9 3f 92 15 05 40
       1.609438 1.7917595 1.9459102 2.0794415
000160 54 9f 0c 40 8e 5d 13 40 1e 77 19 40 b6 08 1f 40
       2.1972246 2.3025851 2.3978953 2.4849067
000170 21 28 24 40 51 e6 28 40 b2 50 2d 40 18 72 31 40
       2.5649493 2.6390574 2.7080503 2.7725887

encoders.0.D f4 [6]
000000 00 00 80 3f 00 00 80 3f 00 00 80 3f 00 00 80 3f
       1.0 1.0 1.0 1.0
000010 00 00 80 3f 00 00 80 3f
       1.0 1.0

encoders.0.conv1d.weight f4 [6, 1, 4]
000000 96 6d cf be cc 9b 4b 3e 38 08 5f 3e 78 4d 77 be
       -0.40513295 0.1988365 0.21780479 -0.24150646
000010 be f3 f0 be b6 f6 bc 3e b2 7f f2 be 60 ba ff bc
       -0.4706096 0.36906976 -0.4736305 -0.0312168
000020 4c ff 0b 3e 00 b5 e5 bb 50 2b b3 bd e2 42 80 be
       0.13671607 -0.0070101023 -0.087484956 -0.25051028
000030 aa aa 90 3e dc 47 94 3e f8 f0 b6 3d 40 3a 2a be
       0.28255206 0.28961074 0.0893268 -0.16623783
000040 94 0f 31 3e 98 8c 2b 3e cc 62 48 3e a0 b1 fc 3c
       0.17291099 0.16752851 0.19568938 0.030846417
000050 d8 35 99 bd ec ad 47 3e 74 76 d2 3e 00 8d 34 3b
       -0.07480973 0.1949994 0.41105998 0.0027549863

encoders.0.conv1d.bias f4 [6]
000000 10 8f 9a bd a6 7c b3 be b6 4f d6 be 12 34 8a be
       -0.07546818 -0.35056037 -0.4185769 -0.26992851
000010 70 98 14 3e c8 d4 09 3e
       0.14511275 0.13460076

cuda:0 f4 [6]
000000 c8 f3 b7 c0 c6 03 57 c0 6b f4 c2 c0 7e ec 91 c0
       -5.7485085 -3.3596053 -6.092336 -4.5601187
000010 54 74 93 c0 3c 12 22 c0
       -4.60795 -2.532363

encoders.1.A_log f4 [6, 16]
000000 00 00 00 00 18 72 31 3f 54 9f 8c 3f 18 72 b1 3f
       0.0 0.6931472 1.0986123 1.3862944
000010 10 02 ce 3f 60 58 e5 3f 96 13 f9 3f 92 15 05 40
       1.609438 1.7917595 1.9459102 2.0794415
000020 54 9f 0c 40 8e 5d 13 40 1e 77 19 40 b6 08 1f 40
       2.1972246 2.3025851 2.3978953 2.4849067
000030 21 28 24 40 51 e6 28 40 b2 50 2d 40 18 72 31 40
       2.5649493 2.6390574 2.7080503 2.7725887
000040 00 00 00 00 18 72 31 3f 54 9f 8c 3f 18 72 b1 3f
       0.0 0.6931472 1.0986123 1.3862944
000050 10 02 ce 3f 60 58 e5 3f 96 13 f9 3f 92 15 05 40
       1.609438 1.7917595 1.9459102 2.0794415
000060 54 9f 0c 40 8e 5d 13 40 1e 77 19 40 b6 08 1f 40
       2.1972246 2.3025851 2.3978953 2.4849067
000070 21 28 24 40 51 e6 28 40 b2 50 2d 40 18 72 31 40
       2.5649493 2.6390574 2.7080503 2.7725887
000080 00 00 00 00 18 72 31 3f 54 9f 8c 3f 18 72 b1 3f
       0.0 0.6931472 1.0986123 1.3862944
000090 10 02 ce 3f 60 58 e5 3f 96 13 f9 3f 92 15 05 40
       1.609438 1.7917595 1.9459102 2.0794415
0000a0 54 9f 0c 40 8e 5d 13 40 1e 77 19 40 b6 08 1f 40
       2.1972246 2.3025851 2.3978953 2.4849067
0000b0 21 28 24 40 51 e6 28 40 b2 50 2d 40 18 72 31 40
       2.5649493 2.6390574 2.7080503 2.7725887
0000c0 00 00 00 00 18 72 31 3f 54 9f 8c 3f 18 72 b1 3f
       0.0 0.6931472 1.0986123 1.3862944
0000d0 10 02 ce 3f 60 58 e5 3f 96 13 f9 3f 92 15 05 40
       1.609438 1.7917595 1.9459102 2.0794415
0000e0 54 9f 0c 40 8e 5d 13 40 1e 77 19 40 b6 08 1f 40
       2.1972246 2.3025851 2.3978953 2.4849067
0000f0 21 28 24 40 51 e6 28 40 b2 50 2d 40 18 72 31 40
       2.5649493 2.6390574 2.7080503 2.7725887
000100 00 00 00 00 18 72 31 3f 54 9f 8c 3f 18 72 b1 3f
       0.0 0.6931472 1.0986123 1.3862944
000110 10 02 ce 3f 60 58 e5 3f 96 13 f9 3f 92 15 05 40
       1.609438 1.7917595 1.9459102 2.0794415
000120 54 9f 0c 40 8e 5d 13 40 1e 77 19 40 b6 08 1f 40
       2.1972246 2.3025851 2.3978953 2.4849067
000130 21 28 24 40 51 e6 28 40 b2 50 2d 40 18 72 31 40
       2.5649493 2.6390574 2.7080503 2.7725887
000140 00 00 00 00 18 72 31 3f 54 9f 8c 3f 18 72 b1 3f
       0.0 0.6931472 1.0986123 1.3862944
000150 10 02 ce 3f 60 58 e5 3f 96 13 f9 3f 92 15 05 40
       1.609438 1.7917595 1.9459102 2.0794415
000160 54 9f 0c 40 8e 5d 13 40 1e 77 19 40 b6 08 1f 40
       2.1972246 2.3025851 2.3978953 2.4849067
000170 21 28 24 40 51 e6 28 40 b2 50 2d 40 18 72 31 40
       2.5649493 2.6390574 2.7080503 2.7725887

encoders.1.D f4 [6]
000000 00 00 80 3f 00 00 80 3f 00 00 80 3f 00 00 80 3f
       1.0 1.0 1.0 1.0
000010 00 00 80 3f 00 00 80 3f
       1.0 1.0

encoders.1.conv1d.weight f4 [6, 1, 4]
000000 80 91 0e 3e b8 72 82 3d 08 86 ff bd a6 a7 bf be
       0.13922691 0.06369537 -0.12476736 -0.37432593
000010 28 96 90 bd 22 fd c4 3e 90 91 75 bd 60 28 67 3e
       -0.0705989 0.38474375 -0.059953272 0.22573996
000020 08 f9 b2 3e 98 c0 e5 3e ae f6 c1 be c6 54 d2 be
       0.3495562 0.448735 -0.37883514 -0.41080302
000030 c6 15 e3 be 20 f2 f4 bc b0 3d 0c 3d ec db c0 be
       -0.4435255 -0.02990061 0.034238517 -0.37667787
000040 80 53 3c bd 08 80 fe 3e 10 ab 04 be 58 76 46 3e
       -0.04597807 0.49707055 -0.1295588 0.19381082
000050 1c ab 31 be 10 58 85 3d 12 03 95 be 50 bf 01 3e
       -0.1735043 0.06510937 -0.29103905 0.12670636

encoders.1.conv1d.bias f4 [6]
000000 90 85 94 3d 1c 05 56 be 18 fe 89 3d 40 df 00 3e
       0.072520375 -0.20900387 0.06737918 0.12585163
000010 60 8a c0 bc 40 0f 80 3d
       -0.023503482 0.06252909

cuda:0 f4 [6]
000000 ab dc d4 c0 65 7e 27 c0 92 a0 bd c0 81 15 40 c0
       -6.651937 -2.6170895 -5.925851 -3.0013125
000010 48 ae 91 c0 6f 69 ae c0
       -4.5525246 -5.4503703

encoders.2.A_log f4 [6, 16]
000000 00 00 00 00 18 72 31 3f 54 9f 8c 3f 18 72 b1 3f
       0.0 0.6931472 1.0986123 1.3862944
000010 10 02 ce 3f 60 58 e5 3f 96 13 f9 3f 92 15 05 40
       1.609438 1.7917595 1.9459102 2.0794415
000020 54 9f 0c 40 8e 5d 13 40 1e 77 19 40 b6 08 1f 40
       2.1972246 2.3025851 2.3978953 2.4849067
000030 21 28 24 40 51 e6 28 40 b2 50 2d 40 18 72 31 40
       2.5649493 2.6390574 2.7080503 2.7725887
000040 00 00 00 00 18 72 31 3f 54 9f 8c 3f 18 72 b1 3f
       0.0 0.6931472 1.0986123 1.3862944
000050 10 02 ce 3f 60 58 e5 3f 96 13 f9 3f 92 15 05 40
       1.609438 1.7917595 1.9459102 2.0794415
000060 54 9f 0c 40 8e 5d 13 40 1e 77 19 40 b6 08 1f 40
       2.1972246 2.3025851 2.3978953 2.4849067
000070 21 28 24 40 51 e6 28 40 b2 50 2d 40 18 72 31 40
       2.5649493 2.6390574 2.7080503 2.7725887
000080 00 00 00 00 18 72 31 3f 54 9f 8c 3f 18 72 b1 3f
       0.0 0.6931472 1.0986123 1.3862944
000090 10 02 ce 3f 60 58 e5 3f 96 13 f9 3f 92 15 05 40
       1.609438 1.7917595 1.9459102 2.0794415
0000a0 54 9f 0c 40 8e 5d 13 40 1e 77 19 40 b6 08 1f 40
       2.1972246 2.3025851 2.3978953 2.4849067
0000b0 21 28 24 40 51 e6 28 40 b2 50 2d 40 18 72 31 40
       2.5649493 2.6390574 2.7080503 2.7725887
0000c0 00 00 00 00 18 72 31 3f 54 9f 8c 3f 18 72 b1 3f
       0.0 0.6931472 1.0986123 1.3862944
0000d0 10 02 ce 3f 60 58 e5 3f 96 13 f9 3f 92 15 05 40
       1.609438 1.7917595 1.9459102 2.0794415
0000e0 54 9f 0c 40 8e 5d 13 40 1e 77 19 40 b6 08 1f 40
       2.1972246 2.3025851 2.3978953 2.4849067
0000f0 21 28 24 40 51 e6 28 40 b2 50 2d 40 18 72 31 40
       2.5649493 2.6390574 2.7080503 2.7725887
000100 00 00 00 00 18 72 31 3f 54 9f 8c 3f 18 72 b1 3f
       0.0 0.6931472 1.0986123 1.3862944
000110 10 02 ce 3f 60 58 e5 3f 96 13 f9 3f 92 15 05 40
       1.609438 1.7917595 1.9459102 2.0794415
000120 54 9f 0c 40 8e 5d 13 40 1e 77 19 40 b6 08 1f 40
       2.1972246 2.3025851 2.3978953 2.4849067
000130 21 28 24 40 51 e6 28 40 b2 50 2d 40 18 72 31 40
       2.5649493 2.6390574 2.7080503 2.7725887
000140 00 00 00 00 18 72 31 3f 54 9f 8c 3f 18 72 b1 3f
       0.0 0.6931472 1.0986123 1.3862944
000150 10 02 ce 3f 60 58 e5 3f 96 13 f9 3f 92 15 05 40
       1.609438 1.7917595 1.9459102 2.0794415
000160 54 9f 0c 40 8e 5d 13 40 1e 77 19 40 b6 08 1f 40
       2.1972246 2.3025851 2.3978953 2.4849067
000170 21 28 24 40 51 e6 28 40 b2 50 2d 40 18 72 31 40
       2.5649493 2.6390574 2.7080503 2.7725887

encoders.2.D f4 [6]
000000 00 00 80 3f 00 00 80 3f 00 00 80 3f 00 00 80 3f
       1.0 1.0 1.0 1.0
000010 00 00 80 3f 00 00 80 3f
       1.0 1.0

encoders.2.conv1d.weight f4 [6, 1, 4]
000000 40 d6 de bd 94 b9 e6 3e 38 e0 6e 3e 80 00 aa 3b
       -0.10880709 0.4506346 0.2332772 0.005188048
000010 94 21 c5 3e 76 c2 8c 3e 06 6f cc 3e e0 6c b8 3c
       0.3850218 0.27492112 0.39928454 0.022512853
000020 0a e2 ce be f0 c7 0b 3d 32 2a d4 3e fa ac cb 3e
       -0.4040683 0.034126222 0.41438442 0.39780408
000030 60 5d 53 3e 5c ef 65 3e 9c 4b fd 3e 9c 6b 3c be
       0.20641088 0.2245459 0.49471748 -0.18400425
000040 94 44 7a 3e 94 69 30 3e 5c bd 1f be 18 5c 1e be
       0.24440223 0.17227775 -0.15599579 -0.15464818
000050 48 25 c2 3e 10 18 74 3d 20 af f0 3e cc a4 bd 3e
       0.37919068 0.05959326 0.4700861 0.37039793

encoders.2.conv1d.bias f4 [6]
000000 60 38 f0 be b8 23 96 bd d2 f3 e8 3e d8 3d e9 bd
       -0.4691801 -0.073310316 0.4549852 -0.11388749
000010 e8 20 91 bd a8 0e 6b be
       -0.070863545 -0.2295481

cuda:0 f4 [6]
000000 ed 25 95 c0 2a f1 13 c0 b9 e5 59 c0 d5 f6 92 c0
       -4.6608796 -2.3115945 -3.4046462 -4.592631
000010 3f ec 6e c0 38 06 d0 c0
       -3.7331693 -6.500759

encoders.3.A_log f4 [6, 16]
000000 a9 2a c9 c0 a0 2b 04 41 26 41 d6 bf a6 c4 d6 c0
       -6.2864575 8.260651 -1.6738632 -6.711505
000010 d7 13 7d 40 76 13 d8 c0 1c 13 53 40 b3 5e ab 40
       3.954336 -6.7523756 3.2980413 5.35531
000020 da e9 57 40 2d 3b 05 41 b4 37 0e 41 5f ca ca bf
       3.3736482 8.326947 8.888599 -1.5843009
000030 68 a3 1e 41 0e 3e 22 c1 d0 18 d7 3f a9 5c 1b bf
       9.914894 -10.14015 1.6804447 -0.60688263
000040 36 32 ab 40 ec 28 5e c1 4b 04 94 40 a8 1c 6f 40
       5.3498793 -13.884991 4.625524 3.736124
000050 4d 9e 83 40 36 c2 6f 40 3a de 24 40 c6 6a da 3f
       4.113074 3.7462287 2.5760636 1.7063835
000060 12 24 82 40 15 97 d9 40 d3 bb 0f 41 54 5e d9 40
       4.066903 6.7996926 8.9833555 6.7927647
000070 9d 38 f5 40 32 63 77 40 a0 c8 0e 41 70 63 85 40
       7.663161 3.8654294 8.923981 4.1683884
000080 e4 f1 80 c1 92 54 a2 c0 a8 46 43 3f 35 52 23 3f
       -16.11811 -5.0728235 0.7627969 0.6379731
000090 7b fb ed 3f 0e f7 1e 40 f0 3b cb 40 7b 48 c3 3f
       1.8592371 2.483829 6.3510666 1.5256494
0000a0 45 41 48 40 20 f4 17 41 46 ac ab 40 02 a7 39 40
       3.1289837 9.497101 5.3647795 2.9008183
0000b0 3a de 10 40 bf 55 26 40 c0 14 1a 41 a5 bd 47 40
       2.2635636 2.5989835 9.630066 3.12095
0000c0 59 00 50 c1 2e ab 75 c0 8d d0 7a 40 e3 6f 8d 40
       -13.000085 -3.838573 3.918979 4.419908
0000d0 64 4a a5 40 23 0e 08 41 f1 fc 3a 40 0a 5f 08 40
       5.165331 8.503451 2.9216883 2.1308007
0000e0 71 99 c6 3f f1 44 40 40 4f 1a af 40 6b ad 80 40
       1.5515577 3.0042078 5.4719615 4.021169
0000f0 d3 84 01 41 ec 66 4a c0 69 a5 ed 40 66 91 be 40
       8.094928 -3.1625319 7.4264417 5.955249
000100 43 3a bb c0 fa 1c 64 3f 07 3d b5 40 8a 67 0c 41
       -5.850862 0.89106715 5.6636996 8.775278
000110 3b af 0c 40 30 dc 89 40 be ee c6 3f 51 5c 59 40
       2.1981952 4.3081284 1.5541608 3.3962595
000120 9b c9 3a 40 4c f9 c0 bd 63 09 ef 40 f7 9f b8 3f
       2.918555 -0.094225496 7.469896 1.4423817
000130 53 2e 15 40 2f 06 b2 40 7b ef 68 40 b3 e4 4b 40
       2.3309524 5.563255 3.6396167 3.1858337
000140 97 f7 85 40 c3 0c 39 41 51 ea 9e 3f 96 97 bd 3f
       4.1864734 11.565616 1.2415258 1.4811885
000150 51 72 0d 40 bc 4a cf 3e 00 98 1f be 24 20 8c 3f
       2.2101023 0.40486705 -0.15585327 1.0947309
000160 0a f2 a3 40 0f 97 d8 3e fc e4 15 40 6f 11 2c 40
       5.123296 0.4230275 2.342101 2.688564
000170 22 18 0f 40 25 13 01 41 e2 64 68 3f 9a d9 75 40
       2.235848 8.067174 0.90778935 3.8414063

encoders.3.D f4 [6]
000000 9a 3f 4c 3f c1 8d 29 3d 0d 29 39 bf 89 37 0a 3e
       0.7978455 0.041394953 -0.72328264 0.13497747
000010 5d ff 35 bd eb 37 90 bd
       -0.044432987 -0.070419155

encoders.3.conv1d.weight f4 [6, 1, 4]
000000 75 2e e5 bd fb 31 96 be be d5 af be d0 a8 87 3e
       -0.111905016 -0.29335007 -0.3434276 0.2649598
000010 8f f2 2f 3b 7f 8e 41 be 4b 9a df bd 7a e9 ac be
       0.0026847457 -0.18902014 -0.10918101 -0.33771878
000020 43 0e cd 3e 7e aa c6 3d b3 17 90 3d 77 4f d6 3d
       0.40049943 0.097004876 0.0703577 0.104643755
000030 cc 09 a5 3e f7 05 d1 3d 88 04 4c 3f c1 09 7e bf
       0.32234037 0.10206216 0.79694414 -0.99233633
000040 73 f5 84 3e f1 4e 86 3e 78 c3 b5 3e 40 a1 ef be
       0.25968513 0.26232103 0.35500693 -0.4680271
000050 5f 44 76 3f 86 6b a3 3e 85 c4 ee be 85 f1 3d bf
       0.96198076 0.3191797 -0.46634308 -0.74196655

encoders.3.conv1d.bias f4 [6]
000000 b8 b8 8a 3f 9a 58 37 3f 25 2e f6 3e 2a 16 32 3e
       1.0837622 0.7161957 0.4808208 0.17391267
000010 da e7 61 3f d8 4f 32 3f
       0.882444 0.6965308

cuda:0 f4 [6]
000000 e7 7c af c0 f7 55 a3 c0 60 7b 21 c0 0c e2 9c c0
       -5.483997 -5.1042438 -2.5231552 -4.9025936
000010 a5 e1 4f c0 b2 56 18 c0
       -3.2481472 -2.3802915

cuda:0 f4 [128]
000000 ba 57 d1 be c4 3e 02 bf be 3c 5c bd ea fe 38 bf
       -0.40887243 -0.5087702 -0.053768866 -0.7226397
000010 22 cc 15 bf 60 22 0f bf 6c d6 7b be 36 a4 51 be
       -0.58514607 -0.5591183 -0.24593514 -0.20472798
000020 93 0b 84 3d 5a ac a6 bd a1 b8 f4 be c2 9a ab be
       0.0644752 -0.08138342 -0.4779711 -0.33516508
000030 a9 16 1c bf cd 9a 0a bf d0 2c 95 3d bd 24 b7 3c
       -0.60972077 -0.5414246 0.07283938 0.022356385
000040 3e ee bf bf 8a 41 91 3e 8d 3f 38 bf 3a 72 d6 3e
       -1.4994581 0.28370315 -0.7197197 0.41884023
000050 38 d8 bb 3e d5 97 f6 bd 66 e7 34 bd bf 88 cd 3c
       0.366884 -0.120406784 -0.04416599 0.02508962
000060 60 10 79 be 59 03 cd bf b9 55 eb be 6d e2 3a bd
       -0.24322653 -1.6016647 -0.4596384 -0.045626093
000070 ac 63 ae be ce 73 41 bf 78 0a 32 bf 36 44 25 bd
       -0.3406042 -0.7556733 -0.69547224 -0.040348254
000080 6c 5c f5 be b4 96 78 3e c0 8c 0e 3e b1 34 0a bf
       -0.47922075 0.24276239 0.1392088 -0.5398665
000090 37 d2 e4 bf 12 53 92 bf 7e 29 85 be 4f fa 6c bd
       -1.7876652 -1.1431601 -0.2600822 -0.0578559
0000a0 a5 ea 03 be 4a 2e 14 bf 00 7f 73 bf d9 c5 42 be
       -0.12882479 -0.5788313 -0.9511566 -0.19020785
0000b0 13 04 f6 be 54 97 76 bd 84 48 09 bf 96 27 0c bf
       -0.48049983 -0.06020291 -0.53626275 -0.54747903
0000c0 e2 f3 1d bf c2 66 c1 3e 9e 7e e1 be 4f cd ff bd
       -0.6170026 0.3777371 -0.44041914 -0.124903314
0000d0 8d 23 83 be f8 44 0c bf b6 88 ff be 2c 36 42 c0
       -0.2561306 -0.5479274 -0.4990899 -3.0345564
0000e0 f8 de 15 bf e7 5e ca bf 4e ca b6 bc 16 f5 65 3e
       -0.5854335 -1.5810212 -0.022313263 0.22456774
0000f0 6b 7a 5b be 32 07 09 bf 36 28 c1 bd 90 a6 80 3c
       -0.21433417 -0.53526604 -0.09431498 0.015704423
000100 c1 ee 8b be 9a 6e ba be e1 31 0a 3e ec 69 16 be
       -0.27330592 -0.36412507 0.1349559 -0.14688843
000110 f5 17 81 c0 96 a8 1d bf bc b2 30 be c9 20 0a 3f
       -4.0341744 -0.61585367 -0.17255682 0.53956276
000120 86 88 19 c0 cd bb 8b be 04 7d 05 bf ba c5 6d be
       -2.3989577 -0.27291718 -0.52143884 -0.23219958
000130 b1 24 f3 bd bc a4 0a bf de 03 3b 3e 10 18 7e bf
       -0.11872233 -0.54157615 0.18263194 -0.99255466
000140 3f 31 3c 3e fb ad c4 3e 07 18 9a be 22 1a 4d bf
       0.18378161 0.38413987 -0.30096456 -0.80118
000150 ae 8e a8 bd c4 07 19 be 20 69 19 be 37 cd de 3d
       -0.08230339 -0.14944369 -0.14981508 0.108789854
000160 94 f0 43 3d 4c fb 27 bf 94 b3 fe be b9 c2 b6 be
       0.047836855 -0.65617824 -0.49746382 -0.35695437
000170 30 44 4d c0 82 d4 b6 bf ce 74 c3 be 02 9c 98 bf
       -3.2072868 -1.4283602 -0.38175052 -1.192261
000180 ec 15 3d bf 60 66 e5 be 41 df 36 3e 5c 30 77 c0
       -0.73861575 -0.44804668 0.17858602 -3.8623266
000190 62 f2 e0 be 35 48 fb be a4 7f 47 3e 21 53 7f 3e
       -0.43934923 -0.49078527 0.19482285 0.24934055
0001a0 77 33 b0 3d 33 83 95 be 72 ff fc bf a4 a5 60 3e
       0.08603566 -0.2920166 -1.9765456 0.21938187
0001b0 30 96 ee 3e f8 64 06 be ed 9b 0d bf 6e ff 40 bf
       0.4659896 -0.13124454 -0.5531605 -0.75389755
0001c0 cb 4b 09 3d 99 56 b7 be 3b 95 5a be 68 ef 55 bd
       0.033519547 -0.35808256 -0.2134599 -0.05223027
0001d0 10 c2 6c bc b1 c8 8b be 1b 82 e7 bd 65 3e da bf
       -0.014450565 -0.27301553 -0.113041125 -1.7050291
0001e0 10 52 97 be 73 22 1d 3e 85 f8 44 c0 3d 04 0f 3e
       -0.29554796 0.15345173 -3.0776684 0.1396646
0001f0 65 67 9a bd d6 88 16 bf 76 d5 c3 bd e8 d5 5b 3d
       -0.07539252 -0.58802545 -0.09562199 0.053670794

cuda:0 f4 [64]
000000 81 6e 50 bd 60 7d 08 3f fb c0 0c 3e 60 e9 88 c0
       -0.050886635 0.5331631 0.13745491 -4.278488
000010 d4 92 97 3e 93 5a 06 3f 09 eb 9b be ed a1 47 3d
       0.29604208 0.52481955 -0.30452755 0.04873841
000020 8e 2e 03 be ec e2 5b be ce 68 19 3b a2 0c 02 3f
       -0.12810728 -0.21473283 0.0023408416 0.50800526
000030 b2 af a5 bd 21 50 be bf d1 03 34 bd e7 e6 1f 3f
       -0.08090152 -1.4868203 -0.043948952 0.62461704
000040 87 0e 56 be 80 49 3e 3b 8d 59 e0 bd 8f d9 02 3f
       -0.20903979 0.0029035509 -0.109545805 0.5111322
000050 56 f9 eb 3e f0 6c 01 be 4c ab 9d bd 3a c6 2f 3e
       0.46088666 -0.12639213 -0.07698688 0.17165461
000060 a9 e1 2f 3f f8 3f 0f 3e 75 b3 d5 bd a1 8c 33 bd
       0.68703705 0.13989246 -0.10434619 -0.043835286
000070 d8 6d 64 3f 8b f9 7c 3e b5 81 35 3f 2a 80 d0 3e
       0.8923011 0.24704568 0.7090104 0.4072278
000080 7b e5 38 3e 6a ba 15 3e 27 e6 4d 3e 51 10 31 be
       0.1805629 0.14621893 0.20107327 -0.1729138
000090 56 3c 0b 3f c1 d5 43 3f 70 f4 88 3f 93 55 90 bd
       0.5438894 0.7649804 1.0699596 -0.07047572
0000a0 a8 b5 bb bd 78 e9 0e 3f b0 7d 8d bd 67 b8 8c 3e
       -0.091655076 0.55824995 -0.069087386 0.27484438
0000b0 11 97 12 3f f6 39 ac bf 8c 12 3d be 7d 6d 77 3e
       0.5726176 -1.3455188 -0.18464106 0.2416286
0000c0 cc 5f 97 bd 99 e2 c8 bd f9 18 31 3d d5 00 4f 3e
       -0.07391319 -0.09808845 0.043236706 0.20215161
0000d0 cd e9 88 3e 85 86 45 3f b1 37 44 3f 5e d4 f8 bd
       0.26740876 0.77158386 0.7664748 -0.12149881
0000e0 de 49 6d bd 89 3e 35 3e d4 4b 81 be 89 14 30 3e
       -0.057931773 0.17699637 -0.25253165 0.17195334
0000f0 3e 10 11 3f 63 a9 09 3f 8f 56 2f 3d e0 6d fa bf
       0.5666541 0.5377409 0.042807158 -1.9564781

cuda:0 f4 [6]
000000 a1 cb 96 be cb 21 c6 3d 01 9e b7 be 8e 07 87 3f
       -0.29452232 0.09674414 -0.35862735 1.054918
000010 2c 13 2c bf a1 9a 10 3f
       -0.67216754 0.56485945
