code/s4/models/s4-d64.pt (torch, 282546 bytes, 40 tensors)

encoder.weight f4 [64, 3]
0	0xbdce97d5	-0.100875534
1	0x3e441cd6	0.19151625
2	0xbe85f092	-0.26160103
3	0xbf56617b	-0.83742493
4	0xbe89ae94	-0.26891005
5	0xbbff48c4	-0.0077906568
6	0xbf28bd67	-0.65914005
7	0xbe5c7e52	-0.21532562
8	0x3df92aa7	0.121663384
9	0x3e992b7f	0.29915997
10	0xbe807baa	-0.25094348
11	0xbf45b06e	-0.77222335
12	0x3f061691	0.52378184
13	0x3d2edda9	0.04269186
14	0x3dd1c52d	0.102426864
15	0x3e2d8e4f	0.16948818
16	0x3ed140d3	0.4086977
17	0x3cefd690	0.029277116
18	0x3cc76276	0.024338942
19	0x3df4aec1	0.11947394
20	0x3f269202	0.6506654
21	0xbd091033	-0.033462714
22	0xbef6d9b6	-0.48212975
23	0x3f025dd7	0.5092444
24	0xbf38f175	-0.72243434
25	0xbdd42b28	-0.10359794
26	0xbc37eea2	-0.011226328
27	0xbe1c658d	-0.15273114
28	0x3edc3734	0.43010867
29	0xbddb2eba	-0.10702272
30	0x3b88a996	0.004170607
31	0xbe38cc6d	-0.18046732
32	0xbf4900dc	-0.78516936
33	0xbccbfad9	-0.024899887
34	0x3d44bec6	0.0480335
35	0xbec2a594	-0.3801695
36	0xbea7d731	-0.32781366
37	0xbd913933	-0.07090988
38	0xbe6cc5cc	-0.23122329
39	0xbd6803cf	-0.056644257
40	0xbeb641fc	-0.35597217
41	0xbddf8772	-0.10914506
42	0xbf38dfa9	-0.7221628
43	0x3eb42824	0.35186875
44	0xbd0a8fa9	-0.03382841
45	0x3d8b484a	0.068008974
46	0x3e82bb18	0.25533366
47	0x3eb6675b	0.3562573
48	0xbeb7ca8b	-0.35896716
49	0x3dd0ca4d	0.10194836
50	0xbd0ebccd	-0.034848023
51	0xbb970b40	-0.0046094954
52	0x3e932e53	0.2874628
53	0xbce73c0b	-0.028226873
54	0x3e913519	0.28360823
55	0x3ea7283a	0.32647878
56	0xbedaac45	-0.42709556
57	0xbe167956	-0.14694723
58	0x3f25239d	0.64507467
59	0xbdec8f91	-0.115508206
60	0xbd80f92d	-0.062975265
61	0x3e902270	0.28151274
62	0xbe8169f0	-0.25276136
63	0x3ea2a35d	0.3176526
64	0x3dd82ed2	0.10555805
65	0x3e8cc4ce	0.274939
66	0x3de3c095	0.111207165
67	0xbe4cddf1	-0.20006539
68	0x3ea4190b	0.32050356
69	0x3f1ae2c8	0.6050229
70	0xbde4e51d	-0.111765124
71	0x3daedf30	0.085386634
72	0xbd8f199f	-0.06987309
73	0xbe30d774	-0.17269689
74	0x3d945f3a	0.072447255
75	0xbea24a08	-0.31697106
76	0xbce2cf79	-0.027686821
77	0x3ec38825	0.38189808
78	0xbd2964e0	-0.041355968
79	0xbec92692	-0.3928724
80	0xbe17fd33	-0.14842682
81	0xbedf16c9	-0.4357207
82	0xbe1e7c5c	-0.15477127
83	0x3eeba462	0.46023852
84	0x3dbc65a1	0.09199072
85	0xbe4eb784	-0.20187193
86	0xbdec0d1d	-0.11525939
87	0x3eb5d924	0.35517228
88	0xbdc3ba91	-0.09557069
89	0xbecae591	-0.3962827
90	0x3df96d5b	0.12179061
91	0x3e92546c	0.28580034
92	0xbeec1ea9	-0.46117142
93	0x3a027b58	0.0004977486
94	0xbe401bfc	-0.18760675
95	0xbe8e1f31	-0.27758172
96	0x3dd926df	0.10603117
97	0x3df9c4ba	0.12195726
98	0xbf41a929	-0.7564874
99	0xbe4a9dc4	-0.19786745
100	0x3efa9c16	0.4894721
101	0xbec8b244	-0.39198506
102	0x3eb10f7a	0.3458212
103	0x3dee1b37	0.116262846
104	0x3e6e3c91	0.23265292
105	0x3eb908b9	0.36139467
106	0xbe1faa05	-0.15592201
107	0x3e3b7d98	0.18309629
108	0x3ce8db65	0.028424928
109	0x3f101a9a	0.5629059
110	0x3d0f8690	0.03504044
111	0xbf0b441f	-0.5440082
112	0x3f24528c	0.64188457
113	0x3eada9ad	0.33918515
114	0x3cef7be2	0.029233877
115	0x3e061960	0.13095617
116	0xbee6c6e4	-0.45073617
117	0x3c879a2c	0.016553007
118	0x3e5451a2	0.20734265
119	0x3b5c51eb	0.0033618163
120	0x3e871972	0.263866
121	0x3ee9aabf	0.4563808
122	0xbecb10bc	-0.39661205
123	0xbe741497	-0.2383598
124	0x3e5298a9	0.20566048
125	0xbe759ecf	-0.23986362
126	0x3d84dd6f	0.064875476
127	0xbe5087ee	-0.20364353
128	0xbe45ac3f	-0.19303988
129	0xbdb2204e	-0.08697568
130	0x3e253f92	0.16137531
131	0xbeb7e813	-0.35919246
132	0x3d6add5e	0.05734002
133	0xbe0c08e9	-0.13675274
134	0x3ebb411f	0.3657312
135	0xbe177566	-0.14790878
136	0xbe764fd7	-0.24053894
137	0xbb1d59cc	-0.0024009822
138	0xbe455bb8	-0.19273269
139	0xbd23d3f0	-0.03999704
140	0xbed80d49	-0.42197636
141	0xbeaa18b6	-0.33221978
142	0x3e0db34c	0.13837928
143	0xbf263169	-0.64919144
144	0xbf1bebd2	-0.6090671
145	0xbcbc077b	-0.022952786
146	0x3f775f12	0.9662944
147	0xbe3cae70	-0.18425918
148	0x3dbb399c	0.091418475
149	0x3e8d3017	0.27575752
150	0x3f280e03	0.6564638
151	0xbe1a4099	-0.15063705
152	0x3ead5901	0.33856967
153	0xbd8ca006	-0.068664595
154	0x3edb0f19	0.42784956
155	0xbe45f95c	-0.19333404
156	0xbe83129b	-0.25600132
157	0x3e21bfdd	0.15795846
158	0xbf01d9a1	-0.507227
159	0xbe26c8da	-0.16287556
160	0xbec64873	-0.3872715
161	0xbd577851	-0.052604977
162	0x3ed01240	0.40638924
163	0xbe0e6ff9	-0.13909902
164	0xbf1b78ef	-0.60731405
165	0x3f2470c7	0.64234585
166	0x3e7d6c65	0.2474838
167	0xbb411cac	-0.0029466553
168	0xbe16ed30	-0.14738917
169	0x3e1d551c	0.15364498
170	0x3f0d5697	0.5521025
171	0x3e105e58	0.1409849
172	0xbe4a0ea1	-0.19732143
173	0x3ebc2209	0.36744717
174	0xbd812add	-0.06307004
175	0x3e332996	0.17496333
176	0xbecadbed	-0.39620915
177	0xbcbc4976	-0.022984248
178	0x3f03aa8f	0.51432127
179	0x3e87e763	0.26543722
180	0x3ecab76f	0.39593074
181	0x3df0488a	0.11732586
182	0x3ec8cfa8	0.3922093
183	0x3f0bbfc6	0.545895
184	0x3df0129f	0.11722302
185	0x3e90ee60	0.28306866
186	0x3cc74629	0.024325447
187	0x3e027023	0.1273809
188	0x3f7fdfb2	0.99950707
189	0xbc7b2111	-0.015327708
190	0x3e9e7fc2	0.30956846
191	0x3b2a701e	0.0026006768

encoder.bias f4 [64]
0	0xbeb06360	-0.34450817
1	0x3f07eb8e	0.530938
2	0x4000ae5c	2.010642
3	0x3f07a15e	0.529806
4	0x3f9716db	1.180385
5	0xbf470474	-0.7774117
6	0x3d93449e	0.07190822
7	0x3f524e40	0.8215065
8	0xbd53af68	-0.051680952
9	0xbfb328c1	-1.3996812
10	0x3ef4e4f0	0.47830915
11	0x40127488	2.2883625
12	0xbf67488c	-0.9034507
13	0x3fd6a49a	1.6768982
14	0x3e99b635	0.30021825
15	0xbf91b52e	-1.1383417
16	0x400b590a	2.1773095
17	0xc025a3c3	-2.5881202
18	0xbf89df5d	-1.077129
19	0x3fcaeb20	1.5853004
20	0xbff232de	-1.8921773
21	0x3ff3490d	1.9006668
22	0x401ff632	2.4994016
23	0x3f32e9d2	0.6988803
24	0x3fff8c25	1.9964644
25	0xbf105713	-0.56382865
26	0x3ff3a997	1.903613
27	0xbecd4438	-0.4009111
28	0xbeda5397	-0.426419
29	0xc0135c92	-2.302525
30	0xbfca27e5	-1.5793425
31	0xbf46edf3	-0.7770683
32	0x3f521d0c	0.8207557
33	0xbe2adbc9	-0.16685404
34	0xbf5f6a0f	-0.8727121
35	0x3ff5c233	1.919989
36	0xbfb25c66	-1.3934448
37	0x3f105a51	0.5638781
38	0xbf987862	-1.1911738
39	0xc028df51	-2.6386302
40	0x3f63cd04	0.88984704
41	0xbfe9b556	-1.8258464
42	0x3f9e2289	1.2354289
43	0xbfb6883b	-1.4260324
44	0x3fd8d2ba	1.6939309
45	0x402b2620	2.674202
46	0x3fd814da	1.6881363
47	0x3f81a191	1.0127431
48	0xbecc776a	-0.39934856
49	0xbedfe9d7	-0.43733093
50	0xbf18c1d4	-0.5967076
51	0xbfc0df6e	-1.5068185
52	0x3f5811c1	0.8440209
53	0x405711e1	3.3604662
54	0xbf5fd1de	-0.87429607
55	0x3f84c150	1.0371494
56	0xbf4a96f7	-0.79136604
57	0xbf228d4f	-0.6349687
58	0x3f003fc1	0.5009728
59	0xbeb24fe7	-0.34826586
60	0x3fb6026d	1.421949
61	0x3e974e82	0.29552084
62	0xbd65ad13	-0.05607326
63	0xc01126f2	-2.268002

s4_layers.0.D f4 [64]
0	0x3ea516f3	0.3224407
1	0xbebcabc7	-0.36849806
2	0xbe564a49	-0.20926775
3	0x3e9dbc2a	0.3080762
4	0xbfaed9e1	-1.3660241
5	0xbe92dea9	-0.286855
6	0x3ee8947e	0.4542579
7	0x3f39d92d	0.7259701
8	0xbf06b42a	-0.5261866
9	0xbe8c426a	-0.2739442
10	0x3e06a339	0.13148202
11	0xbfa8f13c	-1.3198619
12	0x3f9ab079	1.2085105
13	0xbf761428	-0.96124506
14	0x3ef43efe	0.4770431
15	0xbdfd2b8c	-0.123618215
16	0xbfae35d8	-1.3610182
17	0x3ef3c6d1	0.47612622
18	0x3d278a6e	0.0409035
19	0xbf25ad47	-0.64717525
20	0x3f532e6c	0.8249271
21	0x3f89f072	1.0776503
22	0x3ee4df24	0.44701493
23	0xbf061416	-0.523744
24	0x3f778e29	0.96701294
25	0x3ec8cab4	0.3921715
26	0xbe4b9e1c	-0.19884533
27	0x3f5bf0e7	0.8591446
28	0x3e968b00	0.29402924
29	0x3f893193	1.0718254
30	0xbeb6d1b0	-0.35706854
31	0x3f3b9136	0.7326845
32	0xbd213b64	-0.03936328
33	0xbde93793	-0.11387553
34	0x3cab84f8	0.020937428
35	0xbf5a5523	-0.8528616
36	0xbf621a0c	-0.88320994
37	0xbee3654c	-0.4441322
38	0x3db78808	0.08961493
39	0x3e21cf4a	0.15801731
40	0xbf75b40c	-0.95977855
41	0x3f7897fa	0.971069
42	0xbf43868f	-0.76377195
43	0xbedd9b72	-0.43282658
44	0xbee5c7ce	-0.44879
45	0x3e4885c2	0.19582275
46	0xbf8231c5	-1.0171438
47	0x3ab1d1c1	0.001356654
48	0xbd33d863	-0.043907534
49	0x3f8946fa	1.0724785
50	0xbea2bb09	-0.31783321
51	0xbee74438	-0.45169234
52	0xbf25a18b	-0.6469962
53	0xbe944554	-0.28959143
54	0xbdc66a37	-0.096882276
55	0xbcc7ae4e	-0.024375107
56	0xbeb6fde6	-0.35740584
57	0x3f771dcc	0.9652984
58	0x3f51f8f2	0.82020485
59	0xbe9d1e8a	-0.30687362
60	0x3eedbcad	0.4643301
61	0x3e949f91	0.2902799
62	0xbec4e483	-0.3845559
63	0x400058d0	2.0054207

s4_layers.0.kernel.C f4 [64, 32, 2]
0	0xbe8c82d0	-0.27443552
1	0x3f23fbcc	0.64056087
2	0xbf0087f4	-0.5020745
3	0xbfa45ac6	-1.2840202
4	0xbfc2093c	-1.5159068
5	0x3f4548c1	0.7706414
6	0xbef4f5f8	-0.4784391
7	0x3f367ba9	0.7128244
8	0xbe07b490	-0.13252473
9	0x3fb201dc	1.3906817
10	0x3ec50d11	0.3848653
11	0x3e4f6aa4	0.20255524
12	0x3f033f02	0.5126802
13	0xbe9ee79f	-0.31036088
14	0x3f306266	0.68900144
15	0xbe8e7557	-0.27823898
16	0xbf3aad2e	-0.729205
17	0x3e1bf911	0.1523173
18	0x3a956ee6	0.0011400848
19	0x3f07a111	0.5298014
20	0x3f26ec97	0.6520476
21	0x3fc09378	1.5045004
22	0x3f955605	1.1666876
23	0xbd13e2f5	-0.036105115
24	0xbf1985e5	-0.5996993
25	0xbfa3a6d3	-1.2785286
26	0x3e902efa	0.2816084
27	0xbe5bf7cc	-0.21481246
28	0x3f0f9211	0.56082255
29	0x3ecd4c91	0.40097478
30	0xbb55af33	-0.0032605648
31	0xbf17b1f5	-0.59255916
32	0x3ef92c55	0.48666635
33	0x3e0eafec	0.13934296
34	0x3ef426a6	0.47685736
35	0x3f96e9c0	1.1790085
36	0x3e8818bb	0.26581368
37	0xbea53b43	-0.32271776
38	0xbee61611	-0.4493871
39	0x3de04887	0.109513335
40	0xbcb5fbd4	-0.022214808
41	0x3f097c51	0.53705317
42	0xbe31c99c	-0.17362064
43	0xbf9f6ac8	-1.2454462
44	0xbf2ec3a0	-0.6826725
45	0xbea43974	-0.32075083
46	0xbe8230d7	-0.25427887
47	0xbf9fddb3	-1.2489532
48	0xbf3180fa	-0.6933743
49	0x3f818685	1.0119177
50	0xbea8ec4c	-0.3299278
51	0x3dac741d	0.08420584
52	0xbf904bb0	-1.1273098
53	0xbfbb1e12	-1.4618552
54	0xbf56a6f4	-0.838485
55	0xbf7d7501	-0.9900666
56	0xbe029e16	-0.12755617
57	0x3ea1b811	0.31585744
58	0x3ecc1b48	0.39864564
59	0x3dd595aa	0.10428937
60	0xbf5c5de1	-0.8608075
61	0x3f27b9ee	0.6551808
62	0xbebe8f2b	-0.37218603
63	0xbe96d030	-0.2945571
64	0x3f8400ec	1.0312781
65	0x3d0798b7	0.033104625
66	0x3c3ed0c7	0.011646456
67	0xbe67fd90	-0.2265532
68	0xbf09e238	-0.5386081
69	0xbfb94862	-1.4475214
70	0x3fc67a91	1.5506154
71	0x3f0dad95	0.5534299
72	0xbe48f4d2	-0.19624642
73	0xbf7dab71	-0.99089724
74	0xbdb128d2	-0.08650364
75	0x3ee9b898	0.45648646
76	0xbfd5f394	-1.6714959
77	0xbe96d051	-0.29455808
78	0xbf9925bf	-1.1964644
79	0xbe1899da	-0.1490244
80	0x400ae0ca	2.16997
81	0x3faa9cf6	1.3329151
82	0x3e8aa498	0.270787
83	0x3f0e8984	0.5567858
84	0xbd94ff04	-0.07275203
85	0xbedaa8e9	-0.42706993
86	0x3f77ffce	0.968747
87	0xbe958d91	-0.2920957
88	0x3f2fb7a2	0.68639576
89	0xbe9b7b44	-0.30367482
90	0xbf1d714b	-0.61500996
91	0xbe85f2fb	-0.26161942
92	0x3ee75ff8	0.45190406
93	0x3e72ecc0	0.23723125
94	0x3f7afbec	0.9804065
95	0x3d87f909	0.066392966
96	0x3ecc1e75	0.39866987
97	0x3f63f8b3	0.8905136
98	0x3fa57305	1.2925726
99	0x3df9241e	0.12165092
100	0x3fb829af	1.4387721
101	0xbf2a79c4	-0.6659205
102	0xbe8e8d33	-0.278421
103	0x3e232b4b	0.15934484
104	0x3f28551a	0.65754855
105	0x3e9cafc3	0.30602846
106	0xbe9c62a5	-0.3054401
107	0x3f35518d	0.7082756
108	0x3f5e3065	0.86792594
109	0xbef9de38	-0.48802352
110	0xbd31952d	-0.043355156
111	0xbf74f7d1	-0.9569064
112	0x3f6d7681	0.9275895
113	0xbe0a2264	-0.13489681
114	0x3f6f77e2	0.935423
115	0xbf0a84fc	-0.5410917
116	0xbe80d6b4	-0.25163805
117	0xbeece48f	-0.46268126
118	0x3f1ad881	0.6048661
119	0xbfaff299	-1.374591
120	0x3ea80c0e	0.32821697
121	0x3fa23e15	1.2675196
122	0x3fa0b2d7	1.2554578
123	0xbf9fe17a	-1.2490685
124	0x3df06e5f	0.117398016
125	0x3fbd729a	1.4800599
126	0x3ea35585	0.31901184
127	0xbe4b2959	-0.19839992
128	0xbe444a19	-0.19168891
129	0x02d0b320	3.0665666e-37
130	0xbe6873c0	-0.22700405
131	0x3ea1de67	0.31614992
132	0x3db12684	0.086499244
133	0x3ed30557	0.4121501
134	0x3f014c62	0.50507176
135	0x3f31721b	0.69314736
136	0xbe6eb6e7	-0.23311959
137	0xbfd4c164	-1.6621518
138	0x3ec558fc	0.38544452
139	0x3e44ea9c	0.19230121
140	0xbeb7bdc8	-0.3588698
141	0xbe4dac8e	-0.20085356
142	0xbf6de115	-0.9292157
143	0xbd63a808	-0.05558017
144	0xbefb8708	-0.49126458
145	0x3f48698c	0.7828605
146	0xbd7b99ac	-0.06142585
147	0xbd3a4caf	-0.045483287
148	0x3f8fbd04	1.1229558
149	0x3f1a9d2b	0.6039607
150	0xbfa4afe0	-1.2866173
151	0x3ca34ebd	0.019935006
152	0xbe2c4f8d	-0.16827221
153	0x3eb3edcc	0.35142362
154	0xbd52d75f	-0.051474925
155	0x3f373c53	0.7157642
156	0xbe945728	-0.28972745
157	0x3f48f8aa	0.7850443
158	0x3efb1849	0.49041966
159	0x3e9f29ee	0.31086677
160	0xbdcd62d7	-0.10028618
161	0x3eb4f5be	0.35343736
162	0xbed6d65f	-0.41960427
163	0x3faa3117	1.3296231
164	0xbeac9b6b	-0.33712325
165	0xbf549a40	-0.83047867
166	0x3f1d0e6f	0.6135015
167	0xbfa36086	-1.2763832
168	0x3df3c2fc	0.11902425
169	0x3f0da21e	0.55325496
170	0xbecd2ae9	-0.400718
171	0x3eda981c	0.42694175
172	0x3e13f2c6	0.1444808
173	0xbe8af90d	-0.27143136
174	0x3efe32e0	0.4964819
175	0xbed836ee	-0.42229408
176	0xbf977786	-1.1833351
177	0x3f915e3e	1.1356885
178	0x3f82b534	1.0211549
179	0xbd2f59fa	-0.042810418
180	0x3f4ca478	0.7993846
181	0x3f07dd5e	0.53072155
182	0xbeac982e	-0.33709854
183	0x3f2b8f15	0.670152
184	0xbf468790	-0.775506
185	0xbe61f987	-0.22067843
186	0xbe8214be	-0.2540645
187	0xbd0def85	-0.03465225
188	0xbd2916d8	-0.04128155
189	0x3ef7ca8b	0.48396716
190	0x3e21aba0	0.15788126
191	0xbf13db49	-0.5775648
192	0x3ea84a26	0.3286907
193	0x3f0e0d0f	0.55488676
194	0x3fcc4237	1.5957707
195	0x3f0f2506	0.5591587
196	0xbddcf7ea	-0.10789473
197	0x3f444f23	0.76683253
198	0xbdcbca82	-0.09950735
199	0xbf7879aa	-0.97060645
200	0xbeea23ae	-0.45730346
201	0xbf8769a9	-1.057912
202	0xbea175b3	-0.3153511
203	0x3f3680d1	0.7129031
204	0xbe15b9e9	-0.146217
205	0xbe828ce2	-0.2549811
206	0x3ece8316	0.40334386
207	0x3f082081	0.531746
208	0xbfb79327	-1.4341782
209	0xbeacc723	-0.3374568
210	0xbf9d5e23	-1.2294353
211	0x3ddea015	0.10870377
212	0x3e4eaae6	0.2018238
213	0xbfae47a0	-1.3615608
214	0xbe6f2de1	-0.23357345
215	0xbe047a2c	-0.1293723
216	0xbf06866d	-0.5254887
217	0x3dd0cbca	0.1019512
218	0xbfc5d534	-1.545569
219	0xbe003e7d	-0.12523837
220	0xbf08050d	-0.53132707
221	0x3f8f32bd	1.1187359
222	0xbeb2e0d5	-0.34937158
223	0xbf02c540	-0.5108223
224	0x3ea780f8	0.32715583
225	0x3e5ce093	0.21570043
226	0xbf3787e9	-0.7169176
227	0xbee36c4a	-0.44418555
228	0x3c8fb177	0.017540677
229	0x3f5ec5ea	0.8702074
230	0x3f00d54d	0.5032547
231	0x3e94b539	0.29044512
232	0x3f2ae6cc	0.6675842
233	0xbe963d98	-0.29343867
234	0xbf0042e7	-0.50102085
235	0x3e47ddc2	0.19518188
236	0xbf71a096	-0.9438566
237	0xbf58b07f	-0.8464431
238	0xbf57586d	-0.841193
239	0x3e9d6c9a	0.3074692
240	0xbe38cacb	-0.1804611
241	0x3f48d7dd	0.7845438
242	0x3ea5e5f6	0.3240201
243	0x3f28808d	0.6582115
244	0x3f8478e7	1.0349396
245	0xbef3ee76	-0.4764287
246	0xbf8bd07f	-1.0923003
247	0xbf3aa67b	-0.7291028
248	0xbe37db63	-0.17954783
249	0x3e394849	0.18093981
250	0xbdd277bc	-0.10276744
251	0xbfe97038	-1.8237371
252	0xbf2643d6	-0.6494726
253	0x3f1de9f9	0.6168514
254	0xbea7a4c7	-0.32742903
255	0xbdb5d6b8	-0.08878845

s4_layers.0.kernel.log_dt f4 [64]
0	0xc05bbcf9	-3.433409
1	0xc0c08a5a	-6.0168886
2	0xc0e1b2d2	-7.0530787
3	0xc0e07df7	-7.0153766
4	0xc06f9eb2	-3.744061
5	0xc0930edd	-4.5955644
6	0xc03456b1	-2.8177912
7	0xc0dbd98b	-6.8703055
8	0xc014acc4	-2.3230448
9	0xc0543c81	-3.3161929
10	0xc0869651	-4.205849
11	0xc0980a8f	-4.751289
12	0xc0cbefeb	-6.373037
13	0xc014935a	-2.3214936
14	0xc07cc24a	-3.9493585
15	0xc03322b1	-2.7989924
16	0xc0c0eea9	-6.0291333
17	0xc06b2704	-3.6742563
18	0xc0a3e48c	-5.121649
19	0xc0cc8ae4	-6.3919544
20	0xc07366d5	-3.8031514
21	0xc0431def	-3.048702
22	0xc0985a45	-4.761019
23	0xc0d37a22	-6.608659
24	0xc05a6a92	-3.4127545
25	0xc0609c1b	-3.509528
26	0xc0757506	-3.8352675
27	0xc0b880cd	-5.7657228
28	0xc0b5161a	-5.658948
29	0xc0f408c6	-7.626071
30	0xc07286b2	-3.7894711
31	0xc07f6a6e	-3.990871
32	0xc06c4f07	-3.6923234
33	0xc0b1a24e	-5.5510626
34	0xc0a69c34	-5.206568
35	0xc0dab9e0	-6.83519
36	0xc0d10d03	-6.5328383
37	0xc0aa5ca3	-5.323808
38	0xc091d934	-4.557764
39	0xc0a80f50	-5.251869
40	0xc0a8056b	-5.2506614
41	0xc03f6d3d	-2.9910424
42	0xc0bdeeb7	-5.93539
43	0xc05dd3dd	-3.466056
44	0xc05ae855	-3.4204304
45	0xc0272acd	-2.6119874
46	0xc0af58a6	-5.4795713
47	0xc0a264b6	-5.074794
48	0xc0afd7e7	-5.4951053
49	0xc02deea7	-2.7176912
50	0xc0a855c4	-5.2604694
51	0xc0bb19b6	-5.8468885
52	0xc060ebde	-3.5143962
53	0xc056eccf	-3.3582036
54	0xc08677c4	-4.20212
55	0xc085e8ef	-4.1846843
56	0xc04b4254	-3.1759233
57	0xc03c669b	-2.9437625
58	0xc0c7c76e	-6.2430944
59	0xc06561f0	-3.5841026
60	0xc08e71f6	-4.4514112
61	0xc0c70c09	-6.220219
62	0xc0c85145	-6.2599206
63	0xc0703cff	-3.753723

s4_layers.0.kernel.log_A_real f4 [64, 32]
0	0xbdaaa95c	-0.08333084
1	0xbf808ba9	-1.0042621
2	0xbedb175d	-0.42791262
3	0xbf2578b6	-0.64637315
4	0xbf703307	-0.9382786
5	0xbee7975d	-0.4523267
6	0xbf063775	-0.5242837
7	0xbf3992b9	-0.72489506
8	0xbf18a956	-0.59633386
9	0xbf3232ed	-0.69608957
10	0xbf499edf	-0.78758043
11	0xbf84a7ff	-1.0363768
12	0xbf80043d	-1.0001293
13	0xbe37aed7	-0.1793779
14	0xbf0f98fe	-0.5609282
15	0xbe990cfe	-0.29892725
16	0xbf3eb30f	-0.7449197
17	0xbea2f042	-0.31823927
18	0xbf109dae	-0.564906
19	0xbf14320a	-0.57888854
20	0xbee8d75b	-0.45476803
21	0x3e856e6e	0.26060814
22	0x3ec19362	0.37807757
23	0xbf4af7be	-0.79284275
24	0x3ebfa04f	0.37426993
25	0x3e1b3a4b	0.15158956
26	0xbf80ba1c	-1.0056796
27	0xbeb901cb	-0.3613418
28	0xbeaeb79c	-0.34124458
29	0xbf238b75	-0.6388467
30	0xbf2415cc	-0.6409576
31	0xbee94968	-0.45563817
32	0xbf51a810	-0.8189707
33	0x401b3f6c	2.425746
34	0xbee13ea7	-0.43993112
35	0xbf519462	-0.8186704
36	0x3e9d6492	0.30740792
37	0xbe9947c7	-0.29937574
38	0xbf147cb3	-0.58002776
39	0xbf0f0bf1	-0.55877596
40	0xbf3e2633	-0.7427704
41	0x3e2ecc3d	0.17070098
42	0xbe9b5211	-0.3033605
43	0xbf40d7ea	-0.7532946
44	0xbf39e96d	-0.72621804
45	0xbe345e58	-0.17614114
46	0x3ec0fa2e	0.37690872
47	0xbf0bb642	-0.5457498
48	0xbf026870	-0.5094061
49	0xbeda5cc2	-0.42648894
50	0xbf2d3e57	-0.6767325
51	0xbe0d5bc1	-0.13804533
52	0xbec60bbe	-0.38680834
53	0xbf186ff1	-0.5954581
54	0xbf02eecd	-0.5114563
55	0xbf34eaa4	-0.70670533
56	0xbedb9fa2	-0.42895228
57	0xbec6eeb5	-0.38853994
58	0xbf23aabe	-0.63932407
59	0xbf0f974a	-0.56090224
60	0xbf33c753	-0.7022602
61	0xbecf3f68	-0.40478063
62	0xbf48f5e2	-0.7850019
63	0xbe0147e4	-0.1262508
64	0xbf25d374	-0.64775777
65	0xbf2f36cd	-0.68442994
66	0x3f71b634	0.94418645
67	0xbeeb6afa	-0.45980054
68	0x3ea6803c	0.3251971
69	0xbed6a235	-0.4192063
70	0xbf346cfd	-0.704788
71	0xbf52bb91	-0.82317454
72	0xbf4bdb4f	-0.79631513
73	0x3ee3dd75	0.44504896
74	0xbf05abb0	-0.522151
75	0xbf55b9cf	-0.83486646
76	0xbf276360	-0.6538601
77	0xbf2b7149	-0.66969734
78	0xbf44148f	-0.7659387
79	0xbebe90f6	-0.3721997
80	0xbf1a612e	-0.60304534
81	0xbf4ec1ad	-0.80764276
82	0xbe9a5547	-0.30143186
83	0xbf0a74f7	-0.54084724
84	0xbf004a06	-0.5011295
85	0xbf3f74b6	-0.7478746
86	0xbeb947b6	-0.36187524
87	0xbefc8715	-0.4932181
88	0xbf547467	-0.82990116
89	0xbf057d32	-0.5214416
90	0xbea7d7ca	-0.3278182
91	0xbf429fb1	-0.7602492
92	0xbeec863f	-0.46196172
93	0x3df5bd81	0.119990356
94	0xbf28028c	-0.65628886
95	0xbefcd504	-0.49381268
96	0xbf02fc8f	-0.51166624
97	0xbf1e3a68	-0.6180787
98	0xbf0269fd	-0.50942975
99	0xbea138aa	-0.31488544
100	0xbf3ca7d1	-0.7369357
101	0xbf274cc5	-0.65351516
102	0xbf039869	-0.51404434
103	0xbe815744	-0.2526189
104	0xbf4ca073	-0.79932326
105	0xbf485c1e	-0.7826556
106	0xbf2bc768	-0.67101145
107	0xbf1d0975	-0.61342555
108	0xbf398b19	-0.7247787
109	0xbf51a389	-0.8189016
110	0xbf31b0e1	-0.6941052
111	0xbf30ec47	-0.6911053
112	0x3ef604f9	0.4805067
113	0xbf53e75c	-0.827749
114	0xbf054065	-0.52051383
115	0x3df3c118	0.11902064
116	0xbefab33f	-0.4896488
117	0xbf3fc5d0	-0.7491121
118	0xbf7a8347	-0.97856563
119	0xbf509f4e	-0.8149308
120	0xbf2755d7	-0.65365356
121	0xbdff0f7c	-0.12454125
122	0xbef01666	-0.4689209
123	0xbf856cd8	-1.0423841
124	0xbf1f2b7e	-0.6217574
125	0xbf32bb13	-0.698167
126	0xbf525794	-0.82164884
127	0xbf29725f	-0.6619014
128	0xbf02d10a	-0.5110022
129	0x3f0eae30	0.5573454
130	0x3f5b9f76	0.85790193
131	0xbeb805d8	-0.35941958
132	0xbf90c6ad	-1.1310631
133	0xbe6aff75	-0.22949012
134	0xbd0ba67d	-0.034094322
135	0xbf766333	-0.96245116
136	0xbfaca631	-1.3488218
137	0x3dcf677e	0.101271614
138	0xbf5984ea	-0.84968436
139	0xbf6ebe37	-0.93258995
140	0xbf6bfb60	-0.9218044
141	0xbe8f5823	-0.2799693
142	0xbf594f3f	-0.84886545
143	0xbf73063f	-0.94931406
144	0xbf73c5d4	-0.95223737
145	0xbf178a1a	-0.591951
146	0xbf12a63d	-0.5728491
147	0xbf411d35	-0.7543519
148	0xbe1a4cb2	-0.1506832
149	0xbf7f62f2	-0.99760354
150	0xbd0e3925	-0.034722466
151	0x3dafab18	0.085775554
152	0xbf21898a	-0.6310049
153	0xbc0696a8	-0.00821463
154	0xbf032c95	-0.512399
155	0xbf584c94	-0.8449185
156	0xbf7e646d	-0.9937199
157	0xbf04eee5	-0.51927024
158	0x3f388930	0.7208433
159	0xbf1fa064	-0.6235411
160	0xbefe91ee	-0.4972071
161	0xbf5aa4f5	-0.85407954
162	0xbf04ce8c	-0.51877666
163	0xbcb44d69	-0.022009568
164	0xbf4e08ac	-0.8048198
165	0xbf325ebd	-0.6967581
166	0xbf040ff6	-0.51586854
167	0xbf4a83e3	-0.79107493
168	0xbf510baf	-0.8165845
169	0xbed9be0d	-0.4252781
170	0xbf084ec2	-0.53245175
171	0xbe680e48	-0.22661698
172	0xbeeab444	-0.45840657
173	0xbecb4237	-0.39698955
174	0xbeef09d4	-0.46687186
175	0xbf8ed613	-1.115908
176	0x3df69376	0.12039845
177	0xbddbddf3	-0.10735693
178	0xbf8175bb	-1.0114053
179	0x3fc302a4	1.5235181
180	0xbfa5a872	-1.294203
181	0xbf9e750f	-1.2379473
182	0xbd42253c	-0.04739879
183	0xbe211b58	-0.15733087
184	0xbf841e71	-1.032179
185	0xbf0ca8d6	-0.54945123
186	0xbf3601a6	-0.71096265
187	0xbefa4912	-0.48883873
188	0xbf3c145d	-0.7346857
189	0xbed4f047	-0.41589567
190	0xbf717bf2	-0.9432975
191	0x3ef63e7b	0.48094544
192	0xbf25ef67	-0.64818424
193	0x3dcbd0e9	0.09951956
194	0x3d5f5d33	0.05453224
195	0xbc244f1e	-0.010028629
196	0xbe580af0	-0.21097922
197	0xbf093c88	-0.5360799
198	0xbf08ef75	-0.5349038
199	0xbe2ce7e2	-0.16885331
200	0x3df22d44	0.1182504
201	0xbea454b3	-0.3209587
202	0xbf4f3b94	-0.80950284
203	0x3f06afd4	0.5261204
204	0xbf3c515d	-0.7356165
205	0xbe935eb7	-0.287832
206	0x3e7134b1	0.23555256
207	0xbf1e803e	-0.6191443
208	0xbfa51cd3	-1.2899421
209	0xbeb7bd0e	-0.35886425
210	0xbf5e65f9	-0.8687435
211	0xbe40d4fe	-0.1883125
212	0xbe53d57d	-0.20686908
213	0xbf8087d2	-1.0041449
214	0xbf0b3180	-0.54372406
215	0x3dd80262	0.105473295
216	0x3ca713a8	0.020395115
217	0xbf23a3c9	-0.6392179
218	0x3e041402	0.12898257
219	0x3c5b3b6f	0.013380869
220	0xbe9b6da8	-0.303571
221	0xbecdabba	-0.4017008
222	0xbebc7bfa	-0.36813337
223	0xbf0fd135	-0.561786
224	0xbec9f108	-0.39441705
225	0xbf5a44d0	-0.8526125
226	0xbf79af47	-0.97533077
227	0xbf76fd8a	-0.9648062
228	0xbf0ec24a	-0.5576521
229	0xbed059e1	-0.40693572
230	0xbf76fb83	-0.96477526
231	0xbe6c8e14	-0.23101074
232	0x3f8769c8	1.0579157
233	0xbe01c96f	-0.12674497
234	0x3e852285	0.260029
235	0xbf962f25	-1.1733137
236	0x3ed2b838	0.41156173
237	0xbecdb29c	-0.4017533
238	0xbf566362	-0.83745396
239	0xbf080e4b	-0.5314681
240	0xbeba1c13	-0.36349544
241	0xbfb6c23d	-1.4278027
242	0xbefbc3a1	-0.4917269
243	0x3eab97d4	0.33514273
244	0xbe0e1ff6	-0.1387938
245	0xbf447374	-0.7673867
246	0xbf363f74	-0.7119057
247	0xbf55ba7a	-0.83487666
248	0xbf65050c	-0.89460826
249	0xbec75f62	-0.3893996
250	0xbe1071a0	-0.14105844
251	0xbe9c01b1	-0.3047004
252	0xbe94b776	-0.2904622
253	0xbe42d41a	-0.19026223
254	0xbf975aa0	-1.1824532
255	0x3e49c61e	0.19704482

s4_layers.0.kernel.A_imag f4 [64, 32]
0	0xbea269ee	-0.31721443
1	0x4061991e	3.5249705
2	0x40d67137	6.70132
3	0x411e8900	9.908447
4	0x4151276d	13.072125
5	0x418216bf	16.261106
6	0x4199fc80	19.248291
7	0x41b12909	22.145037
8	0x41c80436	25.002056
9	0x41dfcebb	27.975943
10	0x41f82fd3	31.023352
11	0x42094d30	34.32538
12	0x42188285	38.12746
13	0x42236946	40.852806
14	0x42311c4a	44.277626
15	0x423cea9f	47.229122
16	0x42488930	50.133972
17	0x42546d5e	53.106804
18	0x4260aa78	56.166473
19	0x426fe9f1	59.97846
20	0x427cef8c	63.233932
21	0x4283cad1	65.896126
22	0x428a47cd	69.140236
23	0x42924bf7	73.14837
24	0x4296fb55	75.49088
25	0x429d3ade	78.614975
26	0x42a1f406	80.97661
27	0x42a889ef	84.2694
28	0x42b05b68	88.17853
29	0x42b65255	91.160805
30	0x42bcb159	94.34638
31	0x42c1c78c	96.88974
32	0xbd0643c5	-0.032779474
33	0x4045a1ec	3.088008
34	0x40cc2de4	6.380602
35	0x4113fe92	9.249651
36	0x414a744a	12.653391
37	0x41781047	15.503974
38	0x4197a500	18.955566
39	0x41b0c394	22.095497
40	0x41c80bed	25.005823
41	0x41e12c14	28.146523
42	0x41fbf523	31.494696
43	0x4209dfe3	34.46864
44	0x4216c83c	37.69554
45	0x4223d594	40.958572
46	0x422facf3	43.918896
47	0x423c30fe	47.047844
48	0x42490079	50.25046
49	0x42555efe	53.342766
50	0x4261f580	56.489746
51	0x426fb2bb	59.92454
52	0x427b5b11	62.838932
53	0x428477df	66.23412
54	0x428a38b6	69.11076
55	0x4290f20f	72.47277
56	0x4296d67a	75.4189
57	0x429d1e0f	78.55871
58	0x42a36042	81.688
59	0x42aa1808	85.046936
60	0x42b071d0	88.22229
61	0x42b64c6b	91.149254
62	0x42bcd085	94.407265
63	0x42c41d62	98.05739
64	0x82cd516c	-3.0168777e-37
65	0x4047c17b	3.121184
66	0x40ca25ed	6.3171296
67	0x4118406d	9.515729
68	0x41463d61	12.389985
69	0x417ab434	15.668995
70	0x4194a20e	18.579128
71	0x41ade925	21.73884
72	0x41c9be89	25.218035
73	0x41de1d54	27.76432
74	0x41fc3cc3	31.529669
75	0x42097d7a	34.372536
76	0x4216c4c4	37.692154
77	0x4223c366	40.94082
78	0x42304978	44.071747
79	0x423ce490	47.223206
80	0x4249243a	50.285378
81	0x42560f81	53.51514
82	0x42618e81	56.389164
83	0x426e35b7	59.552456
84	0x427bc528	62.942535
85	0x4283c6d9	65.888374
86	0x4289e1e9	68.94123
87	0x428fe538	71.94769
88	0x429739de	75.61302
89	0x429d4e9d	78.65354
90	0x42a3a1dc	81.81613
91	0x42a9a7b5	84.82755
92	0x42afb13e	87.846176
93	0x42b60796	91.01482
94	0x42bc97f1	94.29676
95	0x42c2bff4	97.37491
96	0x3d251086	0.04029896
97	0x404a6096	3.1621451
98	0x40ca8771	6.3290334
99	0x4114c7aa	9.298746
100	0x414745f0	12.454575
101	0x417c47bb	15.767512
102	0x41941f52	18.515293
103	0x41b02ef6	22.02293
104	0x41c8eabb	25.114614
105	0x41e44869	28.535357
106	0x41fa2eb2	31.2728
107	0x4208c8c4	34.19606
108	0x42165791	37.585514
109	0x4223a184	40.90773
110	0x42308fe8	44.140533
111	0x423c10da	47.016457
112	0x42492c10	50.29303
113	0x42556c23	53.355602
114	0x4262c80d	56.695362
115	0x426ef498	59.73886
116	0x4279ceec	62.452072
117	0x428524a0	66.57153
118	0x428a09ce	69.01915
119	0x42917a72	72.73915
120	0x429753ac	75.66342
121	0x429d6bb7	78.71038
122	0x42a2deea	81.43538
123	0x42a9700d	84.71885
124	0x42b079b5	88.23771
125	0x42b5956d	90.79185
126	0x42be2cf9	95.08784
127	0x42c2d6ee	97.419785
128	0xbd631264	-0.05543746
129	0x405519a1	3.3296893
130	0x40de489a	6.9463625
131	0x4114d7d5	9.302693
132	0x4150c0b1	13.047044
133	0x418339b7	16.403181
134	0x419710f8	18.883286
135	0x41b4e562	22.612003
136	0x41cb5ede	25.421322
137	0x41ddc517	27.721235
138	0x41f48369	30.564165
139	0x420b3d34	34.80977
140	0x42154dd1	37.325993
141	0x42242e16	41.045006
142	0x42314dd9	44.326023
143	0x423c0117	47.001064
144	0x42485a19	50.087986
145	0x42549d6b	53.15373
146	0x4261ece1	56.481327
147	0x426f018c	59.75151
148	0x427b6cc5	62.85622
149	0x42833046	65.594284
150	0x428a3048	69.0943
151	0x42925c7a	73.18062
152	0x42959986	74.79985
153	0x429d0d5b	78.526085
154	0x42a27f91	81.24915
155	0x42aa8d93	85.27651
156	0x42afdd89	87.932686
157	0x42b5c41e	90.88304
158	0x42bcc0e8	94.37677
159	0x42c577d1	98.73402
160	0xbd00cc6b	-0.03144495
161	0x40509f3d	3.2597191
162	0x40cee797	6.4657702
163	0x4114a9f3	9.2914915
164	0x414af9a2	12.6859455
165	0x41776474	15.462025
166	0x41996b70	19.17746
167	0x41afd839	21.980577
168	0x41c7a38c	24.954857
169	0x41e2d446	28.35365
170	0x41fced4b	31.615866
171	0x420b02f0	34.75287
172	0x4217fc37	37.996304
173	0x42240173	41.001415
174	0x422eb52d	43.67693
175	0x423d3759	47.30405
176	0x424a0046	50.500267
177	0x42577a50	53.869446
178	0x42649f98	57.155853
179	0x42701e24	60.029434
180	0x427a9d5f	62.653683
181	0x42849bcf	66.30431
182	0x428aa2bb	69.31783
183	0x428fa90a	71.830154
184	0x429662eb	75.1932
185	0x429c78fa	78.23628
186	0x42a321fe	81.56639
187	0x42a9a822	84.828384
188	0x42b0b1ab	88.34701
189	0x42b75e1a	91.68379
190	0x42bb5b6b	93.67855
191	0x42c4a2cc	98.31796
192	0x3d2d471a	0.042304136
193	0x404bf493	3.1868026
194	0x40d0f5b2	6.529992
195	0x410d86b6	8.845388
196	0x4151db3a	13.116022
197	0x418058f1	16.043428
198	0x41957932	18.684177
199	0x41b1bbb8	22.21666
200	0x41c7ad58	24.95964
201	0x41dce48e	27.611599
202	0x42003085	32.047382
203	0x4208f6c2	34.240974
204	0x421ab9f1	38.681583
205	0x4221cc86	40.44973
206	0x42312e8d	44.29546
207	0x4239dae6	46.463768
208	0x42491feb	50.28117
209	0x42574e22	53.8263
210	0x425ee206	55.720726
211	0x426b2d0e	58.794
212	0x427ad015	62.703205
213	0x428356f2	65.669815
214	0x4288a439	68.32075
215	0x42900a65	72.0203
216	0x42963f67	75.12383
217	0x429f3af1	79.61512
218	0x42a3536a	81.66292
219	0x42a9a88f	84.829216
220	0x42b0e06b	88.43832
221	0x42b6a3bf	91.31982
222	0x42bd3ce8	94.61896
223	0x42c3be1f	97.87133
224	0x3e7eecda	0.24895039
225	0x4032b583	2.7923286
226	0x40ce14d3	6.440042
227	0x410eddd6	8.929159
228	0x4142f91c	12.185818
229	0x417fd3f0	15.989243
230	0x4196bb62	18.841496
231	0x41aeef42	21.866825
232	0x41c53f51	24.655916
233	0x41dfc43e	27.970821
234	0x41f84ccd	31.0375
235	0x420b3fbd	34.812244
236	0x42161e3b	37.529522
237	0x422673ab	41.612957
238	0x422c69b0	43.10321
239	0x42401c80	48.027832
240	0x424ae81e	50.726677
241	0x42563ec7	53.561306
242	0x4265b05e	57.422234
243	0x426ee267	59.721096
244	0x42799309	62.39359
245	0x4282d628	65.418274
246	0x4288749a	68.22774
247	0x4291d312	72.91225
248	0x429825a9	76.073555
249	0x429e4ac4	79.14603
250	0x42a2c8ec	81.392426
251	0x42ab2560	85.573
252	0x42ae5844	87.17239
253	0x42b53730	90.60779
254	0x42bb99ef	93.80065
255	0x42c34ecb	97.65389

s4_layers.0.output_linear.0.weight f4 [128, 64, 1]
0	0x3df83f54	0.12121454
1	0xbe8809c9	-0.26569965
2	0xbb4bffb6	-0.0031127757
3	0xbec530ca	-0.38513786
4	0x3ccf738c	0.025323652
5	0x3f154c23	0.583193
6	0x3f874499	1.0567809
7	0x3eb5e945	0.35529533
8	0xbf242a40	-0.6412697
9	0xbef45aa0	-0.4772539
10	0xbe82cc71	-0.255466
11	0xbe4726b2	-0.19448355
12	0x3d013efb	0.031554203
13	0xbe998270	-0.29982328
14	0x3f53d895	0.8275235
15	0x3e924a80	0.28572464
16	0x3fa780a9	1.3086139
17	0x3e5cb2da	0.21552601
18	0x3e2d5923	0.16928534
19	0x3e978fbc	0.29601848
20	0xbec0fbb0	-0.37692022
21	0xbe8ccc8d	-0.2749981
22	0xbe40a19a	-0.18811646
23	0xbed03438	-0.4066484
24	0xbe8ea963	-0.27863607
25	0x3e4cb4fd	0.19990917
26	0x3ea8d87e	0.3297767
27	0xbf4d92e0	-0.8030224
28	0xbd98f57c	-0.074686974
29	0x3f8c97d7	1.0983838
30	0xbd696620	-0.05698216
31	0xbe5d5605	-0.21614845
32	0xbeb173a5	-0.34658542
33	0xbc850525	-0.016237805
34	0x3f97f226	1.1870773
35	0xbef9d14a	-0.48792487
36	0x3e93912a	0.2882169
37	0x3f06e41e	0.5269183
38	0xbe0a52a9	-0.13508095
39	0x3e58564d	0.21126671
40	0xbf110477	-0.5664744
41	0xbe198086	-0.14990434
42	0xbefb3620	-0.49064732
43	0x3f3b70ca	0.7321898
44	0x3f1ca650	0.6119127
45	0x3eb688e7	0.35651323
46	0xbe50464e	-0.20339319
47	0x3f0c6992	0.5484859
48	0x3f0f28fd	0.5592192
49	0xbe4c9325	-0.19978006
50	0x3d43e082	0.04782153
51	0xbece17af	-0.40252444
52	0xbe78d48a	-0.24299827
53	0x3efb47d4	0.49078238
54	0x3f80c26b	1.0059332
55	0xbd06026b	-0.03271715
56	0xbddfca9f	-0.10927319
57	0x3f4ba629	0.79550415
58	0xbe4adde4	-0.19811207
59	0x3f11269a	0.56699526
60	0xbd62c5a5	-0.05536427
61	0xbdc6580e	-0.09684764
62	0x3e0faf43	0.14031701
63	0x3e6c646b	0.23085181
64	0xbcd6bc76	-0.026212912
65	0xbe2a50a0	-0.16632318
66	0x3eb95ea9	0.36205032
67	0x3ef7f2e4	0.48427498
68	0xbe0d95c3	-0.13826661
69	0xb981ff90	-0.00024795206
70	0xbdc0583c	-0.09391829
71	0x3e3f7ea9	0.18700661
72	0xbdb7f88b	-0.08982953
73	0xbe8c015f	-0.27344796
74	0xbe9e26d2	-0.30888993
75	0x3fcc4145	1.5957419
76	0xbe5599b6	-0.20859417
77	0x3dabd9f2	0.08391179
78	0x3eb04923	0.344308
79	0xbe446f22	-0.19183019
80	0x3e5dbec7	0.21654807
81	0x3c6d4755	0.014482339
82	0xbeb2930e	-0.3487782
83	0x3eb89ba2	0.36056238
84	0x3e24b6e8	0.16085398
85	0xbe9a5ad2	-0.30147415
86	0xbf13abab	-0.5768382
87	0x3d993661	0.07481075
88	0x3dc8bc8e	0.09801589
89	0x3e3f8206	0.18701944
90	0xbd8b5d8a	-0.068049505
91	0xbd934cd9	-0.07192392
92	0xbe55e58b	-0.20888345
93	0x3f16707a	0.58765376
94	0xbf1b6a72	-0.607093
95	0xbd764a95	-0.06012972
96	0xbe2425db	-0.16030066
97	0x3c7548fd	0.014971015
98	0xbf18903c	-0.59595084
99	0xbe828cf0	-0.25498152
100	0x3cfe2ea8	0.031028107
101	0x3e6f768a	0.23385063
102	0xbe2b8ee8	-0.16753733
103	0x3deb95b1	0.11503161
104	0x3d80896f	0.062762134
105	0xbd1ea209	-0.038728748
106	0x3eaaf099	0.33386686
107	0xbe4f345c	-0.20234817
108	0x3e98ab22	0.29818064
109	0x3ef2c417	0.4741523
110	0x3ee1df18	0.4411552
111	0xbe8d7726	-0.27629966
112	0xbe4a0418	-0.19728124
113	0x3d993451	0.07480682
114	0x3ee16156	0.44019574
115	0xbdb09990	-0.0862304
116	0x3e876b8d	0.26449242
117	0xbe11cb4e	-0.14237711
118	0xbe58046f	-0.21095441
119	0xbe06cc1a	-0.13163796
120	0x3e8cb934	0.2748505
121	0x3e88985e	0.26678747
122	0x3e278c1e	0.16362044
123	0x3ee3acae	0.44467682
124	0x3dfcc295	0.12341801
125	0xbef29487	-0.47378942
126	0x3eec93a8	0.46206403
127	0x3d9fbc1a	0.077995494
128	0x3e4c648f	0.19960235
129	0x3cef7193	0.029228961
130	0x3d953abb	0.072865926
131	0xbc008a69	-0.0078455
132	0xbf04a055	-0.5180715
133	0xbf2caf3a	-0.67454875
134	0xbe8acf1d	-0.2711114
135	0x3ef0d587	0.47037908
136	0x3e45197d	0.19248004
137	0x3edd699b	0.43244633
138	0xbf489cfc	-0.7836454
139	0xbf9c8baf	-1.2230128
140	0xbe97e5d6	-0.29667538
141	0x3ead6a0e	0.33869976
142	0xbe452168	-0.19251025
143	0xbe615987	-0.22006808
144	0xbfa16967	-1.2610291
145	0xbe30e97f	-0.17276572
146	0xbe1711f7	-0.14752947
147	0xbe141fdf	-0.14465283
148	0x3ebc0537	0.3672273
149	0x3e06844c	0.13136405
150	0x3edd9489	0.43277386
151	0xbe23f0a8	-0.16009772
152	0x3e1e71bd	0.15473075
153	0xbef4a93b	-0.47785363
154	0x3f33f357	0.7029318
155	0x3ea1d78a	0.31609756
156	0x3e28a96e	0.16470882
157	0xbf96b9e7	-1.1775483
158	0xbdfff327	-0.124975495
159	0x3efade4e	0.4899773
160	0x3ea598b1	0.32343057
161	0x3f32d465	0.6985534
162	0xbeb05c35	-0.34445348
163	0x3d48e4f0	0.049046457
164	0xbf996c3a	-1.1986153
165	0x3f847edf	1.0351218
166	0xbdb7e073	-0.08978357
167	0x3f02a80f	0.5103769
168	0x3d9f86a5	0.07789353
169	0x3e4752ea	0.19465223
170	0x3ef9500c	0.48693883
171	0xbf481cda	-0.78169024
172	0xbef94215	-0.4868323
173	0xbe91ca5e	-0.28474706
174	0xbf6b81eb	-0.91995114
175	0x3e602f9d	0.21893163
176	0xbea4d00d	-0.3218998
177	0x3f02761c	0.5096147
178	0x3eee556f	0.46549556
179	0x3e9f4bc2	0.31112486
180	0xbe658865	-0.22415312
181	0xbe3aabee	-0.18229648
182	0x3ea57cac	0.3232168
183	0xbe7b3f28	-0.24535811
184	0xbec7f783	-0.39056024
185	0xbe0f76ff	-0.14010237
186	0x3e91aef0	0.2845378
187	0xbf3cd80f	-0.7376718
188	0xbe6b4d77	-0.22978769
189	0x3f04d0e5	0.5188125
190	0x3e51010a	0.20410553
191	0x3e208c7c	0.1567859
192	0x3e1d2511	0.15346171
193	0xbd45564a	-0.048177995
194	0xbdb71159	-0.08938856
195	0xbe994ce5	-0.29941478
196	0xbdeb774a	-0.11497362
197	0x3e60078a	0.21877876
198	0xbe0a3925	-0.13498361
199	0xbc3bf3b5	-0.0114716785
200	0x3d71027c	0.05884026
201	0x3e5f1e39	0.21788873
202	0x3d64ec28	0.05588928
203	0x3f446083	0.76709765
204	0xbe05e074	-0.13073903
205	0x3e5ec844	0.21756083
206	0x3e95a82f	0.29229876
207	0xbd646184	-0.05575706
208	0x3f8ef6b8	1.1169043
209	0xbd134ddf	-0.035962936
210	0xbf123f6f	-0.5712804
211	0x3e9e9f71	0.3098102
212	0xbe638d21	-0.22221805
213	0xbefbd226	-0.49183768
214	0xbcbcb30b	-0.023034593
215	0x3dac44cd	0.0841156
216	0xbe420541	-0.18947317
217	0xbbf95cd4	-0.007609943
218	0xbda7ff87	-0.08203035
219	0xbda8bef7	-0.08239549
220	0x3ce4afbd	0.02791583
221	0x3fbdbfd8	1.4824171
222	0xbb00864d	-0.00196113
223	0x3e15b116	0.14618334
224	0x3e82586b	0.25458083
225	0x3fae93b9	1.3638831
226	0xbe8d9d7b	-0.2765921
227	0x3d0b44cb	0.034001153
228	0xbe809310	-0.251122
229	0x3fd66bad	1.675161
230	0x3e64dd7f	0.22350119
231	0xbe1a623b	-0.15076534
232	0xbd730374	-0.059329465
233	0x3e6d4c71	0.23173691
234	0x3e6d35cc	0.23165053
235	0xbf762c39	-0.9616123
236	0xbba4e041	-0.005031616
237	0x3f37453e	0.7159003
238	0x3eafb643	0.34318742
239	0x3e7752c0	0.2415266
240	0xbe3b3eab	-0.18285625
241	0x3de626c0	0.1123786
242	0x3e1ebb5a	0.15501156
243	0xbc6bcc09	-0.0143919075
244	0x3e858660	0.26079082
245	0xbe82d09b	-0.25549778
246	0xbefcd499	-0.4938095
247	0x3db48bbf	0.08815717
248	0xbdd95dfa	-0.10613628
249	0x3e55c193	0.20874624
250	0xbdff9f21	-0.12481523
251	0xbe2b815f	-0.1674857
252	0x3e4b1572	0.198324
253	0xbe1058d2	-0.14096382
254	0xbeaabcaf	-0.3334708
255	0x3ec77d81	0.3896294

s4_layers.0.output_linear.0.bias f4 [128]
0	0xbe97422f	-0.29542682
1	0xbf149534	-0.58040166
2	0xbc9b226c	-0.018937312
3	0xbf087eb8	-0.5331836
4	0xbe94a304	-0.2903062
5	0xbe423539	-0.18965615
6	0x3ece27a1	0.4026461
7	0x3e4ce8b0	0.20010638
8	0x3cb3fe39	0.021971809
9	0xbf3a7fda	-0.72851336
10	0x3f02b08e	0.5105065
11	0xbd80140c	-0.06253824
12	0x3f3c829b	0.7363679
13	0xbf2fccfc	-0.68672156
14	0xbee89350	-0.4542489
15	0xbe455a44	-0.19272715
16	0x3efe229d	0.49635783
17	0xbe92efc2	-0.28698546
18	0xbe3d8b05	-0.18510063
19	0x3fd9ab5f	1.7005423
20	0xbf118d4e	-0.5685624
21	0x3f994501	1.1974183
22	0x3e9ad0ab	0.30237326
23	0xbf88fbc9	-1.0701839
24	0x3fb66da5	1.4252211
25	0xbedb61d1	-0.42848065
26	0xbda6b5a6	-0.081401154
27	0x3ece60b8	0.40308166
28	0xbea8f138	-0.32996535
29	0xbf0de0d6	-0.554212
30	0xbf22974a	-0.635121
31	0xbf27b19c	-0.65505385
32	0x3c87dde4	0.016585298
33	0xbdb7ca28	-0.08974105
34	0x3b124935	0.0022321467
35	0xbe6d3646	-0.23165235
36	0xbebb1dd1	-0.36546186
37	0xbfa4b980	-1.286911
38	0xbedd7eb5	-0.43260732
39	0xbf2189c4	-0.6310084
40	0xbdc74676	-0.09730236
41	0x3d4a118f	0.04933315
42	0xbf6e1040	-0.92993546
43	0x3e9e06f8	0.30864692
44	0x3f8fc6cc	1.1232543
45	0x3f700e47	0.93771785
46	0xbf0ef596	-0.55843484
47	0xbe0d3878	-0.13791072
48	0x3e867310	0.2625966
49	0x3e140607	0.14455424
50	0x3f1022be	0.5630301
51	0xbf7639c2	-0.9618188
52	0x3e26df03	0.1629601
53	0x3f22f735	0.6365846
54	0xbe748686	-0.23879442
55	0x3df4c078	0.11950773
56	0xbd928da8	-0.07155925
57	0xbe8dc2b5	-0.27687612
58	0x3fbb5534	1.4635377
59	0xbed674c1	-0.4188595
60	0x3fc2ca54	1.5217996
61	0x3f5704db	0.83991784
62	0xbf39bf80	-0.7255783
63	0xbe093c69	-0.13401951
64	0x3e8a09d9	0.26960638
65	0xbfc9be58	-1.5761213
66	0x3de455ad	0.11149154
67	0xc00735c9	-2.1126578
68	0xbf8e8179	-1.1133262
69	0x3eacd6ce	0.33757633
70	0xbf52b3bc	-0.823055
71	0xbdb9677c	-0.09052941
72	0xbcc1981f	-0.023632107
73	0x3ed398bd	0.41327468
74	0x3e8b5e15	0.27220216
75	0xbe0b62dd	-0.13611932
76	0x3dc87add	0.09789059
77	0xbf5ff231	-0.8747893
78	0x3f4675c4	0.77523446
79	0x3ddd3eb1	0.10802973
80	0x3cd834f5	0.02639244
81	0xbf923df0	-1.1425152
82	0x3e3c909c	0.18414539
83	0xbfbcc48b	-1.474748
84	0xbbd1b1d1	-0.006399371
85	0xbe899e44	-0.2687856
86	0xbf7b527b	-0.9817273
87	0xbf962453	-1.1729835
88	0xbeac8ed0	-0.33702707
89	0xbf02b808	-0.5106206
90	0xbfd573b5	-1.6675936
91	0xbf14f200	-0.5818176
92	0xbf663773	-0.8992836
93	0xbe4b7587	-0.19869052
94	0xbf78032d	-0.96879846
95	0x3e185ae9	0.1487843
96	0xbf804e01	-1.0023805
97	0x3f0e0f08	0.55491686
98	0x3e4d7084	0.20062453
99	0xbf5c27ef	-0.85998434
100	0xbe5de007	-0.21667491
101	0xbdf56d8e	-0.119837865
102	0x3ec5685e	0.38556188
103	0xc0199b19	-2.4000914
104	0xbec8d58f	-0.39225432
105	0xbed4cc3a	-0.41562063
106	0xbfc35ab3	-1.5262054
107	0x3f26efb2	0.65209496
108	0xbe1f9b26	-0.15586528
109	0xbf137da1	-0.5761357
110	0xbee3a0e9	-0.44458702
111	0xbc87370d	-0.016505742
112	0xbccab541	-0.024744632
113	0x3e9bf369	0.30459145
114	0x3d02962f	0.031881507
115	0xbd5501e2	-0.05200375
116	0xbe453959	-0.19260158
117	0xbf73aa0e	-0.9518136
118	0xbf26f036	-0.6521028
119	0xbf530045	-0.82422286
120	0xbe3c87da	-0.18411198
121	0xbf118eda	-0.568586
122	0xbebfd87f	-0.3746986
123	0xbf295997	-0.6615233
124	0xbf346297	-0.70462936
125	0xbef9f5c2	-0.4882031
126	0xbf1fadc9	-0.6237455
127	0xbe82c200	-0.25538635

s4_layers.1.D f4 [64]
0	0xbf2eac57	-0.6823172
1	0xbe6081e9	-0.21924557
2	0x3f601984	0.87538934
3	0xbf640b4d	-0.89079744
4	0x3e025cd6	0.12730727
5	0x3ed79298	0.4210403
6	0xbd79446a	-0.06085626
7	0x3f29fcfe	0.6640166
8	0x3ec93987	0.39301702
9	0x3f1c708b	0.61109227
10	0x3ecd3135	0.40076604
11	0x3df41357	0.11917751
12	0x3ff4d015	1.9126002
13	0x3fbe3573	1.4860061
14	0xbe9b0606	-0.30278033
15	0x3ec6dacd	0.38838807
16	0xbfde5c83	-1.7371982
17	0x3f98f308	1.1949167
18	0x3f2712ec	0.6526325
19	0xbfbe3ae6	-1.4861724
20	0x3f8b665b	1.0890611
21	0xbf67a1b1	-0.90481097
22	0xbf1bb9cd	-0.60830384
23	0x3f966c63	1.1751827
24	0xbf46d83a	-0.77673686
25	0xbe55c99a	-0.20877686
26	0x3edf6a7a	0.43635923
27	0xbf865167	-1.0493592
28	0x3f3f314b	0.7468459
29	0x3f268bab	0.65056866
30	0xbca28b36	-0.019841772
31	0xbed24dc2	-0.4107495
32	0xbeb1e5a2	-0.34745508
33	0xbf4b1917	-0.7933516
34	0xbf42d85c	-0.7611139
35	0x3f99b636	1.2008731
36	0x3f019d76	0.5063089
37	0xbf098a3e	-0.53726566
38	0x3f7e5dcd	0.9936188
39	0xbf8354d0	-1.0260258
40	0xbf06185b	-0.52380913
41	0xbf6e78ab	-0.93152875
42	0xbed211e3	-0.4102927
43	0xbf16dfef	-0.58935446
44	0xbf573c03	-0.84075946
45	0xbebde3bd	-0.37087813
46	0xbfcd5162	-1.6040461
47	0xbf8adeaa	-1.0849202
48	0x3ed9223e	0.42408937
49	0x3ef6cd9e	0.48203748
50	0xbf514697	-0.81748337
51	0x3ea21ef4	0.3166424
52	0xbe9fe7b5	-0.31231466
53	0x3ed3779d	0.41302195
54	0x3f90cd81	1.1312715
55	0xbf60a062	-0.87744725
56	0x3f037492	0.5134975
57	0xbef446f4	-0.47710383
58	0xbf7bae48	-0.9831281
59	0x3d1289fd	0.035776127
60	0xbe3d7cf3	-0.18504696
61	0xbf997550	-1.1988926
62	0xbf3e86f6	-0.74424684
63	0x3e2c289f	0.1681237

s4_layers.1.kernel.C f4 [64, 32, 2]
0	0xbe649cdc	-0.22325462
1	0xbf438aca	-0.7638365
2	0x3e18ca9d	0.14921041
3	0xbf0d5455	-0.55206805
4	0xbc5abcb6	-0.013350656
5	0xbf24a2de	-0.64311016
6	0x3e2d55f2	0.16927317
7	0xbfd6a8fa	-1.6770318
8	0xbf5108c8	-0.81654024
9	0xbe35b122	-0.17743352
10	0xbe8fad8a	-0.28062087
11	0x3ddde3ee	0.1083449
12	0xbf956a15	-1.1672999
13	0xbeb946fe	-0.36186975
14	0xbe7d0f3d	-0.24712844
15	0xbebda4bc	-0.37039745
16	0x3f03ac53	0.5143482
17	0xbf2587ed	-0.6466053
18	0x3f5fb2ab	0.87382
19	0x3e66dea9	0.22545876
20	0x3ebfa453	0.37430057
21	0xbe30ee93	-0.17278509
22	0xbf2ca63f	-0.6744117
23	0xbf3cc25e	-0.7373408
24	0x3d858ba4	0.06520775
25	0xbebe2466	-0.37137145
26	0xbf53ba71	-0.8270636
27	0xbed8c4f1	-0.42337754
28	0xbd47a6cd	-0.048743058
29	0x3e4cad66	0.19988021
30	0xbf5fb388	-0.8738332
31	0x3e7456b3	0.23861198
32	0xbed5b7a2	-0.41741663
33	0xbf808456	-1.0040386
34	0x3edde977	0.43342182
35	0xbe6094c5	-0.21931751
36	0xbf06f99a	-0.5272461
37	0xbed5cd55	-0.41758218
38	0xbdb3a065	-0.08770827
39	0xbf0f61ea	-0.5600878
40	0xbf364a97	-0.71207565
41	0xbf4519bd	-0.769924
42	0xbebe4b30	-0.3716674
43	0xbf48f798	-0.785028
44	0x3eb02872	0.34405857
45	0xbf333373	-0.7000038
46	0xbf954049	-1.1660243
47	0x3ed9248c	0.42410696
48	0xc014f5d2	-2.3275037
49	0xbe2c0574	-0.16798955
50	0xbf6e5584	-0.93099236
51	0xba4ef8e3	-0.00078953634
52	0xbebf5c56	-0.37375134
53	0xbf6f69b4	-0.93520665
54	0xbfcedbea	-1.6160862
55	0x3fc617bf	1.5475997
56	0xbf1d8117	-0.615251
57	0xbf9dd7f1	-1.2331525
58	0xbf64698e	-0.89223564
59	0x3ee0990d	0.43866768
60	0xbfb383da	-1.4024613
61	0xbda45075	-0.080231585
62	0xbf900645	-1.1251913
63	0xbe8cb8a0	-0.27484608
64	0xbeedca84	-0.4644357
65	0xb4b03251	-3.2819165e-07
66	0x3cc1f0a1	0.023674311
67	0xbf9b710f	-1.2143878
68	0x3f142c16	0.5787977
69	0x3c101c69	0.008795836
70	0xbed902c8	-0.42384934
71	0xbf0ed0c8	-0.55787325
72	0x3e554bd7	0.20829712
73	0x3ea28f48	0.3174994
74	0xbeb9c760	-0.36284924
75	0xbf155351	-0.58330256
76	0x3ec5dbee	0.38644356
77	0x3f1e6958	0.6187949
78	0xbdb8ce3a	-0.090237096
79	0xbf1ff67b	-0.62485474
80	0x3e4fb4d7	0.20283829
81	0xbe670b35	-0.22562869
82	0xbfbb2794	-1.4621453
83	0xbf799cc6	-0.9750484
84	0x3f0157c1	0.50524527
85	0xbfa10073	-1.2578262
86	0xbf14c9a4	-0.5812018
87	0xbe90f5a5	-0.28312412
88	0xbefdd86f	-0.49579188
89	0xbf7f6d6a	-0.9977633
90	0xbf81725c	-1.0113025
91	0xbef8b825	-0.4857799
92	0xbf64744d	-0.8923996
93	0xbe5a157f	-0.21297263
94	0xbfbfdcf7	-1.4989308
95	0x3d56657c	0.052342877
96	0xbc4a721a	-0.0123563055
97	0x3ef2b8d4	0.47406638
98	0xbfca55f1	-1.5807477
99	0x400f36ab	2.2377117
100	0xbe98f550	-0.2987466
101	0x3f2e4e43	0.6808817
102	0x3fa33e04	1.2753301
103	0x3f0ec2fb	0.55766267
104	0x3f385e15	0.7201856
105	0xbf1306ff	-0.5743255
106	0x3fc45611	1.5338765
107	0x3efeeb4a	0.49788886
108	0x3f49650d	0.78669816
109	0x3d33afe6	0.04386892
110	0x3e08e0d1	0.1336701
111	0xbed1920a	-0.4093173
112	0x3dc97829	0.09837372
113	0xbf11fb45	-0.5702403
114	0xbe5226c7	-0.20522605
115	0xbf19cffa	-0.6008297
116	0xbf45bfac	-0.77245593
117	0x3e2e7dcf	0.1704018
118	0x3d28ef74	0.041243985
119	0xbdefeaf3	-0.11714735
120	0xbf98a034	-1.192389
121	0xbe123186	-0.14276704
122	0xbf297935	-0.6620057
123	0xbf4c4db0	-0.7980604
124	0x3d91eb7c	0.07124993
125	0xbe181f92	-0.14855793
126	0x3eba469c	0.36381996
127	0xbe3cb7fb	-0.18429558
128	0x3f463fc6	0.7744106
129	0x3ba9676f	0.005169801
130	0xbf4b90bb	-0.79517716
131	0x3ec81c97	0.39084312
132	0xbf1e132b	-0.61748
133	0xbf501cb7	-0.81293815
134	0xbebbb4ed	-0.36661473
135	0x3d85a96c	0.06526455
136	0x3f679c32	0.9047271
137	0x3f28b0d9	0.6589485
138	0x3ebac565	0.36478725
139	0x3f805378	1.0025473
140	0xbe99e5d0	-0.30058146
141	0x3e201a10	0.15634942
142	0x3df0f70c	0.117658705
143	0x3dfa2961	0.12214924
144	0x3fb12be7	1.3841523
145	0x3e80bab8	0.25142455
146	0xbf3ddb2c	-0.74162555
147	0x3fbf50cc	1.4946532
148	0x3f23dd66	0.640097
149	0xbf434623	-0.76278895
150	0x3fb43895	1.4079767
151	0xbe43227b	-0.19056122
152	0x400656ec	2.0990553
153	0xbf3c42ef	-0.7353963
154	0x3f479be6	0.7797226
155	0xbf9c6972	-1.2219679
156	0xbe42866c	-0.1899659
157	0x3f1118ff	0.56678766
158	0xbf74de68	-0.95651865
159	0xbe98a805	-0.2981569
160	0xbe108df3	-0.1411665
161	0xbf49784f	-0.786992
162	0xbeeeafab	-0.466184
163	0xbf2973e9	-0.6619249
164	0xbfdc1549	-1.7193996
165	0x3fa71513	1.3053306
166	0x3e728363	0.23682933
167	0xbe9796fd	-0.29607382
168	0xbfcbf932	-1.5935423
169	0xbedf7c76	-0.43649644
170	0xbec915d3	-0.39274463
171	0x3f0e2672	0.5552741
172	0xbe5b1d04	-0.21397787
173	0x3cd9e461	0.026598157
174	0xbf3b91f2	-0.7326957
175	0x3f1e8caf	0.61933416
176	0xbe36ca1c	-0.17850536
177	0x3dfbc613	0.12293639
178	0xbfd33312	-1.649996
179	0x3f374844	0.71594644
180	0xbf259a6c	-0.64688754
181	0xbe7ae7dd	-0.24502511
182	0xbd56ecbe	-0.05247187
183	0x3f46d4f0	0.77668667
184	0xbf58bdeb	-0.8466479
185	0x3d8f1a8e	0.06987487
186	0x3f011745	0.5042613
187	0xbe611faf	-0.21984743
188	0xbfd5cbcd	-1.670282
189	0x3ed07504	0.40714276
190	0xbf61f0df	-0.88258165
191	0x3f6a56cc	0.9153869
192	0xbee96399	-0.455838
193	0x30c8af18	1.460168e-09
194	0x3fca4494	1.5802178
195	0x3f83a116	1.0283535
196	0x3f623bf2	0.8837272
197	0x3efc9dc1	0.49339107
198	0x3ee544dc	0.44779098
199	0xbfce2226	-1.6104171
200	0xbeb6bdbb	-0.35691628
201	0x3f7e8306	0.99418676
202	0x3fbbaac1	1.4661485
203	0xbe9825bb	-0.29716286
204	0x3fa86626	1.3156173
205	0x3daaeaba	0.08345552
206	0x3eee8b4f	0.4659066
207	0xbe77b6d9	-0.24190845
208	0xbe31e825	-0.17373712
209	0xbe87b7aa	-0.26507312
210	0xbe5dfb9f	-0.21678017
211	0xbed02a90	-0.40657473
212	0x3fdcc0e3	1.7246364
213	0xbe86a41d	-0.26297083
214	0xbee83cb6	-0.4535882
215	0xbf1dbdaf	-0.6161756
216	0x3e71f4e8	0.2362858
217	0xbda40bc5	-0.08010057
218	0x40422d97	3.0340326
219	0xbf465c2d	-0.774844
220	0xbd5e50d7	-0.054276314
221	0xbf177ce6	-0.59174955
222	0x3ec973b0	0.39346075
223	0x3e84a875	0.25909773
224	0x3ec45610	0.3834691
225	0xbe722b2d	-0.23649283
226	0xbfb245eb	-1.3927587
227	0x3f6f0279	0.9336315
228	0x3f4640ab	0.77442425
229	0xbf28df29	-0.65965515
230	0xbf14e12a	-0.58156073
231	0xbf73a67c	-0.9517591
232	0x3f28af68	0.6589265
233	0x3f673271	0.9031134
234	0xbebf57db	-0.37371716
235	0xbe44b166	-0.19208297
236	0x3ec78f08	0.38976312
237	0xbdd3b3e9	-0.103370495
238	0xbdeee93a	-0.11665578
239	0xbb3d5caf	-0.0028894355
240	0xbfe5c659	-1.7951156
241	0xbf28e5e7	-0.65975803
242	0xbe3d13a7	-0.18464528
243	0xbf8a72e2	-1.081631
244	0x3e95a508	0.2922747
245	0xbfa70ce9	-1.3050815
246	0xbf56765a	-0.8377434
247	0x3f095f6d	0.53661233
248	0xbf25fff6	-0.6484369
249	0xbe3bf062	-0.18353418
250	0xbed4f474	-0.41592753
251	0x3abf7a1d	0.0014608536
252	0xbef1e5a8	-0.47245526
253	0xbd3aeda7	-0.0456368
254	0xbf7cbcc2	-0.9872552
255	0xbfa2344b	-1.2672209

s4_layers.1.kernel.log_dt f4 [64]
0	0xc0b74018	-5.726574
1	0xc038e5a5	-2.8890164
2	0xc0788d12	-3.8836102
3	0xc0910bdc	-4.5326977
4	0xc0651fd7	-3.5800683
5	0xc083325d	-4.099898
6	0xc08440ad	-4.132895
7	0xc0857966	-4.171069
8	0xc0934543	-4.602205
9	0xc0be7c2b	-5.952657
10	0xc08c1dcc	-4.3786373
11	0xc08d5bbf	-4.4174495
12	0xc0c4c663	-6.149217
13	0xc0ceb8b9	-6.460049
14	0xc0b2cdd9	-5.587628
15	0xc07ddc4e	-3.9665713
16	0xc08d4de2	-4.415757
17	0xc0bbd764	-5.870043
18	0xc0c8f2cc	-6.2796383
19	0xc0ab9a3b	-5.362577
20	0xc0af310a	-5.474736
21	0xc045fed4	-3.0936785
22	0xc04efd4f	-3.2342107
23	0xc0abd4c1	-5.369721
24	0xc0bb57a9	-5.8544507
25	0xc0ba3eba	-5.820157
26	0xc02ca968	-2.6978397
27	0xc08b7b74	-4.35882
28	0xc0499c44	-3.1501627
29	0xc01f2522	-2.4866414
30	0xc090be22	-4.5232096
31	0xc0394096	-2.894567
32	0xc0985a3d	-4.7610154
33	0xc0445502	-3.0676885
34	0xc0c12538	-6.0357933
35	0xc0b02ddf	-5.5055995
36	0xc06844dd	-3.629203
37	0xc0b71d94	-5.7223606
38	0xc051f19d	-3.280372
39	0xc04ee3fd	-3.2326653
40	0xc0d2c1f5	-6.5861764
41	0xc0c30b47	-6.0951266
42	0xc0dfaa5d	-6.9895463
43	0xc0459f92	-3.0878644
44	0xc05a73be	-3.4133143
45	0xc07392db	-3.8058383
46	0xc01d1353	-2.4543045
47	0xc096ffba	-4.7187166
48	0xc03bdcb4	-2.9353456
49	0xc0a7d893	-5.2451873
50	0xc07b59a1	-3.9273455
51	0xc0a6700a	-5.2011766
52	0xc09cd0ba	-4.9004793
53	0xc0800de5	-4.001696
54	0xc0a1f99f	-5.0617213
55	0xc07eb6b4	-3.9799013
56	0xc072b362	-3.7921987
57	0xc0d2fce6	-6.5933714
58	0xc0a6c4e9	-5.211537
59	0xc02709d7	-2.6099756
60	0xc0a0e1a5	-5.0275445
61	0xc0bf60cd	-5.9805665
62	0xc0d26a26	-6.5754576
63	0xc092d721	-4.588761
