code/s4/models/s4-d16.pt (torch, 57746 bytes, 40 tensors)

encoder.weight f4 [16, 3]
-0.056133404 -0.26750022 -0.13263923 0.08153525 -0.17331971 0.08478339 0.21706243 -0.15427561
-0.19830753 0.015958883 -0.2670822 0.26698706 -0.3331149 -0.41538954 -0.1631847 0.4137011
-0.02607833 -0.0275222 -0.06947538 0.026923396 -0.17525491 0.26270583 0.56955296 -0.0072480314
0.24997774 -0.08848107 -0.495023 0.22038709 -0.33915177 0.6183223 -0.13758986 -0.24511293
-0.08507991 -0.24883007 0.35164538 0.12639397 0.22591355 -0.019762157 0.21039712 -0.5255136
0.17492357 -0.357926 0.120709985 0.26409867 -0.48150045 -0.28531894 0.3962816 0.103839144
00000000: 24ec 65bd caf5 88be 94d2 07be f4fb a63d
00000010: b97a 31be eaa2 ad3d 9d45 5e3e 6dfa 1dbe
00000020: 2111 4bbe 34bc 823c 00bf 88be 87b2 883e
00000030: 098e aabe f0ad d4be e419 27be a1d0 d33e
00000040: 39a2 d5bc 3d76 e1bc 1c49 8ebd 748e dc3c
00000050: 0676 33be 6181 863e 39ce 113f e580 edbb
00000060: 2afa 7f3e 9035 b5bd a873 fdbe 27ad 613e
00000070: 4da5 adbe 5f4a 1e3f 5be4 0cbe e2fe 7abe
00000080: 603e aebd 4fcd 7ebe dd0a b43e 6c6d 013e
00000090: e255 673e 3fe4 a1bc 5872 573e 0f88 06bf
000000a0: 2a1f 333e 1442 b7be cc36 f73d f137 873e
000000b0: 3a87 f6be 5315 92be 6ce5 ca3e 9ea9 d43d

encoder.bias f4 [16]
2.9718492 1.6652145 -1.7035565 1.5876588 1.2958673 1.8581856 -2.119009 -1.5533749
1.0816033 2.0152998 3.1085246 1.0811278 2.6118026 0.662872 -1.458515 -0.913586
00000000: c732 3e40 c025 d53f 240e dabf 6738 cb3f
00000010: fbde a53f 07d9 ed3f d89d 07c0 fdd4 c6bf
00000020: fa71 8a3f acfa 0040 11f2 4640 6562 8a3f
00000030: c627 2740 fbb1 293f 9fb0 babf c6e0 69bf

s4_layers.0.D f4 [16]
-0.32413942 -0.7129107 0.3437661 -0.6521646 -0.49365175 -0.7447417 -0.5181764 -0.8214506
-1.0908164 -1.2159172 -1.0654837 -1.2630395 -0.67721146 -0.48476762 -0.30266082 -0.15082206
00000000: 9af5 a5be 5181 36bf 1c02 b03e 42f4 26bf
00000010: ecbf fcbe 64a7 3ebf 35a7 04bf 964a 52bf
00000020: df9f 8bbf 2da3 9bbf c561 88bf 47ab a1bf
00000030: bb5d 2dbf 7633 f8be 5cf6 9abe 1971 1abe

s4_layers.0.kernel.C f4 [16, 32, 2]
-0.8426464 0.10473868 -0.32597104 1.0402766 0.8034224 -0.696193 0.49998283 -0.121713996
-0.53708816 0.18795092 -1.6319027 0.55841416 -0.6006503 0.70993257 -0.97367066 1.4943981
-1.5638938 -0.6293981 -1.1542727 -1.452438 0.8913148 1.6161885 0.18898496 0.37307027
-0.10706043 1.2293081 -0.16870688 -0.15931273 0.22120063 -0.051182646 -0.5626394 0.4686992
1.0975068 -1.0051109 0.15479149 -0.016745139 -0.5564679 -0.3505589 -1.3882421 0.023802651
-1.0463107 0.52064335 1.1967517 -0.21524209 0.594564 0.50023806 -1.2384379 0.2556807
0.5653464 1.1486503 -0.24284692 0.7919206 1.3624691 0.73964196 -0.55285656 0.25847393
-0.25643614 1.4213967 0.906246 -0.31258973 0.30970973 0.40399194 0.9200308 -0.37336734
-0.7736678 -0.66233295 0.006426438 -0.6619188 -1.5333405 -1.0217613 -0.48619312 -0.9895016
0.526653 -0.7298534 1.4543394 -0.4017751 -1.0250252 -1.138899 0.2160911 -1.0213826
-0.57448757 -0.31752288 -0.22897416 -0.012302648 -0.29576814 1.1084231 0.4852439 -0.123254314
0.7452064 -0.35678524 0.8676631 -0.45362273 0.008187096 1.1777642 -0.22200836 -0.37163582
-0.5090734 -0.23466514 0.11789276 0.5123648 0.52701366 -0.47261918 0.40413797 -0.9603297
-0.84611505 -0.7340965 0.079903066 -0.6926375 -0.25599423 -0.46624553 -0.38544667 -0.5922226
-0.21775703 -0.36227024 -0.024689836 -0.18141052 -0.43935847 0.54045177 0.9093941 0.80860615
0.24003471 0.4825651 0.014185403 -0.00664859 0.3345229 -0.35309848 -0.40092716 -0.05954727
-0.9923342 0.018945413 0.6349842 -0.69907355 -1.1251601 0.9443284 0.15993747 -1.2479026
-0.034493677 -0.1734754 -0.94992167 -0.3543657 0.5746168 0.23200394 0.1439684 -0.24595991
-0.85646844 -0.47271365 -0.9734791 -1.0283549 0.24507436 0.97576797 -0.71945816 -1.3260976
-0.07697576 -0.18307093 -0.2481149 -0.32397124 0.8528455 -0.4324572 -0.50661254 0.31248334
-0.43393096 0.4560055 -0.32808474 0.5909435 -0.44141978 -0.15320256 0.06947287 0.265042
-0.07089475 -0.39034888 -0.5025944 0.07534821 -1.3006766 1.3765153 1.1682932 0.4607174
-0.29858682 1.142504 0.4020719 -0.051809315 -0.75250345 0.59193385 -0.12736541 -0.70499516
-0.6018034 -1.1713381 -0.48985744 -0.2442319 -2.0160298 -0.6251005 -1.213913 1.8938956
0.44641325 0.51205367 0.13567227 0.004205727 -1.2727368 -0.16874787 -0.0058423006 -0.76994914
0.72377515 0.26595587 0.7001998 -0.25202248 -0.29253423 0.72028565 0.30996495 -0.5436944
0.55117947 -0.64065456 0.45080474 -1.0247811 -0.29472566 -0.6741155 -0.08191852 -0.674871
-1.0044894 0.0285567 0.6056402 -1.1276026 -0.9431341 0.44981968 -0.12676515 -0.6537676
0.84747297 -0.31194818 0.2401438 0.21660677 0.3821014 -0.19868368 -0.88928914 -0.7976903
-0.5048078 0.2596482 -0.5442273 -0.43659177 0.24899445 -0.63378364 -0.6725019 -0.80970246
-0.29937118 0.35577345 -0.14602415 -0.1060049 -1.0255678 -1.2235249 1.047401 -1.1469133
0.13157253 -0.08039713 0.5449898 -0.069407225 -1.2539098 -0.2761363 0.6865863 -0.7062877
00000000: adb7 57bf 3c81 d63d ade5 a6be c927 853f
00000010: 17ad 4d3f b439 32bf c0fd ff3e 3045 f9bd
00000020: 9c7e 09bf 3576 403e 30e2 d0bf 3bf4 0e3f
00000030: 38c4 19bf 24be 353f 7b42 79bf 7048 bf3f
00000040: ac2d c8bf 3c20 21bf 35bf 93bf 7de9 b9bf
00000050: 352d 643f 44df ce3f 4685 413e 1103 bf3e
00000060: 8042 dbbd f859 9d3f 7fc1 2cbe e022 23be
00000070: 6b82 623e e5a4 51bd 2309 10bf 57f9 ef3e
00000080: 1a7b 8c3f 79a7 80bf a981 1e3e 1a2d 89bc
00000090: ae74 0ebf 757c b3be ebb1 b1bf c7fd c23c
000000a0: 82ed 85bf e248 053f 292f 993f 6c68 5cbe
000000b0: 5935 183f 9a0f 003f 2285 9ebf 95e8 823e
000000c0: 8bba 103f f906 933f ddac 78be 4fbb 4a3f
000000d0: 6365 ae3f 2d59 3d3f 0288 0dbf b256 843e
000000e0: 994b 83be 54f0 b53f bdff 673f c30b a0be
000000f0: 4692 9e3e 08d8 ce3e 2387 6b3f 012a bfbe
00000100: 180f 46bf a78e 29bf df94 d23b 8373 29bf
00000110: 8044 c4bf 13c9 82bf 4eee f8be fa4f 7dbf
00000120: bbd2 063f acd7 3abf cb27 ba3f 77b5 cdbe
00000130: 0734 83bf 71c7 91bf fc46 5d3e aabc 82bf
00000140: 9e11 13bf 5c92 a2be 3478 6abe 0c91 49bc
00000150: ec6e 97be cfe0 8d3f e371 f83e c26c fcbd
00000160: d9c5 3e3f 8eac b6be 2b1f 5e3f 3d41 e8be
00000170: 2b23 063c fac0 963f 2956 63be 0d47 bebe
00000180: a252 02bf 0f4c 70be c271 f13d 572a 033f
00000190: 5eea 063f 24fb f1be 2ceb ce3e 2bd8 75bf
000001a0: ff9a 58bf c0ed 3bbf 38a4 a33d b150 31bf
000001b0: ad11 83be bcb7 eebe 4459 c5be e69b 17bf
000001c0: b3fb 5ebe 7c7b b9be 5742 cabc aec3 39be
000001d0: 98f3 e0be 0c5b 0a3f 0dce 683f d000 4f3f
000001e0: a9cb 753e c612 f73e e469 683c 6adc d9bb
000001f0: 9646 ab3e 53c9 b4be 5346 cdbe d7e7 73bd
00000200: 9d09 7ebf 6933 9b3c 538e 223f 7cf6 32bf
00000210: 3f05 90bf 82bf 713f a6c6 233e 46bb 9fbf
00000220: 3e49 0dbd 89a3 31be 112e 73bf 6c6f b5be
00000230: 161a 133f 7192 6d3e 746c 133e eadc 7bbe
00000240: 8441 5bbf 8607 f2be ed35 79bf 22a1 83bf
00000250: c6f4 7a3e eecb 793f 692e 38bf 91bd a9bf
00000260: 78a5 9dbd f276 3bbe d511 7ebe 8fdf a5be
00000270: 1554 5a3f 086b ddbe 5cb1 01bf d1fd 9f3e
00000280: 332c debe 8e79 e93e b9fa a7be 1348 173f
00000290: c601 e2be 22e1 1cbe cb47 8e3d 96b3 873e
000002a0: 4431 91bd cfdb c7be 07aa 00bf 2a50 9a3d
000002b0: 927c a6bf a731 b03f a28a 953f 27e3 eb3e
000002c0: 5fe0 98be 923d 923f 5edc cd3e 0136 54bd
000002d0: 11a4 40bf fa88 173f 146c 02be 907a 34bf
000002e0: ca0f 1abf 68ee 95bf 98ce fabe ed17 7abe
000002f0: a206 01c0 9606 20bf 8061 9bbf 2c6b f23f
00000300: 4790 e43e f315 033f aced 0a3e 32d0 893b
00000310: 0ae9 a2bf 3ecc 2cbe c570 bfbb 631b 45bf
00000320: 5449 393f 5e2b 883e 4b40 333f 1709 81be
00000330: 0cc7 95be a464 383f bab3 9e3e 8e2f 0bbf
00000340: 191a 0d3f f001 24bf e1cf e63e 072c 83bf
00000350: 48e6 96be d592 2cbf e6c4 a7bd 59c4 2cbf
00000360: 1c93 80bf beef e93c 3c0b 1b3f 4855 90bf
00000370: 3d71 71bf c44e e63e b9ce 01be 505d 27bf
00000380: fdf3 583f acb7 9fbe 42e8 753e 2ace 5d3e
00000390: cba2 c33e bc73 4bbe 74a8 63bf 6e35 4cbf
000003a0: 153b 01bf 9cf0 843e 7b52 0bbf f588 dfbe
000003b0: 67f8 7e3e a53f 22bf 1629 2cbf a948 4fbf
000003c0: 2e47 99be f027 b63e 5b87 15be 1919 d9bd
000003d0: ce45 83bf 779c 9cbf 3c11 863f 0ece 92bf
000003e0: f3ba 063e 40a7 a4bd 7484 0b3f 6025 8ebd
000003f0: 1e80 a0bf bd61 8dbe 1fc4 2f3f 45cf 34bf

s4_layers.0.kernel.log_dt f4 [16]
-3.9149806 -2.3268461 -6.5895886 -3.6306665 -5.068855 -3.4170218 -3.1607695 -3.4840708
-3.5445712 -2.5593338 -2.936529 -3.6849842 -2.2719324 -3.4898071 -5.6890864 -5.3124275
00000000: 0b8f 7ac0 0ceb 14c0 e9dd d2c0 d75c 68c0
00000010: 0f34 a2c0 7cb0 5ac0 0c4a 4ac0 04fb 5ec0
00000020: 41da 62c0 20cc 23c0 17f0 3bc0 c8d6 6bc0
00000030: 5767 11c0 0059 5fc0 ff0c b6c0 68ff a9c0

s4_layers.0.kernel.log_A_real f4 [16, 32]
-0.41447458 -0.31245932 -0.83573836 0.06413865 -0.7826844 -0.9372232 -0.69700927 -0.81287116
-0.7378899 -0.50944966 -1.0204875 -1.0247653 -1.2180792 0.64506316 -0.6546624 0.40126434
-0.8879294 1.2630658 -0.66535413 -0.99442375 -0.74680424 -0.70292604 -1.0130507 -0.6488806
-0.8852387 -1.3136265 -0.8714763 -0.32271144 -0.36875093 0.2506889 -0.35493016 0.28725517
-1.2516224 -0.5563775 -0.4802301 -0.7588812 -0.3531069 -0.77885926 -0.33956838 0.5377837
-0.43469214 -0.24035373 0.10516627 0.09203769 -0.3007976 0.017235296 0.46843866 0.36274362
-1.0010388 -0.21781622 -0.6870902 -0.59110373 -0.3359799 -1.5862459 -0.30717126 -0.18188828
-0.5260225 0.12674592 -0.9636626 -0.102303 -0.19888301 0.0625612 0.23252757 0.22901642
-0.60871035 -0.6750622 -0.615495 -0.37385488 9.580993 -0.60249025 -0.39286298 1.5414965
-0.5891365 -0.6358079 0.47437814 -0.13848487 2.674414 0.49109364 -0.6457806 -0.4701349
-0.446356 -0.4090894 -0.23258449 0.57553357 0.06400452 -0.4294119 -0.6589063 1.5410244
-0.48482323 0.6448888 -0.6058186 -0.7351028 -0.9943948 -0.3651128 -2.392143 -0.70165634
-0.1870267 0.6207229 0.42871526 -0.43729222 -0.7161501 -0.629784 -0.42094254 -0.3976305
-0.54775274 -0.5397119 -0.38858718 -0.36497825 -0.39281002 -0.9529334 -0.9556716 -0.413011
-0.21815112 -0.40616196 0.12999955 -0.171247 0.106529035 -0.42078894 -0.8670938 -1.0765376
-0.5395726 0.10890533 -0.60526115 -0.33444 -0.3857943 -0.82158625 -0.08587682 -0.77313
-0.327798 0.4917922 -0.75975615 -0.62924707 -0.6832503 -0.55635333 -0.6596207 -0.48230845
-0.90622956 -0.6984921 -0.41569358 -0.36404225 -0.34162834 -0.60763705 -1.1211915 0.5975708
-0.40057626 -0.4103223 -0.43177107 -0.5743359 -0.68467593 -0.482088 -0.3498905 -0.07614299
-0.12268326 0.4554545 -0.24347262 -1.0138367 -0.17907228 -1.9753642 0.52103305 -0.80491054
-0.6199274 -0.2633035 -0.5921607 0.37492618 -0.2810711 0.23943076 -0.8863101 0.20601483
0.4624396 0.9352083 -1.304287 -0.62566584 -0.19473062 -0.2342507 -0.39376923 -0.19461444
-0.7904417 -0.37859973 0.30284202 -1.6657275 1.2639757 1.1122745 -0.07992196 -0.51113886
-0.5438358 -0.806415 -0.54648894 -0.682602 -0.30793646 -0.21942659 0.6606998 -1.2549242
-0.2683921 0.025608452 -0.2427721 -0.2579541 -0.73690844 0.05973884 -1.5675513 0.51570135
-1.0735457 -0.6949057 -1.31327 -0.3963375 0.4346227 -0.96464854 -0.45781037 -0.26304793
-0.039827093 -1.0534185 -0.8110773 -0.93007267 -0.73710287 -0.4702778 -0.2880334 -0.6186935
-0.51554406 -0.19485503 -1.2786003 -0.5912395 -0.8167141 0.40421668 -0.711525 -0.4754115
-0.7128602 -0.7287696 -0.58788836 -0.09182057 0.06033599 -0.6505716 -0.6308302 -1.2565396
-0.36494818 -0.61458296 -0.42336017 -0.23357579 -0.95957667 -0.9342307 -0.3324138 -0.31009042
-0.64746994 -1.3604995 -0.21036145 -0.7815136 -0.25433862 -0.24335535 0.24984042 0.78064704
0.19596997 -0.17608863 -0.8823134 -0.18550435 -0.18565941 -0.01194364 0.56664604 0.98748314
00000000: 0336 d4be abfa 9fbe f3f2 55bf 205b 833d
00000010: 015e 48bf dced 6fbf 336f 32bf 5318 50bf
00000020: 5ae6 3cbf 4b6b 02bf 569f 82bf 822b 83bf
00000030: 05ea 9bbf dc22 253f f497 27bf 8572 cd3e
00000040: 574f 63bf 24ac a13f a654 2abf 8e92 7ebf
00000050: 902e 3fbf f6f2 33bf a5ab 81bf 0a1d 26bf
00000060: 019f 62bf ea24 a8bf 1219 5fbf 6f3a a5be
00000070: eccc bcbe 4c5a 803e 68b9 b5be 1c13 933e
00000080: 2a35 a0bf c16e 0ebf b8e0 f5be 0a46 42bf
00000090: 6dca b4be 5263 47bf e8db adbe 31ac 093f
000000a0: f88f debe 4a1f 76be 6a61 d73d 427e bc3d
000000b0: 2502 9abe 0931 8d3c 31d7 ef3e 88b9 b93e
000000c0: 0a22 80bf 370b 5fbe 25e5 2fbf 9352 17bf
000000d0: 8f05 acbe 1b0a cbbf 8d45 9dbe ec40 3abe
000000e0: 69a9 06bf afc9 013e 98b2 76bf 3c84 d1bd
000000f0: fda7 4bbe 1620 803d b51b 6e3e 4883 6a3e
00000100: 71d4 1bbf e0d0 2cbf 1591 1dbf e869 bfbe
00000110: bf4b 1941 cd3c 1abf 5625 c9be c24f c53f
00000120: a6d1 16bf 4ec4 22bf b1e1 f23e face 0dbe
00000130: 9929 2b40 a070 fb3e e151 25bf 86b5 f0be
00000140: c688 e4be 2a74 d1be a12a 6ebe 2b56 133f
00000150: cd14 833d e0db dbbe 15ae 28bf 4a40 c53f
00000160: c03a f8be 6f17 253f ee16 1bbf b22f 3cbf
00000170: a890 7ebf 11f0 babe df18 19c0 c09f 33bf
00000180: ed83 3fbe b2e7 1e3f 9180 db3e c4e4 dfbe
00000190: 9d55 37bf 8639 21bf c885 d7be 3a96 cbbe
000001a0: 8639 0cbf 8f2a 0abf e6f4 c6be 6ede babe
000001b0: 651e c9be 71f3 73bf e5a6 74bf 2e76 d3be
000001c0: 0263 5fbe 76f4 cfbe 9a1e 053e 605b 2fbe
000001d0: e52b da3d a671 d7be dcf9 5dbf fccb 89bf
000001e0: 6e21 0abf c209 df3d 65f2 1abf b83b abbe
000001f0: d586 c5be 7a53 52bf 30e0 afbd d9eb 45bf
00000200: 24d5 a7be 30cc fb3e 617f 42bf 5616 21bf
00000210: 7ee9 2ebf 2c6d 0ebf e7dc 28bf 22f1 f6be
00000220: a9fe 67bf 61d0 32bf cad5 d4be bf63 babe
00000230: e9e9 aebe 1a8e 1bbf 3483 8fbf 66fa 183f
00000240: 5518 cdbe c415 d2be 1911 ddbe ad07 13bf
00000250: ec46 2fbf 3dd4 f6be d924 b3be dbf0 9bbd
00000260: 5c41 fbbd 5531 e93e e350 79be 67c5 81bf
00000270: b95e 37be bcd8 fcbf 6c62 053f 9e0e 4ebf
00000280: 90b3 1ebf b7cf 86be d897 17bf 53f6 bf3e
00000290: 8de8 8fbe 562d 753e 38e5 62bf 8df5 523e
000002a0: e2c4 ec3e d069 6f3f e0f2 a6bf a32b 20bf
000002b0: 7767 47be 6adf 6fbe 1f9c c9be 0249 47be
000002c0: 635a 4abf d3d7 c1be 1c0e 9b3e 8f36 d5bf
000002d0: f5c9 a13f 035f 8e3f 20ae a3bd ffd9 02bf
000002e0: d338 0bbf 3771 4ebf b3e6 0bbf 01bf 2ebf
000002f0: d9a9 9dbe 5db1 60be 9f23 293f 5ba1 a0bf
00000300: b06a 89be d1c8 d13c 4099 78be 8f12 84be
00000310: 08a6 3cbf b7b0 743d 85a5 c8bf 0105 043f
00000320: f269 89bf 57e5 31bf 3b19 a8bf c0ec cabe
00000330: de86 de3e 35f3 76bf 1f66 eabe 38ae 86be
00000340: bc21 23bd 6bd6 86bf c3a2 4fbf 3e19 6ebf
00000350: c6b2 3cbf 40c8 f0be 1d79 93be b262 1ebf
00000360: b2fa 03bf 1488 47be 2da9 a3bf 795b 17bf
00000370: 2d14 51bf 7df5 ce3e 8126 36bf 2369 f3be
00000380: 027e 36bf a590 3abf da7f 16bf 6c0c bcbd
00000390: df22 773d dc8b 26bf 177e 21bf 4ad6 a0bf
000003a0: 7dda babe 4f55 1dbf aac2 d8be 7e2e 6fbe
000003b0: d1a6 75bf be29 6fbf 2432 aabe 2cc4 9ebe
000003c0: 97c0 25bf d924 aebf fe68 57be 4611 48bf
000003d0: ac38 82be 2532 79be 2bd6 7f3e 7cd8 473f
000003e0: 5aac 483e 9450 34be 4adf 61bf daf4 3dbe
000003f0: 801d 3ebe 42af 43bc b70f 113f b2cb 7c3f

s4_layers.0.kernel.A_imag f4 [16, 32]
-0.10798236 2.933888 5.9251924 9.443978 12.672001 15.613206 18.798916 21.985537
24.806852 27.837807 32.021935 35.070423 37.232586 41.180958 43.310566 47.14033
49.26334 53.42637 55.558083 58.960598 62.28793 66.66702 69.588036 72.98907
75.39624 78.741936 81.387985 84.069214 87.86317 91.374565 96.4537 100.39929
-0.39412504 3.8329256 6.5893807 9.370334 13.347007 15.393792 19.146963 21.702686
25.571836 28.644579 31.549303 35.00781 38.18768 40.552555 43.544926 47.276203
49.28236 52.068264 56.273087 60.01856 62.431293 65.98327 68.75933 72.711395
75.94852 77.871445 81.05481 84.77487 87.77595 91.12949 94.49788 98.14278
0.017559806 2.9451063 6.1274567 9.383604 11.733297 15.630403 18.5558 20.4705
25.179575 28.337786 31.31001 34.605125 37.13672 40.844913 43.108963 48.370506
50.626328 53.58692 56.841015 59.726826 63.19414 66.93391 71.377045 72.1684
75.92062 78.43192 83.19609 85.11225 87.96464 91.828995 94.39211 99.07209
0.16132541 3.766224 6.0986276 10.100811 12.109448 15.346837 18.916996 21.973211
25.12638 28.169798 31.4063 34.834743 38.096447 40.73649 44.226322 46.65824
50.457607 52.989086 56.728817 59.81019 62.870293 66.594696 68.86346 72.10358
75.56052 78.65283 81.46302 84.969406 88.04338 91.02271 94.057526 98.676094
-1.8138645e-10 0.21066761 6.1905785 9.286927 12.595239 15.714516 19.320242 22.083353
25.142954 27.988428 32.0608 34.55746 38.354042 40.7234 44.07906 47.394764
50.14081 54.094147 56.100857 60.487225 62.21092 65.37838 68.54283 71.76218
74.68149 79.35663 80.95763 86.05401 89.34318 91.87564 95.31204 99.10776
-3.596002e-05 3.389945 6.4036927 9.6184635 13.587056 15.194499 19.992006 21.118572
24.779747 28.393183 31.700659 35.20206 37.2914 41.115795 44.42861 46.303596
49.238857 52.43563 57.134216 59.805393 62.72963 65.491165 69.56368 72.948135
75.83749 78.55004 81.94231 84.52958 88.421455 91.55301 94.27576 97.179085
-0.0055423626 4.0773983 7.147929 10.194982 13.100796 16.735245 19.028389 21.927559
24.84705 28.201612 31.33983 35.1033 37.08 40.806892 43.684216 47.549957
50.41619 53.28264 56.35914 59.38495 62.009285 65.33732 68.663734 72.772804
76.2442 79.19756 81.55358 84.884705 88.2819 90.76925 95.7085 96.92263
-0.010844589 3.0145314 7.0988445 9.314872 13.049503 14.869778 19.408115 22.094278
23.786333 27.868074 31.226835 34.645287 37.69787 40.630238 43.850693 47.641365
51.241344 53.722816 56.01424 59.305763 62.477146 64.96892 69.83312 72.28108
74.84449 78.774445 81.81677 84.98367 88.13325 91.20962 95.7444 99.09404
00000000: db25 ddbd d2c4 3b40 2d9b bd40 891a 1741
00000010: 84c0 4a41 b1cf 7941 2e64 9641 61e2 af41
00000020: 6f74 c641 d4b3 de41 7616 0042 1d48 0c42
00000030: 2bee 1442 4db9 2442 053e 2d42 b38f 3c42
00000040: a90d 4542 9ab4 5542 7a3b 5e42 a7d7 6b42
00000050: d726 7942 8455 8542 132d 8b42 67fa 9142
00000060: e0ca 9642 df7b 9d42 a6c6 a242 7023 a842
00000070: f1b9 af42 c7bf b642 4be8 c042 70cc c842
00000080: c2ca c9be a74e 7540 35dc d240 e3ec 1541
00000090: 578d 5541 f94c 7641 fb2c 9941 1a9f ad41
000000a0: 1f93 cc41 1928 e541 f964 fc41 ff07 0c42
000000b0: 2fc0 1842 d135 2242 012e 2e42 d51a 3d42
000000c0: 2321 4542 e745 5042 a417 6142 0113 7042
000000d0: a5b9 7942 6ff7 8342 c784 8942 3c6c 9142
000000e0: a4e5 9742 2ebe 9b42 101c a242 bc8c a942
000000f0: 498d af42 4d42 b642 eafe bc42 1a49 c442
00000100: 95d9 8f3c 9f7c 3c40 2014 c440 3e23 1641
00000110: 96bb 3b41 2116 7a41 4772 9441 96c3 a341
00000120: c56f c941 c9b3 e241 e77a fa41 a66b 0a42
00000130: 008c 1442 3161 2342 946f 2c42 667b 4142
00000140: 5c81 4a42 0259 5642 335d 6342 45e8 6e42
00000150: cdc6 7c42 29de 8542 0cc1 8e42 3956 9042
00000160: 5cd7 9742 25dd 9c42 6664 a642 7939 aa42
00000170: e5ed af42 72a8 b742 c3c8 bc42 e924 c642
00000180: 7d32 253e d009 7140 f527 c340 ec9c 2141
00000190: 4dc0 4141 a58c 7541 0256 9741 23c9 af41
000001a0: d402 c941 bf5b e141 1a40 fb41 c756 0b42
000001b0: c362 1842 2af2 2242 c1e7 3042 0aa2 3a42
000001c0: 97d4 4942 d3f4 5342 4fea 6242 a23d 6f42
000001d0: 2e7b 7b42 7c30 8542 17ba 8942 0835 9042
000001e0: fc1e 9742 404e 9d42 11ed a242 56f0 a942
000001f0: 3616 b042 a10b b642 741d bc42 295a c542
00000200: bf6f 47af 40b9 573e 3819 c640 4197 1441
00000210: 1986 4941 a86e 7b41 db8f 9a41 b5aa b041
00000220: c524 c941 4de8 df41 423e 0042 d73a 0a42
00000230: 8a6a 1942 c3e4 2242 f550 3042 3d94 3d42
00000240: 3090 4842 6860 5842 4767 6042 ebf2 7142
00000250: fbd7 7842 bbc1 8242 ee15 8942 3c86 8f42
00000260: ec5c 9542 98b6 9e42 4eea a142 a71b ac42
00000270: b5af b242 54c0 b742 c49f be42 2c37 c642
00000280: c7d3 16b8 dcf4 5840 0deb cc40 3ae5 1941
00000290: 9564 5941 ab1c 7341 a1ef 9f41 d6f2 a841
000002a0: ec3c c641 3d25 e341 f39a fd41 e9ce 0c42
000002b0: 652a 1542 9376 2442 e6b6 3142 e236 3942
000002c0: 97f4 4442 16be 5142 7089 6442 b938 6f42
000002d0: 24eb 7a42 7afb 8242 9b20 8b42 72e5 9142
000002e0: cbac 9742 9f19 9d42 76e2 a342 250f a942
000002f0: c9d7 b042 241b b742 308d bc42 b15b c242
00000300: b59c b5bb 0c7a 8240 d6bb e440 a51e 2341
00000310: dc9c 5141 c8e1 8541 243a 9841 a46b af41
00000320: c2c6 c641 e79c e141 f9b7 fa41 c769 0c42
00000330: ec51 1442 423a 2342 a3bc 2e42 2833 3e42
00000340: 2eaa 4942 6c21 5542 c26f 6142 308a 6d42
00000350: 8209 7842 b5ac 8242 d553 8942 ad8b 9142
00000360: 087d 9842 2765 9e42 6f1b a342 f8c4 a942
00000370: 5590 b042 db89 b542 c16a bf42 63d8 c142
00000380: 81ad 31bc 15ee 4040 bc29 e340 b709 1541
00000390: c4ca 5041 9cea 6d41 d243 9b41 15c1 b041
000003a0: 694a be41 d1f1 de41 8fd0 f941 c694 0a42
000003b0: 9eca 1642 5d85 2242 1c67 2f42 c290 3e42
000003c0: 23f7 4c42 2ae4 5642 950e 6042 1a39 6d42
000003d0: 99e8 7942 16f0 8142 8faa 8b42 ea8f 9042
000003e0: 61b0 9542 848c 9d42 30a2 a342 a4f7 a942
000003f0: 3944 b042 536b b642 227d bf42 2630 c642

s4_layers.0.output_linear.0.weight f4 [32, 16, 1]
-2.0973225 0.66347194 -0.52540445 -1.9610363 -0.8693865 -0.32846364 -0.49207288 -1.7474982
0.060377777 0.62743926 -0.4458942 0.01523191 -0.45207384 -0.094495475 2.0473812 -0.04781599
-2.1173503 -0.09602896 0.4593209 0.36076298 0.75101846 -1.887581 -0.46809995 -0.6676924
0.1381918 -0.24797656 0.25546396 -0.37674165 -0.18263912 -0.42219 1.130687 0.20081608
-0.68173283 1.385563 1.1925906 0.21439908 0.3133183 -1.0070518 0.22943415 0.029889716
0.5392083 0.19878404 0.06818101 0.06649032 0.010309206 0.48126185 0.23045166 -0.30940217
-0.07532261 0.30916768 1.6125475 0.2008487 0.35792607 0.12867483 0.336323 -0.34281886
0.26312166 -0.028356142 0.18476763 0.4160282 0.45664012 0.11377667 0.50448126 -0.2639899
-0.14182884 -0.92549855 -1.1373059 -2.626643 0.16920656 0.69210684 -0.43932852 0.3690194
-0.41167772 0.95369816 0.2767588 0.377386 0.5980394 -0.100772075 -1.9806376 -0.4177445
-0.94414836 -0.16438048 -0.98132247 -0.34792674 -0.3019835 -0.2958211 0.30968353 0.18997331
-1.4833887 -0.20774706 -1.562178 -0.14518113 0.0141607 -0.19783123 0.0699822 -0.6773232
-0.113503434 -0.054121252 0.46297285 0.1723164 0.6759985 0.15744896 0.15461057 0.046293482
0.13252623 0.047016732 0.092461765 -0.016171679 -0.44886723 -0.09515699 0.011479863 0.09085402
-0.31366205 1.5708606 0.61223406 1.3293718 0.23850377 0.91468155 0.30147862 0.6252426
0.70119923 -0.12670456 0.5972089 -0.05104345 0.09253104 -0.0021645243 0.024565812 0.262763
1.323348 -2.562663 0.314653 0.50564337 0.6559471 1.3340675 0.7325928 -0.14554168
0.44509614 0.3183311 0.45883322 -0.41676894 0.82173884 0.10736677 -0.032969914 -0.42328498
0.243955 -0.17649865 -0.5587124 -0.23990779 -0.17239337 0.14819358 -0.23687686 2.0881765
-0.08109044 0.11285302 0.011416855 0.34256962 0.20331526 -0.9845409 0.8096977 -1.2656418
-0.5233257 -0.56024617 -0.5974184 1.2594142 -0.33321562 -0.27375185 -0.0134392455 -0.103818946
-0.02491355 0.091476895 0.01873485 -0.3033074 0.51942205 -0.92748576 0.15652557 -1.9651552
0.025100088 -0.3743241 -0.9377265 0.24047942 -1.9064859 -0.17725363 0.08203536 0.109262235
0.04582302 -0.23830256 3.4554207 3.6390052 -0.041062765 -0.2595385 0.18502986 0.039558128
3.2332072 -0.1918051 0.19180082 -0.40611684 -0.27297723 0.14484826 0.20257285 0.72426206
-0.11484347 0.047841083 -0.29759935 -0.03215558 -0.082478926 -0.58418643 0.38352475 0.58048326
0.9073795 1.6410623 -1.5098656 0.15318894 -0.47634622 -0.7265204 -2.8174255 0.19632663
-1.8476542 1.5439603 -2.075835 0.07429162 0.4149318 0.8421755 0.028479503 0.040455222
0.02203918 -0.012969277 0.1806749 -0.16454527 0.17828578 0.048888624 -0.20599148 -1.1087407
0.20894319 0.008076593 0.004558898 0.043269664 0.14287806 0.06005715 -1.0163041 0.36760247
2.1910796 -1.3414335 0.179376 0.26880074 -0.20417443 1.049703 0.12100053 -0.08576484
0.22203483 -0.041461583 -0.008646944 0.27761486 -0.07287513 -0.34282905 -0.11459807 0.63714856
00000000: 883a 06c0 4cd9 293f e880 06bf 3d03 fbbf
00000010: 1d90 5ebf 632c a8be faf0 fbbe 05ae dfbf
00000020: b04e 773d dc9f 203f 3f4c e4be 438f 793c
00000030: 3976 e7be d886 c1bd 4b08 0340 b3da 43bd
00000040: ab82 07c0 d5aa c4bd 1c2c eb3e edb5 b83e
00000050: bf42 403f 419c f1bf ccaa efbe e4ed 2abf
00000060: 2782 0d3e 91ed 7dbe 2ccc 823e 48e4 c0be
00000070: c005 3bbe 4a29 d8be 5aba 903f bba2 4d3e
00000080: 0b86 2ebf 215a b13f cfa6 983f 6f8b 5b3e
00000090: 426b a03e 13e7 80bf c9f0 6a3e 47db f43c
000000a0: 8e09 0a3f 0b8e 4b3e 7ca2 8b3d 142c 883d
000000b0: f2e7 283c f467 f63e 85fb 6b3e f669 9ebe
000000c0: be42 9abd 3a4b 9e3e f567 ce3f 48ab 4d3e
000000d0: 1642 b73e 56c3 033e 8732 ac3e f485 afbe
000000e0: e2b7 863e 244b e8bc ba33 3d3e a601 d53e
000000f0: bccc e93e be03 e93d af25 013f af29 87be
00000100: 943b 11be 79ed 6cbf 3d93 91bf eb1a 28c0
00000110: 7c44 2d3e ea2d 313f abef e0be 1cf0 bc3e
00000120: 6cc7 d2be 9025 743f 54b3 8d3e bd38 c13e
00000130: 1c19 193f 9761 cebd 8885 fdbf 9be2 d5be
00000140: b5b3 71bf 5b53 28be f337 7bbf 7423 b2be
00000150: 959d 9abe dd75 97be d78e 9e3e 5d88 423e
00000160: aedf bdbf a5bb 54be 73f5 c7bf 5daa 14be
00000170: 4802 683c 4594 4abe d452 8f3d 0e65 2dbf
00000180: 7d74 e8bd 3fae 5dbd c70a ed3e b673 303e
00000190: 3d0e 2d3f 4d3a 213e 3c52 1e3e 3c9e 3d3d
000001a0: f5b4 073e 9e94 403d 985c bd3d 787a 84bc
000001b0: edd1 e5be abe1 c2bd 0916 3c3c ac11 ba3d
000001c0: 5098 a0be f611 c93f 5fbb 1c3f db28 aa3f
000001d0: 553a 743e 9228 6a3f 685b 9a3e e60f 203f
000001e0: cb81 333f d7be 01be afe2 183f f012 51bd
000001f0: ea80 bd3d b1da 0dbb 3e3e c93c df88 863e
00000200: 7863 a93f ac02 24c0 331a a13e d871 013f
00000210: 26ec 273f b9c2 aa3f 348b 3b3f e108 15be
00000220: a4e3 e33e 4bfc a23e 30ec ea3e bd62 d5be
00000230: 7a5d 523f 1ce3 db3d 760b 07bd cfb8 d8be
00000240: 57cf 793e 10bc 34be c707 0fbf 63aa 75be
00000250: e387 30be 0fc0 173e d98f 72be afa4 0540
00000260: bf12 a6bd 7c1f e73d c30d 3b3c 4965 af3e
00000270: e031 503e df0a 7cbf 5948 4f3f 8d00 a2bf
00000280: acf8 05bf 4b6c 0fbf 6af0 18bf 7c34 a13f
00000290: 3d9b aabe 3429 8cbe 4830 5cbc 079f d4bd
000002a0: 8017 ccbc 3d58 bb3d d479 993c 1c4b 9bbe
000002b0: d8f8 043f b56f 6dbf 3d48 203e 358a fbbf
000002c0: b39e cd3c 69a7 bfbe d80e 70bf 3d40 763e
000002d0: bb07 f4bf fa81 35be 2802 a83d e1c4 df3d
000002e0: ebb0 3b3d 9605 74be 9d25 5d40 76e5 6840
000002f0: 6e31 28bd 3be2 84be 7878 3d3e b407 223d
00000300: deec 4e40 8e68 44be 6f67 443e 8cee cfbe
00000310: acc3 8bbe 1a53 143e 426f 4f3e 3d69 393f
00000320: 0e33 ebbd 03f5 433d f15e 98be 92b5 03bd
00000330: b6ea a8bd 3e8d 15bf 5b5d c43e 8d9a 143f
00000340: 064a 683f 540e d23f 4743 c1bf 90dd 1c3e
00000350: a7e3 f3be 3efd 39bf b350 34c0 d909 493e
00000360: ef7f ecbf 7ea0 c53f 7bda 04c0 3426 983d
00000370: f171 d43e d098 573f d94d e93c 60b4 253d
00000380: 838b b43c 177d 54bc d702 393e 8e7e 28be
00000390: 8c90 363e 703f 483d 6eef 52be 37eb 8dbf
000003a0: 34f5 553e b053 043c cf62 953b 883b 313d
000003b0: a04e 123e 7cfe 753d 4116 82bf 6436 bc3e
000003c0: a63a 0c40 18b4 abbf 58ae 373e 40a0 893e
000003d0: 1a13 51be ab5c 863f 20cf f73d 7aa5 afbd
000003e0: 195d 633e 9fd3 29bd e9ab 0dbc 8923 8e3e
000003f0: 8e3f 95bd 4a87 afbe 65b2 eabd 2b1c 233f

s4_layers.0.output_linear.0.bias f4 [32]
0.49024954 0.38599658 -0.32688567 -1.3471439 -0.1733421 0.3146292 -0.51090163 -1.3638572
0.054842852 -0.37710553 0.6772246 0.04856685 0.51521444 -0.20581158 -0.41365767 -0.19502115
-0.71840155 0.35726184 -3.3264172 -2.809255 -2.6118283 0.3322689 -2.2141304 -1.2388353
-0.8788866 -2.4668276 -2.0477116 -0.540031 0.74367976 -0.062924005 -1.7815462 -0.82049286
00000000: fd01 fb3e 58a1 c53e 8f5d a7be 366f acbf
00000010: 9780 31be 1417 a13e 73ca 02bf df92 aebf
00000020: e6a2 603d fa13 c1be 975e 2d3f 09ee 463d
00000030: 18e5 033f 45c0 52be f0ca d3be a0b3 47be
00000040: 2ae9 37bf 06eb b63e 05e4 54c0 d5ca 33c0
00000050: 3228 27c0 261f aa3e 50b4 0dc0 2892 9ebf
00000060: b6fe 60bf 81e0 1dc0 b50d 03c0 793f 0abf
00000070: cc61 3e3f 4dde 80bd b509 e4bf d20b 52bf

s4_layers.1.D f4 [16]
0.6250527 0.44321927 -0.113331795 1.2525965 0.3361639 -1.8449179 1.084126 -0.6733663
-1.3067181 -1.7589128 -0.8126738 0.3500761 -0.7511796 -0.5645905 1.6122664 0.80508745
00000000: 7403 203f a3ed e23e 801a e8bd 1555 a03f
00000010: ad1d ac3e 4526 ecbf a4c4 8a3f bc61 2cbf
00000020: 8a42 a7bf 0e24 e1bf 640b 50bf 2d3d b33e
00000030: 4e4d 40bf 0189 10bf bf5e ce3f 361a 4e3f

s4_layers.1.kernel.C f4 [16, 32, 2]
-0.2822137 -0.5014592 -0.8062007 0.84967405 -0.21202093 0.9549351 0.5002435 0.62586826
-0.095789425 1.5209625 -0.44464216 0.96253276 -2.1529953 0.56990856 -0.6237841 -0.6342827
0.3801592 1.1388903 -1.36941 -0.5821149 -0.57116896 0.8577903 1.0607852 0.18392193
0.90986437 0.6891183 -0.36637646 1.517686 0.60233486 1.7860358 2.1891215 0.10328727
1.8761331 -0.038572356 1.6482517 0.4140735 0.5377166 1.2016869 0.523653 0.080030516
-0.07574166 1.2299135 0.9809167 0.8413074 0.271505 0.74784195 0.16439128 0.33177567
0.42527208 0.18210198 1.4895548 0.54372823 0.11661236 -0.16005023 1.5446709 0.59385836
1.9842496 -0.7938733 2.5417821 -1.1743 1.3125579 -0.52745754 1.3267256 -1.4590244
-0.10479299 -0.9085983 -0.4746453 0.8446863 0.17311034 1.221768 -0.14895606 0.60088044
0.6953295 -0.098428026 -1.1083045 -1.246204 0.34773743 0.86593425 0.7138175 0.74934596
-0.30102262 0.5762631 1.2215096 -1.1436691 0.59065425 -0.13622087 1.082498 0.19903225
1.6647813 -0.5110636 0.66063416 -0.51329553 1.0235399 -1.3705584 0.45324418 -0.19298826
0.24691762 0.100112304 1.6297951 0.9204223 -0.39589882 1.33983 1.2206032 0.5119183
1.0711752 0.29580224 1.0919808 1.4437898 2.6421368 0.016609496 1.2887638 -0.48663077
1.8135258 -0.83429646 1.005259 -1.2227311 2.4888082 -2.4468558 1.3113548 -1.6510656
0.19465399 -2.027045 -0.87578905 -1.9250998 -0.22019553 -2.6663465 -0.68393064 -1.4567156
-0.22616927 -0.001365418 -0.10968852 0.6569568 -0.21262236 -0.07811813 -0.14573653 1.3833005
0.17315613 0.94198835 -0.59216344 -1.3837 0.6037951 0.53391236 -0.55770725 -0.2389402
0.562407 -0.76215726 -0.15784666 -0.82883507 0.45713338 0.5875682 0.47217897 -0.98883
2.7824337 -1.1214497 1.5711304 -0.17191085 0.12648118 -1.7340034 0.6705888 -1.4922662
0.86215323 -1.2170057 1.2787286 -2.0331938 -0.35081053 -0.96739787 -0.1593016 -1.4938308
0.40349153 -0.5845042 0.23777422 -1.9719613 -0.97469413 -0.66422755 -0.9134801 -0.501934
-1.4684186 -1.2740558 -1.3727168 -1.1118118 -2.0613916 -1.0109391 -1.5255102 -1.4015604
-2.006048 -0.21013255 -2.2906845 -1.2414019 -0.30021954 -2.075136 -2.5814395 -2.1322403
-0.46887434 -1.239832e-05 -0.30484492 1.8905118 -0.40235814 0.1599522 -1.4655851 -0.45865035
-0.30416042 0.4863138 -0.7421639 -0.990022 -1.0609643 -0.89558053 -0.3250332 -0.13741733
-0.50215685 -0.14038213 -0.7938567 0.51585364 -0.34844014 -0.24693687 0.32158965 -0.5530978
-2.055585 -1.1262088 -0.23654541 0.83932954 -0.51258636 -0.6873096 -1.1517992 0.9111869
-0.7592049 0.17942548 0.48335817 1.1100812 -0.092467315 1.0197052 -1.0562378 -0.2601848
0.292954 -0.37286165 1.2590673 1.2056271 1.1802202 1.18162 0.86353904 -0.006992448
0.013672125 0.27218854 -1.1872982 -0.032307994 0.41007152 1.0110301 -0.37793046 -0.3626014
-0.24650176 0.3909211 -0.16551763 0.50406474 0.2770534 0.778919 1.2864281 0.9505136
00000000: 507e 90be a15f 00bf 2b63 4ebf 3d84 593f
00000010: 041c 59be a076 743f f50f 003f e738 203f
00000020: 3f2d c4bd e6ae c23f 23a8 e3be 8c68 763f
00000030: adca 09c0 87e5 113f 51b0 1fbf 5a60 22bf
00000040: 3aa4 c23e 28c7 913f d448 afbf 7b05 15bf
00000050: 2138 12bf 2598 5b3f cfc7 873f 0856 3c3e
00000060: dfec 683f 0f6a 303f b295 bbbe 8943 c23f
00000070: 9e32 1a3f d29c e43f 911a 0c40 4788 d33d
00000080: 2125 f03f 0cfe 1dbd e9f9 d23f 7101 d43e
00000090: cca7 093f e0d0 993f 1f0e 063f 0ae7 a33d
000000a0: 721e 9bbd ce6d 9d3f 5b1d 7b3f ec5f 573f
000000b0: b402 8b3e 9272 3f3f 3056 283e 80de a93e
000000c0: 43bd d93e f178 3a3e bba9 be3f c631 0b3f
000000d0: 76d2 ee3d 35e4 23be c7b7 c53f 1a07 183f
000000e0: e4fb fd3f 483b 4bbf 8fac 2240 764f 96bf
000000f0: e601 a83f 7507 07bf 25d2 a93f 50c1 babf
00000100: b59d d6bd e699 68bf b504 f3be 5d3d 583f
00000110: d643 313e e562 9c3f f087 18be 4dd3 193f
00000120: 1d01 323f a294 c9bd ecdc 8dbf 9d83 9fbf
00000130: a40a b23e dead 5d3f bebc 363f 23d5 3f3f
00000140: a31f 9abe fb85 133f 6d5a 9c3f c063 92bf
00000150: 1e35 173f 7c7d 0bbe 4b8f 8a3f 1ccf 4b3e
00000160: 8e17 d53f 10d5 02bf 521f 293f 5667 03bf
00000170: 5b03 833f 756e afbf 9f0f e83e b79e 45be
00000180: f9d7 7c3e ae07 cd3d 209d d03f cca0 6b3f
00000190: 40b3 cabe 8d7f ab3f ba3c 9c3f 140d 033f
000001a0: 451c 893f 6473 973e 07c6 8b3f 1bce b83f
000001b0: c518 2940 a310 883c 36f6 a43f ab27 f9be
000001c0: 9d21 e83f 7494 55bf 54ac 803f 7482 9cbf
000001d0: a248 1f40 4999 1cc0 79da a73f 1e56 d3bf
000001e0: 6053 473e 1bbb 01c0 b633 60bf ac69 f6bf
000001f0: f07a 61be 6ca5 2ac0 1416 2fbf a875 babf
00000200: eb98 67be d3f7 b2ba 60a4 e0bd 522e 283f
00000210: adb9 59be 66fc 9fbd f53b 15be fe0f b13f
00000220: d74f 313e 2626 713f 0698 17bf 151d b1bf
00000230: 5192 1a3f 7bae 083f e7c5 0ebf bdac 74be
00000240: e8f9 0f3f bd1c 43bf 8ea2 21be 892e 54bf
00000250: 630d ea3e df6a 163f 71c1 f13e f623 7dbf
00000260: 6513 3240 aa8b 8fbf cd1a c93f 6609 30be
00000270: 4884 013e d3f3 ddbf b5ab 2b3f 9402 bfbf
00000280: 13b6 5c3f d8c6 9bbf 61ad a33f d91f 02c0
00000290: 709d b3be 63a7 77bf f51f 23be d935 bfbf
000002a0: 7196 ce3e 11a2 15bf 167b 733e 3a69 fcbf
000002b0: 8e85 79bf d10a 2abf d5d9 69bf bf7e 00bf
000002c0: 24f5 bbbf 4314 a3bf 2fb5 afbf d94f 8ebf
000002d0: d7ed 03c0 7466 81bf eb43 c3bf 5566 b3bf
000002e0: 1763 00c0 fd2c 57be 939a 12c0 42e6 9ebf
000002f0: 60b6 99be 07cf 04c0 4e36 25c0 a076 08c0
00000300: 4c10 f0be 6102 50b7 a214 9cbe 4afc f13f
00000310: e301 cebe 82ca 233e 4b98 bbbf 38d4 eabe
00000320: eaba 9bbe 1ffe f83e 74fe 3dbf 1572 7dbf
00000330: aecd 87bf c444 65bf c06a a6be 21b7 0cbe
00000340: 5a8d 00bf 55c0 0fbe 313a 4bbf fc0e 043f
00000350: bf66 b2be 05dd 7cbe 66a7 a43e d197 0dbf
00000360: b48e 03c0 9c27 90bf f638 72be 4dde 563f
00000370: dc38 03bf 86f3 2fbf 286e 93bf 8b43 693f
00000380: 415b 42bf 50bb 373e b97a f73e 2417 8e3f
00000390: 815f bdbd b385 823f cd32 87bf f136 85be
000003a0: 11fe 953e b9e7 bebe 1e29 a13f fd51 9a3f
000003b0: 7511 973f 533f 973f e510 5d3f e820 e5bb
000003c0: 0c01 603c 4c5c 8b3e 63f9 97bf 6355 04bd
000003d0: e5f4 d13e 6f69 813f 1a80 c1be e4a6 b9be
000003e0: f56a 7cbe cf26 c83e 747d 29be 630a 013f
000003f0: f1d9 8d3e 3c67 473f ada9 a43f dc54 733f

s4_layers.1.kernel.log_dt f4 [16]
-5.2763205 -4.858355 -4.298258 -4.8200912 -2.4685175 -4.3431115 -4.721506 -5.842851
-3.0868146 -2.613544 -4.857446 -6.735472 -4.227198 -3.8555925 -2.3108041 -2.8791234
00000000: 9ed7 a8c0 a577 9bc0 548b 89c0 303e 9ac0
00000010: 31fc 1dc0 c5fa 8ac0 9416 97c0 a3f8 bac0
00000020: 5f8e 45c0 4e44 27c0 3370 9bc0 fd88 d7c0
00000030: 3545 87c0 07c2 76c0 37e4 13c0 8f43 38c0

s4_layers.1.kernel.log_A_real f4 [16, 32]
-0.23457593 -1.1832962 -0.7564757 0.23310764 -1.156871 -1.1728572 -1.1636301 0.3589868
-1.0730207 0.28866246 -1.1081564 -0.5961493 -1.049382 -1.1036628 -1.1551173 -1.0086564
-0.9847612 -1.1057082 -1.1139519 -0.9091701 -1.0587478 -1.1734625 -1.2365882 -0.9437044
-1.2727342 -1.5896467 -0.47848362 -1.8459615 -2.0866575 -2.3317895 -2.3258533 -2.7417493
-0.9237085 -1.4460456 -1.7194554 -1.3792202 -0.09099841 2.6156921 -1.4793506 -1.5827962
-0.3456857 -1.4213694 -0.16299964 -1.1135702 -1.6870922 -0.88472444 -0.8773758 -0.041797597
0.46536896 0.121140264 -0.9187478 -0.4090415 -1.1058959 -2.1945136 -1.9647726 -2.3833654
-3.230359 -3.0381708 -3.6706386 -4.0041113 -3.923039 -3.5800467 -4.3259354 -2.082857
-0.4324066 -0.600283 0.80222464 -0.9180539 -0.9875538 -0.36696106 -1.1798342 0.12369751
-0.16538124 0.06560157 0.058289167 -0.92605156 -1.5295552 -0.86850804 -1.2500242 -1.146603
-1.0162832 -1.1445315 -0.38073525 -1.2214662 -0.61944705 -1.9606773 -0.48587546 -0.446802
-2.2160766 -2.0352488 -1.8836184 -1.1806552 -1.2490997 -0.24161021 -0.17189835 0.2027727
-0.93166435 -0.933013 -0.59942067 -0.53906506 -0.7392662 -0.21646193 -0.27340677 0.14359331
-0.24600896 0.1878364 -0.70219517 -0.9482415 -1.3563185 -0.21984686 -0.9432878 -1.950774
-1.2418272 -0.9826244 -1.900458 0.07309099 0.14396088 -1.4755194 -1.3281435 -0.5273936
0.4011398 0.08358881 0.09139812 0.8426019 0.36049938 0.26656508 -0.43536183 -0.7205655
1.4419749 0.47688168 -0.26231635 -0.7993403 -0.60846126 -0.255709 -0.6714584 -1.1629995
-0.7043709 -0.411454 -1.4562792 -0.884668 -2.4287386 -1.5608106 -1.0304539 -0.48124126
-0.3321627 -1.1071315 -0.88894904 -0.34921777 -1.3044447 -0.846619 0.14681031 0.693786
-0.38483915 -1.3388351 0.40266845 -0.1748977 0.36229184 0.56973785 -0.8701475 -0.7416234
-1.4459897 -0.48004723 -0.9118337 -1.3048519 -1.3165679 -0.12521726 -0.82060486 -1.0307266
-0.42055535 -0.5014518 -0.97609174 -1.1464021 -1.18654 -1.2890074 -1.4527653 -1.712527
-1.5345799 -1.8057957 -1.5990219 -1.8210338 -1.9231063 0.02667342 -0.5280536 -0.9889959
-0.7273797 -0.94031805 -0.19628868 -0.18796648 -0.71835786 1.0888355 0.43827903 -1.7229574
-0.5517175 -0.503284 -0.60150427 -0.41449612 0.63177866 -0.7373243 0.17364147 -0.6499486
-0.05722157 -0.8308538 -0.7321528 -0.9989226 -0.7947033 -1.1439031 -0.4266154 -0.6496124
-1.196726 0.1147056 -0.9449889 -0.6874634 -0.28227276 -0.40236548 -0.5827373 -0.6112167
-0.62358224 -0.762419 -0.5027524 -0.8510831 -0.7877376 0.4289419 -0.5438473 0.93138474
-0.61125684 -0.6788614 0.75381637 -0.49489212 1.4037262 -0.66566265 -0.5236211 1.7309248
-0.59958494 0.5831266 -0.071184866 -0.05321726 2.2568552 -0.58690405 -0.009075336 -0.5154331
2.7353234 0.6888812 -0.5893506 0.34705222 0.4476827 -0.70322835 0.50354743 -0.6660865
0.13407743 -0.3770797 -0.40646815 -0.44727522 -0.15285613 -0.3440831 -0.42165545 -0.027703624
00000000: ac34 70be 4076 97bf 64a8 41bf c5b3 6e3e
00000010: 5914 94bf 2f20 96bf d5f1 94bf 1ecd b73e
00000020: be58 89bf 91cb 933e 12d8 8dbf 3e9d 18bf
00000030: 2652 86bf d344 8dbf e2da 93bf a71b 81bf
00000040: 4f19 7cbf d987 8dbf fa95 8ebf 5fbf 68bf
00000050: 0c85 87bf 0534 96bf 8648 9ebf 9d96 71bf
00000060: f4e8 a2bf 8b79 cbbf cefb f4be 7748 ecbf
00000070: cc8b 05c0 0a3c 15c0 c8da 14c0 d278 2fc0
00000080: 2978 6cbf 0618 b9bf 1d17 dcbf 4a8a b0bf
00000090: 605d babd 8067 2740 5c5b bdbf 1199 cabf
000000a0: b7fd b0be 6fef b5bf 61e9 26be 7889 8ebf
000000b0: a3f2 d7bf 4d7d 62bf b39b 60bf f533 2bbd
000000c0: d744 ee3e 6318 f83d 0e33 6bbf e36d d1be
000000d0: ff8d 8dbf e972 0cc0 ab7d fbbf 0f89 18c0
000000e0: 34be 4ec0 6471 42c0 beeb 6ac0 ae21 80c0
000000f0: 1213 7bc0 7c1f 65c0 106e 8ac0 874d 05c0
00000100: 6664 ddbe 26ac 19bf 985e 4d3f 9505 6bbf
00000110: 53d0 7cbf 52e2 bbbe cf04 97bf 1f55 fd3d
00000120: b359 29be 1e5a 863d 9fc0 6e3d b711 6dbf
00000130: 77c8 c3bf 8b56 5ebf cb00 a0bf e3c3 92bf
00000140: 9115 82bf 0280 92bf bbef c2be 0159 9cbf
00000150: 1594 1ebf 79f7 fabf abc4 f8be 3bc3 e4be
00000160: 33d4 0dc0 8441 02c0 681a f1bf b61f 97bf
00000170: 80e2 9fbf ab68 77be 1f06 30be a6a3 4f3e
00000180: 8e81 6ebf f1d9 6ebf a273 19bf 2b00 0abf
00000190: 8d40 3dbf 32a8 5dbe f9fb 8bbe 200a 133e
000001a0: c6e9 7bbe 2f58 403e 10c3 33bf f4bf 72bf
000001b0: d89b adbf 891f 61be 4f7b 71bf f6b2 f9bf
000001c0: 32f4 9ebf 468d 7bbf 3542 f3bf bbb0 953d
000001d0: 7b6a 133e d2dd bcbf 9b00 aabf 4403 07bf
000001e0: 3262 cd3e 9c30 ab3d f02e bb3d c2b4 573f
000001f0: 6093 b83e 387b 883e bfe7 debe fb76 38bf
00000200: a292 b83f d629 f43e 544e 86be 91a1 4cbf
00000210: 1ec4 1bbf 4aec 82be b3e4 2bbf 2bdd 94bf
00000220: a751 34bf 19aa d2be 5b67 babf 9a79 62bf
00000230: 7470 1bc0 a4c8 c7bf eae5 83bf 4165 f6be
00000240: 3b11 aabe 7cb6 8dbf 2a92 63bf accc b2be
00000250: 0bf8 a6bf 06bc 58bf 7155 163e f69b 313f
00000260: a309 c5be f35e abbf 8f2a ce3e 6218 33be
00000270: 517e b93e 57da 113f fdc1 5ebf 08db 3dbf
00000280: 3116 b9bf c0c8 f5be ef6d 69bf 6305 a7bf
00000290: 4c85 a8bf f438 00be 2913 52bf d9ee 83bf
000002a0: 0853 d7be 255f 00bf 26e1 79bf 4ebd 92bf
000002b0: 8be0 97bf 32fe a4bf 37f4 b9bf 1634 dbbf
000002c0: 1d6d c4bf 5024 e7bf c0ac ccbf a317 e9bf
000002d0: 5928 f6bf 3782 da3c 852e 07bf d62e 7dbf
000002e0: 8e35 3abf afb8 70bf e6ff 48be 497a 40be
000002f0: 4de6 37bf f65e 8b3f 1c66 e03e de89 dcbf
00000300: 5c3d 0dbf 38d7 00bf 2ffc 19bf d638 d4be
00000310: 3fbc 213f 49c1 3cbf 12cf 313e 0863 26bf
00000320: 2a61 6abd d6b2 54bf 5e6e 3bbf 64b9 7fbf
00000330: ad71 4bbf 6b6b 92bf 556d dabe 004d 26bf
00000340: 512e 99bf c5ea ea3d cbea 71bf 9afd 2fbf
00000350: 0e86 90be d902 cebe 462e 15bf b378 1cbf
00000360: 16a3 1fbf e42d 43bf 62b4 00bf 95e0 59bf
00000370: 2ca9 49bf 469e db3e 9439 0bbf 3b6f 6e3f
00000380: 547b 1cbf dcc9 2dbf 1cfa 403f 8062 fdbe
00000390: 4dad b33f de68 2abf 080c 06bf f28e dd3f
000003a0: 667e 19bf c947 153f 5fc9 91bd 57fa 59bd
000003b0: 5170 1040 583f 16bf b8b0 14bc 6cf3 03bf
000003c0: 8a0f 2f40 855a 303f aedf 16bf d4b0 b13e
000003d0: ab36 e53e c606 34bf 7ce8 003f a584 2abf
000003e0: 984b 093e 9710 c1be 981c d0be 4201 e5be
000003f0: 5186 1cbe a92b b0be 39e3 d7be b6f2 e2bc

s4_layers.1.kernel.A_imag f4 [16, 32]
-0.37232384 3.5536554 6.721055 9.886583 13.015676 16.070564 18.263094 21.538517
25.537134 27.831413 30.795456 34.982136 38.03378 40.20903 43.90293 47.408703
50.545467 53.723938 55.97991 59.935112 62.199306 65.80676 68.46633 71.79093
75.1909 78.29431 82.47026 84.23909 88.30692 91.34908 93.75828 97.67415
-0.65013665 3.6395352 6.882486 9.110873 13.266047 15.244943 18.285868 21.498274
23.988775 29.28847 30.143211 32.827564 36.951366 40.241802 43.299324 46.064766
49.95795 53.80998 57.448338 61.14572 64.87665 66.670715 70.59389 74.41253
76.78812 80.33275 82.00468 83.970665 88.32984 91.42255 92.25916 94.62826
-0.0015426616 3.1844957 6.040635 9.840329 13.225722 15.50017 19.443005 21.6728
26.181726 29.134075 30.837015 35.45937 37.17058 39.751297 44.161366 47.12293
50.256824 53.531437 57.40832 60.65787 61.752098 65.7654 70.21311 72.96423
75.48968 77.77174 81.34509 83.43443 87.42266 90.43439 95.10089 98.706665
1.2241097e-05 3.3509903 4.994588 9.156205 12.079186 15.68537 18.91145 22.208033
25.534618 28.558691 31.762444 34.192547 37.86894 41.460064 43.121136 47.346344
49.12616 53.902542 55.456078 58.354507 63.234306 65.63615 68.40854 71.02444
73.71572 78.9785 81.62442 84.05314 88.844925 93.09893 96.20319 99.159454
0.6945134 2.8089921 5.533453 8.777391 12.608704 15.848947 19.702574 22.4004
25.180893 29.19275 31.982939 34.581387 38.083397 40.14303 43.076973 47.176567
50.942707 53.17079 55.47402 59.675076 63.164654 66.18702 69.28852 70.415146
75.9955 78.23592 81.88591 83.8123 87.09934 90.4731 94.338936 99.15635
-0.6963507 2.106623 5.6275744 8.810255 11.947365 15.521298 18.343359 22.875278
24.923677 28.372446 31.2433 34.45903 37.773293 41.085537 44.252045 47.10316
48.907635 53.565628 55.118504 59.148323 62.28008 64.320786 67.55942 70.880844
75.720314 77.715645 81.18092 85.72212 88.929825 92.60648 97.71209 99.3926
1.880485e-11 2.976993 6.256167 9.4335375 12.608184 15.714523 19.5689 22.449808
25.240294 28.271826 31.211489 34.565357 37.318638 40.87184 44.285095 46.59278
49.778484 53.243446 56.37043 58.567722 62.339085 65.707466 69.08999 72.392105
75.253494 78.9771 81.73644 84.839264 88.1533 91.4435 94.28677 99.142265
2.2264386e-07 1.594491 6.189767 9.277369 12.456753 15.80315 18.892895 21.962585
25.638527 28.266521 31.38597 34.7788 37.996067 41.28157 44.39862 46.96723
51.118404 53.61794 57.05039 59.664864 63.110912 66.37854 69.053276 72.73335
75.55603 79.319115 82.07785 85.37603 88.93936 91.63337 94.79816 98.12466
00000000: 3ba1 bebe 176f 6340 e212 d740 722f 1e41
00000010: 3540 5041 8490 8041 d11a 9241 e24e ac41
00000020: 0d4c cc41 bca6 de41 185d f641 b5ed 0b42
00000030: 9722 1842 0cd6 2042 9a9c 2f42 83a2 3d42
00000040: 8f2e 4a42 50e5 5642 6eeb 5f42 8ebd 6f42
00000050: 17cc 7842 109d 8342 c3ee 8842 f594 8f42
00000060: be61 9642 b096 9c42 c6f0 a442 6a7a a842
00000070: 259d b042 bbb2 b642 3d84 bb42 2a59 c342
00000080: 5b6f 26bf 25ee 6840 533d dc40 23c6 1141
00000090: ba41 5441 49eb 7341 7549 9241 77fc ab41
000000a0: 03e9 bf41 c94e ea41 4c25 f141 6d4f 0342
000000b0: 33ce 1342 9bf7 2042 8232 2d42 5242 3842
000000c0: f1d4 4742 6b3d 5742 19cb 6542 3895 7442
000000d0: d8c0 8142 6857 8542 1230 8d42 37d3 9442
000000e0: 8493 9942 5eaa a042 6502 a442 fbf0 a742
000000f0: e1a8 b042 58d8 b642 b184 b842 ab41 bd42
00000100: 2233 caba c7ce 4b40 e24c c140 fd71 1d41
00000110: 8f9c 5341 b200 7841 468b 9b41 e561 ad41
00000120: 2d74 d141 9612 e941 35b2 f641 65d6 0d42
00000130: adae 1442 5401 1f42 3da5 3042 e17d 3c42
00000140: fd06 4942 3120 5642 1fa2 6542 a9a1 7242
00000150: 2602 7742 e387 8342 1d6d 8c42 b0ed 9142
00000160: b7fa 9642 228b 9b42 b0b0 a242 6ede a642
00000170: 67d8 ae42 68de b442 a833 be42 d069 c542
00000180: 1c5f 4d37 a076 5640 aad3 9f40 d17f 1241
00000190: 5944 4141 47f7 7a41 a64a 9741 0daa b141
000001a0: e646 cc41 3378 e441 7c19 fe41 2bc5 0842
000001b0: cb79 1742 1bd7 2542 0b7c 2c42 a862 3d42
000001c0: 3081 4442 349c 5742 06d3 5d42 046b 6942
000001d0: eeef 7c42 b545 8342 2cd1 8842 830c 8e42
000001e0: 736e 9342 fef4 9d42 b43f a342 351b a842
000001f0: 9ab0 b142 a732 ba42 0968 c042 a451 c642
00000200: a1cb 313f 87c6 3340 0c12 b140 3270 0c41
00000210: 40bd 4941 4995 7d41 df9e 9d41 0534 b341
00000220: 7872 c941 c18a e941 0fdd ff41 5753 0a42
00000230: 6655 1842 7692 2042 d24e 2c42 ceb4 3c42
00000240: 55c5 4b42 e4ae 5442 65e5 5d42 47b3 6e42
00000250: 9ba8 7c42 c15f 8442 b993 8a42 8ed4 8c42
00000260: b2fd 9742 cb78 9c42 96c5 a342 e69f a742
00000270: dd32 ae42 3af2 b442 89ad bc42 0d50 c642
00000280: 0a44 32bf e9d2 0640 1715 b440 cef6 0c41
00000290: 6828 3f41 3d57 7841 33bf 9241 9200 b741
000002a0: b163 c741 c5fa e241 47f2 f941 0cd6 0942
000002b0: da17 1742 9757 2442 1802 3142 a369 3c42
000002c0: 6ba1 4342 3443 5642 5979 5c42 e297 6c42
000002d0: cd1e 7942 3ea4 8042 6c1e 8742 fec2 8d42
000002e0: cd70 9742 696e 9b42 a25c a242 ba71 ab42
000002f0: 12dc b142 8536 b942 976c c342 03c9 c642
00000300: c268 a52d 0e87 3e40 8532 c840 c5ef 1641
00000310: 1fbb 4941 b06e 7b41 1b8d 9c41 3599 b341
00000320: 1fec c941 b32c e241 21b1 f941 ed42 0a42
00000330: 4946 1542 c47c 2342 f023 3142 025f 3a42
00000340: 2b1d 4742 4af9 5442 527b 6142 5945 6a42
00000350: 395b 7942 396a 8342 132e 8a42 c2c8 9042
00000360: ca81 9642 46f4 9d42 0f79 a342 b4ad a942
00000370: 7d4e b042 12e3 b642 d492 bc42 d748 c642
00000380: e10f 6f34 4818 cc3f 9212 c640 1a70 1441
00000390: dc4e 4741 b4d9 7c41 a624 9741 60b3 af41
000003a0: b41b cd41 d621 e241 7716 fb41 7e1d 0b42
000003b0: f9fb 1742 5420 2542 3098 3142 72de 3b42
000003c0: 3f79 4c42 c578 5642 9933 6442 d2a8 6e42
000003d0: 9371 7c42 d0c1 8442 471b 8a42 7a77 9142
000003e0: b01c 9742 63a3 9e42 dc27 a442 87c0 aa42
000003f0: f4e0 b142 4944 b742 a898 bd42 d33f c442
