code/s4/models/timestep_optimization/best_model_long_range_seq220.pt (torch, 57850 bytes, 40 tensors)

encoder.weight f4 [16, 3]
00000000: d689 b63e 369e 223d 5853 bbbd 6c14 c73e
00000010: de23 1fbf 18ec a03e 5566 583d c169 cebe
00000020: eaea bc3d b9e6 ccbe b03f 7ebe e2c7 133f
00000030: 1394 063f 897e aabd cf3c 3bbe 3b3b 84bd
00000040: 574a c13e 9a40 49be 2565 06be da74 fa3e
00000050: 0060 b0be 6d30 29be a37a 36bf 1207 e4bd
00000060: d47e 76be cd5d 423e b4ac bb3d 7e85 d83e
00000070: 01ec 59be 9cb4 003f 0642 8abd ace3 5a3d
00000080: 3471 513f 53c3 a43d f957 533f 2af5 103f
00000090: c2a9 6abd f20f c13d 80a4 803e ee27 cabd
000000a0: 40a1 b7be 8714 e5be f8a7 c5be 7d86 a93e
000000b0: 0552 e5be 9693 ddbb 86c6 fdbd ef5e 0a3f
0.35652035 0.039701663 -0.09146756 0.38882768 -0.62164104 0.31430125 0.052831966 -0.4031506
0.09224494 -0.40019777 -0.24828982 0.5772687 0.52569693 -0.08324916 -0.18284915 -0.0645661
0.3775203 -0.1965355 -0.13124521 0.48917276 -0.34448242 -0.16522379 -0.7128088 -0.11134161
-0.24071819 0.18981095 0.091638 0.42289346 -0.21281435 0.5027559 -0.06750874 0.05343978
0.8181336 0.08045068 0.8255611 0.5662409 -0.0572908 0.094268695 0.25125504 -0.09870897
-0.3586521 -0.44742224 -0.38604712 0.3311042 -0.44789138 -0.0067619784 -0.12391381 0.5405111

encoder.bias f4 [16]
00000000: 640e a6bd 580a 1e3f 9022 e7be d979 323f
00000010: f2ef 92be b96d a0be 9fbc 4c3e 7ce4 0f3f
00000020: eef0 19be 2f99 cd3e 71b0 943e ed27 013f
00000030: bb99 0f3e 160c 1bbd 3e1b 32bd a8ca 84be
-0.081082135 0.61734533 -0.45143557 0.69717175 -0.2869869 -0.31333712 0.19993828 0.56208014
-0.15033314 0.40155932 0.29040864 0.50451547 0.14023487 -0.037853323 -0.04348301 -0.25935864

s4_layers.0.D f4 [16]
00000000: ddba edbe 2b63 5d3f cd8f 0f3f 14ff 5abf
00000010: 4401 153f ccb1 d2bd 3fab 77be b315 263f
00000020: 1e75 9fbf cd0b e8bf 1efc ddbd 93fe 80bf
00000030: 2bfa 833f 262a 55be 8d6f 51bf 5ff1 343e
-0.46431628 0.86479443 0.560788 -0.8554547 0.58205056 -0.10287818 -0.24186419 0.6487686
-1.2457616 -1.8128601 -0.10839103 -1.007769 1.031072 -0.2081686 -0.8181084 0.17670201

s4_layers.0.kernel.C f4 [16, 32, 2]
00000000: 13ea f0bd dd0e b5be 0802 a1bf a75a 54bf
00000010: 37ee 6d3e 4d76 6a3f a501 9ebf 9cfd babe
00000020: 1086 7dbe 7e49 1fbf 7321 3bbf ef9b c5bd
00000030: 7ea9 5a3f cabd 1c3f 2afc 9b3e 5c48 0b3f
00000040: 40e1 a23f bc6c bfbc e436 bc3d e31a 8b3f
00000050: 22f3 dd3f b017 cb3e e353 eabf d704 f6be
00000060: 57fc 32bf de20 a6bf 744a d9bf 7524 18bf
00000070: f62d 493f a318 88be 29a8 833d 3867 76bf
00000080: a718 3f3f 854f 6d3e 7b7f 433f 384a 9cbf
00000090: 51e3 89bf 4d25 08c0 557c a93f 4efd 62bf
000000a0: 3e2c d23e e4bb 723f 1f57 2dbf 90ed ca3c
000000b0: 0cd4 b5bf bfbf bd3e e160 b4bf 5a29 193f
000000c0: 8fa7 723f 63ca ee3d dead 17bf 249f d4bf
000000d0: 2dd9 c9be 1ce9 673e edba 86bf ea2d cfbe
000000e0: bddb 353f 1468 453e 5844 9c3e e8b3 0cbf
000000f0: 73ac 663e 5327 0c3f 78bc e3bc 0874 30be
00000100: 7922 0b3e 3ee8 f43d 1f88 29bf 7bd4 03bf
00000110: f706 9ebe 6004 863f c096 27bf b1c5 c9be
00000120: b4c1 61bf 04c5 3f3f 6d91 a63e 59d0 34be
00000130: b2d2 e8bf f9d4 8e3d f409 65bc cfc7 c3bd
00000140: c20f c4bb fa43 ce3d 302e 3cbf a59a a83e
00000150: 4900 76bf a84b 453f 7b0e 8b3e 401c b33e
00000160: fc30 8cbf 2bb2 26bf ccc4 abbe 343c 49bf
00000170: 9c8c 21bf f343 4b3e 6dd5 d1be 2290 203f
00000180: 945f 443f 241c 3bbf 5ac2 f83e 450e d1be
00000190: 94c5 87bf 5806 3ebd f44d 7a3f eadd d3bd
000001a0: 1da4 823f 6339 563e 3f80 8c3f b4d5 583e
000001b0: 91d0 a2bd cb75 213f ae5b 243f 8f8d b73f
000001c0: aaee 903e 164b 163f 2e11 b6bd 7995 173f
000001d0: 1b34 033f 8355 d0be fdf4 ee3e 6953 b53f
000001e0: e182 b0be 7eaf 493e 0184 62bf bc22 5a3f
000001f0: 8405 30bd 4d33 aa3c ee0c c23d e583 9abe
00000200: ddc1 99bd 6449 cdbe 7a00 88be adc9 343f
00000210: 1ae9 8e3f 6e7e 34be 74b0 d23f 5a63 5c3e
00000220: 6493 b03f a9a7 913e 467e d33e c065 47bf
00000230: 5452 ab3f cc62 90bf 0f03 b33e af9c b7be
00000240: 7a38 08c0 172e 1bbf 0cf0 b8bf 91db 9bbf
00000250: 969d b5be 1645 d33f 79ee 1b3f 9771 d0be
00000260: 94c6 1640 d1aa dbbe 1a45 6d3f 99d7 6d3d
00000270: 3a3d c53e d42f fc3b 8b1d 70bf 5448 443f
00000280: c7cc ccbe 125c 093f aac3 133f d571 9f3e
00000290: 1869 253f f20d cc3d 2001 a0bd 5b41 22bf
000002a0: ac61 3a3f aa0f 02c0 71d5 853f 0366 a4bf
000002b0: d99a cb3f 1dc1 30bd bd5b 983d 34a9 d63c
000002c0: 9d4c 3c3f 4bcc 44bf 3d46 983f cb38 d33e
000002d0: 309c da3f 7872 e7bd 2350 b03f 3ca1 29bf
000002e0: b17c ce3f 3c49 70bf adee 203d 47ef 0c3f
000002f0: 7b4c 34be f2c4 eabf e5a4 ddbe 68ae 00c0
00000300: 6799 983d c5f8 53bf b600 fd3e f089 b13e
00000310: 3ba2 85bf d523 b03e 7dfd a33e 6451 8c3e
00000320: e7f5 6d3f fb08 443c 1fa7 83bf 0dc2 763e
00000330: 6833 a6bf 2470 373e 1dde 18bf 30c1 c4be
00000340: cb82 193f aef4 92bf 752c 24bf 6357 93be
00000350: b552 0fbf 1cc0 e73d 617f 3b3e ff37 133d
00000360: a55f 3bbd df5f a73f c234 783d 415d 08bf
00000370: 58d3 c0bd 55e8 a6be cf0c 8f3e c9d8 8b3f
00000380: d799 d93e 5a2e f53e 69c1 d2be 8e84 3e3f
00000390: 17cb 90be 977f 49bf d77c 3e3f b5ef 85bd
000003a0: 2727 92be e646 8a3e 53d4 73bd eb0b 20be
000003b0: 3896 003f fd6f 8abe 07c3 a7bd 3e67 913d
000003c0: a0a1 c53e dd53 3f3f afc8 2bbe 6301 56bf
000003d0: 6342 453f f15a 803f 029f 1a3f 5f97 b5be
000003e0: c870 df3e 380e 84bd 1722 abbe 1446 033f
000003f0: a762 ed3c 7856 7dbf 6db5 02be 3f27 bd3d
-0.11763396 -0.35362902 -1.2578745 -0.82950824 0.23235403 0.9158676 -1.2344252 -0.36521614
-0.24758172 -0.62221515 -0.73097914 -0.096488826 0.85414875 0.61227095 0.30465823 0.54407287
1.2724991 -0.023367278 0.09190157 1.086758 1.7339823 0.3966651 -1.830685 -0.48050568
-0.6991629 -1.297878 -1.6975846 -0.5943063 0.78585756 -0.26581296 0.064285584 -0.9625125
0.7464699 0.23174866 0.76366395 -1.221015 -1.0772496 -2.1272767 1.3241068 -0.8866776
0.4104938 0.9481795 -0.6771106 0.024771482 -1.4205337 0.37060353 -1.4092065 0.5982872
0.94786924 0.11659696 -0.59249675 -1.6611066 -0.39423504 0.22647518 -1.0525795 -0.40464717
0.7103842 0.19277984 0.30520892 -0.54962015 0.22526722 0.54747504 -0.02779983 -0.17231762
0.13587369 0.11958359 -0.6622333 -0.51496094 -0.3086469 1.0470085 -0.654644 -0.3940864
-0.8818619 0.74909997 0.32532826 -0.17657603 -1.8189299 0.06974215 -0.013979424 -0.09559595
-0.005983324 0.10071559 -0.73507977 0.32930484 -0.96094185 0.7706857 0.27159485 0.3498249
-1.0952449 -0.6511561 -0.33548582 -0.7860749 -0.6310518 0.1985014 -0.40983143 0.6271993
0.7670834 -0.73089814 0.48585778 -0.408312 -1.0607171 -0.04639277 0.977752 -0.10345061
1.0206333 0.20920329 1.0976638 0.21175271 -0.07949937 0.6307036 0.6420239 1.4340075
0.28307086 0.5870832 -0.088899955 0.5921245 0.5125138 -0.4069024 0.46671286 1.416608
-0.34474853 0.19695851 -0.8848267 0.8520925 -0.04297401 0.020776415 0.094751224 -0.30178753
-0.075076796 -0.40095055 -0.26562864 0.7062023 1.1164887 -0.17626354 1.6460099 0.21522275
1.379498 0.28448227 0.41307276 -0.77889633 1.33845 -1.128015 0.3496327 -0.35861728
-2.128447 -0.606172 -1.4448256 -1.2176381 -0.3547179 1.6505458 0.60910755 -0.40711662
2.3558702 -0.4290376 0.92683566 0.058066938 0.38523275 0.0076961312 -0.9379508 0.76672864
-0.39999983 0.53656113 0.57720435 0.31141534 0.64613485 0.09963597 -0.078127146 -0.63380975
0.72805285 -2.032206 1.0455762 -1.2843632 1.5906631 -0.043152917 0.07439373 0.02620373
0.735544 -0.76874226 1.1896435 0.41254267 1.7078915 -0.1130113 1.3774456 -0.6626165
1.6131803 -0.93861747 0.03929012 0.5505261 -0.176073 -1.8341353 -0.43289867 -2.010645
0.07451134 -0.8280147 0.49414605 0.3467555 -1.0440134 0.34402338 0.32029334 0.27405846
0.9295334 0.011965032 -1.0285376 0.24097462 -1.2984438 0.17913872 -0.5971392 -0.3842864
0.599652 -1.148092 -0.64130336 -0.28777608 -0.55985576 0.11315939 0.1831031 0.035942074
-0.04574551 1.3076133 0.06059719 -0.53267294 -0.094153106 -0.3259913 0.2793946 1.0925533
0.42500183 0.47886926 -0.41163185 0.7442101 -0.28279945 -0.7871031 0.7440924 -0.06539861
-0.28545496 0.27007216 -0.05952866 -0.15629546 0.50229216 -0.27038565 -0.081914954 0.0709977
0.38599873 0.7473734 -0.16775773 -0.83595866 0.77054423 1.0027753 0.60398877 -0.3546705
0.43640733 -0.064480245 -0.33424446 0.51278806 0.028977705 -0.98960066 -0.12764521 0.09236001

s4_layers.0.kernel.log_dt f4 [16]
00000000: ddd0 1bc0 36e0 cac0 2cb9 b7c0 f6d5 62c0
00000010: 83d0 83c0 6c3b d4c0 399d 1bc0 9ea6 36c0
00000020: 857d cec0 ec43 b4c0 79db 96c0 d09b a2c0
00000030: 162a e1c0 ac28 5ec0 0a39 46c0 fde3 99c0
-2.434623 -6.3398695 -5.741354 -3.5443091 -4.119203 -6.6322536 -2.431471 -2.8539195
-6.452822 -5.6332912 -4.714291 -5.08152 -7.0363874 -3.4712324 -3.0972314 -4.8090806

s4_layers.0.kernel.log_A_real f4 [16, 32]
00000000: f1eb d9be 0a24 8ebf e3e4 24bf 6345 86bf
00000010: 6dac 36bf 620b 57bf ee54 b3bd af11 09bf
00000020: 97b8 13bf 7509 8fbf 845f a3bf 974c 90bf
00000030: 4c5e 7cbf 78cf 95bf 7439 8ebf c0bb 06bf
00000040: ab40 0ebf ade4 86bf 3cf6 a5bf 1c82 88bf
00000050: a2e3 3bbf 3fd7 66bf 9500 94bf 2c83 1bbf
00000060: 11a7 04bf b6de e3be 38f7 79bf 228d 83bf
00000070: b980 52bf a4f1 c9be 8e4c 3ebf d61d 00bf
00000080: 4d7b 14bf 4104 56bf 9d2f 44bf 1f3a 29bf
00000090: e5b1 91bf f977 2abf 02de f4be 5b25 8cbf
000000a0: 5e66 6cbf 98c0 0ebf 4271 8abf 141a 1ebf
000000b0: 8c90 503e cc9c 8f3e 5f13 ab3e 1762 973e
000000c0: 3483 54bf 8417 a2be 442e 12bf d83c 88bf
000000d0: cbe6 9bbf 5505 91bf 3964 e1be 835c 1bbf
000000e0: fa5c f1be 9430 12bf ab81 f3be 153e 9fbf
000000f0: f5cd c13d 1d70 ad3e 42b1 afbe a28d bbbe
00000100: e6b4 2bbf 3762 5cbf 639b 6cbf f68a 72bf
00000110: 43b8 5abf dfa9 73bf 68d9 8abf 71ee a4be
00000120: 77d0 8bbf 2636 45bf ee36 3fbf 1cae 11be
00000130: 70ea 94bf 326c 7cbf ae33 3cbe af26 8cbf
00000140: 5a50 8ebf f96c 80bf 42cc 4bbf bb7f 65bf
00000150: 9984 47be 4a7e 81bf c0e7 35bf 2b6a 8abf
00000160: b7ee 063e 0153 9dbf c8b3 a1bf 9d29 e4bf
00000170: 0d34 d8bf 11ab 8d3e d37a 5ebf 09ec 15bf
00000180: 434c 09bf 41a4 afbe 9e0f 97be 4094 6abf
00000190: 419f 10bf 8431 8ebf 2610 453e 02fe 4dbe
000001a0: 03ac 8bbf b55e 69bf 50c9 bbbd 0f34 a0be
000001b0: 8e80 0ebf 0c05 55be 2f26 4abf 2f55 1abe
000001c0: ea4b 5bbf 178e 1abe 2645 6fbd 3f82 51bd
000001d0: ae1e eabe 95f8 44bf a257 96be f168 ccbd
000001e0: 566e 19be 1e19 e83d 5e73 b53d a973 dcbe
000001f0: b62f 06bf ca57 4dbe 4f8c 76be 4144 24bf
00000200: a086 17bf 302e 743e 98b9 9cbe c8f1 cd3d
00000210: 1eef 153e 2577 57bf 564c 83bf f8b3 61bf
00000220: a2b2 26be 89f3 6dbe 50ae cebe 5853 66bf
00000230: d484 6bbf 03c9 3ebf caf9 43bf 678d 9ebe
00000240: 6cbe 9bbc 71d3 2abe d220 c5be 23a2 92bd
00000250: 37b6 053e 2654 3cbe 2295 c1be 12ce 51bf
00000260: f58c 273e 4565 e2be 24d8 b2be f351 4abf
00000270: 55d5 4fbf e65d 60bf df83 42be 2fc8 6ebe
00000280: 86d6 39bf 661f 31bf 8ecf 36bf 8ba6 2ebf
00000290: 0444 2dbf 403b 9dbf 6bf7 b6be eb9b 78be
000002a0: 02d5 9bbf 0981 28bf cbe2 e9be 0086 60bf
000002b0: c0ec 1bbf 6a5c 35bf 9f88 44bf bff7 5ebf
000002c0: 853e d4be 9fb5 84bf b455 9fbe 9678 8ebf
000002d0: 0233 c6be e469 09bf f25f 19bf 22e6 3cbf
000002e0: 7b78 cebe ba37 b0be 33e1 8abf ff6b 00bf
000002f0: 62b0 1bbf 096b 3fbf 0a53 25bf 4d2d 1abf
00000300: d076 20bf d23e 7bbf e1e9 5cbf b5d7 35bf
00000310: 5197 3c3c f367 85bf 3583 57be 987f babe
00000320: 2310 bdbd 17f1 18be be08 35be 36d8 3dbf
00000330: 988f 093d f5c5 3cbf b45c 2dbf d534 f1be
00000340: e168 19bf 31e8 6ebf d96f 2dbf 2531 86bf
00000350: ee34 80bf e471 60bd 8f97 0cbf 0d25 06bf
00000360: 9847 2cbf 438d 67bf 97fe babf db71 4dbe
00000370: 960d 13bf 2df9 45bf 6103 82bf 6610 3fbf
00000380: 916e 33bf 438b 13bf 8e84 c4be 5f92 87bf
00000390: 04fd 88bf 6981 b5bf a238 8bbf 73d0 8ebf
000003a0: 50f3 90be 795d 50bf d18a 41bf 39c6 59be
000003b0: 0dc1 17bf 8e9e 8ebf 42eb 01bf 8881 04bf
000003c0: 7eab 04bf 2e65 debe f186 35bf 8c48 12bf
000003d0: 8e1d 21bf cbd2 08bf ceea 4bbe abd5 64bf
000003e0: d3aa e6be c365 18bf c2b5 e3be 0133 39bf
000003f0: 4566 21bf 6e84 39bf 58e4 0bbf efa3 9abf
-0.42562822 -1.1104748 -0.64411753 -1.0489925 -0.7135685 -0.84001744 -0.087564334 -0.5354261
-0.57703537 -1.1174761 -1.2763524 -1.1273373 -0.98581386 -1.170394 -1.1111283 -0.52630234
-0.55567425 -1.0538536 -1.296577 -1.0664706 -0.73394215 -0.9017219 -1.1562678 -0.6074703
-0.51817423 -0.44505852 -0.9764285 -1.0277445 -0.82227665 -0.3944217 -0.74335563 -0.50045526
-0.5800064 -0.8360024 -0.7663515 -0.6610431 -1.1382414 -0.66589314 -0.4782563 -1.09489
-0.923437 -0.55762625 -1.0815814 -0.6175854 0.2036764 0.28049314 0.33413216 0.29567024
-0.830127 -0.31658566 -0.57101846 -1.0643568 -1.2179807 -1.1329752 -0.44021776 -0.60688037
-0.47141248 -0.57105374 -0.47559866 -1.2440821 0.09463111 0.33874598 -0.34314924 -0.36631495
-0.67072904 -0.86087364 -0.924246 -0.9474329 -0.8543741 -0.9518108 -1.0847597 -0.32213166
-1.0922993 -0.7703575 -0.7469319 -0.14226574 -1.1634045 -0.9860259 -0.18379089 -1.0949305
-1.1118271 -1.0033256 -0.7960855 -0.89648026 -0.19484176 -1.0116665 -0.7105675 -1.081365
0.13177 -1.2290956 -1.263299 -1.7825199 -1.6890885 0.27669576 -0.86906165 -0.58563286
-0.5363199 -0.34305003 -0.29504102 -0.9163246 -0.56493 -1.1108861 0.19244441 -0.20116428
-1.0911869 -0.91160136 -0.09169257 -0.31289718 -0.5566491 -0.20802706 -0.78964514 -0.15071557
-0.8566271 -0.15093265 -0.058415554 -0.051149603 -0.45726532 -0.76941806 -0.29363734 -0.099809535
-0.14983496 0.11332916 0.08859895 -0.43056992 -0.5241655 -0.2005302 -0.24076961 -0.6416665
-0.59189796 0.23845744 -0.30610347 0.10055882 0.14641997 -0.84166175 -1.0257671 -0.88165236
-0.1627908 -0.23237433 -0.40367365 -0.8997092 -0.91999555 -0.7452547 -0.7655302 -0.30967256
-0.019011699 -0.16682221 -0.38501602 -0.071598314 0.1305779 -0.18391475 -0.37809092 -0.81955063
0.16362365 -0.44217888 -0.34930527 -0.79031295 -0.81184894 -0.8764328 -0.18995617 -0.23318551
-0.7259296 -0.69188535 -0.71410453 -0.68222874 -0.6768191 -1.2283707 -0.3573564 -0.24278228
-1.217438 -0.6582189 -0.45680842 -0.8770447 -0.60908127 -0.7084414 -0.7677097 -0.8709678
-0.4145395 -1.0367926 -0.31120074 -1.113055 -0.3871079 -0.536772 -0.59912026 -0.73788655
-0.40326294 -0.34417516 -1.0849975 -0.5016479 -0.60816014 -0.747727 -0.6457983 -0.60225374
-0.62681293 -0.9814273 -0.8629437 -0.7103227 0.011510686 -1.0422348 -0.21046145 -0.3642547
-0.092315935 -0.14935718 -0.17679116 -0.74158037 0.033584207 -0.7373956 -0.6771958 -0.4711062
-0.5992566 -0.93323046 -0.6774879 -1.0483748 -1.0016153 -0.054796115 -0.5491876 -0.52400285
-0.67296743 -0.90449923 -1.4608945 -0.20062964 -0.57442605 -0.7733334 -1.0157281 -0.746344
-0.70090586 -0.5763437 -0.3838238 -1.0591544 -1.0702214 -1.4180118 -1.0876658 -1.1157364
-0.28310633 -0.8139263 -0.7560244 -0.21267022 -0.5927895 -1.1142137 -0.507496 -0.5176015
-0.51824176 -0.4343657 -0.7090903 -0.5714195 -0.6293572 -0.53446645 -0.1991379 -0.8938853
-0.45052204 -0.59530276 -0.44474608 -0.7234345 -0.63046676 -0.72467697 -0.546453 -1.2081279

s4_layers.0.kernel.A_imag f4 [16, 32]
00000000: 83e3 283e 63df 6440 b36e c840 0e49 0c41
00000010: 836c 4241 3063 7b41 4f17 9441 c5c0 b041
00000020: 1163 c741 fe71 e541 6825 fa41 3dd1 0b42
00000030: 4a35 1742 5b95 2142 1ecb 3042 d804 3c42
00000040: bb59 4942 35c9 5442 2df7 6242 b9f5 6d42
00000050: 2155 7b42 1c46 8542 5250 8a42 c114 9042
00000060: 6cba 9742 5e1d 9e42 07e8 a342 9662 a842
00000070: 3e3c b042 8b70 b642 1063 bc42 3cf2 c242
00000080: 15fd 583d ffdd 4340 ea49 d240 c05c 1441
00000090: 7112 4841 7b0a 8041 09fd 9241 f638 b341
000000a0: c969 c641 4a6d e341 a391 fd41 79ad 0c42
000000b0: 53ef 1442 0a7b 2642 638e 2f42 6097 3c42
000000c0: 1f4e 4742 fd6f 5542 9ba2 5f42 0600 7142
000000d0: a2a5 7b42 e497 8342 f8e5 8942 44be 8f42
000000e0: 6152 9642 2d54 9d42 30e2 a342 ec35 a942
000000f0: 2ea1 af42 429a b642 8e20 bb42 c466 c142
00000100: 5fa8 1dbe 3dfd 5640 31be cf40 4c69 1541
00000110: 805e 4341 1406 8041 3dbb 9341 d055 ac41
00000120: 38cc c641 4070 e141 3101 ff41 1a97 0b42
00000130: 9d5f 1842 35ef 2042 5669 2e42 169a 3d42
00000140: 49b1 4842 a8b4 5542 ff46 6142 69d3 6d42
00000150: f3db 7b42 ec11 8542 07d9 8842 69a9 9142
00000160: b802 9742 8585 9d42 3734 a442 2923 aa42
00000170: 4d88 ae42 cc4f b642 8164 bb42 1cc4 c242
00000180: 4b93 3dbd 37b2 6440 3f3b d340 37d3 1e41
00000190: 53a3 3c41 2249 8341 bffb 9541 4d0c ae41
000001a0: 7c67 ca41 b81a e041 b2d1 f841 9ff1 0a42
000001b0: 9031 1542 5714 2442 1b0e 3142 2a8f 3e42
000001c0: 0cdf 4742 98d2 5442 ee49 6242 cdd0 6e42
000001d0: 756d 7b42 ac66 8342 9efe 8942 9f02 9042
000001e0: 1eff 9642 f28c 9c42 d8aa a242 0c38 aa42
000001f0: 9127 b042 73e3 b542 ce68 bc42 0037 c342
00000200: 336f 8abd 6afd 4a40 2097 d240 b30e 1941
00000210: 8508 4b41 398a 7941 c5c1 9541 8982 b241
00000220: 8223 ca41 5ea0 e341 f1e6 fb41 5fcc 0942
00000230: a443 1842 fa9d 1f42 0058 3042 77d6 3c42
00000240: 1903 4842 bda6 5442 1740 6242 b636 6f42
00000250: 2f0c 7b42 a82e 8442 7a68 8a42 376e 9042
00000260: f62a 9742 bd46 9c42 8fea a342 d01c aa42
00000270: 4fa3 af42 e445 b642 4265 bc42 0251 c242
00000280: 3fc6 a13b 0689 4c40 dcac cd40 5d1d 1441
00000290: fb9a 4441 93c2 7941 c7d8 9541 02ef ad41
000002a0: 38d8 c441 7c71 e641 fc14 fd41 0fc0 0942
000002b0: a00d 1742 b6b4 2242 d4e8 3042 8c68 3d42
000002c0: f936 4942 ff9a 5442 99fe 6042 809e 6f42
000002d0: 9a2f 7c42 b64b 8442 778c 8a42 97f4 9042
000002e0: b3b7 9642 9ac6 9c42 9197 a342 be17 a942
000002f0: ea79 af42 4b93 b642 eb86 bc42 e9b7 c242
00000300: aea5 54be a8a2 3f40 c44d b840 927b 1741
00000310: aabe 4241 1d22 7941 0b0d 9741 699a ad41
00000320: 95e3 c941 23fd e341 6be5 fa41 3134 0842
00000330: 38da 1642 a45a 2342 bb40 2f42 f0ca 3b42
00000340: bd0d 4842 6fcd 5642 2caa 6242 1c5c 6f42
00000350: 81a3 7942 f3d2 8342 06e4 8b42 abc1 8f42
00000360: c1a8 9642 f54d 9d42 cb01 a442 fe5a a942
00000370: 30a9 af42 9b14 b742 06b6 bc42 b2db c242
00000380: fb30 bfbe afc7 4640 76c6 c340 132a 1041
00000390: 8c69 3c41 4801 7f41 d663 9441 ad8c b241
000003a0: 213d c541 bf6f e341 c8e5 fb41 5f56 0a42
000003b0: 91ec 1442 e4f7 2242 932e 3042 8128 3d42
000003c0: d860 4942 baa1 5442 08cf 6142 7c67 6f42
000003d0: 06bd 7b42 8b3b 8442 5c0a 8a42 c3f1 9042
000003e0: 5275 9742 cfea 9c42 7eba a342 2345 a942
000003f0: 3d84 b042 c1e8 b542 b260 bc42 7ad6 c242
0.16493039 3.5761344 6.263513 8.767836 12.151492 15.711716 18.511381 22.094126
24.923372 28.68066 31.268265 34.954334 37.80204 40.395855 44.198357 47.00473
50.337627 53.19649 56.741383 59.489964 62.833134 66.63693 69.156876 72.040535
75.864105 79.05736 81.95318 84.19255 88.11766 91.21981 94.19348 97.473114
0.052975733 3.0604246 6.5715227 9.272644 12.504502 16.005117 18.373552 22.402813
24.801653 28.428364 31.696112 35.169407 37.233715 41.620155 43.88905 47.147827
49.82629 53.359364 55.908794 60.250023 62.91175 65.79666 68.94916 71.87161
75.1609 78.664406 81.94177 84.605316 87.814804 91.301285 93.56358 96.700714
-0.1539626 3.3592064 6.4919667 9.338207 12.210571 16.002968 18.466425 21.5419
24.849716 28.17981 31.875582 34.89756 38.093372 40.2336 43.602867 47.400475
50.17313 53.426422 56.319332 59.456455 62.964794 66.535 68.42388 72.83088
75.50531 78.76078 82.10198 85.06867 87.26621 91.15585 93.6963 97.383026
-0.046283048 3.5733774 6.600982 9.926566 11.789874 16.41071 18.747923 21.756006
25.30053 28.013046 31.10239 34.73596 37.2984 41.019863 44.263775 47.63981
49.96782 53.205658 56.572197 59.703907 62.85689 65.70053 68.9973 72.00512
75.498276 78.27528 81.33368 85.10947 88.07728 90.94424 94.2047 97.60742
-0.06759491 3.1717172 6.580948 9.566089 12.68958 15.596246 18.719614 22.313738
25.267338 28.453304 31.487764 34.44958 38.066055 39.904274 44.085938 47.20944
50.003025 53.16283 56.562588 59.80343 62.761898 66.091125 69.204056 72.21526
75.58391 78.13816 81.95812 85.056274 87.81896 91.136505 94.19777 97.15822
0.004936963 3.1958632 6.427351 9.257169 12.287837 15.610003 18.730848 21.741703
24.605576 28.805412 31.635246 34.437557 37.763306 40.676476 44.22737 47.352097
50.303684 53.151363 56.24863 59.904785 63.046486 66.14787 69.274345 72.477715
75.35879 78.38789 81.79603 84.54637 87.73811 91.28768 94.26351 97.3592
-0.20766327 2.9943027 5.759493 9.467669 12.171549 15.570828 18.881369 21.700396
25.236124 28.498602 31.36202 34.05097 37.713104 40.838516 43.813213 46.94818
50.013416 53.70062 56.666183 59.83995 62.40967 65.91201 69.94536 71.87826
75.3296 78.65226 82.0035 84.67772 87.830444 91.540245 94.355515 97.42909
-0.37342057 3.1059377 6.117976 9.010272 11.775768 15.937813 18.548748 22.31869
24.654848 28.429564 31.487198 34.584347 37.23102 40.74208 44.045483 47.289555
50.344574 53.157936 56.45218 59.85106 62.934593 66.116295 69.02023 72.47219
75.72914 78.45861 81.86424 84.63503 88.25828 90.9546 94.18886 97.4189

s4_layers.0.output_linear.0.weight f4 [32, 16, 1]
00000000: 4227 253d 45fe f83e 06db ddbd fdc0 49bd
00000010: 907e b93e d46f e33d cd57 483e da31 b13d
00000020: 01ad 023f b54a 4a3c 484f 03be 873a ae3d
00000030: 687e 46be 6c4d 1e3e f325 403e e4a0 f4be
00000040: 76df 283e 66cb 543e 587e 943c 136d 01bf
00000050: 3799 ee3d f0f9 cf3e 6f5a ac3c e9b3 38be
00000060: 34b2 0b3e 5e93 523d 5184 d73d e6c1 ef3d
00000070: 6017 313e 4aa6 d2bd 2670 833e 5282 1abe
00000080: ac3a 16bf 3413 27bf 1f8c 80be 9a69 94bd
00000090: 4036 60be f6c1 cbbd be0e 003f c420 aebe
000000a0: d3ba 03be bdfa 98bd a19f 18be 005d fcbe
000000b0: 7247 4d3e b539 3bbf 3ae8 02be 0f17 633e
000000c0: aa3b f43d 9925 043f 07b3 64be 8bcf 7b3d
000000d0: 21a6 643e 0377 a73d 85b7 693d bd9a 22be
000000e0: 8462 bb3e a191 7bbd 8731 cbbd 6dcf 9ebd
000000f0: 25eb ba3c b00d bc3d b5fa c83e a943 983d
00000100: 7571 e2bc 90e1 94be a921 0dbe f4f3 f03c
00000110: d9a8 c53d 8903 163e 2ac0 d9be 0587 d1bd
00000120: d4a3 973c 9ca7 013e d3f1 0ebf 7a0c 66be
00000130: c165 583e 9f87 1ebe 26ab 2abd f84a 86be
00000140: 127b 353e 8669 a23e 7674 bbbe ab3e e4bd
00000150: be7a b33e 951d 92be 920b 273d 191d 5abe
00000160: 028f d03e d9d8 f4bd ee8b 6cbe 6b97 483d
00000170: 7b46 77be 680f e53e f0db 263e 75fa 093e
00000180: ac4e 5dbe 7276 4cbf 41f2 d9be 78fe 453d
00000190: e7a6 85be 7bf6 88bd 2326 d6be 05f4 9a3e
000001a0: a4e8 f5be 9c66 65be 31f7 603d 98b1 babe
000001b0: 3275 0abe 21ad 82bb 94ae 33be cb0e 89bd
000001c0: 7908 223e bf6c 723d 9c0f 873d ae41 3cbe
000001d0: ede2 553e 9627 d03d a055 0b3f 1723 26bd
000001e0: b9df 3d3e ffed 0bbe 4c66 553d 497b 483e
000001f0: e425 56be e02a 96bd 74bf 34bc 4c0e 153f
00000200: 2e0c 5abe 75b6 99bf 8729 243f bda9 243e
00000210: ee9f 39bf 40d7 0d3e a079 79bf 35ac 543e
00000220: 64aa 9fbf fe74 eabc a4dc 21be 0b61 31bf
00000230: 2aae 753d c5ad 12bf cd06 1cbf 0ed6 75bd
00000240: 1796 1c3f 52c2 923e 6509 ad3e 9020 75be
00000250: 67ae eb3c a3f8 183b 8365 acbd dabc 0abe
00000260: 263b 6f3c 80a5 e6bc ccec a5be b733 373e
00000270: 69bd da3e 09dd 313d b8f9 053f 364d 12be
00000280: a2ab b53e dc80 173f d65c 803d 830c 41be
00000290: bbd3 0b3e 77ee 2a3e e3e8 4abf 391e 5abe
000002a0: bf4f 403f 718b c9bd be7d b33d c2e1 9e3e
000002b0: 3e27 fb3d a94d e33d a173 d13e 1381 853c
000002c0: 6c71 583d b4a8 043f a211 0b3d edc3 be3d
000002d0: 2137 163e 5de2 d5bd 27fb 3f3e b94a 10be
000002e0: 2b9a 083f 43b2 bcbe bdec 163d c4de 523e
000002f0: cac6 0d3e 458a 2abe a3d0 f13e 5366 543e
00000300: 859a c33e f066 883d 16d2 673e fcb6 fa3d
00000310: 3eb0 59be 0928 243e e3f3 6abe 3726 013e
00000320: a56e e6bd c1a3 8b3d 6191 103e 84dc 9d3e
00000330: 64e1 17be 843a 9bbe 3fc8 073f 2cd7 0fbf
00000340: f6df c83e 85fc bb3e 03d7 b6be 7597 f4ba
00000350: 29f7 283e 55f1 4e3e 4a24 91bd 6be0 70be
00000360: f62f 1e3e 71df afbb cc98 d5be b88b 0abc
00000370: ceef de3d 03af 903e f5bc 273e 6c80 43be
00000380: b59e 7fbe 8fd3 b43e 0f47 9e3d 1f88 043e
00000390: 7a91 fe3c cde8 8cbe 516a 853e 3165 02be
000003a0: cd85 b43e 437d 56be 2752 f4bc 4765 3fbc
000003b0: ad4b 99be b9c2 b73d a7e0 023f 3e91 813e
000003c0: 09c8 503e 2ffa 07bf 2605 043f d6cf 3abe
000003d0: c504 01bf b035 46bd 091e 9c3d d14d 7cbd
000003e0: 430d 4fbf bec9 d6bb a45c df3e 1a8d 64bd
000003f0: 609f 113d f8f6 ecbe f3b3 c23e b5d2 1fbe
0.040320642 0.48631492 -0.10832791 -0.049256314 0.36229372 0.11105314 0.19564743 0.086520866
0.51045233 0.012346913 -0.12823212 0.08507257 -0.19384158 0.15459222 0.18764476 -0.47779
0.16491494 0.20780715 0.018126652 -0.5055706 0.11650317 0.40620375 0.021039216 -0.1803738
0.13642198 0.05141007 0.10523284 0.11706905 0.17294073 -0.10285623 0.256715 -0.15088776
-0.58683276 -0.65263677 -0.25106904 -0.072467044 -0.21895695 -0.099491045 0.50022495 -0.34009373
-0.12864237 -0.074696995 -0.14904644 -0.49289703 0.20046785 -0.7313493 -0.127839 0.22176765
0.119254425 0.5161987 -0.22333919 0.061477225 0.22328998 0.081769966 0.057059783 -0.1587934
0.365986 -0.06141818 -0.09921556 -0.07754407 0.022817204 0.09182298 0.39253774 0.0743478
-0.027641991 -0.2907834 -0.13782372 0.0294132 0.09651346 0.14649786 -0.42529422 -0.10230831
0.018510737 0.12661594 -0.55837744 -0.22465697 0.21132566 -0.15481423 -0.041667126 -0.26229072
0.17722729 0.31721133 -0.3661229 -0.111447655 0.35054582 -0.28538194 0.04078252 -0.21300162
0.40734106 -0.11955423 -0.23100254 0.04897253 -0.2414798 0.44738317 0.16294837 0.13474448
-0.21612042 -0.79868233 -0.42567638 0.048338383 -0.261039 -0.066876374 -0.4182597 0.30264297
-0.48029053 -0.22402424 0.05492324 -0.36463618 -0.13521269 -0.0039879237 -0.17547065 -0.06692275
0.15823545 0.05918574 0.06594774 -0.1838443 0.20887347 0.101638004 0.5442753 -0.040560808
0.18542375 -0.13665007 0.05209951 0.1957828 -0.20912892 -0.073323965 -0.011031974 0.5822494
-0.21293709 -1.2008806 0.64125866 0.16080375 -0.7250966 0.13851643 -0.9745121 0.20768817
-1.2473874 -0.02862024 -0.15806824 -0.692887 0.05998055 -0.572964 -0.6094788 -0.06001859
0.6116652 0.2866388 0.3379623 -0.23938203 0.028769685 0.0023341558 -0.08417799 -0.13548604
0.014601504 -0.028155088 -0.32407224 0.17890821 0.42722633 0.043423686 0.52334166 -0.14287266
0.35482508 0.59181 0.06267707 -0.18852429 0.13654988 0.1669253 -0.79261607 -0.21300592
0.7512168 -0.098410495 0.08764218 0.31031615 0.12263344 0.11098797 0.4090853 0.016296899
0.052842543 0.5181992 0.033952363 0.093147136 0.14669468 -0.10443566 0.18748151 -0.14091004
0.5336024 -0.36854753 0.036846865 0.20592791 0.13845363 -0.16654308 0.4722949 0.20742159
0.38203827 0.06660259 0.22638735 0.12241933 -0.21258637 0.16030897 -0.22944598 0.12612234
-0.112515725 0.06818343 0.14117958 0.30832303 -0.14832073 -0.3031808 0.53039926 -0.561877
0.3923337 0.36716095 -0.35710916 -0.001866086 0.16500534 0.20209248 -0.07087 -0.23523109
0.15447983 -0.0053672125 -0.41718137 -0.008456163 0.10885583 0.28258523 0.16380675 -0.19091958
-0.24962886 0.35317656 0.07728397 0.12942551 0.031075228 -0.27521363 0.26057675 -0.12733914
0.35258332 -0.20946221 -0.02982433 -0.011681861 -0.2994055 0.08972687 0.5112404 0.25306123
0.20388807 -0.53116125 0.51570356 -0.18243346 -0.503979 -0.048391044 0.07622916 -0.06159765
-0.8087961 -0.0065548113 0.43625367 -0.055798627 0.035552382 -0.46282172 0.38027915 -0.15607722

s4_layers.0.output_linear.0.bias f4 [32]
00000000: 0538 c9be bf61 e33e 3af0 04be b2b1 4c3e
00000010: 6fa1 8f3e f03e d7bd 9a0c 893d 6072 85bd
00000020: 835e 9e3e a8af 6e3e 05fa 2dbe 8718 a1bc
00000030: 6c86 823e 0681 9dbe 62f3 d63c c74f 813e
00000040: 8d1d 1c3f c3e9 98bc 2ff7 6c3e de34 103e
00000050: 50b4 033e bd41 9b3d 0768 653e 12b8 a4be
00000060: 78f0 6d3f c076 463d d1d9 48be 2882 be3e
00000070: 11bf 2c3e 72dc 96be f839 813e 5387 a6bd
-0.39300552 0.44410512 -0.12982264 0.1998966 0.28052852 -0.10510051 0.06691857 -0.06515956
0.30931482 0.23309195 -0.16989906 -0.019665016 0.2549318 -0.307625 0.0262391 0.25256178
0.6098259 -0.018666154 0.23141168 0.14082667 0.12861753 0.07580898 0.22402965 -0.32171685
0.9294505 0.048453093 -0.1961434 0.37208676 0.16869761 -0.2946506 0.2523954 -0.0813128

s4_layers.1.D f4 [16]
00000000: f3b6 23bf 2115 a4bf 664c c3bf fb43 0640
00000010: df25 df3f 76da 473c 9122 0c3e 3dd9 a7bf
00000020: 683c 98bf ab02 eb3e 0717 1dbf 7cbd 073f
00000030: 9ccc 923f 1e7a 663f 232d af3f ee3e 0140
-0.63951033 -1.2818948 -1.525769 2.0978992 1.7433432 0.012198081 0.13685061 -1.3113171
-1.1893435 0.45900473 -0.6136326 0.53023505 1.1468692 0.90030086 1.368565 2.019466

s4_layers.1.kernel.C f4 [16, 32, 2]
00000000: 9671 02bf 2c37 08be e0ed c23e 78e9 573f
00000010: aa53 8dbe 0d20 8a3f f952 153f 9c54 9bbc
00000020: 0dcd 9abe de68 05c0 4eb6 073f 19d8 a63f
00000030: bf17 8dbe 84f6 2f3e 30b2 523e ec6e a03e
00000040: 653d f1be cc97 92be 9bcd 143f 04ed 213f
00000050: f2a7 a53e f35b 263d ca62 a33d eedb d2bd
00000060: 4a82 a9bd a20b 0fbe 5de1 c93e 27f9 21bf
00000070: 831e c5be 2e39 aebe aa6b 7dbf d8c2 c53d
00000080: 6b06 a43f 6c90 67bf ca9d 8c3f 0e97 1e3e
00000090: 669e c03e 257a f2bd 9a5e a2be 1286 1a3f
000000a0: 16ff bcbe de4e 95bf 257f a93e 5389 24bf
000000b0: 178d b93d 0dee 0f3d d311 643c 5dcb 5ebf
000000c0: 0ce4 d23e c99e 00bd 229f 6b3e d484 c53e
000000d0: db40 86be 9c29 d13e b3f3 263f c7c2 d93e
000000e0: 9803 c1be 518e 37bf fef6 2d3d 87f6 74bf
000000f0: 7f83 01bf 0feb ec3e 2cd5 b0be 03d3 56bf
00000100: 6931 e9bc f71a 453f e2e6 68bf 9fc7 25bd
00000110: 5c8b 2bbf 9de0 65bf 9e45 9d3e 9fd6 0d3f
00000120: aafe ae3e 2203 5bbd 00dc 8ebe db9c 48be
00000130: 5cdc 433f 4110 58be fd85 9eba 4d0b 7abf
00000140: ce0b d6bf 07d5 49bf 96c4 0bbf 21f1 0dbf
00000150: c364 233f 4e1f d7be fd23 023f 327f 4abf
00000160: 04e2 a3bf 51bb 903f f04d c83f 1ac8 4e3f
00000170: d124 413f 7909 67be ca18 ce3f 3b60 70bf
00000180: c89c a53f eaaf 433d 2d35 943f f37d ccbe
00000190: 22fe 3d3f cd38 d03e 07ee 843f 2d70 63bf
000001a0: 7a6e d53f 3b54 93bf f9cc 1d3f 5eda a43d
000001b0: 7d8a a53f 1bd9 3dbe 426e bb3e 5eb2 22bf
000001c0: a323 0dbf 27b9 3f3e 0fdb 4dbe 3024 4e3e
000001d0: 5041 a13f a213 c6be b9ac 8b3f bf72 b0bd
000001e0: 01fa 403e ab3a c73e 9427 d63e f340 bd3d
000001f0: c0b0 093f 781f 983e 8882 bd3e d77f 5e3d
00000200: fe5d 0c3f 7689 5e3f a775 16bf 09ac 78be
00000210: 9fea 8b3e 7080 9fbf a939 1340 b71d 9bbe
00000220: b42a 453e 9dd5 f7bd f369 3f3e aa49 193f
00000230: 390e fd3d e44b 153e 3d23 aabd 6ea9 aebf
00000240: f27a 343f cac8 663f 2b8f cb3e ab4c 59bf
00000250: 3720 8b3f 61a5 6cbf c9fb b03f 21b4 2f3f
00000260: 6ad9 3c3d 6993 e8bf f909 05bf 9167 313f
00000270: 6056 d4be 16c0 71bf 8c92 0cbe 843d acbf
00000280: 2d5d 3a3f a0d4 4abf f3d9 543f 717f 603f
00000290: facf 383f 66a1 77bf 7acd 26bf dad3 26bf
000002a0: add0 6bbf 369b d63e c181 adbe dd61 cdbf
000002b0: a52b 4b3f f54b 0fbf ec3d de3f 102d 283e
000002c0: 4223 1f3f 5334 8cbe 4eee 923f f8e4 3c3f
000002d0: 3755 083f 670f 5d3f fc69 d6be 1da0 65bf
000002e0: 52dc 1cbf f453 323f 0df6 73be ac9c c2bf
000002f0: 7c4a b5be d2f8 9cbf dc18 a53f 0c78 5ebe
00000300: bc4d 543f e57f c53f ef63 a7bf b565 a13f
00000310: d852 e53d 0c19 bb3c fe18 29bf acbf 2a3f
00000320: f20d b5bf 9c14 603f 769c 393f 7dba 0bbe
00000330: 04b0 a0bf f4b2 c43f d65e 64bf adb4 213f
00000340: 4ee5 b0be b806 393f a3e9 86be 7a35 f93e
00000350: 3fd8 94bf c8f3 693f 5a08 a7be 76eb cfbc
00000360: c142 833f 383e 8c3f fe49 34bf 19f4 283f
00000370: e4ac 323d 8388 393f 1e21 353e d8e2 5a3f
00000380: 4405 dfbe 6bd0 803f 233d b8be da93 8e3d
00000390: 5f3e 46bf eda3 b73e c7e3 50bf fe3f c13e
000003a0: a232 f53e 479e 453f d580 b83f 7af4 cb3f
000003b0: a84b bfbd 7703 acbd c2d0 6e3f a94f 573f
000003c0: 26fd 7bbf 474c 2cbc 3578 32be e4b6 5c3f
000003d0: 83ed 863f a5e5 6d3f b449 3d3f 80ab e63e
000003e0: df6b 7e3e 9cab 843d a409 013e bd58 d83e
000003f0: a842 4a3f 4754 063f 2e64 cb3e bbf2 933f
-0.5095457 -0.13302296 0.3807211 0.8434062 -0.27602893 1.0791031 0.5832973 -0.018961243
-0.30234566 -2.0845256 0.5301255 1.3034698 -0.2755718 0.17183882 0.20575786 0.31334627
-0.47117153 -0.28631437 0.5812623 0.6325228 0.32354695 0.040615033 0.07977827 -0.102958545
-0.08276804 -0.13969281 0.3942975 -0.632708 -0.3849984 -0.34028 -0.9899241 0.09656304
1.2814459 -0.90454745 1.0985653 0.1548731 0.37620848 -0.118397035 -0.317128 0.60360825
-0.36913365 -1.1664693 0.33104816 -0.6427204 0.09060114 0.035139132 0.013920265 -0.8702906
0.4118961 -0.03140143 0.23009923 0.38577902 -0.26221356 0.40852058 0.65215605 0.42531416
-0.37698054 -0.7170153 0.04247188 -0.9568867 -0.5059127 0.46273085 -0.34537637 -0.8391573
-0.028465943 0.7699427 -0.909773 -0.040473577 -0.6700952 -0.8979586 0.30717176 0.5540561
0.34178668 -0.053469785 -0.27902222 -0.19591086 0.76508117 -0.2109995 -0.0012094375 -0.97673494
-1.6722353 -0.7884068 -0.5459684 -0.5544606 0.63825625 -0.4201607 0.50836164 -0.79100335
-1.280335 1.1307164 1.5648785 0.8077408 0.754468 -0.22562207 1.6101315 -0.93896836
1.2938471 0.047775187 1.1578728 -0.39939842 0.742159 0.40668336 1.038514 -0.8884304
1.667434 -1.151008 0.6164089 0.08049463 1.2932888 -0.1853985 0.36607558 -0.63553417
-0.551325 0.18722974 -0.20103095 0.20130992 1.2598057 -0.38686854 1.0912086 -0.08615636
0.18845369 0.38911948 0.4182707 0.09240904 0.53785324 0.2971151 0.3701365 0.054321136
0.5483092 0.869285 -0.58773273 -0.24284376 0.2732744 -1.2461071 2.3003943 -0.30296108
0.19254571 -0.121012904 0.1869276 0.5987803 0.123562284 0.14579731 -0.083075024 -1.3645456
0.705001 0.9015013 0.39757666 -0.8488261 1.0869206 -0.9243985 1.3826839 0.6863423
0.04610578 -1.8169986 -0.5196834 0.69298655 -0.4147215 -0.94433725 -0.13727778 -1.3456273
0.72798425 -0.7923069 0.83145064 0.8769446 0.7219235 -0.9673065 -0.6515728 -0.6516701
-0.9211529 0.41915292 -0.33888057 -1.604549 0.7936347 -0.55975276 1.7362647 0.1642344
0.62163174 -0.2738367 1.1478975 0.7378688 0.5325503 0.8635163 -0.41877735 -0.8969744
-0.6127368 0.6965935 -0.2382433 -1.5204062 -0.3540839 -1.2263434 1.2898211 -0.21725482
0.82931113 1.5429655 -1.3077372 1.2609164 0.11197442 0.022839092 -0.6605376 0.6669872
-1.4144881 0.8753145 0.72504365 -0.13645358 -1.2553716 1.5367112 -0.8920721 0.63166314
-0.34549946 0.72275877 -0.26350126 0.48673612 -1.1628493 0.91387606 -0.3262356 -0.025380831
1.0254747 1.0956488 -0.70425403 0.65997463 0.043621913 0.72473925 0.17688414 0.85502386
-0.43558705 1.0063604 -0.35984144 0.06961794 -0.7743892 0.35867253 -0.8159756 0.37744135
0.47890192 0.7719464 1.4414316 1.5933983 -0.09340602 -0.08399098 0.9328729 0.84105927
-0.9843315 -0.010516233 -0.17428668 0.8621657 1.0541233 0.92928535 0.7394059 0.4505272
0.24845837 0.064780444 0.12601334 0.42255202 0.7900796 0.5247235 0.3972487 1.155845

s4_layers.1.kernel.log_dt f4 [16]
00000000: a344 47c0 1993 6ec0 f18d b6c0 d373 cdc0
00000010: 4431 86c0 1251 1cc0 8c5c acc0 0b4e a4c0
00000020: 8249 78c0 0b47 bfc0 0ad9 c4c0 150e 37c0
00000030: fc9e 2ec0 cf1a a3c0 4509 72c0 e938 6bc0
-3.1135643 -3.7277281 -5.704827 -6.4203887 -4.193514 -2.4424481 -5.386297 -5.1345267
-3.8794866 -5.977422 -6.151494 -2.8602345 -2.7284536 -5.0970225 -3.7818158 -3.6753485

s4_layers.1.kernel.log_A_real f4 [16, 32]
00000000: 2f3c 26bf 800c a8bf 3bc7 9ebf 1bfd f1bc
00000010: 6ae7 9cbf 766c 7abf 6273 25bf 26d8 16bf
00000020: 2958 583e 1a0b ffbe ebd4 22bf 0c1b f4be
00000030: ac4d 30bf 8f6f efbe f5b3 afbc db9e 00bf
00000040: cec5 123e 2035 2dbe b3bd 23bf 4a3c 5e3e
00000050: dc17 663e 577f d3be e6b9 15bf 1f1b 6cbe
00000060: 370d 19be d6ed 0bbf c8e2 c5be df81 37bd
00000070: 4a0e 83be c21f febe abaf 32be 0e1a 7dbe
00000080: 6d8b fcbe 6445 5cbf 96aa 2cbf f083 a2bf
00000090: f779 2bbf 9395 79be 7580 8bbf 6415 52bf
000000a0: 20bd 41bf 587b 16bf efe7 29bf 40a9 b7bd
000000b0: bbb7 85bf f442 62bf aa0f 50bf d784 d63d
000000c0: a8d5 1cbe 8e45 11bf 70f0 bebe ba3d 9abe
000000d0: 36f9 30be dee0 10bf c3d9 0fbf d480 3bbf
000000e0: e280 d7be 95fb 09bf 0759 a3be 6acc ccbe
000000f0: 1ad0 8ebe 6a5a a1be 54a9 00bf 7b92 21bf
00000100: 5a1d 7cbf 6475 eebe 0d9f 75bf f39a d5be
00000110: a232 f8be 1fa6 02bf de1e 26bf ab03 15bf
00000120: c048 b8be f4ae 02bf a292 5ebf ec4b 84bd
00000130: 004e 04be 99ce 1cbf 7d73 82bf 16ad 1abf
00000140: 262f 79bf 2b3c b1be b1f5 e6be 0218 45bf
00000150: ee85 63bf 4dc5 f1be d700 73bf 5c76 3bbf
00000160: 20d5 3abf 751a 0bbe 5be8 dbbe 3dfa 54be
00000170: 69bf 28bf e83f 38bf 0523 81bf dcd7 02bf
00000180: 7ab0 10be 9bbe a0bf a0fb cfbd 58fb b5bf
00000190: ede1 f5be d033 98bf 4cab 193c 0c37 673e
000001a0: 8763 dcbe 6d47 7abf 4649 63bf cac5 0abf
000001b0: bfc1 bdbf fc03 80be 9243 4fbf e3aa 88bf
000001c0: 7417 d6be e3b7 f33d 05f4 933e b8df 033e
000001d0: 7eee 44be 0510 b0be ce2d 80bf 8229 a3bf
000001e0: df33 55be efab efbe 02ac 84bf 83eb 6abf
000001f0: 67e5 fdbe 09e2 edbe 54ff 75bf 9f03 13bf
00000200: d2d6 c9be d53f a2bd 8832 1abf ed84 2dbe
00000210: e7c4 67bf a1f9 78bf cb2b 7bbf a554 65bf
00000220: 8591 ecbd 0bbf 4cbf a894 dbbe e4ee 003d
00000230: 6a26 12bf 505b 7fbf 958d 66bf 266a 46bd
00000240: c233 033d b598 45bf 5e3f 72bf fd35 5abf
00000250: e304 2dbf cc0d 39be 322c ddbd 0072 22bf
00000260: 5dd5 89be 0b5d 76be 929b 1bbf 3c11 7bbf
00000270: 59f5 f4be 4b0a 89bd 45e7 1cbf d243 d7be
00000280: 210d 26bf da76 02bf 46fb c0bf c0ef eabe
00000290: c472 8abf bd6a 07bf 797e edbd 04e3 ddbe
000002a0: e634 ab3e 1e9b a43d 6d11 e7be c7c9 c7be
000002b0: fba8 e6be cc9a bfbe 8ed9 2dbf 975f 14bf
000002c0: ee59 c0be e7ef 57bf 78eb a4be 7f89 d9be
000002d0: fd7a 4cbf c8cb 8ebf 11d7 9cbf a3c9 80bf
000002e0: ef4b ecbe 6e58 9dbf c7f3 52bf 7378 c5be
000002f0: faef 29bf 7bbe 23bf 9a53 20bf 62fe 82bf
00000300: cb0f 30bf f72e efbe ef65 53bf 9f60 51bf
00000310: 9e36 76bf a4a9 2bbf 1c48 0ebf 31c7 f0be
00000320: 72b0 60bf 99fc a5be aa35 89be f7a1 50bf
00000330: 9df5 85bf daa5 63bf 7178 6dbf cab7 abbd
00000340: 34e3 84bf 479f 6fbe befd 42bf bce5 53bf
00000350: b655 99bf ef89 5cbf b049 7abf 7a91 82bf
00000360: 57ca 8cbf 9599 38bf a0dd 75be 6fac d1be
00000370: 0762 6c3e d889 67be 4848 18bf c55c 1bbf
00000380: 23ac 0fbf a91e 12bf 2311 0abf 8942 c2bf
00000390: a7e5 9fbf 09f3 77be 5ece fabe db7f 183e
000003a0: f638 c4bc aa9a 65bf 1cfc bbbe ba38 2dbf
000003b0: 4ea6 94be a74a 8fbf 31eb 9dbf d00e bcbf
000003c0: eb91 b0bf e474 99bf a780 b7be 2e0d 1fbf
000003d0: 158e abbf 09aa 86be c5dd 98be 9458 56bf
000003e0: c5af 8abf 6f88 14bf e55f 24bf 766c 20bf
000003f0: 5bdd 24bf 7bc6 ed3d eb3a 89bf 813f 90be
-0.6493558 -1.3128815 -1.240455 -0.029539635 -1.2258122 -0.9782175 -0.64629185 -0.58923566
0.2112738 -0.49813157 -0.6360614 -0.47676885 -0.6886852 -0.467648 -0.021448115 -0.50242394
0.14333269 -0.16914797 -0.63961333 0.21702686 0.22470039 -0.4130809 -0.58486784 -0.23057221
-0.14946447 -0.54659784 -0.38649583 -0.04480159 -0.2559684 -0.49633604 -0.17449825 -0.2471697
-0.49325123 -0.8604338 -0.67447793 -1.2696514 -0.6698298 -0.24373464 -1.0898577 -0.8206389
-0.75679207 -0.5878196 -0.6636953 -0.08967829 -1.0446695 -0.8838341 -0.812739 0.10474556
-0.15315878 -0.5674676 -0.37292814 -0.3012522 -0.17282566 -0.5659312 -0.56191653 -0.7324345
-0.42090517 -0.5389951 -0.3190386 -0.39999706 -0.27893144 -0.31514293 -0.50258374 -0.63114136
-0.98482287 -0.46573937 -0.9594582 -0.4171978 -0.4847613 -0.5103473 -0.6489085 -0.5820872
-0.35993004 -0.5104821 -0.86942494 -0.064597934 -0.1292038 -0.61252743 -1.0191494 -0.6042036
-0.9733757 -0.34616217 -0.45109323 -0.7698976 -0.88876235 -0.4722084 -0.94923156 -0.7322748
-0.7298145 -0.13584311 -0.4295071 -0.20798583 -0.6591707 -0.71972513 -1.0088812 -0.51110625
-0.1412982 -1.2558168 -0.101554155 -1.4217329 -0.4802393 -1.1890812 0.009379219 0.22579592
-0.43044683 -0.9776524 -0.8878368 -0.5420805 -1.4824752 -0.2500304 -0.8096248 -1.067715
-0.41814768 0.11900308 0.2889711 0.1287831 -0.19231603 -0.34387222 -1.0013978 -1.2747042
-0.20820569 -0.46810862 -1.0364993 -0.9176561 -0.49589083 -0.46461514 -0.96092725 -0.574274
-0.39421707 -0.07922331 -0.60233355 -0.16945238 -0.90534824 -0.97255903 -0.981137 -0.8958228
-0.11551193 -0.7997901 -0.42886853 0.031477824 -0.57089865 -0.99748707 -0.9005979 -0.048441075
0.032031782 -0.7718614 -0.9462794 -0.8523863 -0.6758558 -0.1807167 -0.10799445 -0.634552
-0.26920596 -0.2405893 -0.60784256 -0.9807317 -0.47843435 -0.06691416 -0.6129039 -0.4204393
-0.64863783 -0.50962603 -1.5076683 -0.4588604 -1.0816274 -0.52897245 -0.11596388 -0.43337262
0.33438796 0.08037399 -0.45130482 -0.3902113 -0.45050797 -0.37422788 -0.6791009 -0.5795836
-0.3756861 -0.84350437 -0.32210898 -0.42487714 -0.79875165 -1.1155939 -1.2253133 -1.0061535
-0.46151683 -1.2292612 -0.82403225 -0.38568458 -0.663818 -0.63962525 -0.62627566 -1.0233881
-0.687741 -0.4671552 -0.82577413 -0.8178806 -0.9617709 -0.67055726 -0.5557878 -0.4702697
-0.87769234 -0.3241928 -0.26798755 -0.8149714 -1.046558 -0.88924944 -0.92761904 -0.08384664
-1.0381837 -0.23400603 -0.7616843 -0.8277242 -1.1979282 -0.8614797 -0.9776869 -1.0200646
-1.0999249 -0.7210935 -0.24010324 -0.4095187 0.2308427 -0.22611177 -0.5948529 -0.6068843
-0.56122035 -0.57078034 -0.539324 -1.5176555 -1.2491959 -0.24213804 -0.4898557 0.14892523
-0.023952942 -0.89689124 -0.36715782 -0.6766468 -0.2903313 -1.1194657 -1.23374 -1.469202
-1.3794531 -1.1988797 -0.3584034 -0.62129486 -1.3402735 -0.26301602 -0.29856697 -0.8372891
-1.0834891 -0.5802068 -0.64208823 -0.626655 -0.6440026 0.11610123 -1.0721105 -0.2817345

s4_layers.1.kernel.A_imag f4 [16, 32]
00000000: 2aed ee3e fe1e 3140 976c d740 2a59 2241
00000010: 8a42 4641 a3d0 7341 fa58 9541 18e2 b141
00000020: 4c47 cd41 7386 e041 b611 0042 cf95 0842
00000030: 0b64 1642 3dca 2342 d744 3042 270e 3e42
00000040: 5568 4842 cd44 5742 e145 6142 174c 7042
00000050: d182 7a42 488f 8342 7208 8a42 3f86 9042
00000060: b7bd 9642 58de 9c42 e43d a342 524f aa42
00000070: e3b9 af42 797a b642 e765 bd42 83be c142
00000080: 677c 56be 482a 4f40 50bd c640 5048 1c41
00000090: 243e 4241 2667 7041 bf3b 9441 e9dd ac41
000000a0: 0aac c641 b9f9 dd41 da01 fa41 3a96 0942
000000b0: efb0 1742 fcc7 2242 f705 3042 caa5 3b42
000000c0: 188e 4842 5cd7 5542 1611 6342 1774 6e42
000000d0: 606e 7c42 c00a 8442 9dfa 8942 797b 9042
000000e0: 9f26 9742 18a8 9d42 7d55 a442 9b93 a942
000000f0: cdd2 af42 c760 b642 0c19 bd42 75ee c242
00000100: 1e8d 94be b6d6 5a40 774c c040 8fd8 1741
00000110: 791e 4941 4bdc 7e41 fd52 9941 f26a af41
00000120: 53d3 c841 79de df41 9dd6 fb41 b3de 0942
00000130: a2eb 1442 9dd5 2142 753f 3042 2b0d 3c42
00000140: bbca 4842 443d 5642 32d4 6142 4ab4 6e42
00000150: 29d7 7b42 2eae 8342 e679 8a42 2df1 8f42
00000160: 9f12 9642 5dbc 9c42 708b a442 8b50 a942
00000170: 0d87 af42 43c0 b642 68e1 bc42 fb23 c242
00000180: 7b05 1a3f 11f8 7140 d1d9 d740 1f10 0c41
00000190: 8079 3e41 4793 8241 b911 9141 3f6d b041
000001a0: 1424 c941 473e e541 5ed3 f841 c404 0a42
000001b0: 65c2 1642 c4dc 2042 2494 2d42 d48b 3a42
000001c0: 8f64 4642 2f93 5542 6c49 6242 e332 7042
000001d0: f53f 7a42 b124 8442 aaea 8942 c36e 9142
000001e0: d6cc 9542 92b4 9b42 62a3 a242 6ca8 a942
000001f0: dc0d b042 65e7 b542 26fd bb42 7b0e c242
00000200: ef3d d63e 3407 5c40 e25e c740 c290 0a41
00000210: ed33 5041 723e 7c41 e6bf 9741 2227 ad41
00000220: 28f3 c241 94d5 e741 9de0 fa41 e50e 0942
00000230: 499f 1742 4bb1 2442 4834 3042 09e6 3f42
00000240: 9ed2 4842 d144 5442 80c8 6142 33a8 6f42
00000250: f097 7a42 4881 8342 ce73 8942 a8ca 9042
00000260: 95fd 9642 e3d5 9c42 11d8 a342 1088 a942
00000270: 0613 af42 7df7 b542 b338 bc42 0871 c242
00000280: 558e 41bc b69d 3740 c6ba cc40 f28d 1e41
00000290: 73a0 4841 976c 7e41 6c1b 9641 6e57 ae41
000002a0: 6dec c941 dd4d e241 aac9 fb41 7e9a 0a42
000002b0: e0df 1642 9658 2342 d0de 3142 9b6e 3e42
000002c0: 2bc1 4842 fd9c 5542 78db 6142 abaa 7042
000002d0: ac86 7a42 0679 8342 ad03 8942 e626 9042
000002e0: d4c3 9642 0457 9d42 5286 a342 a179 a942
000002f0: 45c5 af42 3aa5 b642 776e bc42 7d6f c242
00000300: 35a1 983c 9db2 4b40 3475 d140 a3dd 1041
00000310: ae63 4441 bdfd 7241 996c 9641 0fcd af41
00000320: 3c21 c741 c38f e541 7002 fc41 f8d3 0942
00000330: 8327 1642 a25a 2342 f462 2e42 08fc 3c42
00000340: ba10 4b42 ca4c 5342 7eeb 6142 dcd6 6f42
00000350: dd24 7b42 3ec2 8442 b886 8942 7400 9242
00000360: 6386 9542 b223 9d42 bf41 a342 a480 a942
00000370: aff0 af42 5b87 b742 de1d bb42 3daf c342
00000380: d441 a53d 44ca 5a40 8bfa d940 82a8 1e41
00000390: 9a89 4a41 0736 6b41 6275 9641 20a1 ae41
000003a0: b8a5 c641 5e81 de41 f39a fa41 2830 0b42
000003b0: 6e4e 1842 f40e 2642 aa73 3242 293e 3b42
000003c0: f7a6 4642 c6f0 5442 5616 6042 43db 6e42
000003d0: 5f11 7c42 4356 8442 8eac 8a42 d168 9042
000003e0: f2d8 9642 5ba4 9c42 62fd a242 ac3b a942
000003f0: 5a30 b142 779a b642 4409 bc42 080c c442
0.46665317 2.7675166 6.7320056 10.146769 12.391245 15.238437 18.668446 22.235397
25.659813 28.065649 32.017296 34.146297 37.5977 40.9475 44.067226 47.51382
50.101887 53.81719 56.31824 60.074306 62.62775 65.77985 69.016495 72.2622
75.37054 78.434265 81.62088 85.15492 87.86306 91.239204 94.69903 96.87209
-0.20945893 3.2369556 6.2106094 9.767654 12.140171 15.025183 18.529173 21.608355
24.834003 27.746935 31.250904 34.396706 37.922787 40.695297 44.005825 46.911903
50.138763 53.46031 56.766685 59.61337 63.107788 66.020996 68.98948 72.24116
75.57543 78.82831 82.16697 84.78829 87.91172 91.18902 94.54892 97.46574
-0.29013914 3.419355 6.009334 9.490371 12.56994 15.928782 19.165522 21.92722
25.103186 27.98363 31.479792 34.46748 37.23011 40.458607 44.06197 47.01286
50.19798 53.55983 56.457222 59.676064 62.960117 65.840195 69.23808 71.97105
75.03637 78.3679 82.27234 84.65731 87.76377 91.37551 94.44025 97.070274
0.6016461 3.7807658 6.745339 8.753936 11.904663 16.321913 18.133654 22.053343
25.142616 28.655409 31.103207 34.504654 37.68984 40.21559 43.39467 46.63655
49.5982 53.393734 56.5717 60.049694 62.562458 66.07166 68.95833 72.71633
74.90007 77.85268 81.31911 84.82895 88.02707 90.95194 93.99443 97.02828
0.41844127 3.4379396 6.2303324 8.660341 13.012677 15.765245 18.9687 21.644108
24.368729 28.979286 31.359674 34.264545 37.905552 41.173138 44.051056 47.974644
50.20568 53.067204 56.4458 59.914257 62.648376 65.7525 68.72618 72.39581
75.49528 78.41775 81.922005 84.76575 87.537155 90.983376 94.11074 97.220764
-0.01181372 2.869001 6.3977995 9.909655 12.539172 15.901511 18.76339 21.79269
25.240442 28.28802 31.473469 34.65087 37.718628 40.83651 44.46759 47.608013
50.18864 53.40331 56.464325 60.166668 62.631516 65.736374 68.50718 72.07597
75.38248 78.66995 81.762344 84.73756 87.88529 91.32271 94.21575 97.21775
0.018631557 3.1827767 6.545557 9.054111 12.274336 15.186948 18.803026 21.975126
24.891228 28.695196 31.50119 34.457 37.538586 40.83851 43.596634 47.246124
50.766335 52.82499 56.479973 59.959824 62.786 66.37938 68.76312 73.000885
74.762474 78.56972 81.62841 84.75125 87.970085 91.764366 93.558334 97.84226
0.08069196 3.4185953 6.811834 9.91614 12.658594 14.70069 18.807316 21.828674
24.830917 27.813168 31.325659 34.797028 38.07659 41.514603 44.612953 46.810703
49.66305 53.23513 56.021812 59.714123 63.016964 66.16848 69.33702 72.20472
75.42372 78.32101 81.49489 84.61655 88.59444 91.30169 94.0181 98.0235
