code/s4/models/timestep_optimization/gru-optimized.pt (torch, 59328 bytes, 10 tensors)

gru1.weight_ih_l0 f4 [150, 3]
-0.011255963 -0.18028545 -0.34848693 -0.24520056 -0.080461666 0.6572034 0.029292714 -0.053696834
0.37415257 0.26423895 0.085483685 -0.27177396 0.08592791 0.30569592 0.3605502 -0.11982732
-0.3165823 0.2905322 -0.40864667 0.11697438 -0.19787116 0.25210652 -0.44111666 -0.49563256
0.42233643 0.058667414 -0.16759385 -0.32463568 -0.1236453 0.21198462 0.111226626 -0.14889175
-0.20728922 -0.14949737 -0.02172003 0.074555844 -0.10315606 -0.38964903 0.015150875 0.09155182
0.032268554 -0.19159544 -0.051110793 0.006773638 -0.06251452 -0.056477766 -0.06198903 -0.28477105
0.044138923 0.13174088 0.26532033 -0.015651928 -0.17519288 0.21251363 -0.37252152 -0.12435779
0.0005616149 0.14325923 0.11949945 -0.07188878 0.102887385 0.48804978 0.0032667199 0.0046035545
0.30615577 0.2232088 -0.20629507 -0.14072467 -0.27439886 0.2581078 0.040805284 0.3887887
-0.1261729 0.30685133 -0.19320004 -0.29530224 -0.10558711 0.025640383 0.42132765 0.034434214
-0.5821467 0.049537513 0.24549352 0.15202205 -0.35349128 0.05260404 -0.49068666 -0.16254598
-0.09192615 -0.213374 0.75089395 0.1342746 0.046883162 0.2022666 -0.13492788 -0.686558
-0.07720673 0.3700138 -0.028100342 -0.29154414 -0.14913689 -0.0707442 0.4581966 0.06669025
0.36468196 0.21485461 -0.21626984 -0.3846545 0.23363335 -0.059710067 -0.13771932 0.32679045
0.051946823 0.3193399 -0.06949024 0.1713139 -0.32745633 0.17757984 0.3082932 0.08841117
-0.21732804 -0.25767437 -0.4869145 0.27834153 -0.03011767 0.070425995 -0.34302723 -0.1318943
-0.019067252 -0.22863579 0.057412926 0.16296989 -0.378492 0.06327377 -0.7700007 0.714787
-0.08198757 -0.07912931 0.34685546 0.37572795 0.0695023 -0.36538547 -0.21341245 -0.24071623
-0.39411378 -0.2511159 0.05609889 0.12709819 0.3087064 -0.26991943 -0.6051889 -0.060686883
-0.1424223 0.08465858 -0.29793993 0.03328479 0.38070336 0.19815153 -0.0028558604 -0.6302996
0.32787293 -0.21062559 0.004663476 -0.17593995 -0.18233775 0.08789875 0.34281442 0.24029502
-0.08565248 -0.23100893 -0.50277984 -0.100629345 0.29090956 0.008151083 -0.031976283 0.15130782
-0.47919562 0.17211998 -0.31664643 -0.02515974 -0.123113066 0.3010386 -0.18910073 0.48908228
-0.11820444 0.37648576 0.20742628 -0.50956434 0.39816657 0.53280556 0.07316668 0.42595008
-0.3156968 0.4512717 -0.11552257 0.26528406 0.18595056 0.3648884 0.36018875 0.13164887
-0.021186836 -0.35443193 0.27145225 -0.01046527 0.08132832 0.323668 -0.24731086 0.24644072
-0.4764883 -0.29126206 -0.28493747 0.1679618 0.07000862 0.4925183 -0.31539124 0.10747015
-0.10935447 0.23903531 0.35549438 -0.32090962 -0.25182992 0.32276163 -0.39998695 -0.059590798
0.2910965 -0.26438418 0.03656364 0.2729278 -0.37958837 0.031104743 0.023263717 0.30343702
-0.22517979 -0.068465635 -0.04111011 -0.026326485 0.020633543 0.15619779 -0.048719402 0.20310944
0.030468164 0.306885 -0.20090726 -0.020735724 0.13759126 -0.12425657 -0.052099332 -0.047042713
0.43279505 -0.56658703 0.06234463 0.029104091 0.09659746 -0.20018479 0.1376694 0.16156608
00000000: ee6a 38bc c09c 38be e16c b2be db15 7bbe
00000010: 16c9 a4bd 7b3e 283f 46f7 ef3c 36f1 5bbd
00000020: ed90 bf3e 544a 873e 1212 af3d f525 8bbe
00000030: f9fa af3d 2d84 9c3e 099a b83e 0768 f5bd
00000040: 1317 a2be a3c0 943e 233a d1be 4490 ef3d
00000050: bd9e 4abe 1b14 813e 0bda e1be 8dc3 fdbe
00000060: 7b3c d83e 3e4d 703d b99d 2bbe a636 a6be
00000070: bf39 fdbd 7f12 593e c9ca e33d 1477 18be
00000080: a043 54be d715 19be 34ee b1bc bcb0 983d
00000090: 7c43 d3bd 1480 c7be 603b 783c 857f bb3d
000000a0: 082c 043d 9831 44be 8d59 51bd 65f5 dd3b
000000b0: 9d07 80bd 3b55 67bd 36e8 7dbd 83cd 91be
000000c0: 04cb 343d 15e7 063e 11d8 873e 7938 80bc
000000d0: c365 33be 2c9d 593e 24bb bebe 4caf febd
000000e0: 5739 133a 8cb2 123e 21bc f43d 6d3a 93bd
000000f0: 9fb6 d23d a9e1 f93e 7716 563b 6ad9 963b
00000100: 73c0 9c3e d990 643e 043f 53be 211a 10be
00000110: 027e 8cbe b526 843e 7123 273d 500f c73e
00000120: 7833 01be 9e1b 9d3e 3bd6 45be db31 97be
00000130: 0e3e d8bd c80b d23c 42b8 d73e e40a 0d3d
00000140: 9107 15bf d9e7 4a3d a762 7b3e abab 1b3e
00000150: cffc b4be 5577 573d 483b fbbe 7472 26be
00000160: c743 bcbd b77e 5abe 963a 403f 487f 093e
00000170: 8f08 403d fa1e 4f3e 892a 0abe 44c2 2fbf
00000180: 901e 9ebd 7372 bd3e b032 e6bc 4645 95be
00000190: 57b7 18be 56e2 90bd bf98 ea3e e694 883d
000001a0: 98b7 ba3e d902 5c3e d775 5dbe 6ff1 c4be
000001b0: 953d 6f3e 8b92 74bd 4b06 0dbe 1451 a73e
000001c0: 31c6 543d 8580 a33e e650 8ebd e96c 2f3e
000001d0: 5ba8 a7be 7dd7 353e 9bd8 9d3e ea10 b53d
000001e0: 3e8b 5ebe e5ed 83be db4c f9be c882 8e3e
000001f0: 55b9 f6bc 813b 903d 44a1 afbe 4d0f 07be
00000200: ed32 9cbc 801f 6abe d129 6b3d 94e1 263e
00000210: b4c9 c1be ae95 813d c41e 45bf 48fc 363f
00000220: 19e9 a7bd 8c0e a2bd 0a97 b13e 6a5f c03e
00000230: 3957 8e3d ce13 bbbe cb88 5abe 517e 76be
00000240: 48c9 c9be 4392 80be f3c7 653d 0726 023e
00000250: c40e 9e3e e132 8abe a9ed 1abf cf92 78bd
00000260: 27d7 11be 7a61 ad3d 958b 98be a255 083d
00000270: 8deb c23e 3ce8 4a3e 6329 3bbb 515b 21bf
00000280: f6de a73e 3cae 57be 12d0 983b 9a29 34be
00000290: bfb6 3abe 4304 b43d 5f85 af3e e60f 763e
000002a0: 916a afbd 9b8d 6cbe 2eb6 00bf c216 cebd
000002b0: 19f2 943e 1f8c 053c 90f9 02bd 70f0 1a3e
000002c0: 2159 f5be 3840 303e 7b1f a2be cd1b cebc
000002d0: b422 fcbd bb21 9a3e 9fa3 41be fe68 fa3e
000002e0: 2b15 f2bd bec2 c03e 8e67 543e cf72 02bf
000002f0: 7ddc cb3e f265 083f 6ad8 953d 2116 da3e
00000300: 03a3 a1be 160d e73e 1997 ecbd 50d3 873e
00000310: d369 3e3e a7d2 ba3e a96a b83e f6ce 063e
00000320: 0490 adbc 1a78 b5be cafb 8a3e 8676 2bbc
00000330: 768f a63d d0b7 a53e 0f3f 7dbe f55a 7c3e
00000340: 46f6 f3be 4d20 95be 53e3 91be 2efe 2b3e
00000350: ae60 8f3d 5c2b fc3e f67a a1be 4f19 dc3d
00000360: 3df5 dfbd acc5 743e 5c03 b63e 444e a4be
00000370: daef 80be 0341 a53e 17cb ccbe 7b15 74bd
00000380: 9a0a 953e 5d5d 87be c1c3 153d 31bd 8b3e
00000390: 6859 c2be 60cf fe3c 8d93 be3c 195c 9b3e
000003a0: 8895 66be b637 8cbd 1363 28bd a4aa d7bc
000003b0: ad07 a93c 50f2 1f3e ff8d 47bd ecfb 4f3e
000003c0: 5f98 f93c 0820 9d3e a2ba 4dbe f7dd a9bc
000003d0: b9e4 0c3e 3b7a febd 1c66 55bd dcaf 40bd
000003e0: 5097 dd3e d90b 11bf 155d 7f3d b46b ee3c
000003f0: e4d4 c53d 3efd 4cbe 35f9 0c3e 9471 253e

gru1.weight_hh_l0 f4 [150, 50]
-0.21815382 -0.12770368 -0.098346815 -0.033911172 -0.1967204 0.340924 -0.071219586 0.08644894
0.4838364 -0.060973678 0.24141137 0.15503508 0.50345397 0.08277247 0.5353207 0.45960414
0.17287682 0.4454035 -0.20850945 0.2018928 -0.08374243 -0.20379141 -0.117126115 -0.15854529
-0.3547937 -0.23700857 0.28741074 0.26567253 0.15537456 -0.25853166 -0.34324527 0.19348943
-0.14067437 0.041948535 -0.027087385 -0.12532288 0.41769755 -0.18417302 -0.29896572 0.18773651
-0.42499986 0.022594186 -0.11016725 -0.09496145 -0.100730464 -0.0041723885 -0.17144555 -0.20153536
0.39639914 0.21137607 0.5226623 -0.35567415 0.080433644 -0.31854752 -0.44495478 -0.07242748
0.10596474 -0.15794212 -0.26233774 0.32853523 -0.0880509 -0.15858127 0.36269802 -0.21559374
0.20255601 0.43643138 0.03796203 -0.34596458 -0.03913768 -0.047117874 0.2907321 -0.2403581
0.113794684 0.1111723 0.015872402 -0.1002193 -0.39865094 -0.45974427 -0.09755373 -0.12736674
-0.32918325 0.25325963 -0.03788846 0.14257066 0.13923495 0.15903439 0.27386174 -0.034942627
-0.21294 -0.07058585 -0.11097864 0.0815433 -0.66436446 -0.18806611 -0.39414224 0.5079209
0.30255705 -0.31611738 0.1069672 -0.4742789 0.23968053 -0.3812278 -0.2040437 -0.7914902
-0.34539503 0.017366203 0.20880008 0.03468233 0.07824128 -0.2652353 -0.3379855 0.6403647
0.4728107 0.22409217 0.4372332 -0.16562787 0.2426367 0.34871662 -0.47286916 0.48673943
0.31130505 -0.14171316 0.045019574 0.103540406 -0.40803942 -0.034522343 0.21542008 0.3949152
-0.56786007 0.3467916 -0.31801248 -0.073302254 -0.21585375 -0.23734896 -0.62459403 -0.06624324
-0.16180846 -0.4298878 0.05482205 0.10834549 -0.2614832 -0.5571425 -0.46568912 -0.19988684
-0.025080644 0.13099079 0.015237871 0.043847706 0.32535177 -0.20822832 -0.008943692 0.1320964
0.07644484 -0.08392473 0.5199108 -0.13719839 -0.09741626 0.06333768 -0.039317142 0.44166192
0.093179114 -0.04784893 0.19482778 0.21288992 -0.08216539 -0.36329433 -0.1987592 0.17107365
0.26980287 0.10611153 0.16261722 0.6746266 -0.10294617 -0.7530748 0.35631216 0.40886515
-0.046094082 -0.7881464 -0.014606619 0.0952863 -0.027970685 0.449484 0.4078357 0.356368
0.4521026 0.14092512 -0.044602532 0.35109097 0.95899194 -0.26261005 0.14752723 0.31023994
-0.35754773 -0.1342842 0.38960403 0.57135946 0.043430876 -0.19600575 0.12134635 -0.23245895
0.03614242 0.12263123 -0.2971674 -0.5067579 0.38224018 0.6332899 0.4393451 0.023699047
-0.05912359 0.6301818 0.0724406 -0.07342761 -0.23855819 -0.22466728 0.34906048 0.21453775
-0.13531826 -0.11819451 0.14652953 0.0018237478 -0.19205888 -0.24495721 0.24089815 -0.03893612
0.25332132 -0.3235169 -0.094155595 0.13213062 0.20224446 -0.3073005 -0.017368509 0.3366837
-0.30544063 0.13027014 -0.25465703 -0.33983377 0.19381 -0.12893671 -0.6442792 0.42120764
-0.007378788 0.260625 0.04103534 -0.19276975 -0.099693514 -0.06473389 0.021473886 -0.36188486
0.12341491 -0.15245044 0.008670877 -0.0012561881 0.0137905795 -0.48891935 -0.39416352 0.18408303
00000000: b763 5fbe c1c4 02be 0e6a c9bd 71e6 0abd
00000010: 1371 49be 978d ae3e 93db 91bd 240c b13d
00000020: 68b9 f73e 89bf 79bd 8b34 773e 84c1 1e3e
00000030: 5ce2 003f 9d84 a93d c70a 093f 3c51 eb3e
00000040: 9f06 313e ed0b e43e 8083 55be fcbc 4e3e
00000050: 2781 abbd b2ae 50be d1df efbd b259 22be
00000060: 85a7 b5be 60b2 72be 8027 933e 3b06 883e
00000070: 821a 1f3e 435e 84be d8bd afbe 1822 463e
00000080: f10c 10be 3ad2 2b3d 5de6 ddbc a454 00be
00000090: 74dc d53e da97 3cbe 0912 99be 003e 403e
000000a0: 9599 d9be 7117 b93c 5e9f e1bd 267b c2bd
000000b0: c64b cebd 88b8 88bb 6c8f 2fbe 495f 4ebe
000000c0: d4f4 ca3e f872 583e 32cd 053f ec1a b6be
000000d0: 65ba a43d a918 a3be 1dd1 e3be dc54 94bd
000000e0: 0b04 d93d 94bb 21be 2251 86be c535 a83e
000000f0: 0854 b4bd 2163 22be 8eb3 b93e 9bc4 5cbe
00000100: d86a 4f3e ef73 df3e 137e 1b3d 4522 b1be
00000110: d54e 20bd acfe 40bd d6da 943e 6f20 76be
00000120: 300d e93d 4eae e33d d706 823c c73f cdbd
00000130: fa1b ccbe 9a63 ebbe 40ca c7bd 6d6c 02be
00000140: b58a a8be 3fab 813e ee30 1bbd 0bfe 113e
00000150: 9b93 0e3e e9d9 223e 9b37 8c3e 0020 0fbd
00000160: f20c 5abe 508f 90bd c548 e3bd 2c00 a73d
00000170: ca13 2abf 6794 40be 03cd c9be 1b07 023f
00000180: c2e8 9a3e 23da a1be 9f11 db3d afd4 f2be
00000190: d06e 753e 4a30 c3be d5f0 50be 1a9f 4abf
000001a0: 9ed7 b0be 9143 8e3c b0cf 553e 0f0f 0e3d
000001b0: f73c a03d eccc 87be 6f0c adbe f1ee 233f
000001c0: 3e14 f23e 6b78 653e 08dd df3e 5a9a 29be
000001d0: c175 783e fc8a b23e e81b f2be e935 f93e
000001e0: 6063 9f3e 411d 11be 7266 383d fe0c d43d
000001f0: 8bea d0be 4d67 0dbd 1597 5c3e 5332 ca3e
00000200: 475f 11bf ab8e b13e 88d2 a2be 7e1f 96bd
00000210: c408 5dbe 9b0b 73be 65e5 1fbf 89aa 87bd
00000220: 1eb1 25be 411a dcbe 168d 603d 3ee4 dd3d
00000230: 20e1 85be e4a0 0ebf ce6e eebe 23af 4cbe
00000240: ec75 cdbc 7322 063e 43a8 793c a799 333d
00000250: 8294 a63e ce39 55be 9088 12bc 4744 073e
00000260: 1d8f 9c3d bbe0 abbd e018 053f bc7d 0cbe
00000270: 2d82 c7bd 30b7 813d 030b 21bd 8321 e23e
00000280: b1d4 be3d 3dfd 43bd ef80 473e d1ff 593e
00000290: 5446 a8bd b701 babe 8887 4bbe ee2d 2f3e
000002a0: 9a23 8a3e 0051 d93d 2185 263e 54b4 2c3f
000002b0: 71d5 d2bd 83c9 40bf 8c6e b63e c656 d13e
000002c0: 26cd 3cbd f6c3 49bf 9a50 6fbc 7725 c33d
000002d0: c722 e5bc c422 e63e d7cf d03e de75 b63e
000002e0: fe79 e73e ad4e 103e 25b1 36bd 32c2 b33e
000002f0: 7f80 753f d374 86be 6111 173e c5d7 9e3e
00000300: 7f10 b7be cc81 09be 2e7a c73e 9d44 123f
00000310: 93e4 313d bbb5 48be 6f84 f83d b809 6ebe
00000320: 130a 143d 1526 fb3d 5326 98be e3ba 01bf
00000330: fcb4 c33e 491f 223f d7f1 e03e 8124 c23c
00000340: 942b 72bd 9853 213f bd5b 943d 3761 96bd
00000350: 9948 74be 2e0f 66be 0eb8 b23e c9af 5b3e
00000360: df90 0abe f70f f2bd d60b 163e d20a ef3a
00000370: 15ab 44be 10d6 7abe 01ae 763e 7b7b 1fbd
00000380: 55b3 813e 02a4 a5be a6d4 c0bd 404d 073e
00000390: 2c19 4f3e 7e56 9dbe 6748 8ebc ce61 ac3e
000003a0: b762 9cbe 8965 053e 6862 82be b1fe adbe
000003b0: 2176 463e fc07 04be 7bef 24bf 87a8 d73e
000003c0: c3c9 f1bb a470 853e ac14 283d 6f65 45be
000003d0: 1d2c ccbd 3493 84bd 01ea af3c f948 b9be
000003e0: f5c0 fc3d f81b 1cbe 4b10 0e3c aea6 a4ba
000003f0: e2f1 613c a353 fabe cdcf c9be 4380 3c3e

gru1.bias_ih_l0 f4 [150]
0.30319062 0.17025213 0.2592504 -0.08628241 0.05190407 0.19651647 0.19035615 0.0964824
0.16810268 -0.10596694 0.06820546 0.34117982 0.23378581 0.13333684 0.109312594 -0.05953161
0.14443356 0.11642107 0.17891301 0.1999216 0.054778956 0.08936173 -0.11184338 0.14722091
0.15619582 0.1371641 0.046856936 0.45267367 -0.08573856 0.42254323 -0.16047817 0.19667092
0.35814592 0.28095904 0.09592994 0.046764005 0.16627873 0.020174336 0.40367618 0.23464325
0.25327975 -0.19495231 0.1750983 0.04185302 -0.004940598 0.15711936 0.07224852 0.113295145
0.10249545 0.23035702 0.08320345 -0.074906886 -0.39694756 0.37762186 0.290758 -0.19458061
0.39348164 0.096690625 -0.04487758 0.219084 0.3155002 -0.07317358 -0.27372536 0.16973288
0.053046044 0.094623946 0.12212203 -0.188561 0.26674742 0.0007565508 0.0027644567 0.0018694274
-0.040324803 0.6589662 0.20458736 0.41591316 -0.02104339 0.46294686 0.038448237 -0.0022113011
0.26397434 0.6156648 0.083815925 -0.11187799 -0.035581388 -0.0033839128 -0.28286812 0.34395084
0.31417763 0.029404018 0.28258502 -0.041471295 0.03133953 0.102932245 0.17434292 0.06264908
-0.055428714 -0.21614732 -0.24244243 0.14354095 -0.14840606 0.0039083497 0.07304308 0.020036478
-0.20947178 -0.1046914 -0.011886197 -0.062645115 -0.27082354 -0.008551595 -0.10777419 0.1413068
0.37061626 0.21121956 0.06514573 -0.02770149 -0.26788715 -0.056504164 -0.30463502 -0.083128676
-0.09227823 0.14558569 -0.14485765 -0.23098132 0.13857113 0.023906961 -0.019641988 -0.2557016
0.08215187 0.20393045 0.08649735 0.018276282 -0.04853248 -0.27209127 0.19501403 0.14628926
0.1830951 0.010987757 0.118342176 -0.18431722 0.28542614 -0.19981351 -0.32471442 -0.16120805
0.06876914 0.07755452 0.18389806 -0.05308485 -0.28080755 0.119128495
00000000: cd3b 9b3e 9356 2e3e 78bc 843e d5b4 b0bd
00000010: 5d99 543d 9d3b 493e b9ec 423e 9198 c53d
00000020: 1c23 2c3e 3205 d9bd 4eaf 8b3d 1faf ae3e
00000030: 8c65 6f3e 7489 083e 48df df3d 6bd7 73bd
00000040: 64e6 133e 2c6e ee3d f934 373e 3fb8 4c3e
00000050: e65f 603d 4803 b73d 240e e5bd 14c1 163e
00000060: ccf1 1f3e bf74 0c3e 0fed 3f3d d8c4 e73e
00000070: b397 afbd 9657 d83e 6454 24be 1a64 493e
00000080: e75e b73e ddd9 8f3e eb76 c43d 9d8b 3f3d
00000090: f944 2a3e a644 a53c a5ae ce3e 5246 703e
000000a0: e2ad 813e 94a1 47be f84c 333e 136e 2b3d
000000b0: bde4 a1bb e6e3 203e 08f7 933d 4907 e83d
000000c0: 22e9 d13d b6e2 6b3e 9266 aa3d c868 99bd
000000d0: b63c cbbe a757 c13e 3cde 943e 2440 47be
000000e0: 6d76 c93e bc05 c63d 8ed1 37bd 8e57 603e
000000f0: 3e89 a13e 08dc 95bd bb25 8cbe 75ce 2d3e
00000100: cf46 593d 33ca c13d 1d1b fa3d 2316 41be
00000110: 1e93 883e 4453 463a e32b 353b 9307 f53a
00000120: 9f2b 25bd 02b2 283f 597f 513e 92f2 d43e
00000130: 3063 acbc 5f07 ed3e e67b 1d3d 7aeb 10bb
00000140: a527 873e 359c 1d3f afa7 ab3d 4a20 e5bd
00000150: cabd 11bd a3c4 5dbb 17d4 90be 531a b03e
00000160: e4db a03e b2e0 f03c fcae 903e cedd 29bd
00000170: e15d 003d 24ce d23d f386 323e 294e 803d
00000180: 3809 63bd b955 5dbe d442 78be 66fc 123e
00000190: c2f7 17be 9d11 803b 9c97 953d 8a23 a43c
000001a0: c57f 56be 7268 d6bd 53be 42bc 154c 80bd
000001b0: 62a9 8abe fd1b 0cbc b7b8 dcbd bbb2 103e
000001c0: 6ac1 bd3e f149 583e 206b 853d 3cee e2bc
000001d0: 8128 89be e970 67bd 1ff9 9bbe 5e3f aabd
000001e0: 5efc bcbd 6a14 153e 9055 14be 5e86 6cbe
000001f0: 97e5 0d3e 88d8 c33c 3ce8 a0bc 52eb 82be
00000200: 3d3f a83d 25d3 503e 8625 b13d 24b8 953c
00000210: fec9 46bd 8c4f 8bbe c2b1 473e dacc 153e
00000220: 487d 3b3e fe05 343c 625d f23d a7bd 3cbe
00000230: 6023 923e ea9b 4cbe f840 a6be b913 25be
00000240: d6d6 8c3d e7d4 9e3d c64f 3c3e 806f 59bd
00000250: 02c6 8fbe a4f9 f33d

gru1.bias_hh_l0 f4 [150]
0.31040782 0.06537865 0.33335215 0.089946456 0.024366746 0.09691562 0.29214475 0.102257974
0.0131441625 0.090566814 0.21259893 0.1765167 0.19538073 0.15460597 0.115916096 0.030985426
0.12684146 0.3214303 0.28333712 0.24145399 0.18819818 0.02612293 -0.07008895 0.25602278
0.09564683 0.009768749 -0.010546676 0.45649144 0.1254822 0.25062028 -0.16549508 0.046650164
0.33230835 0.2999912 0.19952796 -0.100268014 0.3084596 0.064324185 0.16652307 0.31006238
0.26330617 -0.30463836 0.21553183 0.21344416 0.13470232 -0.04023612 0.2386623 0.17263427
0.24481298 0.13975756 -0.09613068 -0.13375036 -0.1947173 0.2581766 0.27537078 -0.2199468
0.23721501 0.15433624 -0.19175623 0.31635875 0.32669505 9.152569e-05 -0.43468526 0.07220634
0.069870695 -0.048284408 -0.0007439673 0.0313616 0.39898562 -0.01315194 -0.0018750154 -0.08848666
-0.04712906 0.6367083 0.09823129 0.302983 0.032136455 0.36677724 -0.077951856 0.03966455
0.10804388 0.43702334 0.20851853 0.0256363 -0.0014481911 0.18203934 -0.07727071 0.41892833
0.1625 0.16599625 0.39072406 -0.28343827 0.04734726 -0.046818778 0.18626183 0.079869874
-0.07321155 -0.012216143 -0.10662191 0.11770214 -0.17277913 -0.12835822 -0.21375163 -0.2510075
-0.18925624 -0.045903377 0.32944328 -0.21293846 0.033094607 -0.011820978 -0.018451607 0.124144115
0.2431532 0.03405633 0.04055808 0.013112628 -0.08844076 -0.15300247 -0.17400575 0.05235419
-0.11943744 -0.0318454 -0.053809196 -0.08909845 0.38857996 -0.05639765 0.18297112 -0.3162624
0.0817966 0.09376764 0.10929393 -0.31995663 -0.1418185 -0.12569284 -0.04307911 -0.11720954
0.04561009 0.0016362276 -0.016154274 -0.23177297 -0.04694408 0.046708103 -0.4682587 -0.037368875
0.07171748 0.11270142 0.14886686 0.12352488 -0.5707195 0.039951842
00000000: c6ed 9e3e 3ee5 853d 22ad aa3e d935 b83d
00000010: c59c c73c b27b c63d ff93 953e a16c d13d
00000020: 9d5a 573c 187b b93d 89b3 593e cbc0 343e
00000030: e311 483e 0751 1e3e 6b65 ed3d 26d5 fd3c
00000040: bae2 013e 8392 a43e 9011 913e b73f 773e
00000050: 06b7 403e c1ff d53c cc8a 8fbd 6b15 833e
00000060: 7ce2 c33d 1a0d 203c f7cb 2cbc 3fb9 e93e
00000070: 687e 003e 4d51 803e 8b77 29be 3e14 3f3d
00000080: 5224 aa3e 7298 993e 0f51 4c3e 5159 cdbd
00000090: 6bee 9d3e 66bc 833d 0685 2a3e 7fc0 9e3e
000000a0: 11d0 863e 8ff9 9bbe 60b4 5c3e 1b91 5a3e
000000b0: 68ef 093e a1ce 24bd e463 743e 0ac7 303e
000000c0: 41b0 7a3e 9b1c 0f3e 29e0 c4bd dbf5 08be
000000d0: f963 47be b92f 843e 66fd 8c3e bc39 61be
000000e0: 7ee8 723e 520a 1e3e bf5b 44be c6f9 a13e
000000f0: 9344 a73e 7bf1 bf38 118f debe ebe0 933d
00000100: 5e18 8f3d dfc5 45bd cd06 43ba 0575 003d
00000110: d847 cc3e 3c7b 57bc 14c3 f5ba 7e38 b5bd
00000120: 670a 41bd 51ff 223f 7d2d c93d 9620 9b3e
00000130: 84a1 033d 3aca bb3e 39a5 9fbd 4c77 223d
00000140: 1c46 dd3d 86c1 df3e e285 553e 3803 d23c
00000150: 3bd1 bdba 8568 3a3e 1b40 9ebd c67d d63e
00000160: 6666 263e ecfa 293e fc0c c83e d21e 91be
00000170: 33ef 413d 0cc5 3fbd 6cbb 3e3e d192 a33d
00000180: f0ef 95bd 3826 48bc 975c dabd d20d f13d
00000190: 03ed 30be 5670 03be b5e1 5abe 0e84 80be
000001a0: 63cc 41be 2e05 3cbd caac a83e 8a0c 5abe
000001b0: 368e 073d c6ac 41bc d327 97bc 453f fe3d
000001c0: 27fd 783e a67e 0b3d 3b20 263d 59d6 563c
000001d0: 6e20 b5bd aeac 1cbe 902e 32be 5971 563d
000001e0: 9e9b f4bd 5270 02bd 0867 5cbd 4079 b6bd
000001f0: f4f3 c63e 3901 67bd c85c 3b3e 25ed a1be
00000200: fa84 a73d 4009 c03d 7fd5 df3d 5bd1 a3be
00000210: de38 11be a0b5 00be b973 30bd 8e0b f0bd
00000220: a5d1 3a3d b076 d63a f855 84bc e555 6dbe
00000230: 7048 40bd ff50 3f3d 9bbf efbe 1b10 19bd
00000240: 9de0 923d 01d0 e63d 8e70 183e 9dfa fc3d
00000250: ac1a 12bf 8ba4 233d

gru2.weight_ih_l0 f4 [75, 50]
-0.031122288 0.018996835 0.10852657 0.011901767 0.08839816 -0.18247838 0.22447962 0.48044822
0.19037558 -0.6405736 0.031614956 -0.042329658 -0.25941584 -0.07740148 0.14785574 -0.30114862
-0.05764502 0.03547096 0.055938587 -0.3100283 -0.049817 0.23669887 0.04304176 -0.22232684
-0.10315353 0.12200159 -0.027426666 0.54614633 -0.18315114 -0.13885957 0.118803956 -0.105361775
0.23180291 0.29418388 -0.05973063 0.16684179 -0.045692507 0.008374894 -0.06497427 0.33059108
-0.035924222 0.029954858 0.11180231 0.34964415 0.16078413 -0.025845675 -0.35203564 -0.21791053
0.55747837 0.058887623 0.24393791 0.12006408 -0.10895858 -0.07336679 -0.52800477 -0.14573021
-0.03616282 -0.007853631 -0.44606417 -0.3498858 0.1266794 0.111285314 0.06804395 0.18756448
0.34531936 -0.29406863 0.035474543 -0.13161731 -0.3976445 0.49221963 -0.29310125 0.24250655
0.10856504 0.05084362 -0.14512105 0.0743684 -0.15207088 -0.61371106 -0.3417397 -0.45907682
-0.25633124 0.1635459 0.032960914 -0.26451236 -0.15520795 -0.08174489 -0.44566914 0.06714407
-0.44725865 0.0041589383 0.3671741 -0.012735014 0.50777525 -0.19936705 0.049449142 -0.26107854
0.10204121 -0.2032022 -0.4129726 -0.19666082 -0.086346276 0.048395034 0.24982427 -0.28182268
-0.12836082 -0.1227796 0.18398796 -0.07587492 -0.23407662 -0.48611647 -0.028473211 0.06695201
-0.34325403 0.099516414 -0.16920392 -0.20271543 -0.18997435 -0.2124972 -0.72331285 0.024311718
-0.08180677 -0.26233962 0.46699035 0.30377153 -0.037441917 0.09234234 0.18053205 -0.0025404587
-0.21603324 -0.160916 -0.08481033 0.069245264 -0.026791606 -0.309457 -0.3498918 -0.18689172
0.11803449 -0.41607362 -0.111180045 -0.03367593 -0.304364 -0.24488935 -0.24803203 0.029895255
0.20949407 -0.06121568 0.35975757 -0.35890168 -0.034383215 -0.0014207581 0.2386524 -0.041357305
-0.018236931 -0.50847113 0.16817777 -0.402569 0.067589365 0.061882418 -0.042055264 0.3303824
0.11311191 0.14585716 -0.07861506 -0.12829135 0.15723515 0.015438799 0.11669677 -0.07287511
-0.081004165 0.16427475 -0.01539284 -0.5694265 -0.00894858 -0.011681318 -0.071262114 -0.15780096
-0.47431982 0.29755569 0.13244964 0.1595359 -0.5696062 -0.09118205 -0.278868 -0.39344665
-0.06727507 0.16172437 0.11446776 0.004841152 -0.09624789 -0.05031918 -0.21034166 0.12029077
-0.2887405 0.017688282 -0.06188963 0.5037398 -0.081549205 -0.24673778 -0.15963037 0.06375261
0.28569794 0.18940264 -0.296701 0.1547318 -0.020834632 -0.012443419 -0.1002637 -0.14908157
-0.03258173 -0.16008267 0.08976863 -0.13214116 0.05003917 -0.30674678 0.35072228 -0.38636947
-0.018971533 -0.101614326 -0.015941804 0.12993045 -0.50482666 -0.44176215 -0.30976698 -0.1749728
-0.04483412 -0.15273578 -0.09850076 -0.0702064 0.57089204 0.1963814 -0.27671406 0.45269346
0.14972511 -0.01168422 -0.10305719 -0.09484503 0.43371397 -0.13046397 -0.6031094 -0.12346082
-0.20989902 0.22329709 -0.4526038 -0.23249385 -0.016815841 -0.038623977 0.11272356 0.16142704
0.2950379 -0.03840954 0.06040121 -0.29442263 -0.1018367 -0.13477878 -0.0871457 0.11450148
00000000: 2bf4 febc 409f 9b3c 2e43 de3d a1ff 423c
00000010: 180a b53d 9ddb 3abe fcdd 653e 4ffd f53e
00000020: d1f1 423e a2fc 23bf af7e 013d dd61 2dbd
00000030: 27d2 84be ab84 9ebd 7f67 173e 2730 9abe
00000040: 2f1d 6cbd ff49 113d dc1f 653d 08bc 9ebe
00000050: e90c 4cbd 3061 723e 8e4c 303d a6a9 63be
00000060: 2842 d3bd f8db f93d e3ad e0bc 3fd0 0b3f
00000070: f98b 3bbe 3431 0ebe 7d4f f33d eac7 d7bd
00000080: be5d 6d3e 459f 963e 1ba8 74bd 93d8 2a3e
00000090: 1128 3bbd da36 093c 3b11 85bd 3c43 a93e
000000a0: 4725 13bd e463 f53c 9cf8 e43d 8f04 b33e
000000b0: 98a4 243e 4fba d3bc 043e b4be f023 5fbe
000000c0: e7b6 0e3f 2634 713d dcca 793e 28e4 f53d
000000d0: ad25 dfbd 5441 96bd 522b 07bf 4d3a 15be
000000e0: 771f 14bd 84ac 00bc 8662 e4be 3b24 b3be
000000f0: 3fb8 013e 8ee9 e33d a05a 8b3d e710 403e
00000100: b3cd b03e 2a90 96be c14d 113d b0c6 06be
00000110: 0f98 cbbe 3604 fc3e 5e11 96be a353 783e
00000120: 5957 de3d 6641 503d 9d9a 14be 764e 983d
00000130: 78b8 1bbe 2b1c 1dbf 82f8 aebe 1e0c ebbe
00000140: d93d 83be 9478 273e 0602 073d 2a6e 87be
00000150: d5ee 1ebe dd69 a7bd bf2e e4be d582 893d
00000160: 16ff e4be b447 883b 3efe bb3e 85a6 50bc
00000170: 8ffd 013f e026 4cbe 2f8b 4a3d 16ac 85be
00000180: fbfa d03d 3d14 50be 2571 d3be 7461 49be
00000190: 51d6 b0bd df39 463d efd1 7f3e 104b 90be
000001a0: 0571 03be df73 fbbd 5767 3c3e 4f64 9bbd
000001b0: c8b1 6fbe 42e4 f8be a740 e9bc 231e 893d
000001c0: febe afbe 43cf cb3d cb43 2dbe a294 4fbe
000001d0: a388 42be de98 59be 082b 39bf 5e29 c73c
000001e0: 4f8a a7bd 6151 86be 5c19 ef3e f187 9b3e
000001f0: b25c 19bd fb1d bd3d 65dd 383e d37d 26bb
00000200: d137 5dbe 2ac7 24be 0ab1 adbd 76d0 8d3d
00000210: 127a dbbc 2671 9ebe 0525 b3be 8b60 3fbe
00000220: 11bc f13d 9a07 d5be 5db2 e3bd c6ef 09bd
00000230: 99d5 9bbe 46c4 7abe 1cfc 7dbe e5e6 f43c
00000240: 9d85 563e 4bbd 7abd 2532 b83e f6c1 b7be
00000250: 6ad5 0cbd bb38 baba 4b61 743e 4766 29bd
00000260: 9e65 95bc 2a2b 02bf cb36 2c3e 861d cebe
00000270: 4b6c 8a3d 6b78 7d3d 2442 2cbd e227 a93e
00000280: 38a7 e73d 945b 153e ef00 a1bd cf5e 03be
00000290: 4002 213e 04f3 7c3c b7fe ee3d 8c3f 95bd
000002a0: 83e5 a5bd a437 283e 4032 7cbc efc5 11bf
000002b0: 119d 12bc 0063 3fbc dff1 91bd 9396 21be
000002c0: 0cda f2be 3859 983e e1a0 073e 615d 233e
000002d0: b6d1 11bf a8bd babd c9c7 8ebe d771 c9be
000002e0: 83c7 89bd 139b 253e 136e ea3d 87a2 9e3b
000002f0: 9d1d c5bd 7c1b 4ebd ce63 57be 025b f63d
00000300: cbd5 93be 04e7 903c fb7f 7dbd 17f5 003f
00000310: 4503 a7bd d4a8 7cbe 2576 23be ba90 823d
00000320: 0047 923e c4f2 413e 32e9 97be 0372 1e3e
00000330: 64ad aabc 7bdf 4bbc 0e57 cdbd d7a8 18be
00000340: 6c74 05bd b6ec 23be 9ed8 b73d 0350 07be
00000350: dff5 4c3d ea0d 9dbe df91 b33e 38d2 c5be
00000360: 306a 9bbc 2c1b d0bd 6398 82bc 7d0c 053e
00000370: 523c 01bf a62e e2be c799 9ebe 122c 33be
00000380: fba3 37bd c566 1cbe c4ba c9bd 5fc8 8fbd
00000390: fb25 123f 3518 493e 77ad 8dbe 70c7 e73e
000003a0: 8a51 193e 2c6f 3fbc a60f d3bd 1c3e c2bd
000003b0: c20f de3e 5998 05be 6165 1abf 07d9 fcbd
000003c0: c5ef 56be fea7 643e afbb e7be de12 6ebe
000003d0: 60c1 89bc 2d34 1ebd 9cdb e63d 214d 253e
000003e0: 350f 973e 5253 1dbd 4267 773d 90be 96be
000003f0: c38f d0bd 7303 0abe 7279 b2bd c07f ea3d

gru2.weight_hh_l0 f4 [75, 25]
-0.0846354 0.28810623 -0.168919 -0.29487282 -0.112524904 0.8510508 -0.00723581 0.39691874
0.5617577 -0.21730375 -0.24642082 -0.7893113 1.0989277 0.19379932 0.03452019 -0.5164014
0.05252913 -0.58153164 -0.08156725 0.29955435 0.13946137 -0.04764619 0.06944527 0.21174234
0.04143633 0.5126013 0.50399494 0.14007741 -0.10622214 0.023821224 0.006210275 0.2205625
0.026300535 -0.5606383 0.08928157 -0.06083068 0.26171094 -0.84494907 0.24810116 -0.19127372
0.80586016 0.16769485 0.044482127 -0.13016015 -0.31224784 0.5432945 -0.478909 -0.15738674
0.30170694 -0.15153098 0.23304431 -0.010678271 -0.51497567 -0.48847738 0.10990541 -0.03505798
-0.021578526 -0.16971467 -0.20588002 0.13455155 0.06875731 0.45515978 -0.056719344 0.092629544
-0.09809292 -0.15475686 -0.043418746 -0.32443184 -0.25097975 -0.009578975 -0.14490564 0.70480794
0.17614064 -0.44232807 0.10509233 -0.33442613 -0.007447462 -0.13247359 0.13880104 0.31603822
-0.27490476 -0.5109956 -0.36504024 -0.4075116 -0.06007417 -0.24001443 0.59382796 -0.607743
-0.47095388 -0.2300198 0.386059 -0.5397833 0.039320625 -0.41649354 -0.5260776 0.16231793
0.38369575 0.6700404 -0.29590607 0.009540869 -0.054942694 0.20231742 -0.026243916 -0.31122294
0.35497972 0.0066478415 -0.24694984 0.06250474 -0.4187796 0.11246878 0.31047633 0.32919157
-0.5740308 -0.018447291 0.08224793 0.27566522 -0.18322703 -0.26789966 -0.15055525 0.00021864449
0.0771505 0.19682588 0.2775307 -0.24797511 -0.18442182 0.6058485 -0.17867394 -0.24644946
-0.32575798 0.14578888 0.15400858 -0.20105119 0.44562477 -0.11408049 0.2400496 0.21275245
-0.25527778 0.12184549 0.6647786 0.33021507 -0.43899152 0.61273295 -0.11678497 -0.4344388
-0.055166762 0.16015698 -0.13822688 0.4179282 -0.10443984 -0.30884606 0.34279612 -0.0056855935
0.07259874 -0.23322645 0.15955064 -0.008940897 -0.5630712 -0.3807114 -0.0627159 -0.10509252
-0.18307243 -0.06890208 -0.34142888 -0.019210093 -0.0006927336 -0.10197365 0.26675373 -0.28966713
-0.33438632 -0.09797568 0.02746595 0.030560948 0.21955843 0.10164637 0.046882786 -0.062720306
1.1531386 -0.01633914 -0.29651728 0.37098348 -0.08347054 0.1705431 0.20137331 -0.35511157
0.23064665 -0.0477411 0.31479904 -1.2364681 -0.06010909 -0.39403307 0.69163656 -0.15842591
0.11010561 0.01997854 -0.20797409 0.32474774 -0.021415923 0.18337618 -0.006700463 0.18922764
-0.46906844 0.37089655 -0.12140944 -0.053959697 0.79975027 -0.3390697 -0.1844901 -0.31846568
-0.106745124 0.10298152 -0.009848229 0.06337159 -0.2670983 -0.054185387 -0.09180585 0.11096477
-0.1371323 0.018208632 -0.016748201 0.065079235 -0.4235835 0.12530582 0.011711048 -0.15118578
-0.24871553 -0.22669342 -0.13540412 0.056974992 -0.030806141 -0.07966481 -0.16200033 -0.46084222
-0.3510717 -0.15461832 -0.76788914 -0.14778133 0.39927107 -0.090656504 0.14426754 -0.044852857
-0.1538828 -0.067832306 -0.10943985 0.1560041 -0.014008376 -0.057947405 0.8320512 0.2597616
-0.085074075 -0.64622706 0.13650791 -0.15430473 -0.06973221 -0.18651946 -0.0723109 0.045470275
00000000: 5355 adbd a982 933e 1af9 2cbe 92f9 96be
00000010: 7573 e6bd 77de 593f 601a edbb ef38 cb3e
00000020: 5acf 0f3f e084 5ebe bd55 7cbe 4e10 4abf
00000030: aaa9 8c3f 5473 463e 0b65 0d3d e232 04bf
00000040: c928 573d 42df 14bf bb0c a7bd 305f 993e
00000050: f6ce 0e3e a728 43bd 5239 8e3d fcd2 583e
00000060: 24b9 293d d739 033f d005 013f 7470 0f3e
00000070: fe8a d9bd ba24 c33c 907f cb3b 23db 613e
00000080: 3874 d73c fe85 0fbf 41d9 b63d 9729 79bd
00000090: fafe 853e 954e 58bf 3b0e 7e3e 42dd 43be
000000a0: da4c 4e3f 33b8 2b3e e432 363d b448 05be
000000b0: f3de 9fbe 5915 0b3f 8f33 f5be fd29 21be
000000c0: 5579 9a3e f02a 1bbe 2ba3 6e3e eaf3 2ebc
000000d0: 72d5 03bf b519 fabe 1616 e13d f598 0fbd
000000e0: 73c5 b0bc afc9 2dbe 36d2 52be e2c7 093e
000000f0: a2d0 8c3d b40a e93e 8b52 68bd 8fb4 bd3d
00000100: f1e4 c8bd 9578 1ebe dbd7 31bd ee1b a6be
00000110: 6b80 80be 22f1 1cbc 2562 14be 4b6e 343f
00000120: 365e 343e d378 e2be a63a d73d e739 abbe
00000130: d709 f4bb 28a7 07be dc21 0e3e c3cf a13e
00000140: 51c0 8cbe 9cd0 02bf 8ee6 babe 5ca5 d0be
00000150: 5510 76bd 58c6 75be 1c05 183f 0c95 1bbf
00000160: de20 f1be 4f8a 6bbe 86a9 c53e 3d2f 0abf
00000170: aa0e 213d a43e d5be 06ad 06bf ac36 263e
00000180: c573 c43e c587 2b3f 0081 97be 4e51 1c3c
00000190: 970b 61bd 4c2c 4f3e 7bfd d6bc 9d58 9fbe
000001a0: e7bf b53e 23d6 d93b 6be0 7cbe 7c02 803d
000001b0: 486a d6be 0856 e63d c1f6 9e3e cc8b a83e
000001c0: aff3 12bf c61e 97bc 9a71 a83d fe23 8d3e
000001d0: de9f 3bbe 252a 89be 282b 1abe ef43 6539
000001e0: 1501 9e3d b98c 493e 8118 8e3e 30ed 7dbe
000001f0: 13d9 3cbe e318 1b3f 4df6 36be 3f5d 7cbe
00000200: c0c9 a6be ae49 153e 6db4 1d3e 5de0 4dbe
00000210: ee28 e43e 08a3 e9bd 90cf 753e c7db 593e
00000220: c5b3 82be 218a f93d ee2e 2a3f f311 a93e
00000230: 7fc3 e0be 11dc 1c3f f52c efbd c36e debe
00000240: 8bf6 61bd 3100 243e 598b 0dbe affa d53e
00000250: 8ee4 d5bd 1221 9ebe f982 af3e 374e babb
00000260: a6ae 943d ead2 6ebe 3e61 233e d77c 12bc
00000270: 6f25 10bf 9bec c2be 3271 80bd bf3a d7bd
00000280: 5777 3bbe 891c 8dbd c4cf aebe 7c5e 9dbc
00000290: 9198 35ba 90d7 d0bd f293 883e 404f 94be
000002a0: af34 abbe 79a7 c8bd 4600 e13c f45a fa3c
000002b0: edd3 603e f92b d03d 2a08 403d 8173 80bd
000002c0: 0c9a 933f a9d9 85bc 1dd1 97be 8cf1 bd3e
000002d0: 9af2 aabd daa2 2e3e ce34 4e3e 2fd1 b5be
000002e0: a32e 6c3e 2c8c 43bd 572d a13e 9644 9ebf
000002f0: f334 76bd b4be c9be 180f 313f 673a 22be
00000300: 0d7f e13d 09aa a33c 29f7 54be 5645 a63e
00000310: 7270 afbc f7c6 3b3e 8f8f dbbb e4c4 413e
00000320: bd29 f0be 27e6 bd3e 83a5 f8bd d804 5dbd
00000330: 6fbc 4c3f 8b9a adbe f9ea 3cbe ef0d a3be
00000340: 309d dabd fae7 d23d 775a 21bc f7c8 813d
00000350: 1cc1 88be 7ff1 5dbd b504 bcbd 7f41 e33d
00000360: 696c 0cbe 452a 953c 8633 89bc 4348 853d
00000370: f0df d8be 2b50 003e b2df 3f3c 72d0 1abe
00000380: 49af 7ebe 5222 68be 61a7 0abe 9c5e 693d
00000390: 295d fcbc 4e27 a3bd 6ae3 25be 83f3 ebbe
000003a0: abbf b3be 4454 1ebe 6294 44bf fd53 17be
000003b0: 426d cc3e 1eaa b9bd dfba 133e a1b7 37bd
000003c0: 7493 1dbe aaeb 8abd 0022 e0bd 8abf 1f3e
000003d0: 6383 65bc 425a 6dbd 4f01 553f 79ff 843e
000003e0: 513b aebd 236f 25bf bbc8 0b3e 0f02 1ebe
000003f0: c3cf 8ebd f5fe 3ebe bd17 94bd 0a3f 3a3d

gru2.bias_ih_l0 f4 [75]
0.009374838 0.07930763 -0.03083972 -0.0695928 0.37195247 0.44286612 0.36482117 -0.14837602
-0.19155629 -0.01370525 0.2241291 0.4762142 -0.073668376 0.31778294 0.25246236 0.12136964
0.09263517 0.119721524 0.39869627 0.13298182 0.03051051 0.08662859 0.49233463 0.16831985
0.18559937 0.42980656 0.42722538 0.123143196 0.24358104 0.379848 0.49437892 0.5462605
0.4166579 0.61389893 0.42683655 0.29274112 0.54138607 0.6587982 -0.079378635 0.37269744
0.32823384 0.34297037 0.6810391 0.10890179 0.1462427 0.63998616 0.38135436 0.67538214
0.41096303 0.3949847 -0.097614385 -0.23500933 -0.28647938 -0.0067172344 0.019120324 -0.17159496
-0.23907305 -0.3046073 -0.19511864 0.06363603 0.007521428 0.076287225 -0.19376871 0.08194119
-0.098947786 0.28098848 -0.06701551 -0.06512414 -0.20678958 0.1432734 0.06416194 -0.16998824
0.15287866 -0.020159412 0.23949674
00000000: ec98 193c 0a6c a23d 95a3 fcbc ac86 8ebd
00000010: 8e70 be3e 59bf e23e d7c9 ba3e e2ef 17be
00000020: 5527 44be fc8b 60bc 1982 653e 59d2 f33e
00000030: 72df 96bd 72b4 a23e bf42 813e a590 f83d
00000040: 82b7 bd3d 8f30 f53d eb21 cc3e 632c 083e
00000050: 2df1 f93c 556a b13d 4913 fc3e 0a5c 2c3e
00000060: c30d 3e3e 9b0f dc3e 49bd da3e 8032 fc3d
00000070: 4f6d 793e 707b c23e 3c1f fd3e bad7 0b3f
00000080: 2f54 d53e 7b28 1d3f 528a da3e 2ae2 953e
00000090: 4798 0a3f 00a7 283f 4491 a2bd 33d2 be3e
000000a0: 440e a83e d099 af3e 9458 2e3f e707 df3d
000000b0: a5c0 153e 22d6 233f e140 c33e d8e5 2c3f
000000c0: bf69 d23e 6f3b ca3e 0dea c7bd 49a6 70be
000000d0: 6dad 92be 3f1c dcbb 3aa2 9c3c 97b6 2fbe
000000e0: 91cf 74be 7df5 9bbe 2ecd 47be 9b53 823d
000000f0: 5076 f63b 7a3c 9c3d 4e6b 46be c8d0 a73d
00000100: 23a5 cabd b9dd 8f3e 6d3f 89bd ce5f 85bd
00000110: a6c0 53be 43b6 123e 5667 833d 6611 2ebe
00000120: 398c 1c3e 5a25 a5bc a23e 753e

gru2.bias_hh_l0 f4 [75]
-0.07552383 -0.15769143 0.065328136 -0.032851424 0.38751093 0.5744961 0.295342 0.019121716
-0.05965202 -0.0022233494 0.04347873 0.40564564 -0.18577966 0.4577232 0.29776245 0.06438139
0.3020165 0.35993513 0.49084958 -0.005482368 -0.17725898 -0.1416912 0.4964003 0.011121652
0.420803 0.19199447 0.4032681 0.13705784 0.14889455 0.0400979 0.19567692 0.5793024
0.41274947 0.5300694 0.40291622 0.512555 0.6483521 0.6408551 0.19365713 0.4435917
0.61177105 0.30344802 0.6667473 -0.06343331 -0.020910075 0.7346522 0.42158407 0.7081685
0.34625465 0.22125202 0.065146275 -0.14403822 -0.17404018 -0.15438959 0.05380389 -0.16128947
-0.14004686 -0.27182493 -0.29382277 0.24280366 0.24472524 0.12588774 -0.033307586 0.03532249
-0.0099776015 -0.076763205 -0.21976669 0.0016492652 -0.2983301 -0.12172552 -0.009768242 -0.22781326
-0.044506308 -0.17134011 0.30770203
00000000: 3dac 9abd dd79 21be c2ca 853d 378f 06bd
00000010: d567 c63e 2d12 133f 1137 973e 25a5 9c3c
00000020: ad55 74bd 9db5 11bb c116 323d c9b0 cf3e
00000030: 063d 3ebe b25a ea3e 5274 983e 64da 833d
00000040: e8a1 9a3e 6b49 b83e a350 fb3e 70a5 b3bb
00000050: 6183 35be 7f17 11be 2e28 fe3e 9737 363c
00000060: 7e73 d73e 339a 443e 2879 ce3e e458 0c3e
00000070: d077 183e b23d 243d 885f 483e 294d 143f
00000080: e653 d33e a1b2 073f 094b ce3e ce36 033f
00000090: 67fa 253f 140f 243f 0e4e 463e 741e e33e
000000a0: 079d 1c3f 8a5d 9b3e f3af 2a3f 53e9 81bd
000000b0: 9b4b abbc 2b12 3c3f ded9 d73e 884a 353f
000000c0: 4a48 b13e e48f 623e 696b 853d c17e 13be
000000d0: 9737 32be 4e18 1ebe 7861 5c3d 1129 25be
000000e0: 7268 0fbe a32c 8bbe f06f 96be 86a1 783e
000000f0: 4199 7a3e b7e8 003e 896d 08bd 51ae 103d
00000100: 1879 23bc 0736 9dbd 850a 61be 282c d83a
00000110: b9be 98be 3b4b f9bd fa0a 20bc e147 69be
00000120: 3f4c 36bd c873 2fbe 1f8b 9d3e

fc.weight f4 [6, 25]
0.46612528 1.3020288 -0.028781287 -0.19957565 0.47822082 -0.5128133 0.0780405 1.2810096
-0.58779556 0.39221567 -0.46448252 -1.0346416 -0.7259217 -0.30120596 0.08394322 0.8687405
-0.23654024 -0.22307678 -0.28105098 -0.46284243 0.3045199 -0.4883425 0.29762176 0.6417183
0.69484025 0.414401 -0.63083774 -0.061533064 -0.09248463 0.6562648 -0.95227176 -0.4326717
-0.6917229 -0.58888227 0.17075554 0.22449054 0.55795383 -0.19879627 0.47102025 -0.53254396
0.5588473 1.8557687 1.2130016 -0.22171447 0.20415558 -1.4626346 0.3439359 0.37674165
-0.48576137 -1.4111481 -0.7230575 -0.5843029 0.6291412 0.9682062 -0.650923 0.37221625
1.027965 -1.0839125 -0.30338725 -0.17469409 -0.3626109 0.6649019 -0.39539948 -0.12243609
-0.27792057 1.203419 -0.5807045 0.9662673 0.55813867 0.13531592 0.60235304 -0.19473237
-1.4009522 0.061786287 0.79742146 0.58894956 -0.51111585 0.8948003 0.68253446 -0.47864422
1.0010252 0.9955942 0.25026783 -0.17338145 0.24619696 0.22179651 -0.69316554 0.8210364
1.1111321 0.16389011 -0.60491747 0.20261966 0.2813686 0.7125849 1.2717838 0.328178
-0.58181936 -1.2184565 0.4385367 0.53705764 0.47261932 0.060749687 -0.277672 -0.3157299
-0.6124874 0.9682949 -0.37437302 -0.12782817 -0.17180191 -0.9814537 -0.510024 0.96505994
-0.122649685 -0.32939243 0.06478865 -0.77698267 -0.03624682 -0.46066576 -0.30896723 -0.36734313
0.73129296 0.66234404 0.5007488 0.3569609 -0.8003758 -1.3311647 -0.48960134 -0.057729207
-0.22793679 0.31671405 -0.48516196 -0.50516975 -0.17687503 1.8077621 0.3645472 0.7646393
-0.7763849 1.4734176 -0.37243214 0.07691783 -0.7390681 -0.25304395 -0.53157794 -0.2275864
0.5675134 -0.9594533 -0.28413764 0.22039017 -1.261232 0.464546
00000000: f9a7 ee3e e1a8 a63f bcc6 ebbc 8f5d 4cbe
00000010: 5cd9 f43e bc47 03bf b3d3 9f3d 1ff8 a33f
00000020: c579 16bf 7ed0 c83e a7d0 edbe 236f 84bf
00000030: 01d6 39bf ab37 9abe 6cea ab3d c765 5e3f
00000040: 9b37 72be 3d6e 64be eae5 8fbe aff9 ecbe
00000050: 08ea 9b3e 0708 fabe e161 983e a747 243f
00000060: 0de1 313f 5e2c d43e 957e 21bf 180a 7cbd
00000070: 9568 bdbd f800 283f 15c8 73bf 2587 ddbe
00000080: c114 31bf fdc0 16bf 8ada 2e3e d9e0 653e
00000090: 10d6 0e3f 4091 4bbe 9129 f13e cd54 08bf
000000a0: 9e10 0f3f d489 ed3f a343 9b3f 1e09 63be
000000b0: 290e 513e 9c37 bbbf 5e18 b03e 48e4 c03e
000000c0: b7b5 f8be 80a0 b4bf 4c1a 39bf e094 15bf
000000d0: 660f 213f 5ddc 773f e4a2 26bf 2193 be3e
000000e0: 5b94 833f a5bd 8abf 9355 9bbe 02e3 32be
000000f0: 23a8 b9be 0337 2a3f cd71 cabe c6bf fabd
00000100: 9b4b 8ebe a209 9a3f 0da9 14bf 4b5d 773f
00000110: 2de2 0e3f 4290 0a3e cf33 1a3f ec67 47be
00000120: 6752 b3bf 9e13 7d3d d023 4c3f 66c5 163f
00000130: 7dd8 02bf a211 653f 94ba 2e3f db10 f5be
00000140: 9821 803f 43df 7e3f 1b23 803e e88a 31be
00000150: 0e1b 7c3e a01e 633e 4c73 31bf 712f 523f
00000160: 9439 8e3f cfd2 273e dfdb 1abf 877b 4f3e
00000170: 8c0f 903e f76b 363f d0c9 a23f f206 a83e
00000180: 1df2 14bf 62f6 9bbf e287 e03e 9c7c 093f
00000190: 29fb f13e aad4 783d 062b 8ebe 59a7 a1be
000001a0: f9cb 1cbf 2de2 773f d2ad bfbe 63e5 02be
000001b0: d7ec 2fbe 8d40 7bbf ef90 02bf 2b0e 773f
000001c0: c22f fbbd 20a6 a8be e9af 843d 56e8 46bf
000001d0: 8c77 14bd 62dc ebbe f430 9ebe 6614 bcbe
000001e0: 0436 3b3f 618f 293f 1331 003f 94c3 b63e
000001f0: 6ee5 4cbf 9b63 aabf 07ad fabe 7675 6cbd
00000200: 4368 69be 5828 a23e 2667 f8be ce52 01bf
00000210: ba1e 35be c064 e73f eea5 ba3e 67bf 433f
00000220: 29c1 46bf f398 bc3f 6daf bebe 1887 9d3d
00000230: 9133 3dbf fa8e 81be 7e15 08bf 690c 69be
00000240: 8f48 113f bb9e 75bf 7d7a 91be f6ad 613e
00000250: 0d70 a1bf f9d8 ed3e

fc.bias f4 [6]
-0.15182823 0.07042564 -0.056154065 0.44191167 -0.041580487 0.10476837
00000000: dc78 1bbe 513b 903d ce01 66bd 3f42 e23e
00000010: 4d50 2abd cd90 d63d
